static_dashboard/models/nn_v13.onnx (onnx, 116585 bytes, 7 tensors)

network.0.weight f4 [256, 29]
0	0x3f46268b	0.7740256
1	0x3ea76c6b	0.32699904
2	0xbf328485	-0.6973346
3	0x3bc9becc	0.006156778
4	0xbf40ac5f	-0.7526302
5	0x3e9f0ed9	0.31066015
6	0x3e45b1b9	0.19306077
7	0x3f1c9392	0.61162674
8	0xbf8bc395	-1.0919062
9	0x3f2a60a9	0.6655374
10	0xbd0d3146	-0.03447082
11	0xbe939f24	-0.28832352
12	0x3ccd35a9	0.025050001
13	0x3eafdf4e	0.34350055
14	0x3e3942d7	0.18091904
15	0xbdd2facc	-0.10301742
16	0x3d1bb63b	0.038015585
17	0xbd964af7	-0.07338517
18	0xbda869d5	-0.08223311
19	0x3e6e4439	0.23268212
20	0x3d28c6b4	0.041205123
21	0xbf1010fb	-0.5627591
22	0x3e503702	0.20333484
23	0x3eec2079	0.46118525
24	0xbe85e872	-0.26153904
25	0x3c6b9ca6	0.01438061
26	0x3e380834	0.17971879
27	0xbefa3a30	-0.4887252
28	0xbc81bc2b	-0.015836796
29	0x3d3fab7e	0.046794407
30	0x3cec0c79	0.028814541
31	0x3dea9306	0.11453824
32	0x3f06a112	0.52589524
33	0xbe2e33fd	-0.1701202
34	0x3ca97f82	0.020690683
35	0x3d510514	0.051030234
36	0x3e1b3555	0.15157063
37	0xbeaa0eca	-0.33214408
38	0x3e81fd83	0.25388727
39	0x3f246df7	0.64230293
40	0x3e9f6aa7	0.31136057
41	0x3eef08ee	0.466865
42	0xbe5548b9	-0.20828523
43	0xbf23fddf	-0.6405925
44	0x3f43af34	0.76439214
45	0xbf123826	-0.57116926
46	0x3f334eac	0.7004192
47	0xbecac145	-0.39600578
48	0xbf1be933	-0.6090271
49	0x3ee32962	0.4436751
50	0x3f880b94	1.0628533
51	0xbf8790d8	-1.0591078
52	0xbde44408	-0.111457884
53	0x3ef195cf	0.47184607
54	0xbe0cc56d	-0.13747187
55	0xbc30aae4	-0.010782931
56	0xbde5dfd6	-0.11224334
57	0xbdd608d8	-0.104509056
58	0x3f22559a	0.6341187
59	0xbf41888c	-0.7559898
60	0x3d3407a9	0.043952618
61	0xbdbcddc4	-0.09221986
62	0xbd107039	-0.035263274
63	0xbff7196b	-1.9304632
64	0xbc094978	-0.008379333
65	0x3e786bac	0.24259824
66	0xbf60c645	-0.87802535
67	0x3f44a725	0.7681754
68	0x3d8504f4	0.06495085
69	0xbdec3093	-0.11532702
70	0xbe15aaa1	-0.14615871
71	0x3ed6c6a2	0.4194842
72	0x3d133022	0.035934575
73	0x3e0f7a57	0.14011513
74	0x3e6f10b1	0.23346211
75	0x3e21f820	0.15817308
76	0x3e1a7d70	0.15086913
77	0x3e69bc34	0.228257
78	0x3f05bbb2	0.52239525
79	0x3e21bea1	0.15795375
80	0x3f1743f5	0.5908807
81	0x3e003404	0.12519842
82	0xbf60a96c	-0.8775852
83	0x3e8fe42e	0.28103775
84	0xbe03c7ac	-0.12869138
85	0xbef89667	-0.48552248
86	0x3e17747b	0.14790528
87	0xbe31020e	-0.1728594
88	0x3ea5c0a7	0.32373545
89	0xbd3ae9c2	-0.045633085
90	0x3e2624dc	0.16224998
91	0x3d54ffbe	0.052001707
92	0x3e0bde58	0.13659036
93	0xbd16f0da	-0.036850788
94	0xbf335487	-0.70050853
95	0x3e096855	0.13418706
96	0xbe64a3c6	-0.223281
97	0x3eb27fc2	0.34863096
98	0xbe90a09f	-0.28247544
99	0xbe5ae37e	-0.21375844
100	0xbf270f04	-0.6525729
101	0x3e679e75	0.2261904
102	0xbeeb6520	-0.4597559
103	0x3eda8883	0.42682275
104	0xbfbcec3a	-1.4759591
105	0xbe5b5c37	-0.21421896
106	0xbe93421a	-0.2876137
107	0xbf0c7d42	-0.5487863
108	0xbfa58b01	-1.2933046
109	0x3fc06d0e	1.5033281
110	0x3f6eebc6	0.9332851
111	0x3eb2f0f6	0.34949464
112	0xbe5bc64b	-0.21462362
113	0xbf27508d	-0.65357286
114	0xbd769d71	-0.06020874
115	0x3d477221	0.048692826
116	0x3e81e7cc	0.2537216
117	0x3e9ff654	0.3124262
118	0xbe6f8e60	-0.23394156
119	0x3c971429	0.01844223
120	0x3dad666c	0.08466801
121	0x3ed33fab	0.41259512
122	0xbe2ffe5d	-0.17186876
123	0xbf053fdd	-0.5205057
124	0x3f55d6ea	0.8353106
125	0x3f6a8bee	0.91619766
126	0xbde33318	-0.1109373
127	0xbdcb0a95	-0.09914128
128	0x3d2eb3f5	0.04265209
129	0xbe7e26ed	-0.24819537
130	0x3e920906	0.2852251
131	0x3e210fdf	0.1572871
132	0xbe1aec86	-0.15129289
133	0xbdf69c14	-0.12041488
134	0xbe66fcc6	-0.22557363
135	0xbe10e7e4	-0.14150959
136	0xbe7afb51	-0.24509932
137	0xbeb2a4ad	-0.34891263
138	0x3ecae2c9	0.39626148
139	0xbf535b76	-0.82561433
140	0xbdf81ba9	-0.12114651
141	0xbdbc7229	-0.09201462
142	0xbe3694fe	-0.17830274
143	0xbeae08c0	-0.3399105
144	0xbe839e69	-0.25706795
145	0x3d2446f7	0.04010674
146	0x3c45e4f6	0.012078514
147	0x3ca8a157	0.020584745
148	0x3fdcc255	1.7246805
149	0xbcf1a60a	-0.029498119
150	0x3df0eb9f	0.11763691
151	0x3d73d5b5	0.05952998
152	0xbd8f0fea	-0.06985457
153	0xbede0aea	-0.43367702
154	0xbeca4747	-0.39507505
155	0xbdac548e	-0.08414565
156	0x3bc8f350	0.0061325207
157	0x3e4e75a0	0.20162058
158	0x3d214e2e	0.0393812
159	0xbe596233	-0.21228866
160	0xbc461bc3	-0.01209158
161	0x3e4d0972	0.20023134
162	0xbb02543c	-0.0019886633
163	0xbefed6ff	-0.49773404
164	0xbeef90f9	-0.46790293
165	0xbe94502e	-0.28967422
166	0xbec3b195	-0.38221422
167	0xbf09d7d8	-0.53844976
168	0xbed26485	-0.41092315
169	0xbf15bc65	-0.5849059
170	0xbf2a5f47	-0.6655163
171	0xbf4cbaeb	-0.79972714
172	0xbf216754	-0.6304829
173	0xbf45e3e4	-0.7730086
174	0x3dba56e0	0.09098601
175	0xbea9a775	-0.33135572
176	0x3f0ac853	0.5421192
177	0xbeb42217	-0.35182258
178	0xbab1435c	-0.0013524103
179	0x3d194a0e	0.03742414
180	0x3dc569a7	0.09639292
181	0x3ef7855c	0.48343933
182	0x3e25f33a	0.16206065
183	0xbf31cc28	-0.6945214
184	0x3e638bea	0.22221342
185	0x3e407240	0.18793583
186	0xbf074125	-0.5283378
187	0xbe1aef5d	-0.15130372
188	0xbddbadfd	-0.10726545
189	0x3eae36e2	0.34026247
190	0xbe171043	-0.14752297
191	0x3ecd084b	0.4004539
192	0xbee7199f	-0.45136735
193	0xbed52136	-0.416269
194	0x3f2fd663	0.68686503
195	0x3f173f6c	0.5908115
196	0x3f5156ab	0.8177287
197	0xbeef117a	-0.4669302
198	0xbd8a13c9	-0.06742055
199	0xbeefdeaf	-0.46849582
200	0x3d9cdaea	0.07658942
201	0x3d0d080a	0.034431495
202	0xbf00254b	-0.50056905
203	0xbe37441e	-0.17897078
204	0x3daaac53	0.083336495
205	0xbd7debce	-0.06199246
206	0x3cf2ac48	0.029623166
207	0x3e07dc9d	0.13267751
208	0xc0a10f79	-5.0331388
209	0x3e4c45f0	0.19948554
210	0x3f8b1cc4	1.0868154
211	0xbf90ef05	-1.1322943
212	0x3dd072fc	0.101781815
213	0xbe3c8415	-0.1840976
214	0xbe3c27b0	-0.18374515
215	0xbd31236a	-0.043246664
216	0x3e8dbe0f	0.27684066
217	0xbe5c9773	-0.21542148
218	0x3b9d4015	0.004798899
219	0x3ebda029	0.37036255
220	0x3e0437d0	0.12911916
221	0x3e1a8c79	0.15092649
222	0x3d9dd552	0.07706703
223	0x3d37e24d	0.04489355
224	0x3deb99fb	0.11503979
225	0xbf094ca3	-0.53632563
226	0x3e880bb8	0.2657144
227	0xbefa6bdc	-0.48910415
228	0xbc6fc2fa	-0.014633888
229	0xbeaf0ee1	-0.3419104
230	0xbe962e45	-0.29332176
231	0x3d1051b2	0.03523416
232	0x3ee00337	0.43752453
233	0xbe5141b5	-0.20435221
234	0xbececfc3	-0.40392885
235	0xbcc6cf71	-0.024268838
236	0xbf19ff98	-0.6015563
237	0xbf480763	-0.7813627
238	0xbef862e5	-0.4851295
239	0xbecf11e7	-0.40443346
240	0xbf885959	-1.0652267
241	0x3eda0d9e	0.42588514
242	0x3e1d1866	0.15341339
243	0x3eabb0cf	0.33533332
244	0xbe0f098c	-0.13968486
245	0x3d4b586b	0.04964487
246	0xbe1aef49	-0.15130343
247	0x3d6ae599	0.057347868
248	0x3d92566f	0.07145392
249	0x3e1242e0	0.14283323
250	0xbc3f8f78	-0.01169192
251	0x3e9e0cbb	0.30869088
252	0x3e408d41	0.18803884
253	0xbea84747	-0.3286688
254	0xbe228664	-0.15871578
255	0xbf329a6a	-0.6976687

network.0.bias f4 [256]
0	0xbeb8aaa6	-0.36067694
1	0xbee1502a	-0.44006473
2	0xbeac54aa	-0.33658344
3	0xbee27f1b	-0.442376
4	0xbf1d87bc	-0.6153524
5	0xbfa4bee0	-1.287075
6	0xbe7955cf	-0.2434914
7	0xbeab418d	-0.3344845
8	0xbebb9073	-0.36633644
9	0xbe880ab0	-0.26570654
10	0xbebe03f5	-0.37112394
11	0xbefd611f	-0.4948816
12	0xbe5045b3	-0.20339088
13	0xbf02bfdb	-0.51074
14	0xbf0873ba	-0.53301585
15	0xbe9bcf78	-0.30431724
16	0xbf4a4dc0	-0.7902489
17	0xbed9f60d	-0.42570534
18	0xbec5f9c7	-0.38667127
19	0xbedce593	-0.431439
20	0xbdc70a91	-0.09718812
21	0xbe252ccf	-0.16130374
22	0xbec353c6	-0.38149852
23	0xbe13c0cf	-0.1442902
24	0xbeca9b0b	-0.39571413
25	0xbe93b0b9	-0.28845766
26	0xbef6b808	-0.4818728
27	0xbec83b3c	-0.39107692
28	0xbf23a8d0	-0.6392946
29	0xbdb05507	-0.08609968
30	0xbe9546a3	-0.29155454
31	0xbebd5679	-0.36980036
32	0xbe3bda3b	-0.18344967
33	0xbf052f10	-0.52024937
34	0xbf3ea87c	-0.74475837
35	0xbe943def	-0.28953502
36	0xbee228ef	-0.44171855
37	0xbf0b3b15	-0.5438703
38	0xbe9ab886	-0.30218905
39	0xbf994205	-1.1973273
40	0xbe8d6724	-0.27617753
41	0xbed204f9	-0.4101942
42	0xbe463e07	-0.19359599
43	0xbe5b7866	-0.21432647
44	0xbf002682	-0.5005876
45	0xbee02c0d	-0.43783608
46	0xbee65923	-0.4498988
47	0xbee9970a	-0.45623046
48	0xbed71ba1	-0.42013267
49	0xbf029d9e	-0.51021755
50	0x3dd50ff9	0.10403437
51	0xbf1c5564	-0.61067796
52	0xbf0a58c0	-0.5404167
53	0xbea98bd9	-0.33114508
54	0x3d9316aa	0.07182057
55	0xbecfffdd	-0.40624896
56	0xbdcc3fbd	-0.099730946
57	0xbe5f11ed	-0.21784182
58	0xbe818f81	-0.25304797
59	0xbef1e27f	-0.47243115
60	0xbf87a6df	-1.05978
61	0xbe3ef4f9	-0.18648137
62	0xbe71dd9d	-0.23619695
63	0xbe82500c	-0.25451696
64	0xbeef8501	-0.4678116
65	0xbf69e1f4	-0.913604
66	0xbee4ec1b	-0.44711384
67	0xbf0718d6	-0.5277227
68	0xbf198a6e	-0.5997685
69	0xbe18d785	-0.14925964
70	0xbef27d3e	-0.47361177
71	0xbeebcb22	-0.46053416
72	0xbed8ab0f	-0.42318007
73	0xbea0e37e	-0.31423563
74	0xbf9e4c26	-1.2366989
75	0xbea1ab9b	-0.31576237
76	0xbeefffb4	-0.46874774
77	0xbef81594	-0.48453963
78	0xbe6e7f34	-0.23290712
79	0xbe40428c	-0.18775386
80	0xbf19f2c5	-0.6013606
81	0xbecef1b1	-0.4041877
82	0xbee880fd	-0.4541091
83	0xbedc6f84	-0.4305383
84	0x3d017a5c	0.03161083
85	0xbeabb403	-0.33535776
86	0xbeffdbb3	-0.49972305
87	0xbeacfaa6	-0.3378498
88	0xbee82df7	-0.45347568
89	0xbf1b9c71	-0.60785586
90	0xbf28354d	-0.6570633
91	0xbe554649	-0.20827593
92	0xbe4c7b3c	-0.19968885
93	0xbedb07d1	-0.427794
94	0xbe5121d6	-0.20423064
95	0xbee10a74	-0.43953288
96	0xbf05ad15	-0.5221723
97	0xbe5fb052	-0.21844605
98	0xbed5cc8b	-0.41757616
99	0xbd962af0	-0.073324084
100	0xbe3400f6	-0.17578492
101	0xbeea813a	-0.45801717
102	0xbef9f33f	-0.48818395
103	0xbeb37529	-0.35050324
104	0xbe827bc9	-0.25485066
105	0xbe54a94b	-0.20767705
106	0xbed452e7	-0.414695
107	0xbd18f94d	-0.037347127
108	0xbe585e65	-0.21129759
109	0xbeb2076b	-0.34771284
110	0xbec28e9b	-0.37999424
111	0xbf32414c	-0.69630885
112	0xbeb1fc9d	-0.3476304
113	0xbecf9695	-0.40544572
114	0xbe31bb75	-0.17356665
115	0xbefb3f0c	-0.49071538
116	0xbeaa737f	-0.33291242
117	0xbe9f2e84	-0.31090176
118	0xbec0bbec	-0.37643373
119	0xbf06f4af	-0.5271711
120	0xbedb23fb	-0.42800888
121	0xbef64c09	-0.48104885
122	0xbeedd5ab	-0.46452078
123	0xbf1f8034	-0.62305
124	0xbee82937	-0.45343944
125	0xbf86e068	-1.0537233
126	0xbe4fbc6b	-0.2028672
127	0xbf0c861b	-0.5489213
128	0xbe8eba65	-0.27876583
129	0xbe2faa5c	-0.1715483
130	0xbf0cde52	-0.55026734
131	0xbe5da0b2	-0.21643332
132	0xbdb88511	-0.090097554
133	0xbe7dfaca	-0.248027
134	0xbea87bbb	-0.329069
135	0xbea84048	-0.32861543
136	0xbe6a6e6f	-0.2289369
137	0xbe981fdb	-0.29711804
138	0xbeb8c1cc	-0.36085355
139	0xbee416ff	-0.44548795
140	0xbed251d0	-0.41078043
141	0xbeb938f8	-0.36176276
142	0xbe5b5954	-0.21420795
143	0xbea91a70	-0.33027983
144	0xbefc9cd1	-0.4933839
145	0xbf9154d3	-1.1354011
146	0xbe90f545	-0.28312126
147	0xbefdb649	-0.49553135
148	0xbf8719c6	-1.055474
149	0xbee6850d	-0.45023385
150	0xbf0f784d	-0.5604294
151	0xbf1068bd	-0.5640982
152	0xbee92066	-0.4553253
153	0xbec5ced5	-0.38634363
154	0xbed941b6	-0.42432946
155	0xbe222469	-0.15834202
156	0xbedda2b0	-0.43288183
157	0xbe26a1f8	-0.16272724
158	0xbecbc3f1	-0.3979793
159	0xbf0ce34d	-0.55034333
160	0xbf18b815	-0.59655887
161	0xbe9f92f8	-0.31166816
162	0xbdc3b1a4	-0.09555367
163	0xbe83a877	-0.25714466
164	0xbe3334f9	-0.17500676
165	0xbebdfc75	-0.37106672
166	0xbef4ed88	-0.47837472
167	0xbefd59f1	-0.49482682
168	0xbebab8ae	-0.36469024
169	0xbeadf3d1	-0.3397508
170	0xbe741d1b	-0.23839228
171	0xbe7be034	-0.24597245
172	0xbd6e2fe5	-0.058151145
173	0xbe7be2d0	-0.24598241
174	0xbeaa9e16	-0.33323735
175	0xbf33c547	-0.70222896
176	0xbeaff7ca	-0.34368736
177	0xbe9b1d97	-0.30296013
178	0xbe015c54	-0.12632877
179	0xbe9e103e	-0.30871767
180	0xbeb96cf1	-0.36215928
181	0xbea75baa	-0.32687122
182	0xbf7b9d92	-0.9828731
183	0xbea31423	-0.318513
184	0xbec9865a	-0.39360315
185	0xbed8d528	-0.42350125
186	0xbed43971	-0.41450074
187	0xbf1dd8a4	-0.6165869
188	0xbe43a4b1	-0.19105794
189	0xbd53ca38	-0.051706523
190	0xbee324bc	-0.44363964
191	0xbe9a4586	-0.30131167
192	0xbede2d33	-0.4339386
193	0xbdbfa15d	-0.093569495
194	0xbe7a4e4d	-0.24443932
195	0xbe410366	-0.18848953
196	0xbec2a1f3	-0.38014182
197	0xbe08c5a3	-0.13356642
198	0xbe23ebc1	-0.16007902
199	0xbed72162	-0.42017657
200	0xbd329232	-0.043596454
201	0xbf34cff4	-0.7062981
202	0xbeab7d25	-0.33493915
203	0xbf94b852	-1.161875
204	0xbecdbd9a	-0.40183717
205	0xbe808047	-0.25097868
206	0xbec652a4	-0.38734925
207	0xbede77a9	-0.43450668
208	0xbe9b8ac1	-0.30379298
209	0xbe8039a9	-0.2504399
210	0xbf12c718	-0.5733504
211	0xbf16533e	-0.5872077
212	0xbf2ddcc5	-0.6791499
213	0xbee06a84	-0.43831265
214	0xbf40eb34	-0.7535889
215	0xbe885769	-0.2662919
216	0xbecc761a	-0.39933854
217	0xbf0475aa	-0.5174204
218	0xbebb6022	-0.3659678
219	0xbe0d15f9	-0.13777913
220	0xbf3b585e	-0.7318171
221	0xbea27f08	-0.31737542
222	0xbea689fa	-0.32527143
223	0xbe5b0866	-0.21389922
224	0xbe7afd20	-0.24510622
225	0xbe776dcf	-0.24162982
226	0xbf6a7b33	-0.9159424
227	0xbeb6736a	-0.3563493
228	0xbefcf82a	-0.49408084
229	0xbe133396	-0.14375147
230	0xbec46057	-0.3835475
231	0xbe8eda0d	-0.27900735
232	0xbea9ba72	-0.3315006
233	0xbed5d2ff	-0.4176254
234	0xbec521ba	-0.38502294
235	0xbf0e6446	-0.55621755
236	0xbd841bb7	-0.06450599
237	0xbe92a589	-0.28641918
238	0xbee451f0	-0.44593763
239	0xbe6c70bc	-0.2308988
240	0xbf07fe30	-0.53122234
241	0x3cbd000b	0.02307131
242	0xbe7a3bfa	-0.24436942
243	0xbe2605ec	-0.16213197
244	0xbe8c7136	-0.27430123
245	0xbf87b80c	-1.0603042
246	0xbecb13d6	-0.3966357
247	0xbe5e983e	-0.21737763
248	0xbec646aa	-0.38725787
249	0xbec1359c	-0.37736213
250	0xbf227680	-0.63462067
251	0xbf415bdf	-0.7553081
252	0xbeb17013	-0.34655818
253	0xbeb7fbf5	-0.35934415
254	0xbecf8496	-0.40530843
255	0xbe79e8fa	-0.2440528

network.3.weight f4 [64, 256]
0	0x3e3b821d	0.18311353
1	0x3cc9b1f0	0.02462098
2	0xbc9845e9	-0.018588023
3	0xbf5373b3	-0.8259842
4	0x3d4fb290	0.0507074
5	0xbd10b191	-0.03532559
6	0xbe8f8aa8	-0.28035474
7	0x3ea3ddd8	0.3200519
8	0x3d84d881	0.06486607
9	0x3eac13cf	0.33608863
10	0x3e8d23f1	0.27566484
11	0x3ec5aba3	0.3860751
12	0xbe8fd137	-0.28089306
13	0xbd95103e	-0.072784886
14	0xbdb64f73	-0.089018725
15	0xbf1e1917	-0.61757034
16	0xbdc4cf33	-0.096098326
17	0x3deb44bc	0.114877194
18	0x3f34755c	0.70491576
19	0x3dc10d1d	0.09426329
20	0x3d73ae99	0.05949268
21	0xbba3dd61	-0.0050007557
22	0xbf08c570	-0.53426266
23	0xbfab9ea8	-1.3407793
24	0x3e49ec5f	0.19719075
25	0xbe65d95f	-0.22446202
26	0xbd22b663	-0.03972472
27	0x3e44f428	0.19233763
28	0x3c8cec3c	0.01720249
29	0x3de97818	0.11399859
30	0xbcb11f4a	-0.021621365
31	0xbe7a9d71	-0.24474122
32	0x3dd1e8ee	0.10249506
33	0x3d039fb1	0.032134715
34	0x40164fef	2.3486288
35	0xbe7b9fe6	-0.24572715
36	0x3e99175e	0.2990064
37	0xbdac51a9	-0.08414013
38	0x3dc69d84	0.096980125
39	0x3d3f02a8	0.046633393
40	0xbebe25f4	-0.3713833
41	0x3d8fbb10	0.07018101
42	0xbf1d5687	-0.61460155
43	0x3dac83b7	0.0842356
44	0xbdf9bd59	-0.12194318
45	0x3db72575	0.08942691
46	0xbf8dc24b	-1.1074919
47	0x3f206a63	0.62662333
48	0xbe365f6f	-0.17809843
49	0x3e1c4870	0.15262008
50	0xbe411628	-0.18856108
51	0x3d8ddddc	0.06927082
52	0xbd419283	-0.047258865
53	0xbee2f699	-0.44328764
54	0xbfebf725	-1.8434798
55	0xbe533b25	-0.2062803
56	0xbe4a2bbf	-0.1974325
57	0x3e3d2bcf	0.18473743
58	0x3d931019	0.07180805
59	0xbeca54b6	-0.39517754
60	0x3c447497	0.011990688
61	0xbc2f9924	-0.010717664
62	0xbfbb1f94	-1.4619012
63	0x3d328c5e	0.043590896
64	0x3e1efcf7	0.15526186
65	0x4096eddd	4.716536
66	0xbd9cd103	-0.07657053
67	0xbec5fe43	-0.3867055
68	0x3f00c702	0.5030366
69	0xbe8d64ca	-0.27615958
70	0x3e1f2e83	0.15545087
71	0x3ddacd99	0.10683746
72	0xbdce5365	-0.100745
73	0x3eec506e	0.46155113
74	0xbd68819b	-0.056764226
75	0xbf20ce04	-0.62814355
76	0x3c467c6c	0.012114625
77	0x3e3cbf3d	0.18432327
78	0xbe9879e9	-0.2978051
79	0x3de8d309	0.11368377
80	0xbe02407b	-0.1271991
81	0xbe39c64f	-0.18142055
82	0xbdf90024	-0.1215823
83	0x3e8740db	0.26416668
84	0xbe7e0fe0	-0.24810743
85	0xbda91824	-0.082565576
86	0x3e2f89eb	0.17142455
87	0x3efd5527	0.4947903
88	0x3eaa7b19	0.3329704
89	0xbe3be7df	-0.1835017
90	0x3e3754fd	0.17903514
91	0xbed4ea02	-0.41584784
92	0xbf5fd3d6	-0.8743261
93	0xbe94c554	-0.290568
94	0x3e11b0de	0.14227626
95	0xbe89cad9	-0.26912573
96	0xbe7b3901	-0.24533464
97	0x3edc1cd2	0.42990738
98	0x3e671a1b	0.22568552
99	0x3e2089ff	0.15677641
100	0xbbcde280	-0.0062831044
101	0xbd149b3a	-0.036280848
102	0x3d56151d	0.05226623
103	0x3df39f0f	0.118955724
104	0xbde081b7	-0.10962241
105	0xbf00c7f4	-0.50305104
106	0xbf4d683a	-0.8023716
107	0xbf473341	-0.7781258
108	0xbeef5721	-0.46746162
109	0xbea155a7	-0.3151066
110	0xbe84e58c	-0.2595638
111	0x3e7a5a4d	0.2444851
112	0x3e9c4b48	0.30526185
113	0xbf93fcf9	-1.1561576
114	0xbf05fa74	-0.52335286
115	0xbdfe4468	-0.12415391
116	0xbc427136	-0.011867812
117	0xbf6a8bea	-0.9161974
118	0x3e47054a	0.19435611
119	0x3e293e17	0.16527592
120	0x3de35511	0.111002095
121	0x3e183ddf	0.14867352
122	0x3c07eba7	0.00829593
123	0x3daafc2d	0.0834888
124	0xbe10e05e	-0.1414809
125	0xbce740d0	-0.028229147
126	0x3e6bcfa4	0.23028427
127	0x3e7769e8	0.24161494
128	0xbdfa9bdf	-0.12236761
129	0xbd0a75a7	-0.03380361
130	0xbf609750	-0.87730885
131	0xbf104ca9	-0.56366974
132	0x3dd675f1	0.10471714
133	0xbe295827	-0.16537534
134	0xbd54485a	-0.051826812
135	0x3eace880	0.33771133
136	0x3dddf142	0.10837032
137	0xbf13378e	-0.57506645
138	0xbd941d35	-0.07232133
139	0xbd248ab6	-0.040171348
140	0x3d9d84cf	0.07691347
141	0xbb2b70d1	-0.0026159773
142	0xbeb9b75f	-0.36272714
143	0xbe7c2fb1	-0.24627568
144	0xbdfbad3a	-0.122889
145	0xbdc080e6	-0.093995854
146	0x3c95da1e	0.018292483
147	0x3e5d1404	0.21589667
148	0xbd1020d9	-0.035187576
149	0x3e166527	0.14687024
150	0x3e6e12c3	0.23249345
151	0x3eaaa15c	0.33326232
152	0xbcfa3a18	-0.03054528
153	0xbae1a972	-0.0017216636
154	0xbf1b8c8a	-0.6076132
155	0xbe43ca0c	-0.19120044
156	0x3e3778c4	0.17917162
157	0xbe60c8e6	-0.21951637
158	0x3c3a245e	0.01136121
159	0x3ea08e7a	0.313587
160	0x3f85d83d	1.0456616
161	0x3e5b3657	0.21407448
162	0xbe8a2063	-0.26977834
163	0xbf2c226b	-0.6724002
164	0xbe22cf0b	-0.15899293
165	0xbe92fa85	-0.28706756
166	0x3e32a2f9	0.17444982
167	0xbdf9653b	-0.12177511
168	0xbe8c9fde	-0.2746572
169	0xbfc09cdf	-1.5047873
170	0x3c9b5d2e	0.01896533
171	0xbe9e7c21	-0.30954078
172	0xbf4043bb	-0.7510335
173	0xbe3aece3	-0.18254428
174	0xbf46c419	-0.7764297
175	0x3c449fb2	0.012000965
176	0xbdf6d463	-0.12052228
177	0xbe82b766	-0.25530547
178	0x3d9258e5	0.071458615
179	0x3e22c8ba	0.15896884
180	0x3c90938a	0.017648477
181	0xbe13562d	-0.14388342
182	0xbd88b0d3	-0.066743515
183	0x3e08b4f4	0.13350278
184	0x3e24736f	0.1605966
185	0xbe8b62de	-0.27223867
186	0x3f6fae85	0.9362567
187	0x3e286bfe	0.16447446
188	0x3c011711	0.007879035
189	0xbfbeeb77	-1.4915608
190	0xbd2d02d1	-0.042239014
191	0x3e9d7943	0.30756578
192	0xbc5c3183	-0.013439539
193	0x3e6a0bbc	0.22856039
194	0xbe8cc128	-0.27491117
195	0xbd692806	-0.056922935
196	0xbd3074fe	-0.043080322
197	0xbdfed7c8	-0.12443501
198	0xbe07c20b	-0.13257615
199	0xbb503971	-0.003177252
200	0x3de09015	0.109649815
201	0x3e34ab3b	0.17643444
202	0xbec6ef36	-0.38854378
203	0x3e10a5b2	0.14125708
204	0xbf5b0713	-0.8555767
205	0xbde4dabb	-0.11174532
206	0x3e8216ec	0.25408113
207	0x3ea73577	0.32657978
208	0x3e9b4717	0.30327675
209	0xbe706aa3	-0.23478179
210	0xbe6d7359	-0.23188533
211	0xbeaa9730	-0.33318472
212	0x3ec71942	0.38886458
213	0xbc8f7d92	-0.017515931
214	0xbd59afb8	-0.053146094
215	0xbb517597	-0.0031960958
216	0xbd1ca35d	-0.038241733
217	0xbe2fa59d	-0.1715302
218	0xbe811773	-0.25213203
219	0x3ca49232	0.020089243
220	0xbe8186ac	-0.2529806
221	0xbe1e0edd	-0.15435357
222	0xbd02fe70	-0.03198093
223	0x3d27b2ce	0.040942006
224	0x3e240bfa	0.16020194
225	0x3e19b8ac	0.15011853
226	0xbd0e7c62	-0.03478659
227	0xbd4973de	-0.049182765
228	0xbcce4af7	-0.02518223
229	0x3d9e407d	0.07727144
230	0xbf5edd7c	-0.8705671
231	0xbf1a0633	-0.6016571
232	0xbcb336bd	-0.021876687
233	0x3d8e0305	0.0693417
234	0xbf3c2316	-0.73491037
235	0xbdae33ef	-0.08505999
236	0xbdd82958	-0.10554761
237	0xbd5862e5	-0.05282869
238	0xbdc83a5c	-0.09776756
239	0xbdfadc33	-0.12249031
240	0x3de0707f	0.10958957
241	0x3c909415	0.017648736
242	0xbee1c276	-0.44093674
243	0x3ef1691b	0.47150502
244	0x3db0ea28	0.08638412
245	0x3deed9a7	0.11662608
246	0x3d144750	0.03620082
247	0xbf11666e	-0.5679692
248	0xbe26f246	-0.16303357
249	0xbd002083	-0.031281006
250	0xbdfba2e0	-0.12286925
251	0x3fb33a07	1.4002084
252	0x3eff95f0	0.4991908
253	0xbd325ad3	-0.043543648
254	0xbe7fa7fc	-0.24966425
255	0xbdea78b9	-0.11448807

network.3.bias f4 [64]
0	0xbf2ee9b1	-0.68325335
1	0xbf89e391	-1.0772573
2	0x3d6b6064	0.057464972
3	0xbf893792	-1.0720084
4	0xbfaaed57	-1.335368
5	0x3e87e121	0.26538947
6	0xc0172a44	-2.3619547
7	0xbf7f507e	-0.99732196
8	0x3fe6cc4b	1.8031095
9	0xbf0d8588	-0.5528188
10	0xbff97c19	-1.9490997
11	0x3de3b4c0	0.1111846
12	0x3f8c3076	1.0952289
13	0xbf32daca	-0.69865096
14	0x3f91b4ea	1.1383336
15	0x3f2b4c25	0.6691306
16	0x3f7e6a53	0.9938099
17	0xbf68240e	-0.90680015
18	0xbfcb8e17	-1.5902737
19	0xbf79a624	-0.97519135
20	0xbf10cbe6	-0.56561124
21	0x3e92ac63	0.28647146
22	0xbf26b548	-0.65120363
23	0xc0229948	-2.5406055
24	0xbf16d736	-0.58922136
25	0xbff3286e	-1.8996713
26	0x3ed80e0b	0.42198214
27	0xbf60f497	-0.87873214
28	0xc08c5b12	-4.386117
29	0x3ebac3a1	0.36477378
30	0xbf8d8569	-1.1056339
31	0xbfdb7a50	-1.7146702
32	0x3c33d81b	0.0109768165
33	0x3e35a9cb	0.17740552
34	0xc005696c	-2.0845594
35	0x3ed7cc18	0.421479
36	0xbf42001b	-0.7578141
37	0xbf4eecbf	-0.80829996
38	0xbffa1441	-1.9537431
39	0xbf0defd4	-0.55444074
40	0x3f700533	0.93757933
41	0xbf8fa395	-1.1221796
42	0xc00deef2	-2.217709
43	0xbe41cfb3	-0.18926887
44	0x3f041783	0.51598376
45	0xbe2d949d	-0.16951223
46	0xbd9b94f0	-0.07596767
47	0xbf7fae1c	-0.99875045
48	0xbc4af6ed	-0.012387973
49	0xbf926bbc	-1.1439128
50	0x3d754ab8	0.05988571
51	0xbf66a649	-0.9009748
52	0xbf59c42c	-0.8506496
53	0xbf8ccf87	-1.1000832
54	0xbf68f029	-0.90991455
55	0x4009c11e	2.152412
56	0xbef2026b	-0.4726747
57	0x3fa00ccf	1.2503909
58	0x3fa6244e	1.2979829
59	0x3e8cb29c	0.27480018
60	0xbf276185	-0.6538318
61	0xbf1e4358	-0.6182151
62	0x3f0b4462	0.5440122
63	0xbfade316	-1.3584926

network.5.weight f4 [32, 64]
0	0xbea3ae80	-0.3196907
1	0x3e3c3048	0.18377793
2	0x3caa70e8	0.020805791
3	0x3f18ad2b	0.59639233
4	0x3f9ea074	1.2392716
5	0xbf2f4bdb	-0.6847512
6	0xbd1d89c6	-0.03846147
7	0x3df3535b	0.11881133
8	0xbe29bbcd	-0.16575547
9	0x3e2e70f5	0.17035277
10	0xbf8145d3	-1.0099434
11	0xbe3e66f6	-0.18593964
12	0x3de002c6	0.10938029
13	0xbe67bf22	-0.22631505
14	0xbf0e9eb4	-0.5571091
15	0xbede97fd	-0.43475333
16	0x3dbc8aa5	0.09206132
17	0x3e24db5f	0.16099308
18	0xbe26bb7c	-0.16282457
19	0xbdce35a2	-0.100688234
20	0x3d06cca5	0.032910008
21	0x3e91dff9	0.2849119
22	0x3e0404d9	0.12892474
23	0xbed57d82	-0.41697317
24	0xbec83bf6	-0.39108247
25	0x3f2700ae	0.6523541
26	0xbe5d0232	-0.21582869
27	0x3d47da4b	0.048792165
28	0xbed1de34	-0.4098984
29	0xbe566e37	-0.20940481
30	0xbeae2f5f	-0.34020516
31	0x3f3b855a	0.73250353
32	0x3e2d8f5e	0.16949221
33	0xbedd2555	-0.43192545
34	0xbeb1dcea	-0.34738857
35	0xbdd29182	-0.1028166
36	0xbf1441dd	-0.57913
37	0x3ecd9037	0.4014909
38	0xbeeb53ce	-0.45962375
39	0xbf11886a	-0.56848776
40	0xbef4873d	-0.4775943
41	0xbf7423df	-0.95367235
42	0x3ded3c7a	0.115838006
43	0x3e349d3b	0.17638104
44	0xbf1f1d44	-0.6215403
45	0xbec9c78b	-0.39410052
46	0xbdc76a8f	-0.09737121
47	0x3e96f600	0.29484558
48	0xbf07dcb8	-0.53071165
49	0xbefd211f	-0.49439332
50	0x3deabe59	0.11462087
51	0x3f239102	0.6389314
52	0xbe039e1e	-0.12853286
53	0xbf194b0f	-0.59880155
54	0x3e926be1	0.2859793
55	0x3ec87e8b	0.39159045
56	0x3e3c50ea	0.18390241
57	0xbe4b10a2	-0.19830564
58	0xbdc0c8cc	-0.09413299
59	0xbeab100b	-0.33410677
60	0x3ecbe323	0.3982173
61	0xbed45939	-0.4147432
62	0xbf3012ad	-0.68778497
63	0x3f748b75	0.95525295
64	0x3e0555e9	0.13021053
65	0x3e88151c	0.26578605
66	0xbee05c4c	-0.43820417
67	0xbe5e6af6	-0.2172049
68	0xbf434384	-0.76274896
69	0xbd55d6e4	-0.05220689
70	0x3fc08ae0	1.5042381
71	0x3d828e41	0.06374789
72	0xbe69afe1	-0.22820999
73	0xbdd41f56	-0.10357539
74	0x3e86a803	0.26300058
75	0x3f4926db	0.78574914
76	0x3eca5ec4	0.39525425
77	0x3dcc8432	0.09986152
78	0xbba76b7f	-0.00510925
79	0xbe861e4c	-0.2619499
80	0xbdb4cc8b	-0.08828076
81	0x3e972e3c	0.29527462
82	0x3ed35aed	0.41280308
83	0x3e8926ea	0.26787502
84	0xbee14f10	-0.44005632
85	0xbeeab2b0	-0.45839453
86	0x3e5b26ad	0.21401472
87	0x3d85185f	0.06498789
88	0x3f84e8f2	1.0383589
89	0xbedf7c33	-0.43649444
90	0xbd72e24a	-0.059297837
91	0xbe87a70e	-0.2649464
92	0xbf2f764f	-0.685399
93	0xbc21a987	-0.009867079
94	0x3ed965eb	0.4246057
95	0x3e02c0fa	0.12768927
96	0xbe05ed60	-0.13078833
97	0x3e71df87	0.23620425
98	0xbd4001cf	-0.046876725
99	0xbe8364f9	-0.25662974
100	0x3ed2396b	0.4105943
101	0x3efb8824	0.49127305
102	0x3e54e50f	0.20790504
103	0xbcb10ec5	-0.021613488
104	0x3db604f6	0.08887665
105	0xbef8180b	-0.48455843
106	0x3df5e390	0.12006295
107	0x3e790ae6	0.24320564
108	0xbcb86dfd	-0.022513384
109	0xbed1aa80	-0.40950394
110	0x3e486bb7	0.1957234
111	0x3f911ba8	1.1336565
112	0x3d888e90	0.06667817
113	0x3dc8a76e	0.0979756
114	0x3d995709	0.07487304
115	0xbf490781	-0.78527075
116	0x3d539092	0.051651545
117	0x3df3b226	0.118992135
118	0x3d288acb	0.04114799
119	0xbe98edce	-0.2986893
120	0xbf4216b0	-0.7581587
121	0xbecc157b	-0.39860138
122	0xbec93c44	-0.39303792
123	0x3d28a5ea	0.041173853
124	0xbf064938	-0.5245547
125	0xbeca484f	-0.39508292
126	0x3d370a25	0.04468741
127	0xbeb14962	-0.346263
128	0x3ec8bbd6	0.39205807
129	0x3eca80e7	0.3955147
130	0xbe4ae422	-0.19813588
131	0xbeaebfd6	-0.34130734
132	0xbdfb5be6	-0.122733876
133	0xbcbcff49	-0.023070948
134	0x3e848ffc	0.258911
135	0xbea9d7d4	-0.33172476
136	0x3ed548f1	0.41657212
137	0xbf1c3fc7	-0.61034817
138	0xbd500da1	-0.050794248
139	0x3dcff4ee	0.101541385
140	0xbe92a038	-0.28637862
141	0xbe293a0d	-0.16526051
142	0xbe555f7a	-0.20837203
143	0xbe293d63	-0.16527323
144	0x3d937483	0.07199957
145	0xbe2e62f8	-0.17029941
146	0xbe0d74dd	-0.13814111
147	0x3e755dac	0.23961514
148	0xbf0b1b34	-0.54338384
149	0xbe26953b	-0.16267864
150	0xbe2addc2	-0.16686156
151	0xbf113f97	-0.56737655
152	0x3c28b2a1	0.010296495
153	0xbf44ab7d	-0.7682417
154	0x3ec9bcae	0.39401764
155	0x3e81a844	0.2532369
156	0x3ee6663c	0.44999874
157	0xbea10e1a	-0.3145607
158	0x3e3820ac	0.17981213
159	0x3aeacea8	0.0017914372
160	0xbef11589	-0.47086743
161	0x3d8f8c45	0.07009176
162	0xbe7efad8	-0.24900377
163	0xbdbc2a5f	-0.09187769
164	0x3e4a6e7b	0.19768707
165	0x3ea33881	0.31879047
166	0xbf286a9e	-0.65787685
167	0x3f3dee3a	0.7419163
168	0x3e56ba12	0.20969418
169	0x3dd8c1f9	0.10583872
170	0x3e8daa26	0.27668875
171	0xbec95602	-0.3932343
172	0x3e1e34f3	0.15449886
173	0x3ee24def	0.44200084
174	0x3ddb1540	0.106974125
175	0xbf4aeefc	-0.7927091
176	0x3dfe5876	0.12419216
177	0x3ea5daf2	0.32393605
178	0xbe137272	-0.14399126
179	0xbe0839c4	-0.13303286
180	0x3f01cce3	0.5070326
181	0x3e232381	0.15931512
182	0xbe9295d2	-0.2862993
183	0x3e103d97	0.14085995
184	0x3ec02f83	0.3753625
185	0xbec57715	-0.38567415
186	0xbe85c5b8	-0.2612741
187	0x3e95c180	0.2924919
188	0xbf10f0ff	-0.5661773
189	0xbe34a39a	-0.17640534
190	0xbe844000	-0.25830078
191	0xbe839f8f	-0.2570767
192	0xbf53ccb5	-0.82734233
193	0xbe9482e4	-0.29006112
194	0x3e0cae76	0.13738427
195	0xbe9875e9	-0.29777458
196	0xbe816e6f	-0.25279567
197	0x3c263a82	0.010145785
198	0x3ee71139	0.45130327
199	0x3e90239a	0.28152162
200	0xbe31cae9	-0.1736256
201	0xbd569dd4	-0.05239661
202	0xbf49bea1	-0.788065
203	0x3cdb9f97	0.026809497
204	0xbe103e3a	-0.14086238
205	0x3de16849	0.11006219
206	0xbd2805df	-0.041021224
207	0x3d1c6783	0.038184654
208	0xbca7913b	-0.020454993
209	0xbe1cd6f7	-0.15316378
210	0x3d4b8cc2	0.049694784
211	0xbe57082b	-0.2099921
212	0x3e3498db	0.17636435
213	0x3e2ced84	0.1688748
214	0x3ec12d5c	0.3772992
215	0xbf87b538	-1.0602179
216	0x3f810b67	1.0081605
217	0xbf163a5f	-0.5868282
218	0xbe138655	-0.14406712
219	0x3c17c7e1	0.009263963
220	0xbdc7e209	-0.0975991
221	0xbe69f122	-0.22845891
222	0xbe51b3b6	-0.2047871
223	0x3ceb70e6	0.028740358
224	0xbe11d6a7	-0.1424204
225	0xbfaeb9fd	-1.3650509
226	0xbf3cddc1	-0.7377587
227	0xbe128cc1	-0.14311506
228	0x3dcdeac5	0.10054544
229	0xbebac503	-0.36478433
230	0x3ef64c0b	0.4810489
231	0xbd26d84d	-0.040733624
232	0x3ce1ee07	0.02757932
233	0x3d06db9e	0.032924287
234	0xbd9c58ac	-0.076341
235	0x3e5b8057	0.21435677
236	0x3d9230a7	0.07138186
237	0x3e9d7551	0.30753568
238	0xbda2521f	-0.079258196
239	0x3f485829	0.7825952
240	0xbe719579	-0.23592176
241	0x3e8bad72	0.27280766
242	0x3e543089	0.2072164
243	0x3fa71616	1.3053615
244	0x3d43fbf3	0.0478477
245	0x3e03e5ee	0.1288068
246	0xbe37e345	-0.1795779
247	0xbd59a41c	-0.053135023
248	0x3ec39d01	0.38205722
249	0xbce56250	-0.02800098
250	0xbdff4d62	-0.124659315
251	0x3d33c539	0.043889258
252	0xbd80233a	-0.06256719
253	0xbf4ab244	-0.7917826
254	0xbe8cd6af	-0.2750754
255	0xbdd1de09	-0.10247428

network.5.bias f4 [32]
0	0x3deb1cc4	0.11480096
1	0xbfab8e8d	-1.3402878
2	0xbf147628	-0.5799279
3	0x3fc14eeb	1.5102209
4	0x3d58a361	0.052890185
5	0x3fe9c8b7	1.8264378
6	0xbf26811b	-0.6504075
7	0x3fe34913	1.7756675
8	0xbfc47334	-1.5347657
9	0xbfd291b7	-1.6450719
10	0xbed84422	-0.4223948
11	0x3f16ee8c	0.58957744
12	0x3f1ec300	0.62016296
13	0x3fb320df	1.3994406
14	0x3ff6fa7c	1.9295192
15	0x3f24e873	0.6441719
16	0x3f72ea7d	0.9488905
17	0xbd112871	-0.03543896
18	0xbfc72de2	-1.5560877
19	0x3f9707e3	1.1799282
20	0x3f1bf06b	0.60913724
21	0xbfe0c498	-1.7559996
22	0xbfc4f056	-1.5385845
23	0xbf395fa6	-0.7241157
24	0x3e5f8c22	0.218308
25	0x3fbdcd23	1.4828228
26	0x3cbdc6e8	0.023166135
27	0xbc4cd464	-0.01250181
28	0x3f15aaac	0.5846355
29	0x40093be8	2.1442814
30	0x3f393384	0.7234423
31	0x3f233dc3	0.63766116

network.7.weight f4 [1, 32]
0	0x3dca6de2	0.0988424
1	0x3daeefe5	0.0854185
2	0xbd124ea8	-0.035719544
3	0xbd387aa2	-0.045038827
4	0xbdc3c4b3	-0.09559002
5	0xbd827c42	-0.063713565
6	0xbd364103	-0.044495594
7	0x3d432026	0.04763808
8	0x3d9a69ee	0.07539736
9	0x3e2414b5	0.16023524
10	0x3ec8fee0	0.39256954
11	0x3de71177	0.11282628
12	0xbec35dde	-0.38157552
13	0x3d40b57b	0.047048073
14	0x3d5584c9	0.052128587
15	0xbd360bf2	-0.044444986
16	0x3d86a9e7	0.06575375
17	0x3d0b5f83	0.034026634
18	0x3e781a9c	0.242289
19	0x3d6e8663	0.05823363
20	0x3cff08ca	0.03113212
21	0xbd3b382b	-0.045707863
22	0xbd3d807e	-0.046265118
23	0x3d50490c	0.050850913
24	0x3dbb1513	0.09134879
25	0xbd009a97	-0.03139743
26	0xbda9ebff	-0.08296966
27	0x3d1a2e09	0.03764156
28	0xbd8359d3	-0.06413617
29	0xbd5eb4d1	-0.05437166
30	0xbd2be2cb	-0.041964334
31	0xbdab8966	-0.08375816
