static_dashboard/models/nn_v11.onnx (onnx, 90460 bytes, 5 tensors)

network.0.weight f4 [128, 29]
00000000: b1e6 07be 34b7 ecbd 03fa 8cbc 2a38 c0bd
00000010: af47 043e e97a 7f3e a715 5c3e ad3a e83d
00000020: 8c1a 5b3e 6db6 2c3e 428b 52be 4872 a3bd
00000030: e7fd 23be b0ac f63d 3346 ce3d e387 b1be
00000040: aec4 163f c57f c5be 6db1 163f 0ce8 6fbe
00000050: 024d 1cbf 3988 a8be c5f5 2b3f 233b 6a3d
00000060: b044 f8be b668 9ebf be87 243e 8829 e43e
00000070: 0fc1 233e 7b6f 2b3d a6a5 8c3c 54ed 543e
00000080: 7298 bb3e fc6a 11bb f70e 56be f349 473d
00000090: a9ce 0f3e 5b79 763d a5a0 ee3c 9d33 d7bd
000000a0: 5384 55bd 1718 bf3e df07 1dbd cbb8 22be
000000b0: fa73 7f3d 9d79 4fbe c164 973e 9930 71be
000000c0: 6c00 63be 6ea6 79be 99a6 d53d d9b4 26bf
000000d0: d868 a7be c2a1 8abd 0885 563e aa06 65bf
000000e0: af7b cd3e ed9c 7e3e 5d37 20bc d51c 653e
000000f0: 97ac d6bd 1b72 243f 5856 16bb eb5f 76bf
00000100: b9c8 6b3d 56e3 11bd 4004 213d 1864 10bd
00000110: 73c5 c8be b8f9 97bd a492 9bbd b166 80be
00000120: 4b40 adbe 9fb9 bbbe ecdd f2bd b18f 183f
00000130: 271f 65be e8f4 48be 695a 073f 944d 1d3f
00000140: 846d 3cbf f953 f8be d84e 7f3e 2311 91be
00000150: fb30 3ebf 9fd2 5ebe 8495 55be 7414 20bd
00000160: 2117 bf3d 13ee e73d fbca 80bd 5253 7d3d
00000170: 8232 a0bf a5a6 65be be24 8cbe ac0f 84be
00000180: b353 f83d e13b ccbd d1c1 f73e b9e5 bfbe
00000190: b6b1 ac3e e290 bbbe 8f43 17bc 4e10 203e
000001a0: 39e9 24bf 296a 8cba 1541 c3be ccc2 09bf
000001b0: 264f 77be c430 86be e365 103f 371c 743d
000001c0: c4a5 57be 5b00 4abf 4fe6 6abe fc3c 78bf
000001d0: 8387 9d3d 9a98 c03c 0598 12bd 3baa bd3c
000001e0: 7c03 7ebd 65bc 373b a85c 8b3e 6ba0 22bb
000001f0: 5abe fe3e e1f2 8d3b 0438 063f 12f2 053e
00000200: e82b ca3e e2e7 04bf c0ad b6bd 9448 6cbe
00000210: 4b2b 9c3d 6585 2f3e 180f 09bf 3dea 25bf
00000220: 6603 aa3e 9830 be3e 583c ec3d 6bd5 81bf
00000230: 1c2e 583f be82 aa3e 5618 a5bf f4bd b03e
00000240: e9e0 cb3e 5758 a5bd ce4d df3b 5b62 093d
00000250: d5e3 0ebf e8f5 a63d 5538 39bd 6b3d 0fbe
00000260: 83dd 90bd e789 e53e bd93 b13d 40f7 9bbd
00000270: 735b b33e 5683 6b3e abfc e8be dd99 823d
00000280: 5407 833e e331 f33d 36dd f8bd ad42 543d
00000290: 6b27 cebd 32b6 243e cdf7 e6be 4832 873f
000002a0: 0c4b 9fbe 6821 863d 5287 ebbe c659 1c3e
000002b0: 5bc0 ec3e 68fd f33e 73e4 b83d 865a 2dbe
000002c0: 67b0 533d b4a8 20bf c4c1 c23d 7c7a 6abc
000002d0: 4270 00be 5436 0e3e 6ab4 923e c75b be3d
000002e0: 0689 173e 919d c0bd f60c 35bd 21a0 19be
000002f0: 382d e6bd 8fe9 dc3e 97a7 25be 32af 593d
00000300: aa20 273e 56df 093e 1051 9a3e 73cc 1c3f
00000310: 43f0 fd3e 09b5 3f3e 5fa8 ce3c 641c b8bf
00000320: 0851 88bd a6a7 af3e 1b6a e4be 6977 81be
00000330: 5d3f 8f3e 601a 413e 92a1 2a3e 073c d53e
00000340: 5a73 66bc 877e 573e 4f6a 93bd fd5f 3b3d
00000350: c309 993e a779 5ebe 1718 8dbe 0ffe 8fbe
00000360: 762e 02bc 39ea 473d 79a9 12be 183e 91be
00000370: ecb9 4d3e 9f7d a9bd 7802 003e 47e2 38be
00000380: c2ad 6ebe c6b6 a6be df24 053e ecbd 8a3e
00000390: f8d3 dc3e 88e5 73bf b5bd 05bf 9bc0 073f
000003a0: 7ef7 adbc 6394 003e 3847 f4bd 1818 fdbd
000003b0: c438 23be f6b4 c4bf 7bda 433e 1303 193f
000003c0: f7da 15bf 4feb 67be abbb 8e3e 4b8c c03c
000003d0: cfa2 0c3d d679 8bbd d0ec d2bd 2431 8d3e
000003e0: 84ac 52be 732d d93c 7647 a3be 2136 e73d
000003f0: 6fba 03bf 0e62 0c3c d310 0cbe 08cd 6c3e
-0.13271596 -0.11558381 -0.017209059 -0.093857124 0.1291797 0.2494923 0.21492635 0.113393165
0.21396846 0.16866465 -0.20560935 -0.07980782 -0.16014825 0.12044656 0.10071983 -0.34673986
0.5889386 -0.38574043 0.5886448 -0.23428363 -0.61055005 -0.3291643 0.6717189 0.057185303
-0.48489904 -1.2375705 0.16067407 0.44562936 0.15991615 0.041854363 0.017168831 0.20793658
0.36639744 -0.0022189012 -0.20904146 0.048654508 0.14043678 0.060174327 0.029129336 -0.10507891
-0.052128147 0.37323067 -0.038337585 -0.15890805 0.062366463 -0.20261236 0.29569057 -0.23553695
-0.2216813 -0.24379894 0.104321666 -0.651197 -0.32697177 -0.06769134 0.20949185 -0.89463294
0.40133426 0.2486455 -0.009778825 0.2237428 -0.10482138 0.6423661 -0.0022939648 -0.9624011
0.05756447 -0.035617195 0.039310694 -0.035251707 -0.39213142 -0.07420677 -0.07596329 -0.25078347
-0.33838114 -0.36665055 -0.118587345 0.59594256 -0.22375165 -0.19624674 0.5287233 0.614465
-0.7360461 -0.48501566 0.2493242 -0.28333387 -0.7429349 -0.21760033 -0.20857817 -0.039082006
0.09330583 0.11324706 -0.062887155 0.06184704 -1.2515414 -0.22426851 -0.27371782 -0.25793207
0.12125339 -0.099723585 0.48390058 -0.37479952 0.33729333 -0.36633974 -0.009232416 0.1563122
-0.6441837 -0.001071279 -0.3813559 -0.5381286 -0.24151286 -0.2620908 0.56405467 0.05959722
-0.21059328 -0.7890679 -0.22939418 -0.96968055 0.076918624 0.023510266 -0.03578951 0.023152461
-0.06201504 0.0028035876 0.2721913 -0.0024814855 0.49754602 0.004331932 0.52429223 0.13080624
0.39486623 -0.51916325 -0.08919859 -0.23074561 0.07625445 0.1714073 -0.53538656 -0.64810544
0.33205718 0.3714645 0.11534947 -1.0143255 0.8444536 0.33302873 -1.2898052 0.34519923
0.3982003 -0.0807349 0.006814695 0.033541065 -0.55816394 0.08152372 -0.045219738 -0.13988273
-0.070735 0.44831774 0.08670757 -0.076155186 0.35030708 0.2299932 -0.4550527 0.06377003
0.25591528 0.118747495 -0.12151568 0.0518214 -0.10066112 0.16085127 -0.45110932 1.056222
-0.31111944 0.065493405 -0.4600168 0.15268621 0.46240506 0.4765427 0.09027948 -0.16929063
0.051681902 -0.6275742 0.09509614 -0.014311429 -0.12542823 0.13887912 0.2865327 0.09294849
0.14798364 -0.094050534 -0.044201814 -0.1500249 -0.112390935 0.4314694 -0.16177212 0.053145595
0.16321054 0.13464102 0.3013997 0.61249465 0.49597368 0.18721403 0.02522677 -1.4383664
-0.066560805 0.34307593 -0.44612202 -0.25286415 0.2797803 0.18857718 0.16663197 0.4164736
-0.014065588 0.2104436 -0.07198011 0.04574584 0.2989026 -0.21726094 -0.27557442 -0.2812352
-0.007945647 0.048807357 -0.14322461 -0.28367686 0.20090455 -0.082759134 0.12500942 -0.18055068
-0.23308471 -0.3256132 0.13002346 0.27098024 0.4313047 -0.9527211 -0.52242595 0.5302827
-0.021236178 0.12556605 -0.119276464 -0.12358111 -0.15939623 -1.5367725 0.19126312 0.59770316
-0.5853724 -0.22648357 0.27877554 0.023504397 0.034334954 -0.06810348 -0.10299075 0.27576554
-0.20573622 0.02651093 -0.31890458 0.11289621 -0.5145635 0.0085683 -0.13678293 0.23125088

network.0.bias f4 [128]
00000000: 7569 a0bd a207 233d 6936 aabe 2126 66be
00000010: de09 52be a0a9 2fbe fa0b 2e3e 248b 19be
00000020: cd7f 97be 835c 62be 40be cfbe 2531 b3be
00000030: ade5 8dba 2667 37be acc0 14be 6d43 d3bd
00000040: 0c65 17be 1552 03bf 21ca e1ba 5591 cebe
00000050: ddaa c3bd 4804 0e3e b0a4 7cbf 14c8 94bd
00000060: 6a87 acbd 9039 aebb 99b4 3dbe c0d9 9ebe
00000070: 0439 bdbe 4b4b 35be 89e4 49bd 38e2 86be
00000080: 29a7 a3be 8036 3bbe 0df8 17be 9793 83bf
00000090: fef5 0dbf ea89 b9be 7388 3bbe f6f0 753d
000000a0: ff17 3ebf 38ce 8bbe da85 81be 4405 363e
000000b0: b2d1 68bf 4aa7 cebe b5a6 35be 2739 9cbd
000000c0: 5318 cfbd c91c adbe 3e0a 6cbe d005 71bf
000000d0: 7c2d 69be a136 dfbe 8a88 36be 872e 653e
000000e0: f07a 5ebe 6619 a739 eac0 9dbd a2f2 92be
000000f0: 7d19 53be d3b9 b5bd 1edc c3be 7876 9fbe
00000100: 528e 33be 1bab 91be 13ea 41be 6aad 0cbf
00000110: cc61 7abf 755d 14bf 1839 323e 8798 c2be
00000120: 59ee 03be fa13 1bbd 7113 a2be 3351 21bf
00000130: ed2e 3ebe 9415 0c3b b622 08bf 05c2 1bbe
00000140: a8ca 9abe ce6b d8bd c719 62be e7ff 86be
00000150: 47dd 94be 5ebd 4cbe 253a aabe f949 6ebe
00000160: 7462 e1be 1d27 17bf 44b6 afbd 8a2c e2be
00000170: 36ec b3be 368d 32be 60c6 23bf 31b5 c5be
00000180: 2d40 39be 0044 233e e1bd 21bd 3dc8 a8be
00000190: 4746 f8be 479f 9ebe f4ac 37be 2daa e2be
000001a0: 4b11 57be 930d c0be c4d8 323d 9f6a 03bf
000001b0: 96b4 76be 2814 a6be 7191 a1bd 1269 bdbe
000001c0: c067 54be e331 153d 177b 063e 6efa 70be
000001d0: ea1d 83be 9e65 7abe e84d 593d 143b a8be
000001e0: 1683 82bd 3d96 08be 4d67 60bd 2ee2 e7bd
000001f0: 29b1 98be 26ab c6bd c52c 70be f606 9e3c
-0.07832614 0.0398022 -0.33244637 -0.22475483 -0.20511577 -0.1715455 0.16996756 -0.14994484
-0.29589692 -0.22105603 -0.40574837 -0.34998432 -0.0010825895 -0.17910442 -0.14526623 -0.10315595
-0.1478464 -0.5129712 -0.0017226377 -0.40345255 -0.09554074 0.1386882 -0.98688793 -0.072647244
-0.08424266 -0.0053169206 -0.18525924 -0.31025505 -0.36957562 -0.17704503 -0.049290214 -0.26344466
-0.3196347 -0.18282509 -0.14840718 -1.0279416 -0.5545348 -0.36238033 -0.1831377 0.06004425
-0.74255365 -0.2730577 -0.25297433 0.17775446 -0.9094497 -0.40362006 -0.17739375 -0.076280884
-0.10112061 -0.33811024 -0.23050782 -0.94149494 -0.22771257 -0.43596366 -0.17825523 0.2238103
-0.21726584 0.00031871645 -0.07702811 -0.2870074 -0.20615192 -0.08873334 -0.38253874 -0.31145072
-0.1753476 -0.28450856 -0.18936948 -0.5495211 -0.97805476 -0.57955104 0.17404592 -0.38006994
-0.12883891 -0.037860848 -0.31655458 -0.63014525 -0.18572588 0.0021375166 -0.53177965 -0.15210731
-0.3023274 -0.10567437 -0.22080146 -0.26367113 -0.2907507 -0.19994113 -0.33247486 -0.23270406
-0.44020426 -0.5904406 -0.08579686 -0.44174606 -0.35141152 -0.1743668 -0.6397457 -0.386148
-0.18090887 0.15943909 -0.039487723 -0.3296527 -0.48491117 -0.30980894 -0.1793707 -0.4427046
-0.2100269 -0.37510356 0.043663755 -0.51334566 -0.24092326 -0.32437253 -0.07889069 -0.36994225
-0.20742702 0.03642453 0.13132893 -0.23533031 -0.2560876 -0.24452826 0.053052813 -0.32857573
-0.06372659 -0.13338561 -0.054786015 -0.11322437 -0.29822662 -0.09700613 -0.23454578 0.019290429

network.3.weight f4 [128, 128]
00000000: 393d aebc dca0 443c c8e4 ac3d 689f 65be
00000010: 2660 10be 7094 9dbe fcf9 d13d 1287 0dbe
00000020: 2017 98be 4ea5 babe 6e56 4dbd 0020 adbe
00000030: 82d9 863d 0b27 87bd 610b 8cbd e6a8 84be
00000040: 0351 43bf 87e8 2d3e e5ec 15bf eb3b c4be
00000050: a19d 10bf 1d90 06be ec3d 5bbf a5e5 30be
00000060: f93c 38bd 2753 273e e915 79be 8731 34bd
00000070: f8e9 82be 8eb6 c23c 306c 583e b9d9 c23d
00000080: 2aed e6be 6dfc e83b 3cba 1a3d 97c7 61bf
00000090: ec33 50bc f75b 0dbe e8dd 13be 1d93 95bd
000000a0: dcbd ab3d 01d1 b1bb c530 d33e e4a4 a3be
000000b0: 97c0 60bf 4302 a8be 447c 93bb 3290 d03d
000000c0: ffee 28be 0ba7 a53e e1ed e7bc 35c0 82bf
000000d0: 71f5 713e 36a2 65bd 3ec5 19bc 7b48 13bf
000000e0: 6af4 893e cbee bfbb 1f2c 85be 5b25 ddbb
000000f0: 32d5 d7bd 15a3 b5bd d9c6 7bbe cc24 133e
00000100: 57fa 83be fdb7 123e 7e8b 773d a47d fdbc
00000110: 5510 3ebf 811f 333d 2b79 433c 017f 8cbc
00000120: beae e23d 30aa cb3d 1d1f 4ebd 33e6 533d
00000130: 9046 38bf a63f 3fbc 5d88 23be de8d c43c
00000140: 480f a7be 4d05 62be 8708 db3c c42a 6bbd
00000150: 6790 7abe 6896 44bd 50c4 0ebf 2daf dbbd
00000160: 6305 dcbd 0127 963d 0c12 b6bc 5b6e 8cbe
00000170: dba0 0bbd 7bb5 b2be 24e2 3f3d 9f5b 1a3e
00000180: b4c1 97be e90c ffbd 379c babd 606a 8cbe
00000190: 9da0 34be eb6e 903e 5821 cbbe 541f 4ebd
000001a0: 61fd 093e 2df0 543e c8d5 2e3c 4da6 42be
000001b0: 4362 c83b 29b6 4fbe 045f 39be 999b c8bd
000001c0: a5b1 d03d 29a2 393e 7223 503c 307e 8eba
000001d0: b683 84be d099 02bf 8983 56be 006b f8be
000001e0: 79e5 f5be f87a cebe fa5c 7ebd eb17 9cbe
000001f0: 5a60 6fbe 73a3 2e3e 6430 d13d 9a8f 35be
00000200: 4a6c 98bd ded0 123e ed9d 0f3c a883 4c3d
00000210: 2ed2 b43d 68cb 00bf 795f 7cbe 997e 5fbe
00000220: 2cca aabe adcb ec3c 71ba 3f3e ad8a 37be
00000230: a7a5 8ebe 3cc6 5abd 6a12 1bbc 8898 1b3e
00000240: 56c0 3abe f53c 313e c426 35be d62d 74be
00000250: 977e d43d 0fae 7bbe 762c 61bf b4c2 71bd
00000260: 2922 b1be af3e 943d 7cf1 06be 2612 72be
00000270: bc46 9abd 1b3f 39bd a078 a43b 1d3d 40be
00000280: 351c 8b3d b496 5ebe 7a8f 9dbb 269d 4cbf
00000290: 5feb b23d 260e 653e 6687 06bd 50d2 09be
000002a0: 4435 6e3d 4caf 21be 34d5 acbe 35ae 70be
000002b0: 3ebc 7cbf de12 65bd 68b3 43be c1dc 50be
000002c0: ff26 b5be ee17 48bf f912 9abe e4ac 8dbf
000002d0: 8181 3e3e bbeb efbe d778 283c a912 bebc
000002e0: cb3a e3be 5ccc a4bd 261e 5ebe b302 ca3c
000002f0: 21c8 ddbd 07c9 3bbd dde3 3fbe 81dd 4d3d
00000300: 1a1b 293c cc1d 80bd 83fd 9d3d b4fd 48bf
00000310: 3e24 76bf 4163 723d b2cd 0abe b933 9abe
00000320: 2e3b 6fbc 2bcb 813d 6492 f7be c6f4 683e
00000330: f8f4 91bd ff20 723d 4a2c 063f cb62 3e3c
00000340: 2ff0 3c3d f625 d2bc bef4 7c3d b941 6abe
00000350: 0f8d 06bf 2a60 cebe 703b 063e 3320 b6bc
00000360: e7e1 09be 722b bc3e e73f 2ebe 09fb 7c3e
00000370: 6970 1abf 074b b23e 2216 a23d 8b53 99be
00000380: bb7b 0ebf 1ce6 8dbe 7413 42bd a932 fd3b
00000390: 7339 b5be a339 783e 81d0 22be 3871 4bbe
000003a0: b833 04bd baeb 123a 5929 483d 2c45 b13e
000003b0: c4c4 c0bd 9e3e 61be c3e0 383d 7706 c7be
000003c0: 55a7 0abf 6330 1dbf 1774 b53c 1da9 40bf
000003d0: 4c53 a2be 3319 e63e 8d95 b23c 31fc a8bd
000003e0: b9c3 6ebe 52b2 86be 6786 84be 359e e03d
000003f0: 93d7 a4be f1c4 75be 4fae 423e deb6 ecbc
-0.021269428 0.0120012425 0.08442074 -0.2242409 -0.14099178 -0.3077731 0.10252759 -0.13821056
-0.29705143 -0.36454242 -0.050131254 -0.33813477 0.06584455 -0.06599244 -0.06838108 -0.2591011
-0.7629549 0.16983233 -0.585646 -0.38326964 -0.5649052 -0.13140912 -0.8564136 -0.17275102
-0.044980023 0.16340314 -0.24324764 -0.043992545 -0.2556913 0.02376869 0.2113502 0.095141836
-0.45102817 0.0071101696 0.037775263 -0.88195175 -0.012707692 -0.13804613 -0.1444012 -0.0730345
0.08385822 -0.0054265265 0.41248146 -0.3196174 -0.8779387 -0.32814226 -0.0045008976 0.10183753
-0.1649742 0.32354006 -0.028311672 -1.0214907 0.23628785 -0.0560629 -0.009385405 -0.5753247
0.26944286 -0.0058573238 -0.26010224 -0.006748838 -0.10538711 -0.08868996 -0.24587573 0.14369506
-0.25776932 0.14327998 0.060435764 -0.0309437 -0.7424367 0.043731216 0.011930744 -0.017150404
0.11068486 0.0994457 -0.05032264 0.051733207 -0.7198267 -0.01167289 -0.15969987 0.023993429
-0.32628846 -0.22072335 0.026737465 -0.05741383 -0.24469148 -0.047995 -0.557683 -0.107267715
-0.10743215 0.07331658 -0.022225402 -0.27427945 -0.03408895 -0.34904084 0.046846524 0.15074013
-0.2963997 -0.12453634 -0.09111827 -0.27424908 -0.17639394 0.28209624 -0.39673877 -0.050322846
0.13475563 0.20794745 0.010671087 -0.19008751 0.0061152293 -0.20284332 -0.18102652 -0.09795303
0.10190133 0.18128265 0.012703763 -0.0010871347 -0.25881737 -0.5101595 -0.20948614 -0.48519135
-0.48026636 -0.40328193 -0.062100388 -0.30486998 -0.23376599 0.17054538 0.10214308 -0.17730561
-0.074425295 0.14337489 0.00876568 0.049930245 0.08829151 -0.50310373 -0.24645795 -0.21825637
-0.3335737 0.028905714 0.18723466 -0.17923994 -0.27860758 -0.053411707 -0.0094648395 0.15194905
-0.18237433 0.1730841 -0.17690569 -0.2384561 0.103757076 -0.24578117 -0.87958467 -0.059023574
-0.34596375 0.072385184 -0.13178056 -0.23639736 -0.07533023 -0.045226198 0.0050192624 -0.18773313
0.067924894 -0.21737176 -0.0048083635 -0.7992729 0.087363 0.22368678 -0.03284397 -0.13459134
0.058156267 -0.15789527 -0.3375641 -0.23503955 -0.98724735 -0.055926196 -0.19111407 -0.20396711
-0.35381314 -0.78161514 -0.300926 -1.1068387 0.1860409 -0.46859536 0.010282717 -0.023202257
-0.44380793 -0.08046791 -0.21691188 0.02465949 -0.10829187 -0.04584601 -0.18739267 0.05026007
0.010321403 -0.06255683 0.07714369 -0.7851212 -0.9614905 0.059176687 -0.13555029 -0.30117586
-0.014601512 0.06337579 -0.48353875 0.22749624 -0.07126802 0.0591135 0.5241133 0.011620234
0.046127494 -0.025652867 0.06175684 -0.22876634 -0.5255899 -0.40307742 0.13108611 -0.02223215
-0.13465081 0.36751896 -0.17016564 0.24705137 -0.60327774 0.34822866 0.07914378 -0.2994655
-0.5565755 -0.27714622 -0.047381833 0.0077269864 -0.35395393 0.24240737 -0.1589985 -0.19867408
-0.032275885 0.0005604584 0.048867557 0.34623086 -0.0941253 -0.21996543 0.045136224 -0.3887212
-0.5416158 -0.6140196 0.022150083 -0.75258046 -0.31704175 0.449411 0.021799827 -0.08251227
-0.2331685 -0.26307923 -0.2588379 0.109676756 -0.3219572 -0.24000908 0.19011806 -0.028895792

network.3.bias f4 [128]
00000000: 3298 59be d0c2 8fbe d061 c13e 01b4 17be
00000010: 667d a8bc b35e d1be eda3 6abe 8359 843d
00000020: db63 533e b1b5 bbbe ae17 00bf 1689 61bd
00000030: ca98 84bd fdee 7abc 8f10 debd ad46 15be
00000040: 82d0 90be a6d4 57be 263b 24be 4c56 d5be
00000050: 5997 6dbf 9fc8 50be a237 b8bd e6e9 6cbf
00000060: 9db3 34bd eba3 e7be be31 00be 442c d7bd
00000070: a136 d2be 37e2 ed3d f2c8 6ebe 321e 8ebc
00000080: 24a3 00bd d274 3dbe 761d 8a3d df38 8fbe
00000090: 4998 7a3e 508b 04be dc3d b0be 2bc9 1bbe
000000a0: 8fea 85be 28f7 aebe e4d5 5d3c e17e b4be
000000b0: 1df1 063e cbe0 b8bd b2ab 823e ba49 99be
000000c0: 9632 cbbe 84e0 d6bd 03b7 b2be ea29 debd
000000d0: 7947 84be c27f 50be cc9a 2abe 9e68 423c
000000e0: 7b84 94be 40d7 04bd f472 a5be ee60 85be
000000f0: 96cc c83d faa0 74bb bda2 91be 12c2 b7bc
00000100: 8e8a 36be e93e 91be eb86 a1be 8111 3d3e
00000110: 95cd 01bf a8ba 35be 900a 1fbf 56df 1ebe
00000120: b0a6 b8be 3406 b8bd 5819 bcbe cc4b d8be
00000130: de1a 5cbe 6b84 b5be 276d 39be 53b7 3ebe
00000140: fb33 c7be 12a0 c93b 3cbb 9dbe 93d9 b5be
00000150: 2b9e 55be 208f 6a3e d317 afbe 2823 f1be
00000160: b12c d0be f6cc febd 35ea 8cbe 9c51 ffbd
00000170: 2e43 03bf 5e8a 1bbf b4af 0fbe 804a 12be
00000180: 0cdd c5bd c192 793e c082 873a 274e cfbd
00000190: 0a69 26bf e6bf fdbe fe33 5bbe 4631 96be
000001a0: 412c 48bb 8562 8bbe 650d dfbe 3dbb 30be
000001b0: 32b2 d6be a9e1 76be 49e5 b4bd 3f07 873d
000001c0: a49a bb3e 5b83 e3be 8139 cfbe 98d8 3bbc
000001d0: 43ba 91be e3e6 253e 9eb1 6dbe b4c7 c0be
000001e0: ec31 1f3e 9356 5dbe e71a 9cbe 2bac 0abe
000001f0: 1d44 7abd 096d 23be 37a7 e7be 7bca 3ebf
-0.21249464 -0.28078318 0.37769938 -0.1481476 -0.020567607 -0.40892562 -0.22914095 0.064623855
0.2064356 -0.36662057 -0.5003613 -0.055062376 -0.06474455 -0.015315768 -0.10843002 -0.14577742
-0.2828408 -0.21077213 -0.16038188 -0.41667402 -0.92809063 -0.20389031 -0.08994986 -0.925444
-0.044116605 -0.45242247 -0.12518975 -0.1050649 -0.41057304 0.11615413 -0.23318842 -0.017348383
-0.031405583 -0.18501595 0.067439005 -0.27973077 0.24472155 -0.12943769 -0.34422195 -0.15213458
-0.26155517 -0.3417294 0.013539765 -0.3525305 0.13177915 -0.09027251 0.25521618 -0.2993906
-0.39687032 -0.10492042 -0.34905252 -0.10847838 -0.2583578 -0.20361236 -0.16660613 0.011865763
-0.29007325 -0.03243184 -0.32314265 -0.26050514 0.09804647 -0.0037327395 -0.28444472 -0.022431407
-0.17826292 -0.2836831 -0.31548247 0.18463708 -0.5070432 -0.17746985 -0.6212549 -0.15514883
-0.36064672 -0.08985558 -0.36738086 -0.42245328 -0.21494624 -0.3545259 -0.18108045 -0.1862462
-0.38906845 0.006153115 -0.3080691 -0.35517558 -0.20861118 0.2290616 -0.34197864 -0.47097135
-0.40659097 -0.12441437 -0.27522436 -0.12466738 -0.51274383 -0.60758007 -0.14031869 -0.14286232
-0.09661302 0.24372388 0.0010338649 -0.10122328 -0.65004027 -0.4956047 -0.21406552 -0.29334468
-0.0030543956 -0.27223602 -0.43564907 -0.17258926 -0.41932827 -0.2410952 -0.08832795 0.06593179
0.3664142 -0.44436154 -0.4047356 -0.011465214 -0.2846242 0.16201358 -0.23212287 -0.3765236
0.15546387 -0.21615057 -0.30489275 -0.1354224 -0.061100114 -0.15959562 -0.45244762 -0.7452771

network.6.weight f4 [1, 128]
00000000: 54d7 013d 206b 2c3d b93a 9d3c a420 1bbd
00000010: 8c52 f23c 0f17 1b3d 0a31 14bd 4563 2f3d
00000020: 8962 c03c 50f1 07bd 9920 6ebd 2e52 823c
00000030: 0c5c 34bd 3e33 003d fb70 273d 38a6 b83c
00000040: ac8b 9c3c 6d5a e2bc 767f edbc 7568 31bd
00000050: d3d3 383d e3ce d83c d686 0a3d 40a6 7a3d
00000060: fbec 25bd bfbd eabc 3c88 3b3d ca4a 0fbd
00000070: 7242 d43c e8a9 1bbd 190d 13bd 1dea c83c
00000080: 464c 173d b496 e83c 3cc1 213d 2e8e a2bc
00000090: b7bc ac3c 7b01 0c3d 51ff e93c 5124 a23c
000000a0: 4351 273d fe7d 633d 512c 2abd f4b9 bb3c
000000b0: 207c 963c 2e20 24bd 188c 44bd 2cf4 3d3d
000000c0: bdb0 153d 4d61 11bd 3808 123d dda4 14bd
000000d0: 4b74 2bbd a624 f83c 607e 10bd f6bd 3c3d
000000e0: 618b 39bd 1815 0f3d f983 0dbd 21b7 e5bc
000000f0: 21e0 283d 850a ea3c 84a3 2f3d 24be 3b3d
00000100: f455 073d 5b59 e5bc 225c a03c 35cb c73c
00000110: 8f63 39bd 2cfb 1f3d 1ea7 13bd de83 e53c
00000120: b809 2cbd 1531 25bd db41 06bd 6cab 1fbd
00000130: 7a9d 88bc efcf 133d f195 10bd 849f 2dbd
00000140: 838b 2bbd 5016 083d a428 ff3c ea9e 0ebd
00000150: 5ecb 38bd 4358 003d 7aed 37bd 571e 0fbd
00000160: 1ded f0bc 801a 25bd 1ea8 cabc 7026 eabc
00000170: 8320 c1bc 96a5 7c3d d75e 0c3d c0eb 0dbd
00000180: 7896 27bd 5e93 c13c f6b5 ca3c c464 2d3d
00000190: d1a7 17bd 933b 093d 2205 2c3d 52ad 2b3d
000001a0: b6e9 023d edbb f93c e261 dfbc 8788 3bbd
000001b0: a305 b7bc cfab 013d 2e0a 1bbd b3ae 28bd
000001c0: 21ed febc 598b 02bd 7405 f6bc 8c5c bd3c
000001d0: ae3c 033d 18fe f13c ed48 f5bc 1ad2 1f3d
000001e0: 1f7f 2ebd 6f92 22bd e83f a5bd b826 803c
000001f0: aa67 c6bc e7ca 263d 30aa 0cbd a532 873d
0.031699494 0.04209435 0.01919304 -0.037872925 0.029580377 0.037863787 -0.03617958 0.04281928
0.023484485 -0.033189118 -0.058136556 0.015908327 -0.044033095 0.03129887 0.04087923 0.022540197
0.01910957 -0.027631009 -0.028991442 -0.04331251 0.045123886 0.026465839 0.033819996 0.061193705
-0.040509205 -0.028654931 0.04578422 -0.034983434 0.02591059 -0.038003832 -0.035901163 0.024525696
0.036937974 0.028392173 0.039490923 -0.019843187 0.02108608 0.0341811 0.028564127 0.019792708
0.04084898 0.055540077 -0.04154617 0.022915818 0.018369734 -0.04006975 -0.047985166 0.04637544
0.036545504 -0.035493184 0.03565237 -0.03629004 -0.041858952 0.030290913 -0.03527677 0.0460796
-0.045298938 0.034932226 -0.034549687 -0.028041424 0.04122937 0.02856947 0.04288055 0.04583563
0.033040956 -0.02799671 0.019575182 0.024388889 -0.045260962 0.039057896 -0.036048047 0.02801698
-0.042001456 -0.04033001 -0.03277765 -0.03898184 -0.016676653 0.036086973 -0.035299245 -0.042388454
-0.041881096 0.033224404 0.031147309 -0.03481952 -0.04511582 0.031334173 -0.04490421 -0.034941044
-0.02940994 -0.040308475 -0.024738368 -0.028582782 -0.023575073 0.061681353 0.034270134 -0.034648657
-0.040914983 0.02362984 0.024744969 0.042332426 -0.037025277 0.03350408 0.041997083 0.041913338
0.031961165 0.030485118 -0.027268354 -0.0457845 -0.022341555 0.03165799 -0.037851505 -0.04118223
-0.031118931 -0.031871174 -0.030031897 0.023115419 0.03204029 0.029540107 -0.029942 0.039018728
-0.0426017 -0.03969043 -0.0806883 0.015643463 -0.024219353 0.040720847 -0.03434199 0.066014566
