static_dashboard/models/nn_v14.onnx (onnx, 117609 bytes, 7 tensors)

network.0.weight f4 [256, 30]
0	0x3d7202a2	0.059084542
1	0xbd4bc0de	-0.04974448
2	0x3cd3038d	0.02575853
3	0x3b1e2c8e	0.0024135443
4	0xbc2092bc	-0.009800609
5	0x3e4c61c4	0.1995917
6	0xbc8f266b	-0.017474374
7	0x3cbcd3b7	0.023050172
8	0x3c7737ab	0.015088956
9	0xbd09f3c6	-0.033679746
10	0x3e1585b5	0.14601786
11	0x3eaf0bab	0.3418859
12	0x3e524593	0.20534353
13	0xbee3d69f	-0.4449968
14	0x3d3bf6a3	0.045889508
15	0xbeab9b1f	-0.33516786
16	0xbeb79f5b	-0.35863766
17	0x3eb722e3	0.35768804
18	0xbf67221f	-0.9028644
19	0xbf44eb91	-0.76921946
20	0xbf472b48	-0.77800417
21	0x40007db6	2.0076728
22	0x3ff20011	1.890627
23	0xbf201acb	-0.6254088
24	0xbf6253c6	-0.8840908
25	0x401e3150	2.4717598
26	0xbe8a1fea	-0.26977473
27	0xbedebe67	-0.4350464
28	0x3c5e1e4c	0.013557028
29	0xbe8180b3	-0.25293502
30	0x3ed6802a	0.41894656
31	0x3e3ae0f1	0.18249871
32	0xbd438f5e	-0.047744147
33	0xbe9a7678	-0.3016851
34	0xbf2083a4	-0.6270087
35	0xbf95cb87	-1.1702737
36	0xbe94cd76	-0.29063004
37	0xbd7bb637	-0.06145307
38	0xbf25dd78	-0.6479106
39	0xbe15e788	-0.14639103
40	0xbdea9b77	-0.11455434
41	0x3e902e27	0.2816021
42	0x3eb60bde	0.3555593
43	0x3e43798f	0.1908934
44	0xbe14d74a	-0.14535251
45	0xbd3ee6de	-0.04660689
46	0x3e1d80ec	0.15381211
47	0x3dd65a1f	0.10466408
48	0x3d91a2e1	0.07111145
49	0xbe532c98	-0.2062248
50	0x3e35fe2f	0.17772745
51	0xbeea2bb8	-0.4573648
52	0x3e054ed0	0.13018346
53	0xbf89447c	-1.0724025
54	0xbe31dc96	-0.17369303
55	0xbe33abf8	-0.1754607
56	0xbe1a6125	-0.1507612
57	0xbebac51d	-0.3647851
58	0xbebe5133	-0.37171325
59	0xbe32d854	-0.17465335
60	0xbf9fe2e4	-1.2491117
61	0x3e03db78	0.1287669
62	0x3d380703	0.044928562
63	0xbe1d0221	-0.15332843
64	0x3df7a9e5	0.12092952
65	0xbf83e704	-1.0304875
66	0xbd2d8446	-0.042362474
67	0xbeef6d89	-0.46763256
68	0xbd49f754	-0.049308136
69	0xbca54e6f	-0.020179002
70	0x3d79e550	0.061009705
71	0x3e113a22	0.14182332
72	0xbb96e0c8	-0.0046044327
73	0x3d9c9ce7	0.07647114
74	0xbedc9706	-0.43083972
75	0xbf0d633b	-0.5522954
76	0x3ea57fa9	0.3232396
77	0x3e0c4388	0.13697636
78	0x3f3da382	0.7407762
79	0x3edadbea	0.42745906
80	0xbe487bc9	-0.1957847
81	0xbed7313c	-0.4202975
82	0xbe8c7370	-0.27431822
83	0xbe92f792	-0.28704506
84	0x3f48fd06	0.78511083
85	0x3e6cebe6	0.23136863
86	0xbf130f89	-0.5744558
87	0x3c8142c7	0.015778912
88	0x3e683504	0.22676474
89	0xbe06c878	-0.1316241
90	0x3dce77ce	0.10081445
91	0xbf5bb0e8	-0.8581681
92	0x3f43218f	0.7622308
93	0xbed93d01	-0.42429355
94	0xbe05e8ce	-0.13077089
95	0x3daf5fac	0.0856317
96	0xbd661d35	-0.056180198
97	0xbe6407d4	-0.22268611
98	0x3ed61ae9	0.41817406
99	0xbdc6aee0	-0.097013235
100	0xbe21d35d	-0.15803285
101	0xbdb8ffd3	-0.090331696
102	0xbe13995b	-0.14413969
103	0x3eb60f0c	0.35558355
104	0x3d3ddfd3	0.046356034
105	0x3cf299d6	0.02961437
106	0x3e6e6953	0.23282366
107	0x3db8fe0a	0.09032829
108	0xbed9ec1f	-0.4256296
109	0x3ecf2367	0.40456697
110	0xbd0ed085	-0.03486683
111	0x3f0d5ddd	0.5522135
112	0xbf026ddf	-0.509489
113	0x3dbcc981	0.09218121
114	0xbe9783c6	-0.29592723
115	0x3dbb45f9	0.091442056
116	0xbf350901	-0.70716864
117	0x3f0e9f51	0.5571185
118	0xbcc6349b	-0.024195006
119	0xbf7e7acb	-0.9940612
120	0x3d8efeef	0.069822185
121	0x3d05cddd	0.03266703
122	0x3cec45f6	0.028841954
123	0x3e4846e4	0.19558293
124	0xbeca692d	-0.39533368
125	0x3e39b8f6	0.18136963
126	0xbdb210ca	-0.086946085
127	0x3bb34fda	0.0054721655
128	0xbdef3c5f	-0.11681437
129	0xbceb55c1	-0.028727414
130	0xbe941f03	-0.2892991
131	0x3ea2ef8a	0.3182338
132	0xbdc0713c	-0.09396598
133	0xbfc7f0ef	-1.5620402
134	0x3cdf231d	0.027238423
135	0xbf02687c	-0.5094068
136	0xbe313afe	-0.1730766
137	0xbf27f470	-0.6560736
138	0x3f565e7d	0.8373793
139	0xbf6b0fc6	-0.91820943
140	0x3d06efc7	0.032943513
141	0x3f3b7d05	0.7323764
142	0xbf3729a1	-0.71547896
143	0x3f8be397	1.092883
144	0x3e100fb5	0.14068492
145	0x3f1718fb	0.5902249
146	0xbe31316b	-0.17304008
147	0x3e6b3bd7	0.22972046
148	0xbee873bb	-0.45400795
149	0xbe977b7f	-0.29586408
150	0x3d17f52d	0.037099052
151	0xbbc7f441	-0.0061021154
152	0xbc9a3c43	-0.018827563
153	0x3fbb528b	1.4634565
154	0xb9ddd91d	-0.00042314167
155	0x3e18a96a	0.14908376
156	0xbb7d9ecd	-0.003869939
157	0xbe0a76fd	-0.13521953
158	0xbf5f0134	-0.8711121
159	0xbca0f0bd	-0.019646043
160	0x3dd1b0e2	0.10238816
161	0xbcf7efaf	-0.030265657
162	0x3d4ebe92	0.05047471
163	0x3d065ea7	0.03280511
164	0xbe185566	-0.14876327
165	0xbc024dc9	-0.007953116
166	0x3e1bd821	0.15219165
167	0xbb519217	-0.0031977945
168	0x3ce3d47f	0.027811287
169	0xbecf38f1	-0.4047313
170	0xbed1dea6	-0.4099018
171	0xbedadeab	-0.42748007
172	0xbeb1f676	-0.34758347
173	0xbeb6d4e9	-0.35709313
174	0xbeda64f9	-0.4265516
175	0xbedd4850	-0.43219233
176	0xbf38c6ef	-0.7217855
177	0xbf32d6e3	-0.6985914
178	0xbf1a39da	-0.60244524
179	0xbf5444c4	-0.8291743
180	0x3f0c6679	0.5484386
181	0x3dff95c4	0.124797374
182	0x3dbef901	0.093248375
183	0x3e166624	0.14687401
184	0xbf58711d	-0.845476
185	0xbef87d68	-0.48533177
186	0xbd347ef6	-0.044066392
187	0xbaf029d4	-0.0018323013
188	0x3db93767	0.0904377
189	0xbe116f53	-0.14202623
190	0x3e97e807	0.2966921
191	0xbe433515	-0.19063218
192	0x3ebabc30	0.364717
193	0xbf8e96b0	-1.1139736
194	0xbdc73754	-0.0972735
195	0xbea113f5	-0.31460539
196	0xbe9cd8f4	-0.30634272
197	0xbe8b00fb	-0.27149186
198	0xbdbe58b5	-0.09294263
199	0xbf891986	-1.0710914
200	0xbe50c700	-0.20388412
201	0x3f6c5d74	0.923301
202	0xbe9fbc6a	-0.31198436
203	0xbdc771f2	-0.0973853
204	0x3f2c142c	0.6721828
205	0x3f165dbf	0.58736795
206	0x3e04573b	0.12923901
207	0xbeea4da0	-0.45762348
208	0xbf112e3d	-0.5671118
209	0xbd3d5eb5	-0.046232898
210	0x3e269f90	0.16271806
211	0xbe5326d1	-0.20620276
212	0x3e13b3b2	0.14424017
213	0xbdd5a40d	-0.10431681
214	0xbdad247e	-0.08454226
215	0xbe113a02	-0.14182284
216	0xbee2cdc6	-0.44297618
217	0x3f6350de	0.8879527
218	0xbfa2ddc2	-1.2723925
219	0xbe3d8bec	-0.18510407
220	0xbd22c2fe	-0.03973674
221	0x3d2ad30a	0.04170517
222	0x3e2e7ca5	0.17039736
223	0x3e2bbc70	0.16771102
224	0x3ea19ce8	0.31565022
225	0x3db3f8a9	0.087876625
226	0xbeb27d60	-0.3486128
227	0x3e04d35f	0.12971257
228	0xbf4646f5	-0.7745202
229	0xbec8c3c4	-0.39211857
230	0xbe65af29	-0.224301
231	0x3ef50700	0.47856903
232	0x3ed78e70	0.4210086
233	0xbeed2bff	-0.4632263
234	0xbfadb8c8	-1.3572016
235	0x3f362dc7	0.711636
236	0xbea6f561	-0.32609084
237	0xbedd7e6c	-0.43260515
238	0x3d4319e1	0.047632102
239	0x38fd0b9c	0.000120661425
240	0xbec85fd6	-0.39135617
241	0x3ea0337b	0.31289276
242	0x3ee6c4ea	0.45072109
243	0xbdae7f34	-0.08520356
244	0xbec11df2	-0.3771816
245	0x3e921797	0.28533623
246	0x3e90dae0	0.28291988
247	0x3e4ac4ad	0.19801588
248	0xbe912252	-0.28346497
249	0x3f5bb88e	0.85828483
250	0x3c915180	0.017739058
251	0x3f08b824	0.53405976
252	0xbe4e7be1	-0.20164444
253	0x3dc1f1ed	0.09469972
254	0x3ebf4a87	0.37361547
255	0x3e0797ed	0.13241549

network.0.bias f4 [256]
0	0xbf2229f9	-0.63345295
1	0xbe8f5b0f	-0.2799916
2	0xbeb1a58c	-0.34696615
3	0xbe956640	-0.29179573
4	0xbe84ebc6	-0.2596113
5	0xbf92aebc	-1.1459575
6	0xbee1b86b	-0.44086012
7	0xbdde84ed	-0.10865197
8	0xbe19bdb5	-0.15013774
9	0xbea157e1	-0.3151236
10	0xbe08b853	-0.13351564
11	0xbe1cf7aa	-0.15328851
12	0xbec16df6	-0.37779206
13	0xbeb785ab	-0.35844168
14	0xbf27a2c7	-0.65482754
15	0xbed2174a	-0.41033393
16	0xbe9c5b88	-0.30538583
17	0xbd949b97	-0.07256239
18	0xbeedecdb	-0.4646977
19	0xbefc612c	-0.49292886
20	0xbee984e5	-0.45609203
21	0xbec440e4	-0.38330758
22	0xbe509417	-0.20368992
23	0xbe9b78d1	-0.30365613
24	0xbf001918	-0.5003829
25	0xbeaa0506	-0.33206958
26	0xbec32aaa	-0.38118488
27	0xbee21485	-0.4415628
28	0x3e3bef73	0.18353061
29	0xbead1810	-0.3380742
30	0xbe4d8e7b	-0.20073883
31	0xbe9add85	-0.3024713
32	0xbefa6636	-0.48906106
33	0x3db9f71e	0.09080337
34	0xbec50105	-0.3847734
35	0xbee21800	-0.44158936
36	0xbe0155e8	-0.12630427
37	0xbb3cecc4	-0.0028827647
38	0xbeea2746	-0.45733088
39	0xbee54309	-0.44777706
40	0xbe846298	-0.2585647
41	0xbedf75e3	-0.43644628
42	0xbf075257	-0.52860016
43	0xbd6f893b	-0.058480483
44	0xbd485b45	-0.048915166
45	0xbde7b8c8	-0.11314541
46	0xbef4f33b	-0.4784182
47	0xbea6ee70	-0.32603788
48	0xbefb98f8	-0.49140143
49	0xbea74683	-0.32670984
50	0xbec52514	-0.3850485
51	0xbf1bbccb	-0.6083495
52	0xbe88f151	-0.2674661
53	0xbe70ab3c	-0.2350282
54	0x3e957a45	0.29194847
55	0xbee425a2	-0.44559962
56	0xbe9832f7	-0.29726383
57	0xbe1c9e83	-0.15294842
58	0xbe84d81c	-0.25946128
59	0xbea9be45	-0.33152977
60	0xbeb71d7e	-0.35764688
61	0xbe8229c6	-0.25422496
62	0xbee3678a	-0.44414932
63	0xbe89ee9f	-0.26939866
64	0xbebec1c7	-0.37257215
65	0xbf281052	-0.656499
66	0xbeb31b74	-0.34981883
67	0xbeab5cf6	-0.3346936
68	0xbe9108dd	-0.28327075
69	0xbddf793e	-0.10911797
70	0x3db07419	0.08615894
71	0xbebe9ffe	-0.3723144
72	0xbe9b5f07	-0.30345938
73	0xbecd93ef	-0.40151927
74	0xbeb55f72	-0.35424381
75	0xbe97c21f	-0.2964029
76	0xbe705bf6	-0.2347258
77	0xbe6e7160	-0.23285437
78	0xbf742474	-0.95368123
79	0xbef4fc73	-0.47848853
80	0xbefc352a	-0.4925931
81	0xbe2c3d6d	-0.16820307
82	0xbebef4cd	-0.37296143
83	0xbeaa0e6a	-0.33214122
84	0xbe63b044	-0.22235209
85	0xbf1045e4	-0.56356645
86	0xbe6c6866	-0.230867
87	0xbe5bb30f	-0.21455024
88	0xbe826e1d	-0.25474635
89	0xbea6e1a9	-0.3259404
90	0xbec155dd	-0.3776082
91	0xbed57519	-0.416909
92	0xbeeaf254	-0.45888007
93	0xbe821479	-0.25406244
94	0xbe2910e4	-0.1651035
95	0x3b99100e	0.0046711033
96	0xbd01fd0d	-0.03173547
97	0xbea702a5	-0.32619205
98	0xbedfeae5	-0.43733898
99	0xbf2f8f5a	-0.6857811
100	0xbdb48525	-0.08814458
101	0xbedab7fb	-0.4271849
102	0xbedb03b4	-0.42776263
103	0xbed0fb78	-0.40816855
104	0xbe45f309	-0.19330992
105	0xbf83567a	-1.0260766
106	0xbe592799	-0.21206512
107	0xbed36d9d	-0.41294566
108	0xbedca3d9	-0.43093756
109	0x3ceb7816	0.028743785
110	0xbef284db	-0.47366986
111	0xbdd9c198	-0.10632628
112	0xbea483dd	-0.32131854
113	0x3d3f2e89	0.04667524
114	0xbe3fcce4	-0.18730503
115	0xbe8d914e	-0.2764992
116	0xbf9dcfb1	-1.2329007
117	0xbea518a6	-0.32245368
118	0xbf5e477d	-0.8682783
119	0xbe294d46	-0.16533384
120	0xbf73f0b8	-0.9528918
121	0xbefee2b2	-0.4978233
122	0xbe43f609	-0.19136824
123	0xbeb0272c	-0.34404886
124	0xbeef0e89	-0.46690777
125	0xbec19123	-0.37806043
126	0xbdac8e64	-0.08425596
127	0xbec8b9e7	-0.39204332
128	0xbf3c8c4f	-0.73651594
129	0xbe9c67e5	-0.30548015
130	0xbf12e2a9	-0.57377106
131	0xbefb1990	-0.4904294
132	0xbd906c35	-0.07051889
133	0xbe878b90	-0.26473665
134	0xbe757286	-0.23969468
135	0xbe8f3b64	-0.27975
136	0xbf802098	-1.0009947
137	0xbec55fce	-0.38549656
138	0xbe984493	-0.29739818
139	0xbee03d97	-0.4379699
140	0xbf153a53	-0.5829212
141	0xbe47200a	-0.19445816
142	0xbdda5aab	-0.10661825
143	0xbef0bcdb	-0.47019085
144	0xbefe643d	-0.4968585
145	0xbe9838e1	-0.29730895
146	0xbf0224b3	-0.5083725
147	0xbec86dd6	-0.39146298
148	0xbf0f7a14	-0.5604565
149	0x3c9d452b	0.01919802
150	0xbf278fc4	-0.65453744
151	0xbe5d71cd	-0.21625443
152	0xbe163894	-0.1467002
153	0xbefc4a4a	-0.49275428
154	0xbf1077d0	-0.5643282
155	0xbe8b5a78	-0.2721746
156	0xbef5e949	-0.48029545
157	0xbeaffd4f	-0.34372947
158	0xbe9303d1	-0.2871385
159	0xbf8890df	-1.0669211
160	0xbe944413	-0.28958187
161	0xbef13055	-0.47107187
162	0xbeaabb06	-0.33345813
163	0xbed2e243	-0.4118825
164	0xbf175aad	-0.59122735
165	0xbe865fa5	-0.26244846
166	0xbf24ca10	-0.6437082
167	0xbf240e85	-0.64084655
168	0xbe49c9dc	-0.1970591
169	0xbea5b0db	-0.32361493
170	0xbe850e62	-0.25987536
171	0xbe6a9e1d	-0.22911878
172	0xbf680ece	-0.9064759
173	0xbeb3157e	-0.34977335
174	0xbf86fc42	-1.0545733
175	0xbea72fe7	-0.32653734
176	0xbef36d37	-0.47544262
177	0xbe4816ba	-0.1953992
178	0xbea7162f	-0.32634112
179	0xbf0622cb	-0.5239684
180	0xbe977da8	-0.29588056
181	0xbf085f56	-0.5327047
182	0xbedba8c5	-0.42902198
183	0xbe806229	-0.2507489
184	0xbe7c3fc2	-0.24633697
185	0xbea4af7b	-0.3216513
186	0xbec61855	-0.3869044
187	0x3be138b6	0.0068732155
188	0xbeb69150	-0.3565774
189	0xbef08874	-0.46979105
190	0xbf11301d	-0.5671404
191	0xbec36456	-0.38162488
192	0xbe665d9c	-0.22496647
193	0xbee555a4	-0.447919
194	0xbe8a9c3b	-0.2707232
195	0xbea19fb5	-0.3156716
196	0xbe97cc78	-0.29648185
197	0xbef54ddf	-0.47910973
198	0xbeb6c54a	-0.35697395
199	0xbefd0423	-0.4941722
200	0xbeb33385	-0.35000244
201	0xbeba19c2	-0.36347777
202	0xbe2f8f2f	-0.17144464
203	0xbee4491f	-0.44587037
204	0xbc3e891d	-0.01162937
205	0xbe850877	-0.2598302
206	0xbeea892d	-0.45807782
207	0xbdf4422c	-0.11926684
208	0xbe9343fa	-0.287628
209	0xbf03a3e1	-0.51421934
210	0xbef33dfc	-0.47508228
211	0xbe856743	-0.26055345
212	0xbe99485e	-0.29938024
213	0xbd4ba122	-0.049714215
214	0xbec7f5e7	-0.39054796
215	0xbf0b3673	-0.5437996
216	0xbed4b38b	-0.4154323
217	0xbefd2da8	-0.49448895
218	0xbf185597	-0.595056
219	0xbdee24c2	-0.11628105
220	0xbee1c527	-0.44095728
221	0xbe5e9ae3	-0.21738772
222	0xbe9030ec	-0.28162324
223	0xbf0c94ef	-0.54914755
224	0xbf0a865e	-0.5411128
225	0xbe34ab02	-0.1764336
226	0xbe4d1a69	-0.20029606
227	0xbf101b66	-0.56291807
228	0xbd0bdc11	-0.03414542
229	0xbea6f308	-0.32607293
230	0xbf0157d2	-0.5052463
231	0xbeed478d	-0.4634365
232	0xbebc1137	-0.36731884
233	0xbec15617	-0.37760994
234	0xbf03faf6	-0.5155481
235	0xbeaf7c48	-0.34274507
236	0xbd0edcb8	-0.034878463
237	0xbf00f567	-0.50374454
238	0xbeda4424	-0.42630112
239	0xbedc8d87	-0.43076727
240	0xbe93457c	-0.2876395
241	0xbeffc6a9	-0.49956253
242	0xbed442cc	-0.41457212
243	0xbde85ad4	-0.11345449
244	0x3da12484	0.07868293
245	0xbecc82d5	-0.39943567
246	0xbf1a35e7	-0.602385
247	0xbed9c1ce	-0.42530674
248	0xbdc3ab8f	-0.095542066
249	0xbf142782	-0.57872784
250	0xbeac2496	-0.33621663
251	0xbf5d289d	-0.86390096
252	0xbea8dff5	-0.32983366
253	0xbeab96da	-0.33513528
254	0xbe6355a0	-0.22200632
255	0xbd48ef9d	-0.049056638

network.3.weight f4 [64, 256]
0	0xbeb97b18	-0.36226726
1	0x3e1a7233	0.15082626
2	0x3e24905b	0.16070692
3	0x3e080945	0.13284786
4	0xbed11598	-0.40836787
5	0xbe20018c	-0.1562559
6	0xbec40657	-0.38286087
7	0xbecfc98e	-0.40583462
8	0x3ea58289	0.32326153
9	0xbf3f20c9	-0.746594
10	0xbefc004e	-0.49218982
11	0xbf0c125c	-0.54715514
12	0xbe8008f9	-0.25006846
13	0xbe46cd85	-0.19414337
14	0xbe190ecd	-0.14947052
15	0x3df44fe9	0.11929304
16	0x3e4b3fea	0.198486
17	0xbe4c4861	-0.19949485
18	0xbd455fb6	-0.04818698
19	0x3da8921f	0.082309954
20	0x3c6c1257	0.014408669
21	0xbda6eef4	-0.081510454
22	0xbf03760a	-0.5135199
23	0x3eb334d7	0.3500125
24	0x3e939640	0.2882557
25	0xbcc0a90d	-0.02351811
26	0x3e0cc301	0.13746263
27	0xbe8af533	-0.27140197
28	0x3e2271d3	0.15863733
29	0xbe1277fb	-0.14303581
30	0x3cb41d5e	0.02198666
31	0x3eabe59a	0.3357361
32	0xbcc84584	-0.02444721
33	0xbe38ebc8	-0.18058693
34	0x3d89d003	0.06729128
35	0xbedd9562	-0.43278033
36	0xbef53ca8	-0.4789784
37	0x3cb1793c	0.021664254
38	0x3e89ce1e	0.26915067
39	0xbf387d75	-0.7206643
40	0xbe766145	-0.24060543
41	0xbf05fb4e	-0.52336586
42	0xbd1eb21f	-0.03874409
43	0xbeab3e50	-0.33445978
44	0xbfa97282	-1.323807
45	0xbe632b2b	-0.22184436
46	0xbc8c9c89	-0.017164486
47	0xbc154098	-0.009109639
48	0x3d38664b	0.04501943
49	0xbe728b43	-0.23685937
50	0x3ddee226	0.10882978
51	0xbf3870fa	-0.7204739
52	0x3d402118	0.04690656
53	0xbe6e3e9d	-0.23266073
54	0x3cc212e8	0.023690656
55	0xbe7f1e4b	-0.249139
56	0x3d3a237f	0.045444008
57	0xbe9a4ef8	-0.30138373
58	0xbec25433	-0.37954864
59	0x3e3a0efe	0.18169782
60	0x3ddfce4f	0.10928022
61	0x3e6313f5	0.22175582
62	0xbe956671	-0.2917972
63	0x3df3bc98	0.11901206
64	0xbceb7a3c	-0.02874481
65	0xbef0ea92	-0.47053963
66	0xbc2fc217	-0.010727427
67	0xbf270188	-0.6523671
68	0xbef0e84a	-0.47052222
69	0xbea449ef	-0.32087657
70	0x3e98a6d5	0.29814783
71	0x3ea9322e	0.33046097
72	0x3e222fea	0.1583859
73	0x3e88fbb7	0.26754543
74	0xbd8425ee	-0.06452547
75	0x3c982c75	0.018575886
76	0x3d9ea77e	0.0774679
77	0xbf15cd6d	-0.5851658
78	0xbe929194	-0.28626692
79	0xbecd8f9f	-0.40148637
80	0xbe01e365	-0.126844
81	0xbeb0487f	-0.3443031
82	0xbd92142f	-0.07132756
83	0x3d9294fe	0.07157324
84	0xbc87e81c	-0.01659017
85	0x3e0b414c	0.13599128
86	0xbdf9382b	-0.12168916
87	0xbf42ecbd	-0.76142484
88	0xbe33e0a5	-0.17566164
89	0x3d304d33	0.043042373
90	0xbf23590d	-0.63807756
91	0x3e65a66c	0.22426766
92	0x3e36a436	0.17836079
93	0xbe19b4ce	-0.15010378
94	0x3e47730b	0.19477479
95	0x3e4961c1	0.19666196
96	0x3e736909	0.23770536
97	0x3cba991b	0.022778085
98	0xbee793b0	-0.45229864
99	0xbe6b173f	-0.22958086
100	0xbe0f72f3	-0.14008693
101	0xbe82775a	-0.25481683
102	0xbec73474	-0.38907206
103	0xbdaf3190	-0.08554375
104	0xbf282d2e	-0.6569394
105	0xbe228566	-0.158712
106	0xbe058616	-0.13039431
107	0xbd3255b9	-0.043538783
108	0x3e14f3e7	0.14546166
109	0xbd3a25ce	-0.04544621
110	0xbf499a6f	-0.7875127
111	0x3e6182bc	0.22022527
112	0xbba1316e	-0.0049192226
113	0xbdb42346	-0.087957904
114	0x3becd710	0.007227786
115	0x3df9d1cd	0.121982194
116	0xbdfc318e	-0.12314139
117	0xbd6cd253	-0.05781777
118	0xbe06bd42	-0.13158134
119	0xbf478be4	-0.7794783
120	0xbe1d7618	-0.1537708
121	0xbe8471b3	-0.25867996
122	0xbea451ca	-0.3209365
123	0xbde7cacf	-0.113179795
124	0xbdcfd1de	-0.10147451
125	0x3ef7a21c	0.48365867
126	0xbe6f4268	-0.23365176
127	0xbea38d87	-0.31943914
128	0xbf687de3	-0.9081709
129	0x3dd6225c	0.10455772
130	0x3ed5ec7e	0.41781992
131	0xbe052c1d	-0.13005109
132	0xbd0ae88e	-0.033913188
133	0xbf34c2c4	-0.7060969
134	0xbf6229e1	-0.8834515
135	0xbe247454	-0.1606
136	0xbe395530	-0.18098903
137	0xbd8a1553	-0.067423485
138	0xbeda0efe	-0.42589563
139	0xbf120e25	-0.5705283
140	0x3f3a4bae	0.7277173
141	0xbe4cacdd	-0.19987817
142	0xbed94f95	-0.4244353
143	0xbf23dec4	-0.6401179
144	0xbe7db1c5	-0.24774845
145	0xbe7dd2c1	-0.24787427
146	0xbe3678b9	-0.1781949
147	0xbeafe991	-0.34357885
148	0x3ee41a97	0.44551536
149	0x3ca5ad47	0.020224227
150	0x3dc72ce0	0.09725356
151	0x3c368497	0.01114001
152	0x3ec76235	0.38942114
153	0xbf0d17a3	-0.5511419
154	0xbe326336	-0.17420658
155	0x3e49c9f9	0.19705953
156	0x3d2f2a1f	0.04276478
157	0xbe9411f2	-0.2891994
158	0xbd4fb649	-0.05071095
159	0x3ec09edb	0.37621197
160	0xbc5f07dc	-0.013612714
161	0xbc0a87b0	-0.008455202
162	0xbe6329c3	-0.221839
163	0x3d8a0c2c	0.06740603
164	0x3eb24ba7	0.34823343
165	0xbbb73fc2	-0.0055923173
166	0xbe8b7a76	-0.27241868
167	0xbedead20	-0.4349146
168	0xbe34c915	-0.17654832
169	0x3edd9539	0.4327791
170	0x3ecde200	0.40211487
171	0xbed7b9e3	-0.42134008
172	0xbe62ecde	-0.2216067
173	0x3d26965d	0.04067074
174	0xbe1ccde9	-0.15312923
175	0x3ebcdc34	0.36886752
176	0xbee44d4f	-0.44590232
177	0xbee04aa6	-0.43806952
178	0x3e103e8e	0.14086363
179	0xbd2e3ac0	-0.042536497
180	0xbe95ea36	-0.2928025
181	0xbe4a893e	-0.19778916
182	0x3eab31b1	0.3343635
183	0xbe042757	-0.12905632
184	0xbcdc5b6b	-0.02689906
185	0xbe067422	-0.13130239
186	0x3eff5a1f	0.49873444
187	0xbc6090ed	-0.013706428
188	0xbe5dd715	-0.21664079
189	0xbeb4014b	-0.35157236
190	0x3db03e37	0.086056165
191	0xbec58300	-0.38576508
192	0xbbbc874f	-0.0057534347
193	0x3d5210de	0.051285617
194	0xbec4def9	-0.38451365
195	0x3f40e446	0.7534832
196	0xbe8f1936	-0.27948922
197	0xbe211cf5	-0.15733702
198	0xbea59238	-0.3233812
199	0xbef6c061	-0.48193648
200	0xbe361d3a	-0.17784587
201	0xbf54e67f	-0.8316421
202	0xbeac116b	-0.3360704
203	0x3e0e67d1	0.1390679
204	0xbe077714	-0.13229018
205	0x3d72674e	0.05918055
206	0xbd1bee84	-0.038069263
207	0xbf23e6f1	-0.64024264
208	0xbeaa8b19	-0.33309248
209	0xbe9b2c31	-0.30307153
210	0xbe824029	-0.25439575
211	0xbd52dc08	-0.05147937
212	0xbef4cc11	-0.4781194
213	0xbe8a475e	-0.27007574
214	0xbf48c0b2	-0.7841903
215	0xbecc531c	-0.39907157
216	0x3e8459db	0.25849804
217	0xbe9ad14f	-0.30237815
218	0xbf1acc25	-0.6046775
219	0xbe946ab7	-0.28987667
220	0xbf2c8f6d	-0.6740635
221	0x3b8382fa	0.0040134164
222	0x3e701933	0.23447113
223	0xbd8a803a	-0.067627385
224	0xbd3c2b3b	-0.045939665
225	0xbdf17cf7	-0.11791413
226	0x3ed9b647	0.4252188
227	0x3d75e49a	0.060032465
228	0xbdb38c45	-0.08766989
229	0xbd745a44	-0.059656397
230	0x3ea3e525	0.3201076
231	0xbdd17bb5	-0.10228673
232	0xbe06fa7a	-0.13181487
233	0x3eb0b8b2	0.3451591
234	0xbe99045a	-0.29886132
235	0x3d1416a9	0.036154423
236	0xbc6d2f1f	-0.014476567
237	0xbc41174a	-0.011785338
238	0xbeaa86d2	-0.33305985
239	0x3c1ab695	0.009442945
240	0xbef27bf8	-0.47360206
241	0x3f0fd4a6	0.5618385
242	0xbea70541	-0.32621196
243	0x3c4ddbe2	0.012564631
244	0xbebde018	-0.37085032
245	0xbcc2044d	-0.023683691
246	0xbf31039d	-0.6914614
247	0xbf204139	-0.6259952
248	0xbefb7fe7	-0.4912102
249	0x3d8b38ba	0.06797929
250	0xbf0f4869	-0.55969864
251	0xbe30dce4	-0.17271763
252	0xbd19155d	-0.03737389
253	0x3daf4c62	0.08559491
254	0x3caa7e0a	0.020812053
255	0x3b3d3e5d	0.0028876283

network.3.bias f4 [64]
0	0x3ea02dd7	0.31284973
1	0x3ed9793f	0.42475316
2	0x3ef1e038	0.47241378
3	0xbefe9d6d	-0.4972948
4	0xbff192bb	-1.8872904
5	0x3eead6da	0.45867044
6	0x3e277d29	0.16356339
7	0xbf2f08ad	-0.68372613
8	0xbd1d5fc8	-0.038421422
9	0xbf05f61f	-0.52328676
10	0xbf9f59a8	-1.2449236
11	0x3e972691	0.2952161
12	0x3e60b5da	0.21944371
13	0xbec45bbc	-0.38351238
14	0xbdb544d8	-0.088510215
15	0xbf901d0e	-1.1258867
16	0xbebcbac6	-0.36861247
17	0xbf18cd62	-0.5968839
18	0xbedadf41	-0.42748454
19	0x3f50b6fc	0.8152921
20	0xbedde28e	-0.4333691
21	0xbed0705f	-0.40710732
22	0xc0206a85	-2.5065014
23	0xbf700c9c	-0.9376924
24	0xbf900a63	-1.125317
25	0x3e05be8e	0.13060972
26	0x3f4fc9c1	0.8116723
27	0xbf1d103e	-0.6135291
28	0x3df19fdd	0.117980696
29	0x3f0f1b69	0.559012
30	0xbf0e4559	-0.55574566
31	0x3fba0ea2	1.4535716
32	0xbf7ba6b0	-0.9830122
33	0x3ec3bf7d	0.3823203
34	0x3f339c74	0.70160604
35	0xbf0937ae	-0.53600585
36	0x3e26d70f	0.16292976
37	0xbf2dca6c	-0.67886996
38	0x3e803fdb	0.25048718
39	0x3f04fd45	0.5194896
40	0xbf934aac	-1.1507163
41	0x3ea0c183	0.31397638
42	0xbfa2e315	-1.272555
43	0xbee2582c	-0.44207895
44	0xbf029005	-0.51001006
45	0xbecc8d13	-0.3995138
46	0x3eac3c3d	0.33639708
47	0xbf7a63d1	-0.9780856
48	0xbdd2701e	-0.10275291
49	0xbfba0c3a	-1.4534981
50	0x3e2bc427	0.16774045
51	0xbf9234d8	-1.1422377
52	0xbef3b86c	-0.4760164
53	0xbf1733ba	-0.59063303
54	0xbfa5997d	-1.2937466
55	0x3ea1114c	0.3145851
56	0xbf0ae424	-0.54254365
57	0xbfd56c27	-1.667363
58	0x3fb40cdc	1.4066424
59	0x3e778d3d	0.24174972
60	0x3f3696e7	0.7132401
61	0xbdcfe16f	-0.1015042
62	0xbf39657f	-0.72420496
63	0xbf4d4534	-0.8018372

network.5.weight f4 [32, 64]
0	0xbebd6d28	-0.36997342
1	0xbdb70c8b	-0.08937939
2	0xbe83a312	-0.2571035
3	0xbe59df18	-0.2127651
4	0xbf70bbfe	-0.94036853
5	0xbeea336e	-0.45742363
6	0x3df1c865	0.118058
7	0x3ed5cf69	0.41759804
8	0x3e33d40c	0.17561358
9	0x3f3be7bf	0.7340049
10	0xbe0676dd	-0.1313128
11	0x3e49f0c3	0.1972075
12	0x3c38d32f	0.011280819
13	0xbdde1ec2	-0.1084571
14	0xbeccee8a	-0.4002574
15	0xbdf95974	-0.12175265
16	0x3eb83ea0	0.3598528
17	0xbc973b47	-0.018460883
18	0xbcabc255	-0.020966688
19	0x3ed32201	0.4123688
20	0xbe7a0475	-0.24415763
21	0xbe0fe536	-0.14052281
22	0x3d9772ac	0.07394919
23	0x3de71698	0.11283606
24	0xbe1dc052	-0.15405396
25	0xbb50f3c5	-0.003188358
26	0xbf3825ed	-0.7193287
27	0xbedabfe3	-0.42724523
28	0x3d5ebc9f	0.0543791
29	0xbd8763f4	-0.066108614
30	0xbeb78776	-0.35845536
31	0xbe82d005	-0.2554933
32	0xbf8de0a7	-1.1084183
33	0x3e924fe4	0.28576577
34	0x3dece3b3	0.11566868
35	0xbe01b4a6	-0.12666568
36	0xbdf63712	-0.120222226
37	0xbe606716	-0.21914324
38	0xbd6d0a96	-0.057871424
39	0x3d02b225	0.031908173
40	0x3d36b1ca	0.044603147
41	0xbe988126	-0.29786032
42	0xbe7025c7	-0.23451911
43	0x3bb3b0a1	0.0054837023
44	0xbe4aa751	-0.19790389
45	0xbc6eab26	-0.014567172
46	0xbe327817	-0.17428623
47	0xbd138b5c	-0.036021575
48	0x3d5dc460	0.054142356
49	0xbd2512f1	-0.040301267
50	0xbdebcab6	-0.115132734
51	0xbf6cc366	-0.92485654
52	0xbf1a1101	-0.60182196
53	0x3e92f8ce	0.28705448
54	0x3e7237e1	0.23654129
55	0x3e8fd7e9	0.28094414
56	0xbd0bcd61	-0.03413141
57	0x3ecf9b1c	0.40548027
58	0x3ee43b10	0.4457631
59	0x3e17fddf	0.14842938
60	0x3ec6c78d	0.3882412
61	0xbe0861fa	-0.13318625
62	0xbc008431	-0.007844017
63	0x3f28097d	0.6563948
64	0x3e0e583b	0.13900845
65	0xbf1c314b	-0.61012715
66	0xbdc57b19	-0.0964262
67	0xbec63833	-0.38714752
68	0xbeb9a47a	-0.36258298
69	0xbe463877	-0.19357477
70	0x3f068fc8	0.5256314
71	0x3e04a833	0.12954788
72	0xbf0b4c20	-0.5441303
73	0xbe5942ab	-0.21216838
74	0x3e4bc0dd	0.1989779
75	0xbdb726cd	-0.089429475
76	0x3d44564f	0.047933873
77	0x3eceec74	0.40414774
78	0x3e3bb874	0.18332082
79	0xbf6d209d	-0.9262789
80	0xbc229e36	-0.009925416
81	0xbf420dee	-0.75802505
82	0xbec225e5	-0.37919536
83	0x3da174bb	0.07883593
84	0xbd961704	-0.07328609
85	0x3e748934	0.23880464
86	0x3f168f27	0.58812183
87	0x3e450f47	0.19244109
88	0xbf2e0643	-0.67978305
89	0xbd3ff7fa	-0.04686735
90	0xbcd23f93	-0.02566508
91	0xbf0d35b5	-0.55160075
92	0x3c749e6c	0.014930349
93	0xbe951ab6	-0.2912194
94	0xbd8f4bde	-0.069968924
95	0xbf198e0c	-0.5998237
96	0xbe671190	-0.22565293
97	0x3d9c950b	0.07645615
98	0xbee9ac0c	-0.45639074
99	0xbe05565b	-0.13021223
100	0xbdd463e9	-0.10370619
101	0xbde279ae	-0.11058365
102	0x3f243420	0.64142036
103	0xbe17d859	-0.14828624
104	0xbda51a2c	-0.080616325
105	0xbe59978d	-0.21249218
106	0xbde7ce0b	-0.113185965
107	0x3ea3543f	0.31900212
108	0x3e22b191	0.15888049
109	0xbd780bf5	-0.060558278
110	0xbd70929a	-0.05873356
111	0x3ca5c1e2	0.020234052
112	0x3b258e53	0.0025261834
113	0x3ebb87f3	0.3662716
114	0x3f253774	0.6453774
115	0x3b8e3ab9	0.0043404964
116	0x3f2b7fb9	0.66991764
117	0xbe820e57	-0.25401565
118	0xbc355eac	-0.011069935
119	0xbf377403	-0.71661395
120	0xbf04ca59	-0.5187126
121	0x3ccb57af	0.024822084
122	0x3ea7bf1a	0.32762986
123	0x3e1b3a0f	0.15158866
124	0xbbda5aa3	-0.006663637
125	0x3ebaeeae	0.36510223
126	0x3f2cb522	0.67463887
127	0xbe17a7e6	-0.14810142
128	0xbee54242	-0.44777113
129	0xbeacdaeb	-0.3376077
130	0xbe9b8d58	-0.30381274
131	0xbe6efe9f	-0.23339318
132	0xbf034401	-0.5127564
133	0xbe82e2f0	-0.25563765
134	0x3eb98700	0.3623581
135	0xbe6bd384	-0.23029906
136	0x3e845b2b	0.25850806
137	0x3f65d6a9	0.8978067
138	0x3e87c300	0.2651596
139	0x3ea23645	0.3168203
140	0xbee32d92	-0.44370705
141	0xbe522ea7	-0.20525609
142	0xbf14251b	-0.5786912
143	0xbe83fc51	-0.2577844
144	0x3f035c1a	0.5131241
145	0x3ebf5533	0.3736969
146	0x3f0a6d2c	0.54072833
147	0xbd7be9dc	-0.061502323
148	0x3e516a8b	0.20450799
149	0x3ea5162b	0.32243475
150	0xbed178ab	-0.40912375
151	0xbe58173e	-0.21102616
152	0xbe585b52	-0.21128586
153	0x3da3687d	0.07978914
154	0xbdad95a6	-0.08475809
155	0xbf5a838d	-0.8535698
156	0xbe68283b	-0.22671597
157	0x3d991901	0.07475472
158	0x3eb7bcc0	0.35886192
159	0xbdd2c8ae	-0.10292183
160	0x3e2662e1	0.16248657
161	0x3db971d1	0.09054912
162	0x3e08b2a8	0.13349402
163	0xbcb7b741	-0.02242625
164	0x3ed2f017	0.411988
165	0xbf249e73	-0.64304274
166	0xbf42a026	-0.7602562
167	0x3f1b5496	0.6067594
168	0xbcb51a3e	-0.02210724
169	0xbeb67899	-0.35638884
170	0xbf089763	-0.53356
171	0x3dd3ee56	0.10348193
172	0xbea6f512	-0.3260885
173	0xbe394257	-0.18091713
174	0xbde0708e	-0.10958968
175	0x3e1ec356	0.15504202
176	0xbf11b85e	-0.56921947
177	0x3e240ccd	0.16020508
178	0x3da270f3	0.079316996
179	0xbdbc6e94	-0.092007786
180	0x3f344458	0.70416784
181	0xbcc690a4	-0.024238892
182	0x3e39b6f2	0.18136194
183	0xbf4335aa	-0.7625376
184	0xbd494431	-0.049137298
185	0xbeae7146	-0.34070796
186	0xbf7b89ce	-0.9825715
187	0x3ee6773d	0.45012847
188	0xbefc98ad	-0.49335232
189	0xbf1ba0e6	-0.60792387
190	0xbe60a0db	-0.21936361
191	0x3e8dfa91	0.2773023
192	0x3e8d31c5	0.27577034
193	0xbd7cfacc	-0.061762616
194	0xbe3ff799	-0.18746795
195	0xbed9b9f2	-0.42524678
196	0xbf177d5b	-0.5917565
197	0x3d4ae28d	0.049532462
198	0xbe769db9	-0.24083604
199	0xbf486fe8	-0.78295755
200	0x3e1db586	0.15401277
201	0xbe260778	-0.16213787
202	0x3ef6d311	0.48207906
203	0xbdc10023	-0.09423854
204	0xbd0b9e94	-0.03408678
205	0x3db3cff6	0.087799
206	0x3d6fc5b1	0.058538143
207	0x3dc7abad	0.097495414
208	0xbf1720d9	-0.59034497
209	0xbebad937	-0.36493847
210	0xbe08388e	-0.13302824
211	0xbe39637e	-0.1810436
212	0x39e0ee07	0.00042901954
213	0x3e2582d6	0.16163191
214	0xbee6aa3e	-0.4505176
215	0xbe746e5f	-0.23870228
216	0x3d11f57c	0.035634503
217	0xbed624fa	-0.41825086
218	0x3d1fc2ea	0.039004244
219	0xbef84bc8	-0.48495317
220	0xbd8dcc26	-0.06923704
221	0x3c8d1342	0.017221097
222	0x3da82757	0.082106285
223	0xbeb96ef1	-0.36217454
224	0x3f0ded60	0.5544033
225	0xbf0200ae	-0.5078229
226	0x3e8d599a	0.27607423
227	0xbd061da9	-0.03274313
228	0x3f1ca83b	0.611942
229	0xbe0e067a	-0.13869658
230	0xbe2c9877	-0.16855036
231	0xbe42d870	-0.19027877
232	0x3f5ae71d	0.855089
233	0xbf4bd192	-0.79616654
234	0xbe420d23	-0.18950324
235	0xbf2f84a3	-0.6856176
236	0xbe2979a8	-0.16550314
237	0xbda945b7	-0.0826525
238	0x3c44f5ca	0.012021491
239	0x3e982b76	0.29720658
240	0xbc9b95f6	-0.018992405
241	0xbe161ba0	-0.14658976
242	0x3f023f01	0.50877386
243	0x3c3fd42e	0.011708302
244	0xbe361930	-0.17783046
245	0xbf039122	-0.5139333
246	0xbc183e68	-0.009292223
247	0xbeb83c01	-0.3598328
248	0x3efee5f9	0.4978483
249	0x3fb7d37e	1.4361417
250	0xbdf20339	-0.11817021
251	0x3f3f30a7	0.7468361
252	0xbe050696	-0.12990794
253	0x3dca6d92	0.0988418
254	0xbf4a6db9	-0.79073673
255	0x3e9a94a1	0.3019152

network.5.bias f4 [32]
0	0x3f8e1abe	1.1101911
1	0xbe1076a1	-0.14107753
2	0xbf094ff8	-0.5363765
3	0xbf215b1f	-0.63029665
4	0x3fa888c1	1.3166734
5	0xbd330d8a	-0.043714084
6	0x3f10523b	0.56375474
7	0x3ecc7b88	0.39937997
8	0x3f2c7cae	0.67377746
9	0xbf920c8b	-1.1410078
10	0xbcd69f92	-0.026199136
11	0x3f374cd6	0.7160162
12	0x3f616da1	0.88057905
13	0xbfb83947	-1.439248
14	0xbea796e6	-0.32732314
15	0xbddb7cde	-0.10717176
16	0x3f96c387	1.177842
17	0xbf02149c	-0.508127
18	0x3f828460	1.0196648
19	0x3c9f1c73	0.019422745
20	0x3fe602c5	1.7969595
21	0x3f0fa187	0.56105846
22	0x3fa9ec94	1.3275323
23	0x3e40275a	0.18765011
24	0xbf1ca120	-0.6118336
25	0xbfb7f2ce	-1.4370973
26	0xbf40255d	-0.7505701
27	0xbf48233a	-0.7817875
28	0x3eed9356	0.4640147
29	0x3fc88d55	1.5668131
30	0xbf893c96	-1.0721614
31	0x3f34d1c1	0.7063256

network.7.weight f4 [1, 32]
0	0x3d489379	0.048968766
1	0x3d23375b	0.039847713
2	0x3d9a88c2	0.07545616
3	0x3e5205fd	0.20510097
4	0xbda52d16	-0.0806524
5	0x3d88aa25	0.066730775
6	0xbda98fdf	-0.08279394
7	0x3d21ce04	0.039503112
8	0x3d397fad	0.045287777
9	0x3ee6d26d	0.45082417
10	0xbdaeec51	-0.085411675
11	0x3da2cfa2	0.07949759
12	0x3d198878	0.037483662
13	0x3f1a6728	0.60313654
14	0x3d424a9c	0.047434434
15	0xbddaf643	-0.10691502
16	0xbd97fc15	-0.07421128
17	0x3da4f1f5	0.08053962
18	0x3d85ddd9	0.06536455
19	0xbd6a16b5	-0.05715056
20	0xbd9333f5	-0.071876444
21	0xbd160bca	-0.036632337
22	0xbd65992f	-0.05605429
23	0xbeed4fc6	-0.46349925
24	0x3d53eeea	0.051741518
25	0x3d705748	0.058676988
26	0xbd68dc54	-0.056850746
27	0xbd2ada8b	-0.041712325
28	0x3d4c6987	0.049905326
29	0xbd9edcda	-0.07756968
30	0xbd009bd9	-0.031398628
31	0x3d09f4d6	0.03368076
