static_dashboard/models/nn_v16.onnx (onnx, 208243 bytes, 7 tensors)

network.0.weight f4 [256, 30]
00000000: c25c 21bf dd19 e0be 7a6d ac3e 7e99 e83d
00000010: 3b9c e33c 5007 963d c29c 1c3d a6fd 95be
00000020: f243 61be acf8 0abe 94b3 b63d 3816 9bbd
00000030: d550 a23e 432c ae3c a89b 65be 895d bb3e
00000040: 7117 06be c295 133e 4ed7 59bd fb3c 553c
00000050: 95bb dfbd 9fb9 80be 6a01 233e a3b6 4abe
00000060: 8bf2 953c 68e0 c33d ebf2 13be 7b76 4dbe
00000070: daa8 963e 399e babe 4f6b 4bbe c987 413e
00000080: c4e4 73bd b6f2 2f3c e461 8f3e df70 693e
00000090: b25a db3d a970 cf3c 994d b73e 5674 bbbe
000000a0: f46a 123f 5c4c a7be 702b 183e 17a1 513e
000000b0: 67e9 7a3e 4b73 8cbe 052f 813e e609 d9be
000000c0: 13f7 a83d 173c 193f 512e f6be c4f2 c1bd
000000d0: 6ae0 fcbe 380e 9b3e 551f cc3e 5827 21bf
000000e0: de4b 0e3d 1b74 c4bc 72cb c33d 5b69 fabe
000000f0: 2449 83be fe64 f4be 8578 e03a 520d c33d
00000100: d97f 383f b2ab ea3d 7d58 743d 1e9d 93be
00000110: 916b 8f3d 2e39 363e 0f92 bc3e dd56 20be
00000120: c12e 3abe 3627 9cbe 6498 fe3b 8b72 47be
00000130: 04d8 803e 2be2 2bbf cf20 c13d f323 99be
00000140: 5b29 48be 230b dd3e d02d f2be a08a 343f
00000150: 05a3 0cbe 2127 4cbe c50f 04be fb62 b23e
00000160: 660b 833e 016b 18bf cb41 ba3c 570b 1b3d
00000170: 60bc a4bd 0982 8e3e 9fd1 5fbd e63f 013e
00000180: fef7 40b8 435d 813b 11e6 eb3c cdc0 02bd
00000190: 11c9 cebe 532c 8abe 2e4c 0fbd aae9 a3be
000001a0: e97f d7be 9fb3 74be ea58 48be 4410 3e3f
000001b0: e74f 803e f6b0 cc3c 3a6a f2ba 3245 ce3e
000001c0: 45ef 4d3f a723 bfbe b4ae 2a3e fa88 9d3f
000001d0: 880b 3ebe 976d c33d 0414 123d 7b86 5dbe
000001e0: f25a 5fbe 6e09 183d efb9 24bf 6303 37be
000001f0: 74cf aebd 1a54 e4bf 2047 b3b8 0829 adbe
00000200: 2b0e a63e 4c03 c0be f137 2fbe a63e 86be
00000210: 380a bbbd 0b7f 13be 1905 8fbe 7abc 7e3e
00000220: 7818 aebc c12f 263e 3869 653e d3d3 0fbf
00000230: ac20 b2be 3337 d8be 4a59 0cbe 99de 7cbe
00000240: 5111 093f 3b04 1abe bb04 8bbe 71e7 a8b9
00000250: 1d55 1abe 039f 963e a4cb d33e b3e6 f4bc
00000260: 5872 95be 9a7d aebe b6f9 95be fb03 f8bc
00000270: 50aa 413d 8672 803e 6f11 c5bb e4a5 87be
00000280: d2f6 06be 5870 bb3e 7bc2 bfbe 20e9 123d
00000290: f32e e13d 410f 81bc 39a8 863d 329c 8abe
000002a0: 4d8e a33d 146e 0f3e dfb9 4bbe 306c 3abe
000002b0: 75e9 92be 9f2b 7bbe 068d 1abb bff2 1f3f
000002c0: f937 c5be 6171 aabe 5eea 533e 4d0e c0bd
000002d0: ce8c 143d 25c7 f8bc 3be8 debb 88ab 3bbf
000002e0: 6f32 afbb c68b 40bf ffbe 193c e864 5f3b
000002f0: dc73 403e 8c4b 733e 7b29 28be e58d ff3d
00000300: 458d 3bbb 4744 32bd df80 9c3d 879f 413d
00000310: fe25 c3bd ffc5 a83c a134 cd3c c86c 1a3e
00000320: 0ad9 243e 7f8e 15bf 71cc fb3d 67c9 763e
00000330: 6f2b 143e 2137 2c3e 0148 49bf 0b57 b2bd
00000340: 5eba 563f b3b6 2abf a6ed 6bbd 9ee9 c6bd
00000350: 00e6 b33d 01cf dfbb 7ae5 b7bb b2b0 70c0
00000360: 645e 573c 925e fcbd 9a57 43bf 3eaf 203f
00000370: c0b4 73be e52e 4a3d f06e cdbd 17e8 a83d
00000380: 8ae2 023e 7f9b 96bc 383a 86be 2351 603e
00000390: d357 1e3d 612a 61be 4e15 943d 785a 22be
000003a0: ae5c 143e b6fc 8cbe 4319 113e 9fd3 b63d
000003b0: 7b2d c3bd 2140 85bb 21dd 5a3e 9b40 463c
000003c0: 88f9 cb3e 94f8 78bf 7370 dfbd d8cc d83d
000003d0: 31b7 0c3e 355a 8fbc be02 81bd 7d3a e43b
000003e0: 9404 093e 9ef6 1bbe 4da1 16bf d9c3 0a3e
000003f0: 37d8 9abe 6821 12bc de49 a0be ef70 0c3e
-0.6303216 -0.43769732 0.33677274 0.11357401 0.027784457 0.073256135 0.038235433 -0.2929508
-0.21998575 -0.13571423 0.089209706 -0.07572597 0.31702295 0.02126134 -0.2242266 0.365948
-0.1309488 0.14412597 -0.053183846 0.013015027 -0.1092445 -0.25141618 0.15918508 -0.19796233
0.01830413 0.095642865 -0.14448135 -0.20064728 0.294257 -0.3644884 -0.19865154 0.18899454
-0.05954434 0.010739019 0.28004372 0.22796963 0.10710658 0.025322275 0.3580139 -0.36612195
0.5719445 -0.32675445 0.1486032 0.20471607 0.24503098 -0.27431712 0.25231186 -0.42390364
0.08250251 0.59857315 -0.48082212 -0.09470132 -0.49389964 0.30284286 0.39867654 -0.6295066
0.03474032 -0.023981145 0.095602885 -0.48908505 -0.2564174 -0.477333 0.0017125761 0.09524025
0.7207008 0.114585295 0.0596547 -0.28830808 0.070029385 0.1779525 0.36830184 -0.15658136
-0.18181898 -0.30498666 0.007769631 -0.19477288 0.25164807 -0.6714198 0.09430086 -0.2991024
-0.19547026 0.4317256 -0.47300577 0.70524025 -0.13734062 -0.19936801 -0.1289664 0.3484114
0.25594634 -0.59538275 0.02273645 0.03785261 -0.08043742 0.27833584 -0.05464327 0.12622032
-4.6007328e-05 0.0039478852 0.028796228 -0.03192215 -0.40387776 -0.26986942 -0.03498476 -0.3201421
-0.42089775 -0.23896645 -0.19565168 0.7424357 0.2506096 0.024986725 -0.0018494793 0.40287167
0.8044322 -0.37331888 0.16668206 1.2307427 -0.18559086 0.09542387 0.03566362 -0.21633331
-0.21812037 0.037118368 -0.6434621 -0.17872386 -0.08535662 -1.7838166 -8.548633e-05 -0.33820367
0.32432684 -0.37502515 -0.17111184 -0.26219672 -0.091328084 -0.14403932 -0.27933577 0.24876586
-0.021251902 0.16229154 0.22403419 -0.56182593 -0.34790552 -0.42229614 -0.13705936 -0.2469429
0.5354205 -0.15040676 -0.27152047 -0.00032215894 -0.1507153 0.2941819 0.41366303 -0.029895162
-0.291888 -0.340802 -0.29292077 -0.030275336 0.047281563 0.25087374 -0.006014041 -0.26493752
-0.13180092 0.3660915 -0.37453064 0.035866857 0.10995283 -0.015754344 0.06575055 -0.27072293
0.07986126 0.14006835 -0.19895123 -0.18205333 -0.2869374 -0.24528359 -0.0023582592 0.62479776
-0.38519266 -0.33289626 0.20694873 -0.09377728 0.036267094 -0.030368397 -0.0068025864 -0.7330861
-0.0053465883 -0.7521328 0.009383916 0.0034087244 0.18794197 0.23759288 -0.16422074 0.12478236
-0.0028618139 -0.043522146 0.07641768 0.047271278 -0.09528731 0.020602224 0.02504951 0.15080559
0.16098419 -0.58420557 0.122948535 0.24100266 0.14469694 0.16817905 -0.78625494 -0.087080084
0.83878124 -0.66685027 -0.057599686 -0.09712528 0.087841034 -0.0068300967 -0.0056120725 -3.7607846
0.013145063 -0.12322725 -0.76305544 0.627674 -0.2379942 0.04936113 -0.10030925 0.082473926
0.1278173 -0.018384693 -0.26216292 0.21905951 0.038657974 -0.21988823 0.07230626 -0.15854824
0.1448848 -0.27536553 0.14169793 0.08927082 -0.09530159 -0.0040664827 0.21373416 0.012100364
0.39838815 -0.972543 -0.1091012 0.10585946 0.13741757 -0.017499069 -0.06299351 0.00696498
0.13380653 -0.15230796 -0.58839875 0.13551272 -0.30243084 -0.0089190975 -0.31306356 0.13714956

network.0.bias f4 [256]
00000000: 90ca 02bf 58bf b0bc a9c2 bebe ac55 29bf
00000010: d362 48be b0d7 63be e9ba bc3c 6fad a8be
00000020: 72d3 f0be 739e bdbd 6a45 7dbd aab5 00bf
00000030: 4ab7 a8be dc02 e4be 9e04 893d 8505 99be
00000040: 6c9b d5be 2c34 29be 95f0 e7be ad2e 5d3d
00000050: 5b22 c0be affc afbe d818 85bd db7b a5be
00000060: 7ed4 97be 83e7 a0be 6dcc 5abf 2c7e 33be
00000070: 0dba acbe 4199 bdbe 8d3d efbe 291d 74be
00000080: 8048 11bf a0a0 76be 858d 003d 1577 98be
00000090: db01 16be 9262 8ebe f20c e2be 0d3a b1be
000000a0: 0ad6 e9be 2670 74bd db21 8cbe eeee 1cbe
000000b0: 33c6 97be f1af 8abe 43f5 82be a863 3dbe
000000c0: e099 08bf 734b 05bf 2a41 d2be a5c3 53be
000000d0: c854 41bd c208 b4bd 1fa9 dfbd d748 e13c
000000e0: 5672 84be d7e2 08bf 8a85 a7bd 18f1 263e
000000f0: 5955 99be e2be a0be 3653 4ebe 5afa 5fbf
00000100: abed febd e358 98be 7b07 d4be c224 e03c
00000110: 02f9 52be 8b9e 40be 875d 8d3c 4614 12bf
00000120: 937c 2fbf 2332 a4be a2cc 77be 80cc cebb
00000130: 7fde 8cbb a770 18be 7094 8c3d c0fe a1be
00000140: a8a7 29bf 032f bcbe c110 a1be e4b9 14be
00000150: b750 32be 1fdb 77be 23e1 8fbe 4245 fdbd
00000160: e4d7 7ebe 98f5 04be e6f0 8ebe a493 d1be
00000170: c048 1cbe f349 66be 5e49 8bbd 5c4d 9bbe
00000180: 3304 44be a26b fdbc 6167 b0be f222 26be
00000190: 1571 febd 9d9b 113c 1973 62be fb1b 4fbe
000001a0: c190 d5bd 13fb 4cbc 1df7 45be 9720 3ebc
000001b0: 6519 25bf 1dc2 11bf 24a3 81be 06b4 04be
000001c0: 8ec0 6bbe ae7d 40be 6a3c 73be 28a5 48be
000001d0: 6d1b eebe f7eb e0be 2f06 cfbe 8d8d 54be
000001e0: 489b 0fbf 79ce 9e3c b289 8bbd 50c9 54bd
000001f0: fe87 8bbe dcee b9bb a2a5 4e3c dd78 84be
00000200: a9cf d3be 5b4d a3be 1e14 e9bd 22d8 dbbd
00000210: 2bed babe 0545 b9bd e798 e1be 2295 6dbe
00000220: 7bb7 84be 91cd 8fbe f50f 4ebe 6331 adbe
00000230: 98fb 17be 2546 ebbe 8647 73be 9c6d 07bf
00000240: 1879 29be a154 593d 218b 3fbe d36c 45be
00000250: b0ce 49bf 9b97 6ebe 4b69 9ebe 75fb 22be
00000260: af62 a5be 965b e6be e572 5fbe d0fe 56be
00000270: d54b 07be 8056 783d 099c 4abe bb45 0abe
00000280: 4b1b a0be 01ee 60be fb4b d93d be10 afbe
00000290: ee18 97be 589f 42be 86f6 3bbf 46cf 8abe
000002a0: ab1e 40be 544d 13bf 9eb6 f4be c837 b1be
000002b0: 9e0d 45be 3a67 2ebf cabb 40be 97d9 8ebe
000002c0: ef15 95be 1044 5ebe 36eb 72be cdcf d1be
000002d0: 0440 58bf d502 05bf fe52 a9be 6216 4ebd
000002e0: 2acb edbd 4b46 a4be c89a 22bd 7b92 b8bd
000002f0: 7f7b 82be 6b76 81be ba8a 47be d48c 5ebe
00000300: 1f73 ffbe 0bf2 afbe 9607 cabe d444 88be
00000310: 5bb7 05bc d751 2dbe a17d 25be 78ed 07be
00000320: a399 8ebe a5c3 82be 83bf 8cbe 4e37 9dbe
00000330: a7fd 80bc 65af 40be f2b2 7a3e fa9f 4dbe
00000340: 3009 6ebd 3c6e 82be 9907 d4be 4d8c 87be
00000350: 2da4 eabe f78d 1eba b444 c5be 01c4 b9be
00000360: 4881 8abe 1512 67be 5d2d 6f3d 56be 35be
00000370: 8354 27be 76a8 a3be 8fff 85be b1a7 a2be
00000380: b77d 83be 22ba bbbe 44ff b8bd ce63 d9be
00000390: aaf7 46bf dc9e 47bd 7c46 5bbd 2d21 63be
000003a0: eade aabe ce99 13bd 8bc4 95be d545 85be
000003b0: 9269 9bbe dd79 83be 2977 2cbf db45 54be
000003c0: 5317 cebc 3221 ddbd 1802 2abf 0455 14bf
000003d0: 513c 5bbd 828d 9dbe 5f44 01bf 8c8c 50be
000003e0: 12bd 6dbe 1044 82be 93fa 00be 6e52 d6bd
000003f0: 6911 93be 9f5b f1bd 0fb2 893d c305 13be
-0.51090336 -0.021575615 -0.3725789 -0.6614635 -0.19568948 -0.22250247 0.023038344 -0.3294482
-0.4703632 -0.092587374 -0.061833777 -0.502772 -0.32952338 -0.44533432 0.06690334 -0.29887024
-0.4172014 -0.16523808 -0.45300737 0.05399959 -0.3752621 -0.3437247 -0.06498879 -0.32321057
-0.29654306 -0.3142663 -0.8546818 -0.175286 -0.33735695 -0.37030986 -0.46726647 -0.23839249
-0.5675125 -0.24084711 0.031384964 -0.29778352 -0.14649145 -0.27809578 -0.441505 -0.34614602
-0.4567111 -0.059677266 -0.2736958 -0.1532552 -0.29643402 -0.27087358 -0.25577745 -0.18495047
-0.53359795 -0.5206825 -0.4106534 -0.20680101 -0.047199994 -0.08790733 -0.10920929 0.027500553
-0.2586848 -0.5347113 -0.081797674 0.16302907 -0.29947928 -0.31395632 -0.2014893 -0.8749138
-0.12447675 -0.29755315 -0.41411957 0.027361277 -0.20602801 -0.1881048 0.017256511 -0.57062185
-0.6854946 -0.320695 -0.24199155 -0.0063109994 -0.0042989845 -0.14886723 0.0686425 -0.3163967
-0.6627145 -0.36754617 -0.31458095 -0.14524037 -0.17413603 -0.24204682 -0.28101453 -0.123667255
-0.24887043 -0.12984312 -0.27918166 -0.40932953 -0.15262127 -0.22489147 -0.06801103 -0.30332458
-0.19142227 -0.030935112 -0.34453872 -0.16224268 -0.124239124 0.008887199 -0.22114219 -0.20225517
-0.10428 -0.012511033 -0.19332547 -0.01160445 -0.64491874 -0.5693682 -0.2531978 -0.12959298
-0.23022673 -0.18797943 -0.23753515 -0.19594252 -0.465053 -0.43930027 -0.40434405 -0.20757122
-0.56096315 0.019385563 -0.06813373 -0.0519498 -0.2725219 -0.005674226 0.012612732 -0.2587346
-0.4136937 -0.31894955 -0.1138079 -0.107345834 -0.3650907 -0.090463676 -0.44061968 -0.23201421
-0.25921234 -0.28086522 -0.20123275 -0.33826742 -0.14842069 -0.45951954 -0.23757753 -0.52901626
-0.165501 0.053059224 -0.18705417 -0.19279794 -0.78831005 -0.2330002 -0.30939707 -0.15916236
-0.32301852 -0.4499175 -0.21821173 -0.20995641 -0.13212521 0.060629368 -0.19786085 -0.13503163
-0.31270823 -0.21965791 0.10610195 -0.3419246 -0.29511207 -0.19006097 -0.7342304 -0.27111262
-0.18761699 -0.5753987 -0.47795576 -0.3461287 -0.19243476 -0.6812626 -0.18821636 -0.27900383
-0.29118297 -0.21705651 -0.23722538 -0.40978852 -0.8447268 -0.51957446 -0.3307113 -0.050314315
-0.11611016 -0.3208488 -0.039698392 -0.09012314 -0.25484845 -0.25285658 -0.19486514 -0.21733409
-0.49892518 -0.34364352 -0.39458913 -0.26615012 -0.008161391 -0.1692575 -0.16161205 -0.13274181
-0.2785159 -0.2553989 -0.27489862 -0.30706257 -0.01574595 -0.18816908 0.24482325 -0.20080557
-0.05811423 -0.25474727 -0.41412047 -0.26474229 -0.4582838 -0.0006048376 -0.3852898 -0.36282352
-0.2705176 -0.22565491 0.05839287 -0.17748389 -0.16340832 -0.31964463 -0.26171538 -0.31768563
-0.2568185 -0.36665446 -0.09033063 -0.42458957 -0.77721655 -0.048735484 -0.053534016 -0.22180624
-0.33373195 -0.03603535 -0.29251513 -0.2602984 -0.3035398 -0.25678912 -0.67369324 -0.20729773
-0.025157606 -0.10797347 -0.66409445 -0.57942224 -0.05352432 -0.30772024 -0.5049495 -0.20366114
-0.23216656 -0.25442553 -0.12595586 -0.10464941 -0.2872422 -0.117850535 0.06723415 -0.14357667

network.3.weight f4 [128, 256]
00000000: b172 b03c 6baa 61be 94b1 20bf cf59 083f
00000010: b77f 843d 123a 433d 9af3 493d 5f5d 373e
00000020: 6817 813d d107 c63b a392 a6bd de3a 6f3e
00000030: 256d 88bc b28e a6bb 8169 37bf 3af4 813d
00000040: 5cb7 16be 7c73 d03d 621a 053e 1cbc a3be
00000050: 56b0 f23d fdf2 05be f295 b2be 9524 ba3c
00000060: 10c8 4bbd 5eb0 82be cf24 6c3d 470a d3bd
00000070: 27ef fc3a 6f0f 48be f2df bdbd 4b63 8fbc
00000080: 0645 53bd ecbb a93d f016 97bc bdb2 063d
00000090: 8db3 0e3e 8c3b 73bd 2ca1 a53f b2b7 36bd
000000a0: e7e4 0c3f 4d8a 54bd 9919 51bd e746 04be
000000b0: f843 e7bd 7b3b 9ebe 64eb 9a3e 4ab0 8fbd
000000c0: 5aaa 523e 26ef 633e 8889 363e b36f 403d
000000d0: cb2f 1ec0 b52d 2cbe f3cb 26be f38a 773e
000000e0: f367 143d 40dc 253e e0d3 1f3d dbf5 97bc
000000f0: 6d19 40be a43a 46bd 9e51 bcbd eff6 aa3d
00000100: 53d1 09bd 8d06 9dbd 1ee1 fb3f 6a99 c0be
00000110: af17 503d 2e9c 463e 3385 0cbe 62e7 113d
00000120: d5f8 6e3c 1db5 433d 5209 aabd 30ae ba3d
00000130: 91c3 743a ca53 afbc 80d9 77c0 c33f 9c3c
00000140: 4a4f e33d b54f 063e af89 a83c 40d3 b43d
00000150: e715 463d b246 d6bd 6cbd a4be dba2 123e
00000160: ad8b 43bd 0017 3ebe 656c 4abd de91 e93e
00000170: 6db8 993d 730b 643e 7b82 bc3d ea22 ccbe
00000180: bbd6 e8be 80f7 10be 7c0a 903d 8a88 33bd
00000190: 504f 393d 1a28 a3bd 59c3 753e 6d45 78be
000001a0: 800d 953d 67cf cebd bfc2 d3be 2bba a1be
000001b0: 2671 febc 5557 ec3e 1e09 5dbf d134 4cbe
000001c0: c567 8dbe 4549 31bd dfcd 553d b66c be39
000001d0: 1d4c eb3c a728 b73e 8af7 f4bd abbe 25be
000001e0: 7d00 b83e ee20 0abe 7726 a43a cadd f0be
000001f0: f2b9 a63a 6165 99be 9aeb 3ebe bcd3 68be
00000200: a505 1a3c 9eb8 71bd 7764 72be d472 ff3d
00000210: 0bd9 993d f911 1d3c 5f01 0cbe cb93 89bd
00000220: b65d 5a3d 0810 79be 8c41 7fbe a500 803d
00000230: 4225 6a3c 8b7f 543e 0bb5 fd3d 9347 2abe
00000240: 9e12 7fbe e790 14bd e20e 4bbe f177 6f3e
00000250: 03ae 223d 3eda 7cbe 9615 1b3d ab2e 2cbb
00000260: c06e f83d 81d7 a83c 6191 0abd 99bb 56bb
00000270: b08d d7bd ca0b 863d c396 bdbe 7cbe 1cbd
00000280: 26db 2b3e 10ae 033f 76d2 05bd b3ca 06be
00000290: 6023 993d 0d4b 11bf 3208 123e 95c9 f13c
000002a0: 7794 ef3d 97d6 c73e 886f ab3d 2427 92be
000002b0: 8b3c 5abe 5f3a 923f 73fe 823d 1565 c13d
000002c0: 211f e0bd 7bcd e33c 6ffe ffbe 44bc 0f3f
000002d0: ddd3 933d d7b0 243e b891 753d ecba 4e3e
000002e0: e120 9cbe 1858 3cbf 6cbc edbc 34bc b53d
000002f0: 2c96 32be c059 40be 745d 363d 91de 24bf
00000300: c8f6 b93d 985e 2c3f 1f2b b63d e5be 8cbc
00000310: 4ae7 8abc bff6 cbbb bc3e d9be 4cc6 7fbd
00000320: e7fd 25be f86c 29bf efed 823d 7946 04bf
00000330: 3b94 82be 626d 803c a9f3 67bd cb60 5dbe
00000340: 2d25 923c 9fc4 273e cafa fe3e bdad 133a
00000350: e885 013e ac8d 49bf 437a abbe 04da 413d
00000360: 4ada 80bb 0aad 5bbd 8222 a83c d875 5ebd
00000370: 3aeb 19be 08a5 acbd d07e 13bd e7c6 5a3c
00000380: 5609 60be 8f50 71be d022 c4be 8872 30be
00000390: 5a03 c43d b0ae 5bbe 3805 b9bb 80c3 28be
000003a0: 3e4b 493d 7de2 ffbc 01f5 13be 66bc b0be
000003b0: 29e6 333c 7e99 003e b7fa 553e 9f67 ee3c
000003c0: 0764 4bbe c3bf 69be 3df7 dd3b a64e ffbb
000003d0: cd81 edbe c7d6 d2bd 1d2b 1c3d 38fe d0bd
000003e0: f51c d2bc 3278 d73d 8be5 c73c 0dda 24be
000003f0: 647d 89be 2751 4dbd 729c 32be 881a 03bf
0.021539064 -0.22037666 -0.6277096 0.5326204 0.06469672 0.047662802 0.049304582 0.17906712
0.063032925 0.0060434123 -0.081334375 0.233623 -0.016653607 -0.0050829286 -0.7164536 0.06345411
-0.14718384 0.10178277 0.12998345 -0.31979454 0.1185004 -0.13080974 -0.34880024 0.022722522
-0.04975134 -0.25525182 0.05765229 -0.103046946 0.0019297347 -0.19537137 -0.0927123 -0.017503401
-0.051579498 0.082877964 -0.018443555 0.0328853 0.1393568 -0.05938296 1.2939811 -0.04460878
0.5503678 -0.051889706 -0.051049802 -0.12917672 -0.11292261 -0.30904755 0.30257714 -0.07016046
0.20572796 0.22259197 0.17825902 0.046981525 -2.471667 -0.16814311 -0.16288738 0.24174099
0.036231946 0.161973 0.03902042 -0.01854985 -0.18759699 -0.048395768 -0.09195255 0.0834788
-0.033646893 -0.07667265 1.9678075 -0.37617046 0.050803836 0.19395515 -0.13722686 0.035621054
0.014585693 0.047780145 -0.08302559 0.09115255 0.0009337003 -0.021402258 -3.8726501 0.019073373
0.110991076 0.13116343 0.020573465 0.08829355 0.04836073 -0.10462703 -0.32175767 0.14319937
-0.047740627 -0.18563461 -0.04941978 0.456191 0.075058796 0.22269993 0.09204575 -0.39870387
-0.45476326 -0.14156914 0.0703325 -0.043831386 0.045241654 -0.07966633 0.240003 -0.24245234
0.072779655 -0.100981526 -0.41359517 -0.31587347 -0.031059813 0.4616038 -0.86342037 -0.19942023
-0.27618232 -0.043282766 0.052198287 0.0003632062 0.028722817 0.35773203 -0.11961277 -0.16186015
0.35937873 -0.13489124 0.001252367 -0.47044212 0.0012720211 -0.29960158 -0.18644562 -0.2273702
0.00940076 -0.059013955 -0.23671137 0.124730736 0.07512101 0.009586805 -0.13672398 -0.067176424
0.053312026 -0.24322522 -0.24927348 0.06250123 0.0142911095 0.20751779 0.12388047 -0.16628866
-0.24909446 -0.036271002 -0.19829896 0.23385598 0.03971673 -0.24692628 0.037862383 -0.0026272933
0.12130499 0.020610573 -0.03383005 -0.0032765626 -0.105250716 0.06545217 -0.37029085 -0.038267598
0.16782817 0.51437473 -0.032671414 -0.13163261 0.0747745 -0.56755143 0.14260939 0.029515067
0.11698239 0.39030907 0.08370882 -0.28545487 -0.21312158 1.1424063 0.063961886 0.09443108
-0.10943437 0.027807942 -0.49998805 0.56146646 0.07218144 0.16083084 0.05995342 0.20188493
-0.30493835 -0.7357192 -0.02902051 0.088737875 -0.17440099 -0.18784237 0.044522718 -0.6440211
0.09080273 0.6733184 0.088949434 -0.01718087 -0.01695599 -0.006224483 -0.42430675 -0.06244497
-0.16210137 -0.661819 0.063930385 -0.5167003 -0.25503716 0.015677158 -0.056628857 -0.21618955
0.017839992 0.16383599 0.49800712 0.0005633494 0.12648737 -0.787318 -0.33491716 0.047327057
-0.003932272 -0.05363182 0.020524267 -0.054311603 -0.15031138 -0.08429915 -0.03600961 0.013353086
-0.21878561 -0.23565887 -0.3830781 -0.1723119 0.09570952 -0.21453357 -0.005646374 -0.16480827
0.049144022 -0.031235928 -0.1444893 -0.34518737 0.010980167 0.12558553 0.20896421 0.029102145
-0.19862376 -0.22827058 0.006773858 -0.007791358 -0.46388093 -0.10294872 0.038127054 -0.102047384
-0.025648573 0.10520972 0.024401447 -0.16098805 -0.26853478 -0.05012622 -0.17442492 -0.5121236

network.3.bias f4 [128]
00000000: 68ac 47bf 7e01 dabe 9436 e1be 6fcb 8abe
00000010: dd3a f9be e22e b73e 592b 3a3f 9f2d e8be
00000020: b302 003e bcc7 afbf b380 893e be68 1ebe
00000030: a552 a1bf a5e1 dbbc 28ab 04bf 2e0b 00bf
00000040: 3846 a2bf f226 ecbd 1082 08be 7a29 073f
00000050: 1593 863e 27ad 2fbe b79c 56bf 668a 633c
00000060: 110a cabe be2d a4be d668 06be 7f07 203f
00000070: 4f0e f1be 7218 4c3e bd6f f7be 7b97 083f
00000080: 0c25 dd3e 9d8b e6be 2469 d0be f505 8ebe
00000090: eadb d93e 9312 a4be bfd8 043e 52b3 23bf
000000a0: a6ba 1f3f 947a 31bf cf1e 6fbf ba59 9bbf
000000b0: 74e4 65bd c58f 8a3f 86ed 1f3f 2924 a1be
000000c0: 1611 0e3e 519b afbe 5aef f5be 11fa 603e
000000d0: 37ea 2ebe 5a06 213f de6a 47be 57d3 823f
000000e0: 3f73 62be 9460 30bf 36ff eabe 57c4 fa3e
000000f0: a009 593e 5407 07bf 49a6 23bf 6d77 8b3e
00000100: aaa8 d1be 8ed9 86be 0502 1abf d30b 393d
00000110: d034 35bf 45d1 2b3e 90c2 9dbf 9fdb 8f3e
00000120: b03e 823e 5098 f23d 366b 9cbf 7f48 17bf
00000130: c6bb ec3e 8710 6fbf 2376 e3bd 9693 15bf
00000140: bdbb 47be c56b 93be 7edd 113f 4f60 2a3d
00000150: c8ce 183e e93b 48be 98cc 723f fd05 0cbf
00000160: 1bb3 0a3e 5d36 57be 431b 77be 0ee1 9c3e
00000170: 9ae7 13be 1db0 0cbf 3c9d 6bbc 0113 c2bb
00000180: f16d 22bf 892e 8cbe a0e7 7f3d 2c3f 9dbe
00000190: 54ba 95be e5ea a33e a3ee febe 09d6 143f
000001a0: 53ed dabe 0cf9 10be e7fe b83d a079 30be
000001b0: 9c20 713e 0b2f 1ebd e0fc 11be 3ae1 5ebe
000001c0: cba0 823e 4076 a43e c5c0 dbbd 7a51 9f3e
000001d0: 8a98 2d3e 3e20 0cbe 4682 31bf 7834 68bf
000001e0: 2df4 a33e 99ef 763d c81c 8fbe d0c7 96be
000001f0: ad2f b23e ae0d 103e 6041 03bf cdb9 94bf
-0.77997446 -0.42579263 -0.43986952 -0.27108333 -0.48677722 0.35777956 0.72722393 -0.45347306
0.1250103 -1.3732829 0.26856002 -0.15469643 -1.2603346 -0.026840994 -0.51823664 -0.5001706
-1.2677679 -0.11530866 -0.13330865 0.52797663 0.2628409 -0.17155896 -0.8383288 0.013887977
-0.39460805 -0.3206615 -0.13125929 0.6251144 -0.4708123 0.199312 -0.48327437 0.5335614
0.43192327 -0.4502839 -0.40705216 -0.2773892 0.42550594 -0.3204542 0.12973307 -0.63945496
0.6239418 -0.69327664 -0.93406385 -1.2136757 -0.056126073 1.0825125 0.62471807 -0.314729
0.13873705 -0.34298185 -0.48034173 0.21970393 -0.17081533 0.62900317 -0.1947436 1.0220746
-0.22114275 -0.68897367 -0.45897835 0.4897792 0.21195078 -0.52745557 -0.63925606 0.27239552
-0.40948993 -0.26337856 -0.6015933 0.045177292 -0.7078371 0.16779049 -1.2325001 0.28097245
0.25438452 0.118454576 -1.2220218 -0.59094995 0.4623701 -0.93384594 -0.11106517 -0.58428323
-0.1950521 -0.2879316 0.56978595 0.041595753 0.14922631 -0.19554104 0.94843435 -0.5469664
0.13544886 -0.21016832 -0.24131493 0.30640453 -0.14443818 -0.5495623 -0.014380749 -0.0059226756
-0.6344901 -0.27379254 0.062476754 -0.3071226 -0.2924372 0.32015148 -0.4979144 0.5813909
-0.4275919 -0.14157504 0.09032994 -0.17233896 0.23547596 -0.038619082 -0.1425662 -0.21765605
0.255133 0.32121468 -0.10730127 0.3111685 0.1695272 -0.13684174 -0.69339406 -0.9070506
0.3202223 0.060287092 -0.27951646 -0.2944932 0.34802 0.14067718 -0.5127163 -1.1619202

network.5.weight f4 [64, 128]
00000000: f7c3 b33e c8ea ff3c a686 febe 8dfe 6abd
00000010: fab9 9bbd f55e 443e bd54 94bd 3f22 a13d
00000020: b036 3dbe 77c4 59be e1ab 003e 81e9 713e
00000030: 5ae2 823c 8931 fbbe f34c 93bd 42bc b4be
00000040: b6c5 cdbc 30f5 103e 7380 c13e 3dd1 a73e
00000050: 85e5 6c3e fb29 bfbe 1094 f53c db2d f1be
00000060: 0bec 733e 60e9 32be 69d8 85bd 401d 77be
00000070: 6063 56be 9705 1c3e 63c1 c0be 8f7e 47bd
00000080: 5f5b 8d3d d867 a6be 4423 2c3d c44d f4bd
00000090: b218 083f 4001 493e f597 9cbe ba89 c6bd
000000a0: 63fb ddbd b36e edbd 5221 213e 708c 133e
000000b0: bf87 b0bd 6c85 183b 27ee 4b3e 18e9 7fbe
000000c0: 73e0 ce3c c87f 1b3e d017 9cbe 6dd7 d8be
000000d0: 5f8e ac3d 2dc7 303e 2cb8 cd37 362d f53d
000000e0: ed0f 833e 93cd 0c3e 4e2a ee3d 5fca 9bbe
000000f0: babf 743e 0d04 a7be f15a d13c 6f6b 7f3e
00000100: a5ed 873e 4787 993b 9056 4ebd 2928 1d3e
00000110: 2233 703e ba99 0bbe 7417 623e 280a 60bc
00000120: 526b 80be 79df ebbe 358a 21be 7cc0 3bbf
00000130: cc43 8a3d 5a9c a1be becc 303e af20 93be
00000140: b41d 253d daf7 f13d 6e4f 08be 2c0b 36bd
00000150: 40ec 7dbe 6ed0 543e d9e9 5e3e b69e a0be
00000160: 80bc d8bc 0e11 aabe d1ba 89bd 0060 1cbe
00000170: 7ae3 94be 566c 463e 3dd2 aebe 43dd 5d3e
00000180: a4fe b33d 05f0 543a e6ac 86be 92b0 0dbd
00000190: 35d2 583e d57f b8bc ebc8 e3bc d5f7 543e
000001a0: 02de ee3d 53f9 a2be e5d1 0a3e fb6d 793e
000001b0: 76f6 cb3b 3452 a1be 16f2 b5bd 37f3 4bbe
000001c0: 3c9b a1be 538b 89bc da54 c23c d35c ab3e
000001d0: a45b 303c 34d1 a7be 13dd 5cbe 8a36 3bbe
000001e0: 80dd 41be fad6 5bbc 5318 6fbe 2fb1 0cbd
000001f0: 8f57 58be 7352 523e 6485 6d3c 41bf 36bf
00000200: 3035 75bf 518a d9bd a40c b7bc 5207 2c3d
00000210: bf56 c3bc 52cb 793e e6c0 ac3e 03af 5abc
00000220: 8ade 283e e29c f13b 825f ef3d fa38 a63e
00000230: bee4 95be 5833 033e b7c4 7a3d 039c f0bd
00000240: 0780 7c3e 7a62 b0bd 1460 903d 4c56 10be
00000250: 5c57 41be c23e f23e a6c3 e8bd 96a4 733e
00000260: 9739 aa3e 7e90 ab3d 49ab 133e 846a 37bd
00000270: e191 84be d32c bfbd 9ab6 b2bc d940 f33d
00000280: 3857 b3bc 02c2 723e 2ebe a13d 2edc acbd
00000290: c407 ba3d be03 8a3e 1a40 9d3e b065 eb3c
000002a0: 4641 e3bd f3f8 23bf c2fb 96be 8a05 2fbe
000002b0: c5ee 2bbe 9990 69bd 1880 85be edda e23d
000002c0: 4c72 a0be 1e21 1fbf 9b9f a4bd 37c7 23be
000002d0: 2608 d0be af3c 8b3d 42fb 583e 421c 88be
000002e0: bc7e f9be 00a7 41bd a5ff 243e c530 20be
000002f0: a005 1a3e e34f 49be 6a86 203e 99f7 633d
00000300: 13d6 3bbe ca31 2a3d 1ef1 afbc 274c 533d
00000310: 80f0 e7be 4368 8a3e 396f bbbe a41e 26bf
00000320: 1dad 70be 8f5b aabd 91ab 0bbf 7b03 b3be
00000330: 3897 db3d 0341 1a3e f294 cdbc f1c7 06bf
00000340: 1ee7 bebd b797 0c3e 411c 023e c483 05be
00000350: ce43 80be 9a23 52bd ffc3 c53d e230 b4be
00000360: e170 4a3d 3d48 333e 94ba c53d dd1e 5fbc
00000370: 61ca eebc fd99 4fbe 9283 63be e734 3bbe
00000380: b1df 8dbe 3c06 23be 776b f9bd 47e2 3c3e
00000390: 7d61 82be 62ba ac3e 7ee1 86bd f47a 303d
000003a0: d2dc 37be 321d 95bd 03a0 113e bb73 65be
000003b0: 7d2b a1be 2d7a 383d de67 22be 0229 11bf
000003c0: 7c36 e73e 26e8 053e 1cc7 33be ab20 1f3d
000003d0: 2d7f 13bc 3605 f03e 20b0 9a3c 1be4 4bbe
000003e0: ca50 8d3c aef1 b33d 48c0 b93e b1b0 663d
000003f0: bbd1 10be df7f d93b 20fb 90ba 697e e23d
0.35110447 0.031239882 -0.49712104 -0.057371665 -0.076038316 0.19176848 -0.07242725 0.0786786
-0.18477893 -0.21266352 0.12565567 0.23624231 0.015977073 -0.4906123 -0.07192411 -0.3529988
-0.02511869 0.14156032 0.3779331 0.32776824 0.2313443 -0.37336716 0.029977828 -0.47105297
0.23820512 -0.17471838 -0.065354176 -0.24132252 -0.20936346 0.15236507 -0.37647542 -0.04870468
0.06902193 -0.32501101 0.04202582 -0.11928895 0.5316268 0.19629383 -0.30584684 -0.09694238
-0.10838964 -0.1159338 0.15735367 0.14409041 -0.086196415 0.0023272885 0.19915067 -0.24991262
0.02525351 0.15185463 -0.30486917 -0.42351857 0.08425593 0.1726348 2.4523666e-05 0.11971514
0.25598088 0.13750295 0.11629163 -0.30427834 0.23901263 -0.32620278 0.02555606 0.24943326
0.26548496 0.004685316 -0.05037552 0.15347351 0.23457006 -0.13632861 0.22079259 -0.013674296
-0.2508188 -0.46068934 -0.15775378 -0.7334058 0.067512125 -0.315646 0.17265603 -0.28735873
0.04031153 0.11814852 -0.1331155 -0.044444248 -0.24797153 0.20782635 0.21768893 -0.31371087
-0.026457071 -0.33216137 -0.067250855 -0.15270996 -0.290798 0.19377264 -0.34144774 0.21666436
0.08788803 0.0008122924 -0.26303786 -0.03459222 0.21173938 -0.022521893 -0.027805766 0.20797665
0.116634384 -0.31830844 0.13556631 0.2435836 0.006224449 -0.31508029 -0.08884065 -0.19916998
-0.31563747 -0.016790068 0.023722101 0.33469257 0.010764036 -0.32776797 -0.21568708 -0.18282524
-0.18932152 -0.013417954 -0.23349123 -0.034348663 -0.21127151 0.20539264 0.014497135 -0.7138558
-0.9578428 -0.10622085 -0.022344895 0.04199917 -0.023845075 0.24393967 0.3374092 -0.01334739
0.16491142 0.007373438 0.116881385 0.32465345 -0.2927608 0.12812555 0.06122276 -0.11748507
0.24658214 -0.08612533 0.070495754 -0.1409542 -0.18880981 0.47313505 -0.11365442 0.23793253
0.33247063 0.08377169 0.14420809 -0.044779316 -0.25892547 -0.093347214 -0.021815587 0.11877603
-0.021892175 0.2370682 0.07897602 -0.084404334 0.090835124 0.2695598 0.30712968 0.028735012
-0.11096434 -0.6405174 -0.2948895 -0.17091957 -0.16790302 -0.057022665 -0.2607429 0.11076913
-0.31337202 -0.6215991 -0.08038255 -0.15993963 -0.40631217 0.06798684 0.21189597 -0.2658406
-0.48729503 -0.047278404 0.16113146 -0.15643604 0.15041208 -0.1965938 0.15676275 0.05565605
-0.18343382 0.04155139 -0.021477278 0.051586296 -0.45300674 0.2703267 -0.36608294 -0.64890504
-0.23503537 -0.08318245 -0.54558665 -0.34963593 0.10722202 0.15063863 -0.025095437 -0.52648836
-0.09321426 0.1372975 0.1270609 -0.13038546 -0.2505173 -0.051303484 0.09656524 -0.35193545
0.049424056 0.17508025 0.096547276 -0.013618198 -0.029149236 -0.20273586 -0.22218159 -0.182819
-0.27709725 -0.15920347 -0.121787004 0.18445693 -0.25465003 0.3373595 -0.06585978 0.043086007
-0.1795533 -0.07280959 0.14221196 -0.22407429 -0.3147849 0.04503839 -0.15859935 -0.567032
0.45158756 0.13076839 -0.17556423 0.038849514 -0.009002489 0.46878976 0.018882811 -0.19911234
0.017250437 0.08786331 0.3627951 0.05632085 -0.14142506 0.006637558 -0.0011061169 0.11059267

network.5.bias f4 [64]
00000000: 7ec7 ab3d 7215 af3e 11a7 25be e447 2a3f
00000010: b533 1e3f 71ad b3be e618 99be f145 5c3d
00000020: 1c79 633f df90 ee3e 972b 793e bded 52bf
00000030: af95 6a3f d3e5 72bd 068b 143f b3ff 873d
00000040: 90f3 da3e 6ccd 41bf eebd 66bc a212 20bd
00000050: a836 0d3f 4ff3 dc3e 1d7e b13d b81b f43d
00000060: cdf7 55bf d2c7 9fbe 30b0 84be 7444 1d3f
00000070: 1837 473f f653 87be 9d51 2cbe fc46 3dbf
00000080: 9e04 073e 0880 d93e 7dd6 0bbf 4270 f63e
00000090: 3760 363f c930 373d 6265 22be 75e0 973e
000000a0: 988a 5fbf 9329 483e b280 8ebd f99d 56be
000000b0: ea86 933e bbfb 903e c9e6 c43e 4f87 1d3f
000000c0: aa09 2739 648f 1d3e 64e6 973e c7e7 1bbe
000000d0: 66d1 0bbe 12cc 6d3e 4886 38be 5041 773e
000000e0: 7a8a 153f 62de 633d 45e9 1f3f a13b 62be
000000f0: fd7d f93d d745 103f 8eae c03e 845a 41be
0.083876595 0.3419605 -0.16177012 0.66515946 0.6179765 -0.35093263 -0.29901809 0.05377764
0.88856673 0.46594903 0.24333034 -0.8239401 0.9163465 -0.05930121 0.5802463 0.06640568
0.42763948 -0.75704074 -0.014083369 -0.03908027 0.55161524 0.4315438 0.08666632 0.119193494
-0.8358124 -0.31207138 -0.2591567 0.61432576 0.7781844 -0.26431245 -0.16828008 -0.7393644
0.13185355 0.42480493 -0.5462416 0.4813252 0.7124056 0.04472426 -0.15858987 0.29663435
-0.8732085 0.1954711 -0.069581404 -0.209587 0.2881387 0.28317055 0.38457325 0.6153459
0.00015929961 0.1538673 0.29667962 -0.15225135 -0.13654098 0.23222378 -0.18019974 0.24146008
0.58414423 0.055632003 0.62465316 -0.22093059 0.121822335 0.5635657 0.37633175 -0.18882185

network.7.weight f4 [1, 64]
00000000: 7b1a eebc 8dbc 56bd d226 bdbd a1d9 86bd
00000010: 05b6 83bd 5d48 d3bd 0281 aebd 5bb2 93bd
00000020: 1620 3f3d 2cb7 6a3d 0690 88bd d0a4 b6bd
00000030: d9fc a83d e972 f2bd 3bfd a0bd 8ee4 d53d
00000040: 2971 05bd 10ab 8f3e 1ec9 52be fe9f efbc
00000050: ab22 e93d 8e21 5e3d ec0a b43d 7e08 34bd
00000060: 7064 3abd c323 293d af39 bc3d 684b 90bd
00000070: 7f7c d23d c835 65be e12e 963d 0722 b73e
00000080: c462 0ebf ca66 9e3d 9c7d ba3d 9f72 a9bd
00000090: aeb5 293d b927 f83d 967b 903d def2 b9bd
000000a0: 685a 3fbd abe0 fe3c f29a 0e3d af1a 4ebd
000000b0: 54ca 58bd ad96 aabd 192a 5e3d 6aa1 223d
000000c0: 1014 a63d f3a9 8ebd 01f4 1c3f 15fd 96bd
000000d0: c8b9 a4bd 29e9 1e3d 47dc 543d 6efe 80be
000000e0: e376 5a3d 66fa 26bd 8a19 6abd 4aff 95bd
000000f0: 0bd8 71bd 72ac c93d b625 5f3d 2871 cf3d
-0.029065361 -0.05242591 -0.0923592 -0.06584478 -0.06431202 -0.103165366 -0.085207 -0.07211753
0.04666146 0.057303593 -0.06668095 -0.08918154 0.08251352 -0.118383236 -0.078608 0.10443984
-0.03257862 0.28060198 -0.20584533 -0.029251095 0.113835655 0.05423122 0.08791146 -0.04395341
-0.04550594 0.04129387 0.0919069 -0.070456326 0.10277652 -0.22383797 0.0733316 0.35768148
-0.55619454 0.07734449 0.09105989 -0.08273815 0.04143303 0.121169515 0.07054822 -0.09079526
-0.046717077 0.03111299 0.034815736 -0.050318416 -0.05292733 -0.083295204 0.054239366 0.039704718
0.08109295 -0.06966009 0.6130982 -0.0737249 -0.080432475 0.038796578 0.051967885 -0.25194114
0.053336035 -0.040766142 -0.057153262 -0.07324083 -0.059043925 0.098473445 0.054479323 0.10129005
