static_dashboard/models/nn_v12.onnx (onnx, 68455 bytes, 7 tensors)

network.0.weight f4 [128, 29]
0.053646985 -0.4551945 0.10550605 0.08991024 0.096240245 -0.096693635 -0.3861913 -0.3397661
0.03751319 -0.30898213 0.38751814 0.022861583 0.21142034 0.17154197 0.24814802 0.18163735
-0.2863653 0.12968221 0.30261713 0.46224988 -0.4237407 0.18819925 0.32679915 0.1344668
0.15018114 -0.19117394 -0.4898183 -0.17418171 -0.4026901 -0.84214044 0.15912159 -0.27826503
-0.1385007 -0.2524079 -0.31114352 0.07749096 -0.09933912 -0.2864792 0.20229904 -0.24178496
-0.09943167 0.4303555 0.29842564 -0.123330936 -0.036512293 -0.20325595 0.17169167 -0.14712724
0.112859085 -0.51873577 -0.058779016 -0.6812026 0.13028958 0.14844647 -0.30373734 -0.17712827
-0.44880968 0.12432952 0.07433922 0.06603668 -0.059432622 -0.25897577 0.06769968 0.1689323
0.011751474 0.096084885 0.1955956 0.39381227 0.24359374 0.16446799 -0.34107134 0.26314074
0.08475588 0.0011231971 -0.10357072 0.20158179 0.24005872 -0.07002664 -0.24039769 0.0073108855
-0.14400417 0.19037986 0.0793032 -0.016540756 -0.37184158 -0.15724458 -0.10113108 0.07073385
-0.01546241 0.00016688302 -0.5109687 0.039803106 0.074749894 0.007869817 -0.02033642 0.11560338
0.16345681 -0.17481656 0.4584614 0.06695818 0.13177705 0.027063916 0.017259054 -0.05746361
-0.0070079477 0.3344077 0.14882387 0.19123586 0.17808308 0.1270947 0.2404938 0.119453
-1.0756717 -0.06960754 0.13286096 -0.34507978 0.0105892485 0.014434068 -0.02656481 -0.1260664
-0.16112301 -1.3963363 -0.18013261 -0.055830635 -0.10022955 -0.16363648 -0.17034495 -0.02326211
0.337036 -0.022007583 -0.24005973 -0.2564172 0.15729263 -0.17226535 -0.24167103 -0.053493872
-0.09439869 -0.122323155 -0.24417093 0.45918414 0.4978649 0.08839587 0.5569825 0.22535266
0.20130922 0.37313434 0.036668625 -0.16496807 0.1220276 -0.42132977 -0.023969492 0.13027465
0.22799365 0.44322217 -0.15785994 -0.18586724 0.28395048 0.43733665 0.17229235 0.40577474
-0.07181496 -0.24227245 0.015304659 0.44312182 -0.18268019 0.40346208 0.053776372 0.15882884
0.14106661 0.0969233 0.11490739 -0.15063396 -0.3136072 -0.20426358 -0.08819742 -0.11360607
0.052963234 0.1853516 -0.26578102 0.13076682 -0.36829916 -0.39709628 -0.21076536 -0.21480106
-0.03198484 -0.04778365 -0.1650802 -0.13065217 -0.10147347 0.47440857 -0.008839844 -0.059034336
0.05213924 -0.015651798 -0.016244262 0.22899751 0.04009065 0.5238639 -0.3967956 -0.7136607
-0.3140806 -0.11109569 -0.31538162 -0.298598 0.245613 -0.041341107 -0.12476553 -0.32849059
0.19059357 0.07538817 -0.18426596 -0.52100223 0.28352985 -0.13749735 0.07009592 -0.58275294
-0.15698838 0.11625226 -0.37362477 0.32117215 -0.011281743 -0.14620745 0.02018987 -0.4063802
-0.021660179 -0.088272825 0.011758005 0.2533937 -0.02714334 -0.33604574 -0.42294976 0.0323649
-0.18528914 0.0060475757 -0.005185675 0.57260823 -0.04478089 -0.80380595 -0.18808265 -0.15008962
-0.036692787 -0.087365165 -0.14270577 -0.35545668 0.16806975 0.032974903 0.21691403 0.13746175
-0.23929872 0.09728155 -0.23605745 0.16643064 -0.6679343 -0.6234333 -0.17534813 0.13549937
00000000: f1bc 5b3d 410f e9be 8e13 d83d dc22 b83d
00000010: 9b19 c53d 5007 c6bd deba c5be d2f5 adbe
00000020: 6ea7 193d e832 9ebe c768 c63e 3748 bb3c
00000030: 937e 583e b3a8 2f3e 841a 7e3e 24ff 393e
00000040: 799e 92be 6acb 043e a2f0 9a3e 04ac ec3e
00000050: 8bf4 d8be 4eb7 403e 3852 a73e aab1 093e
00000060: 16c9 193e 1ac3 43be 77c9 fabe b15c 32be
00000070: 662d cebe 8496 57bf c5f0 223e c178 8ebe
00000080: 21d3 0dbe 9c3b 81be 344e 9fbe 95b3 9e3d
00000090: 4f72 cbbd 67ad 92be 7b27 4f3e 7a96 77be
000000a0: d5a2 cbbd 8e57 dc3e 3fcb 983e ee94 fcbd
000000b0: ea8d 15bd 5422 50be f1cf 2f3e 86a8 16be
000000c0: aa22 e73d decb 04bf 44c2 70bd 4b63 2ebf
000000d0: a26a 053e 5a02 183e 7683 9bbe 1d61 35be
000000e0: 62ca e5be 7aa0 fe3d 293f 983d 3d3e 873d
000000f0: 9f6f 73bd 7998 84be 21a6 8a3d 97fc 2c3e
00000100: 4189 403c 27c8 c43d 374a 483e c3a1 c93e
00000110: a370 793e 4c6a 283e e7a0 aebe 62ba 863e
00000120: 7e94 ad3d 3e38 933a e31c d4bd 756b 4e3e
00000130: f4d1 753e 216a 8fbd d02a 76be 2790 ef3b
00000140: d475 13be f0f2 423e b769 a23d 7b80 87bc
00000150: 0562 bebe b904 21be d01d cfbd e9dc 903d
00000160: 0c56 7dbc 52fd 2e39 d8ce 02bf 9508 233d
00000170: 7916 993d 68f0 003c 9098 a6bc 77c1 ec3d
00000180: 3961 273e 1d03 33be 74bb ea3e 5f21 893d
00000190: 90f0 063e 25b5 dd3c dc62 8d3c f65e 6bbd
000001a0: eda2 e5bb 7c37 ab3e 4965 183e 55d3 433e
000001b0: 695b 363e 1d25 023e 0244 763e c6a3 f43d
000001c0: 9caf 89bf 668e 8ebd b40c 083e 4cae b0be
000001d0: 877e 2d3c df7c 6c3c 729e d9bc 8d17 01be
000001e0: 6efd 24be 26bb b2bf af74 38be aaae 64bd
000001f0: 2645 cdbd 5290 27be e86e 2ebe 2e90 bebc
00000200: fc8f ac3e 3f49 b4bc 38d2 75be 1e49 83be
00000210: 5211 213e 5466 30be 9c78 77be 641c 5bbd
00000220: 1a54 c1bd 9084 fabd f207 7abe 2f1a eb3e
00000230: 26e8 fe3e e508 b53d 6896 0e3f d9c2 663e
00000240: 0124 4e3e 770b bf3e d731 163d 64ed 28be
00000250: 9be9 f93d 89b8 d7be ab5b c4bc b866 053e
00000260: 2b77 693e 04ee e23e 09a6 21be fb53 3ebe
00000270: f561 913e 97ea df3e 686d 303e b5c1 cf3e
00000280: b913 93bd 4516 78be 64c0 7a3c dde0 e23e
00000290: 8410 3bbe 9592 ce3e 9d44 5c3d 07a4 223e
000002a0: c473 103e b97f c63d 9154 eb3d ca3f 1abe
000002b0: 1f91 a0be 792a 51be d9a0 b4bd 4daa e8bd
000002c0: faef 583d cfcc 3d3e 7314 88be bde7 053e
000002d0: b591 bcbe 3450 cbbe e0d2 57be cff4 5bbe
000002e0: 8902 03bd cab8 43bd c90a 29be afc9 05be
000002f0: 53d1 cfbd aee5 f23e fed4 10bc fdcd 71bd
00000300: f58f 553d 3338 80bc b012 85bc 537e 6a3e
00000310: 1836 243d f21b 063f cb28 cbbe 78b2 36bf
00000320: 2ccf a0be 2386 e3bd b379 a1be d6e1 98be
00000330: f981 7b3e 4b55 29bd 1285 ffbd eb2f a8be
00000340: f62a 433e 1d65 9a3d 37b0 3cbe 6760 05bf
00000350: d32a 913e 1bcc 0cbe 738e 8f3d 4c2f 15bf
00000360: 90c1 20be aa15 ee3d bf4b bfbe ad70 a43e
00000370: 0fd7 38bc 68b7 15be 3a65 a53c 1111 d0be
00000380: b070 b1bc 62c8 b4bd a6a4 403c d2bc 813e
00000390: b65b debc 300e acbe df8c d8be 0f91 043d
000003a0: 70bc 3dbe be2a c63b 98ec a9bb 7496 123f
000003b0: 2b6c 37bd 3ac6 4dbf bd98 40be 18b1 19be
000003c0: 2d4b 16bd 82ec b2bd 7621 12be 6bfe b5be
000003d0: 7a1a 2c3e b110 073d b61e 5e3e c6c2 0c3e
000003e0: b90a 75be 8d3b c73d 0bb9 71be cb6c 2a3e
000003f0: befd 2abf 5399 1fbf 768e 33be 59c0 0a3e

network.0.bias f4 [128]
-0.32737163 -0.07705256 -0.1799665 0.25200203 -0.05325244 -0.05597793 -0.19729957 -0.17767373
-0.2932563 -0.2173064 -0.01753823 -0.65709424 -0.11397084 -0.54900783 -0.15386546 0.1051961
-0.17524157 -0.27586147 -0.035689734 -0.16958833 -0.27052468 -0.24361564 -0.052361093 -0.34575248
-0.08933355 -0.12059001 0.043614104 -0.42743388 -0.2608712 0.025557194 -0.11881485 -0.23645699
-0.14236726 0.013094837 -0.09936133 -0.21842787 0.010398931 -0.22168434 -0.10147259 -0.26240185
0.07255851 -0.2716776 -0.19270846 -0.2059025 -0.13213736 -0.0024653121 -0.07935595 -0.066504024
-0.4401565 -0.21800767 -0.18739127 -0.20139055 -0.4338582 -0.27312508 -0.22119887 -0.16616045
-0.049688123 0.08068163 -0.28923267 -0.13712479 0.011338859 -0.30256405 -0.20781872 -0.18985419
0.16554323 -0.55925024 -0.17843105 -0.09117898 -0.12221154 -0.18993957 -0.15007499 -0.30388358
-0.018431878 -0.027892672 -0.11620603 -0.10710118 -0.07642322 -0.5106108 -0.2372571 -0.41508076
-0.19179614 -0.17804228 -0.070965044 -0.12330122 -0.23316467 -0.21721154 -0.2672459 0.0629745
-0.23249878 -0.19328314 -0.3300434 -0.1571048 -0.059580456 0.08836277 -0.25702217 -0.25822186
-0.28477862 -0.11201009 -0.009547454 -0.1973309 -0.552218 -0.5306164 -0.07347811 -0.15731464
-0.074492835 -0.5276406 -0.1891007 -0.16226606 -0.007824843 -0.092555225 -0.20423727 -0.08298644
-0.1707265 0.0069992263 0.30557966 -0.05291853 -0.059691895 -0.10107379 -0.07035686 -0.22527593
-0.28503385 -0.23017219 -0.33773786 0.080515146 -0.12301384 -0.06205209 -0.18373513 -0.17132016
00000000: 419d a7be bccd 9dbd 2349 38be 6906 813e
00000010: 3b1f 5abd 1d49 65bd e608 4abe 1af0 35be
00000020: b125 96be 9285 5ebe 56ac 8fbc 5437 28bf
00000030: 8b69 e9bd c78b 0cbf e88e 1dbe 0e71 d73d
00000040: 8772 33be b73d 8dbe 662f 12bd 90a8 2dbe
00000050: 3682 8abe 6176 79be 9678 56bd 7806 b1be
00000060: 82f4 b6bd e5f7 f6bd b4a4 323d 9dd8 dabe
00000070: e990 85be 525d d13c 3355 f3bd c821 72be
00000080: b9c8 11be ba8b 563c f47d cbbd 8eab 5fbe
00000090: 4760 2a3c 3801 63be dcd0 cfbd 8959 86be
000000a0: 8e99 943d 5419 8bbe 5e55 45be 1bd8 52be
000000b0: 044f 07be 1391 21bb 5f85 a2bd 4333 88bd
000000c0: 315c e1be 673d 5fbe 7fe3 3fbe 5339 4ebe
000000d0: a922 debe 0dd7 8bbe f581 62be f725 2abe
000000e0: c685 4bbd 693c a53d 4e16 94be 716a 0cbe
000000f0: 9fc6 393c ade9 9abe 6ece 54be 2369 42be
00000100: 2a84 293e 062b 0fbf a1b6 36be 0cbc babd
00000110: 0b4a fabd 857f 42be 42ad 19be a196 9bbe
00000120: 73fe 96bc 2c7f e4bc 6dfd edbd dd57 dbbd
00000130: c783 9cbd 64b7 02bf 86f3 72be 7785 d4be
00000140: 3566 44be b750 36be 1f56 91bd 5a85 fcbd
00000150: b8c2 6ebe b46c 5ebe 74d4 88be c6f8 803d
00000160: 2914 6ebe 04ec 45be 73fb a8be 15e0 20be
00000170: a30a 74bd 8af7 b43d 6998 83be a835 84be
00000180: 81ce 91be 8c65 e5bd ed6c 1cbc 1d11 4abe
00000190: 295e 0dbf 7ad6 07bf b17b 96bd 1717 21be
000001a0: b38f 98bd 7413 07bf 9da3 41be 1329 26be
000001b0: c533 00bc 988d bdbd 9323 51be cbf4 a9bd
000001c0: edd2 2ebe c459 e53b f074 9c3e 1ac1 58bd
000001d0: 7d7f 74bd c6ff cebd 4217 90bd bcae 66be
000001e0: f5ef 91be 42b2 6bbe faeb acbe 20e5 a43d
000001f0: aeee fbbd 552a 7ebd 1025 3cbe 8d6e 2fbe

network.3.weight f4 [64, 128]
0.2095402 -0.21070898 -0.2570012 -0.42092103 -0.11950875 0.045614548 0.2064966 0.044772208
0.017229985 0.08579009 -0.08892352 0.3097888 -0.15234111 0.23139583 0.18025348 -0.1350642
-0.15133844 0.23283625 -0.011572457 0.008350961 -0.09809176 0.049325738 0.05309731 0.043436415
-0.124657325 -0.04447309 0.028878093 0.09768356 0.11400275 -0.21214344 -0.053210463 -0.0676805
0.062053733 -0.10254437 -0.39465493 -0.054686133 -0.037200842 0.18570162 -0.16042478 0.024468113
0.04911903 0.019905359 0.0770261 0.057772137 0.068071224 -0.23755811 0.012558327 -0.0008413579
-0.013356172 0.037605237 0.18400721 -0.0894642 0.11364392 0.025388828 -0.04347275 -0.029382115
-0.04486455 0.105393484 0.118485235 0.050646897 0.035669357 -0.15126851 -0.0046632313 -0.20118451
-0.024004107 0.5787827 0.17204866 -0.030089557 0.108239084 0.022619454 -0.11941002 -0.12351652
0.00091530744 0.093247324 0.024119975 0.075545646 0.0723734 0.6757733 0.15915813 0.10202828
0.03339824 0.13351588 0.11147168 -0.03898415 -0.22460936 0.04775638 0.09094361 -0.13340515
0.13762313 -0.040754102 -0.19088896 -0.27429372 -0.2415723 -0.12033278 0.068750344 0.025144536
-0.17530431 -0.00017603512 0.058465738 -0.06044978 0.2910168 0.17772122 -0.33464766 -0.03769623
0.10268946 0.5305167 -0.09021507 0.020431973 -0.30641705 -0.083053045 -0.36126953 -0.051524125
0.020099593 -0.17432736 -0.11649288 -0.04216554 0.14131537 0.25975323 0.12498122 -0.12561344
0.028288228 -0.053314574 -0.20085591 -0.42515567 0.18780054 0.10859596 -0.37176636 -0.31781662
0.033718906 0.05901471 0.06515242 0.015237894 0.059943315 0.024035973 -0.018955575 0.0056845048
0.11498717 0.16481242 -0.21907116 -0.32191443 -0.07906782 -0.31875697 0.043470453 -0.08903286
0.13471109 0.04827472 0.013182343 -0.14689158 -0.02221975 -0.19239473 -0.26183707 -0.1503846
0.030779017 -0.2141761 0.111855865 0.00664253 0.033115815 0.013623587 -0.24281976 0.00016387869
-0.23251611 0.056229446 0.05431981 0.026594736 0.042163663 -0.14233248 -0.06674334 -0.01924108
-0.016509777 0.14666003 -0.040000528 -0.031255096 -0.031541295 -0.06708159 0.05928336 -0.11983204
0.0683393 -0.23616648 0.075743936 0.07770771 -0.0029347248 -0.07836577 -0.0073068454 -0.02898609
-0.06439946 0.33171916 0.012886679 0.06676794 0.11487318 0.037582625 0.004115806 0.08456027
0.12036133 -0.81867045 -0.0870511 0.05747864 0.092718475 0.19323565 -0.011373992 -0.020996682
0.10128985 -0.027406834 -0.03992976 0.08168671 -0.054071724 -0.83201 -0.18413055 0.07293384
-0.051501174 0.06807774 0.13206214 0.022732245 -0.018511795 0.25823674 -0.22392303 0.08751496
-0.114469945 0.18499501 -0.093542844 0.028344683 0.1534386 0.061898712 -0.18754049 -0.2181441
0.14895847 -0.20885174 -0.054699242 0.0411019 -0.20771708 -0.070949644 0.052867502 -0.22547264
0.19867489 -0.42356384 0.15880604 0.13600966 0.00049767684 -0.029944558 0.16699876 -0.047517344
0.069157526 0.16518767 0.11304071 0.017560966 0.062439773 0.02511516 -0.12929036 -0.06898362
0.0005838803 0.014902055 0.06888529 0.12758169 0.011072521 -0.1775854 -0.064965166 0.23347612
00000000: b591 563e 18c4 57be a995 83be f682 d7be
00000010: 01c1 f4bd 52d6 3a3d d873 533e 1063 373d
00000020: e625 8d3c b7b2 af3d 891d b6bd a39c 9e3e
00000030: 4fff 1bbe 07f3 6c3e 5e94 383e 454e 0abe
00000040: 77f8 1abe a06c 6e3e 679a 3dbc 78d2 083c
00000050: 55e4 c8bd c909 4a3d 917c 593d 62ea 313d
00000060: 574c ffbd 6a29 36bd c091 ec3c 510e c83d
00000070: 467a e93d 213c 59be 37f3 59bd 139c 8abd
00000080: 0e2c 7e3d c802 d2bd 3610 cabe 91fe 5fbd
00000090: e95f 18bd 9128 3e3e 6546 24be 5a71 c83c
000000a0: 0931 493d 9010 a33c dcbf 9d3d 7aa2 6c3d
000000b0: ed68 8b3d 6f42 73be 71c1 4d3c 938e 5cba
000000c0: d8d3 5abc f307 1a3d 636c 3c3e 0239 b7bd
000000d0: 25be e83d 3bfc cf3c 7b10 32bd c3b2 f0bc
000000e0: e4c3 37bd 8ad8 d73d 63a8 f23d 1f73 4f3d
000000f0: 081a 123d 22e6 1abe 05ce 98bb 5003 4ebe
00000100: 43a4 c4bc 1a2b 143f 862d 303e 607e f6bc
00000110: 74ac dd3d 6f4c b93c 3e8d f4bd 3bf6 fcbd
00000120: 3ef1 6f3a 74f8 be3d 4197 c53c adb7 9a3d
00000130: 8138 943d 7bff 2c3f 59fa 223e 34f4 d03d
00000140: 98cc 083d 63b8 083e 444b e43d d8ad 1fbd
00000150: ffff 65be 329c 433d a540 ba3d 5c9b 08be
00000160: 14ed 0c3e c6ed 26bd 6578 43be 3a70 8cbe
00000170: bb5e 77be 0871 f6bd fbcc 8c3d eafb cd3c
00000180: f982 33be 1196 38b9 c579 6f3d 309a 77bd
00000190: 2700 953e 8dfc 353e f056 abbe 5d67 1abd
000001a0: da4e d23d f1cf 073f aec2 b8bd f460 a73c
000001b0: b2e2 9cbe b717 aabd 52f8 b8be f60a 53bd
000001c0: e7a7 a43c df82 32be d293 eebd c6b5 2cbd
000001d0: fab4 103e 60fe 843e 27f6 ff3d cfa0 00be
000001e0: b7bc e73c 6260 5abd 2cad 4dbe 01ae d9be
000001f0: c94e 403e 8f67 de3d 2958 bebe dcb8 a2be
00000200: d61c 0a3d 69b9 713d a26e 853d 5ca8 793c
00000210: 1f87 753d 17e7 c43c b948 9bbc 1545 ba3b
00000220: 657e eb3d 96c4 283e 3154 60be f8d1 a4be
00000230: 4fee a1bd 1d34 a3be 130e 323d dc56 b6bd
00000240: b4f1 093e b6bb 453d c1fa 573c bf6a 16be
00000250: 3106 b6bc 2003 45be 820f 86be 6cfe 19be
00000260: 4724 fc3c fb50 5bbe b014 e53d 95a9 d93b
00000270: 73a4 073d 7735 5f3c bea5 78be dad6 2b39
00000280: b418 6ebe d950 663d 737e 5e3d 34dd d93c
00000290: ceb3 2c3d 9bbf 11be bbb0 88bd 789f 9dbc
000002a0: 833f 87bc 0c2e 163e 98d7 23bd 5805 00bd
000002b0: 7231 01bd 1362 89bd 1cd3 723d 806a f5bd
000002c0: 7af5 8b3d a0d5 71be a31f 9b3d 3825 9f3d
000002d0: 8354 40bb 3c7e a0bd 436e efbb 3d74 edbc
000002e0: dde3 83bd 18d7 a93e a622 533c a1bd 883d
000002f0: a142 eb3d 3df0 193d e2dd 863b ef2d ad3d
00000300: 0080 f63d 6394 51bf d947 b2bd b96e 6b3d
00000310: 2fe3 bd3d 91df 453e fb59 3abc 3c01 acbc
00000320: 0e71 cf3d 4c84 e0bc 638d 23bd 5d4b a73d
00000330: 507a 5dbd 9bfe 54bf b88c 3cbe 565e 953d
00000340: e5f2 52bd 586c 8b3d 4c3b 073e f938 ba3c
00000350: 0ca6 97bc 9b37 843e 144c 65be 0b3b b33d
00000360: 386f eabd 556f 3d3e 6493 bfbd 1c33 e83c
00000370: 021f 1d3e 8189 7d3d 9d0a 40be 2b61 5fbe
00000380: 9288 183e 3bdd 55be 500c 60bd 775a 283d
00000390: c9b3 54be 0c4e 91bd 988b 583d 4de2 66be
000003a0: 6e71 4b3e 5cdd d8be 0d9e 223e 1e46 0b3e
000003b0: 8776 023a 4a4e f5bc b901 2b3e 8ca1 42bd
000003c0: 76a2 8d3d f526 293e e381 e73d 04dc 8f3c
000003d0: d9c0 7f3d 4fbe cd3c b164 04be 4947 8dbd
000003e0: 8b0f 193a c027 743c bb13 8d3d c6a4 023e
000003f0: 8569 353c f2d8 35be 750c 85bd 5d14 6f3e

network.3.bias f4 [64]
-0.1214978 0.18763316 0.09176889 -0.11995669 -0.03270884 0.010939228 -0.07832866 0.07865004
0.034319267 -0.2757899 0.1312667 -0.1725525 0.01623534 -0.04596875 -0.14094946 -0.40465233
0.1319918 0.25614715 -0.3955969 0.2080001 -0.04163761 -0.0549688 0.07951684 0.12277901
0.20246415 -0.21815047 -0.019557344 -0.123977706 -0.07656779 0.03744831 0.041228883 0.08218372
-0.09136394 0.17866486 -0.24334039 0.2726032 0.32710883 -0.07499596 0.084039435 0.025963366
0.12337723 0.0333728 -0.014953215 0.016100204 -0.15685636 0.011802758 0.23434043 0.13225777
-0.022345072 0.0013291725 0.31855717 0.18016009 -0.34337258 -0.20211864 0.12871328 0.0386024
-0.3919628 0.38839602 0.005310492 0.13887078 0.20327923 0.16432047 0.06686549 -0.3761088
00000000: d7d3 f8bd e822 403e 54f1 bb3d daab f5bd
00000010: b4f9 05bd 733a 333c c76a a0bd 4613 a13d
00000020: 5c92 0c3d 5534 8dbe c76a 063e 9ab1 30be
00000030: faff 843c ba49 3cbd 0e55 10be 972e cfbe
00000040: dc28 073e b825 833e ad8b cabe fafd 543e
00000050: 338c 2abd f726 61bd bad9 a23d 9073 fb3d
00000060: c352 4f3e d662 5fbe b936 a0bc 06e8 fdbd
00000070: 93cf 9cbd 6663 193d 9edf 283d f04f a83d
00000080: 041d bbbd ecf3 363e 392e 79be a692 8b3e
00000090: cf7a a73e 7b97 99bd de1c ac3d 20b1 d43c
000000a0: 33ad fc3d ebb1 083d 54fe 74bc 93e4 833c
000000b0: f49e 20be 5b60 413c f0f6 6f3e 956e 073e
000000c0: 030d b7bc a137 ae3a ed19 a33e e37b 383e
000000d0: 88ce afbe 30f8 4ebe 6acd 033e 8d1d 1e3d
000000e0: 59af c8be d8db c63e a303 ae3b 2434 0e3e
000000f0: 6e28 503e a043 283e c6f0 883d 5591 c0be

network.5.weight f4 [32, 64]
-0.0847957 0.03753847 -0.087931596 0.27339655 -0.12334186 -0.13731633 -0.24440935 -0.0658127
0.08673641 0.17942306 -0.41805023 -0.04436427 -0.0659454 -0.111091554 -0.12852432 0.043239113
-0.18809 0.076374605 -0.3519877 -0.09760793 0.039835475 0.27638385 0.07494353 -0.49389094
-0.117370754 0.092657566 0.068717994 0.049142987 0.15965465 0.3417351 0.26086614 0.42952466
-0.05494822 0.36601317 -0.061883144 -0.021289987 0.17762545 0.16584027 0.13055232 -0.07679906
0.09628519 -0.04959101 0.38214204 0.10188629 -0.08445218 -0.026585413 -0.21032286 -0.08564414
0.036215216 0.16723517 -0.12447033 -0.31080812 -0.17851461 -0.066072896 0.13990483 0.062103275
0.118133426 -0.19535248 -0.0016708117 -0.28927356 -0.13384888 -0.055868804 0.24778987 -0.03267376
0.08299568 0.11141504 -0.018725034 0.033843298 -0.13457476 0.20282145 -0.11029178 0.025093865
-0.5454832 -0.43690935 0.090412505 -0.11930292 0.16986251 -0.17873403 -0.38803244 -0.11663432
-0.010985789 0.17425658 -0.11154132 -0.14130856 -0.07448234 -0.061271805 -0.08823505 -0.08727835
-0.21223435 -0.06987088 -0.31100377 -0.2819008 -0.115432985 0.17600448 -0.22034474 -0.10064135
-0.12013998 -0.06085539 -0.11770511 -0.1302993 -0.14112498 -0.21163866 0.23953463 0.15845948
-0.10808464 0.00402555 -0.10257365 0.21891783 -0.31764576 0.10190151 0.4278472 -0.272794
-0.0065273577 0.022395732 -0.18364616 0.06409838 -0.034051787 0.25663456 0.038467407 -0.04004114
0.08451502 0.21001157 0.064997 -0.021761755 0.10020576 -0.0054364433 0.12353481 0.2105015
-0.17593648 0.009304899 0.08061374 -0.16870469 0.45913473 -0.05021424 0.44599867 0.16695781
-0.2648073 -0.10620409 0.22534849 0.022864768 0.086310126 0.059681468 -0.07050619 0.0056377086
0.0092352545 -0.119645074 0.17505006 -0.0939598 -0.14672868 0.19884199 0.19206356 0.19217241
-0.16005303 0.021125609 0.1944866 0.4662075 -0.025532255 -0.018137362 -0.1368034 0.50899446
-0.037767008 0.34355664 -0.06659562 0.111905396 -0.26359603 -0.0032261575 0.1114792 0.031979434
-0.13067561 -0.025038766 -0.24492016 -0.21607734 0.2616293 0.22845407 0.07008644 -0.02473202
0.11328742 -0.112191595 0.0671866 -0.06760889 -0.064989686 0.08217635 -0.27678278 -0.19373712
-0.054894164 0.020646991 -0.009662492 -0.077307396 -0.21464126 -0.027087696 -0.32410124 -0.2760255
-0.28558266 -0.19689289 0.20301747 0.3740492 0.42809755 0.13676785 -0.28211507 -0.029526565
-0.21430609 -0.012607628 -0.23507701 -0.062429316 -0.21035221 0.006226799 0.19127998 0.0003115915
-0.116045244 -0.12608947 -0.21883596 -0.25119805 -0.010323294 -0.09157986 -0.0654294 -0.11667774
-0.13145779 0.007239553 0.003216017 -0.19192402 -0.3264042 -0.19049065 0.11226229 0.2563983
-0.3800764 0.053182643 -0.055568703 0.15032454 -0.06620584 -0.15526187 -0.108990245 0.15833294
-0.38766807 0.14310385 -0.07745086 -0.030959219 -0.14748642 0.07513671 -0.089866616 -0.11825903
-0.045108 0.09531365 -0.42414522 0.015275571 0.0019389174 0.47293383 -0.10371959 -0.17510715
-0.10571612 -0.07335666 -0.028087154 -0.1331497 0.018815389 0.19749126 -0.14517316 -0.016113993
00000000: 5ea9 adbd f0c1 193d 7b15 b4bd a2fa 8b3e
00000010: a89a fcbd a79c 0cbe 7246 7abe cfc8 86bd
00000020: dca2 b13d aeba 373e ae0a d6be 4fb7 35bd
00000030: 620e 87bd f883 e3bd e19b 03be 7f1b 313d
00000040: aa9a 40be 4a6a 9c3d bb37 b4be abe6 c7bd
00000050: 862a 233d 2f82 8d3e fe7b 993d 46df fcbe
00000060: 1460 f0bd 40c3 bd3d 05bc 8c3d 284a 493d
00000070: 827c 233e e7f7 ae3e 3f90 853e a8ea db3e
00000080: 6211 61bd 1466 bb3e 2e79 7dbd 5768 aebc
00000090: 72e3 353e 08d2 293e 82af 053e d348 9dbd
000000a0: 2b31 c53d f11f 4bbd 1fa8 c33e c2a9 d03d
000000b0: 44f5 acbd a7c9 d9bc e05e 57be 3266 afbd
000000c0: 6856 143d b23f 2b3e 4dea febd 3e22 9fbe
000000d0: 89cc 36be 3a51 87bd 3643 0f3e 0160 7e3d
000000e0: f0ef f13d 7b0a 48be 23ff daba aa1b 94be
000000f0: ae0f 09be b0d6 64bd a1bc 7d3e ecd4 05bd
00000100: a4f9 a93d 922d e43d 3e65 99bc 459f 0a3d
00000110: f7cd 09be 6db0 4f3e a8e0 e1bd a691 cd3c
00000120: c9a4 0bbf 95b2 dfbe 312a b93d 1755 f4bd
00000130: 70f0 2d3e 0e06 37be 30ac c6be f9dd eebd
00000140: bdfd 33bc 5170 323e c76f e4bd 31b3 10be
00000150: 328a 98bd 25f8 7abd 94b4 b4bd febe b2bd
00000160: f653 59be 7718 8fbd e33b 9fbe 4d55 90be
00000170: 2168 ecbd 853a 343e 0da2 61be 0d1d cebd
00000180: f30b f6bd 8043 79bd 600f f1bd 2e6d 05be
00000190: 1183 10be ceb7 58be 9148 753e 3443 223e
000001a0: 7b5b ddbd c3e8 833b 2212 d2bd ff2b 603e
000001b0: 77a2 a2be bdb1 d03d ca0e db3e a8ab 8bbe
000001c0: 72e3 d5bb 4177 b73c bd0d 3cbe 0346 833d
000001d0: e379 0bbd 9b65 833e 0090 1d3d 2e02 24bd
000001e0: 3616 ad3d 460d 573e 261d 853d b545 b2bc
000001f0: ad38 cd3d 3124 b2bb d2ff fc3d b58d 573e
00000200: b128 34be 9373 183c d118 a53d ecc0 2cbe
00000210: b513 eb3e 72ad 4dbd f059 e43e fdf6 2a3e
00000220: d394 87be 8881 d9bd c1c1 663e e54e bb3c
00000230: 5dc3 b03d 8e74 743d 8d65 90bd 87bc b83b
00000240: 774f 173c 7a08 f5bd 5340 333e ff6d c0bd
00000250: 0b40 16be 3c9d 4b3e 4fac 443e d8c8 443e
00000260: f1e4 23be 9d0f ad3c 7f27 473e c0b2 ee3e
00000270: 0529 d1bc ce94 94bc 3116 0cbe 764d 023f
00000280: 94b1 1abd a8e6 af3e 4963 88bd a82e e53d
00000290: 0ff6 86be f16d 53bb 354f e43d defc 023d
000002a0: d4cf 05be 191e cdbc 5acc 7abe 6143 5dbe
000002b0: 47f4 853e ddef 693e 7b89 8f3d ce9a cabc
000002c0: 3c03 e83d b5c4 e5bd 2199 893d 8876 8abd
000002d0: 5019 85bd 134c a83d 79b6 8dbe 0663 46be
000002e0: b4d8 60bd e123 a93c 6e4f 1ebc 5753 9ebd
000002f0: ebca 5bbe 04e7 ddbc 99f0 a5be 3753 8dbe
00000300: e437 92be 4a9e 49be d0e3 4f3e 6083 bf3e
00000310: 9a2f db3e df0c 0c3e 6371 90be b2e1 f1bc
00000320: 0e73 5bbe 3990 4ebc 07b8 70be e2b5 7fbd
00000330: 9266 57be 2d0a cc3b e6de 433e 1a5d a339
00000340: 21a9 edbd 991d 01be 8916 60be 089d 80be
00000350: 0923 29bc 398e bbbd d9ff 85bd bdf4 eebd
00000360: df9c 06be c639 ed3b d0c3 523b bb87 44be
00000370: 741e a7be fb0f 43be c6e9 e53d a346 833e
00000380: 6099 c2be 0bd6 593d 029c 63bd adee 193e
00000390: ed96 87bd f8fc 1ebe 4736 dfbd 0822 223e
000003a0: 6e7c c6be d189 123e 8e9e 9ebd 309e fdbc
000003b0: ae06 17be 47e1 993d fd0b b8bd ca31 f2bd
000003c0: 2bc3 38bd ce33 c33d 9029 d9be 6346 7a3c
000003d0: 4623 fe3a 6224 f23e f06a d4bd 4a4f 33be
000003e0: b181 d8bd 043c 96bd 0817 e6bc 6558 08be
000003f0: bb22 9a3c 263b 4a3e 46a8 14be 7e01 84bc

network.5.bias f4 [32]
-0.14026615 0.10712144 -0.18322933 -0.10806303 0.061838556 0.019327663 0.23377876 0.07570323
-0.27542794 0.2217813 0.2396054 -0.1037373 0.069834016 0.25523424 -0.034330994 0.24426596
0.14127797 -0.089295246 -0.1268151 0.065535605 0.012262527 -0.22795364 0.23406996 -0.14164199
-0.13533957 0.17694095 0.056809306 0.109779686 -0.05641426 0.028711302 0.23286863 0.13197608
00000000: eea1 0fbe 7c62 db3d 78a0 3bbe 2650 ddbd
00000010: 6d4a 7d3d 0c55 9e3c b363 6f3e 4c0a 9b3d
00000020: e404 8dbe a31a 633e 1e5b 753e 3974 d4bd
00000030: 2305 8f3d 10ae 823e a89e 0cbd db20 7a3e
00000040: 2cab 103e 6de0 b6bd d1db 01be 8837 863d
00000050: c4e8 483c ae6c 69be 09b0 6f3e 990a 11be
00000060: 7596 0abe 0230 353e e0b0 683d 2cd4 e03d
00000070: a412 67bd f733 eb3c 1d75 6e3e bd24 073e

network.7.weight f4 [1, 32]
0.109744444 -0.15908258 -0.11587763 -0.31683993 -0.3922778 0.21326788 -0.3444913 -0.34594676
-0.12948206 0.19394565 0.28175408 -0.14303266 0.3204787 0.38279176 0.117726505 0.17376801
0.23430184 -0.10908317 -0.6975341 -0.30509517 -0.20314978 -0.24853653 0.29576117 0.49522784
-0.13988405 -0.1315719 0.18401268 -0.14356038 -0.4137206 0.31249323 0.19264182 -0.28703865
00000000: b2c1 e03d 8be6 22be 4051 edbd d838 a2be
00000010: a3d8 c8be e562 5a3e 2a61 b0be ef1f b1be
00000020: f296 04be b099 463e 1242 903e 2777 12be
00000030: c915 a43e 48fd c33e 981a f13d 3ef0 313e
00000040: d2ec 6f3e ff66 dfbd 9891 32bf 6f35 9cbe
00000050: 7f06 50be 5c80 7ebe 026e 973e 818e fd3e
00000060: c43d 0fbe c9ba 06be d26d 3c3e 7e01 13be
00000070: 30d3 d3be 1dff 9f3e e643 453e bbf6 92be
