static_dashboard/models/nn_v9.onnx (onnx, 207219 bytes, 7 tensors)

network.0.weight f4 [256, 29]
000000 ad d7 ad 3e cd d1 86 3e b2 3a d1 be a6 ac 06 3e
       0.3395361 0.2633194 -0.40865093 0.13151798
000010 34 e4 c7 be c5 97 73 be 07 9c 86 be b0 c7 11 bf
       -0.39041293 -0.23788364 -0.26290914 -0.56945324
000020 02 b7 13 bf 88 b6 f6 3e b9 25 e2 bd 41 2e 0a 3e
       -0.5770112 0.48186135 -0.11042351 0.13494207
000030 9f 02 b9 3d e8 2e ab 3e 9c b4 22 3c 74 2b 87 be
       0.09033703 0.33434224 0.009930756 -0.2640034
000040 cc cf f9 3c 9e a9 2d 3e 47 da 85 be 70 f4 17 3d
       0.030494593 0.16959235 -0.26143095 0.03709835
000050 85 d0 91 3b 02 41 54 3c 33 a3 11 bf 87 2b 78 3a
       0.0044499063 0.012954952 -0.5688965 0.00094669353
000060 ff 0e 19 3e 78 26 9e bd 13 d3 20 3c 7d 2f 81 3e
       0.14947127 -0.07722181 0.009815949 0.25231543
000070 be f3 9c bd d9 af 33 be ec b0 e9 be d3 b7 26 3f
       -0.07663678 -0.1754755 -0.45642793 0.65124243
000080 22 a5 bb 3e 08 54 a3 be 12 b7 96 3e 28 be d6 bd
       0.36649424 -0.31900048 0.29436547 -0.10485488
000090 65 cf ed be 3f ca 79 bd 22 62 0c be f5 f8 83 be
       -0.46447292 -0.060983893 -0.1370931 -0.25775877
0000a0 ca 29 a7 be 76 87 6f 3e 1c b3 92 3c 15 2f 03 bd
       -0.3264907 0.23391518 0.017907672 -0.032027323
0000b0 81 9f 5c bd 4b a6 68 3e c8 62 8b bd c9 18 3d bd
       -0.053863052 0.22719686 -0.068059504 -0.046166215
0000c0 6a 9d 22 be ee 1f f7 be d8 f3 05 3e aa 3d f5 3d
       -0.15880361 -0.48266548 0.130813 0.11974652
0000d0 ed d9 a2 bd 9f 53 2f be 54 61 1a bf a6 e3 0e be
       -0.07951722 -0.17121743 -0.6030476 -0.13954028
0000e0 a7 31 78 3d 91 e7 6d be 56 ad 33 3e d8 60 89 bd
       0.060594227 -0.23232867 0.17546591 -0.067079246
0000f0 ec e8 01 3e 85 d5 4d 3c a3 bd a0 be 38 76 3c 3f
       0.12686509 0.012563114 -0.3139468 0.7361789
000100 10 39 7b 3e 6c 9d b7 bd 6a da 0d 3d 56 62 0d 3f
       0.24533486 -0.08965573 0.034632124 0.55228174
000110 fa d4 7a bd 6b 5c 8b be 40 32 16 3d e5 06 d1 3e
       -0.061238267 -0.27218947 0.036669016 0.40825573
000120 9e cf 6a bc 67 5d c9 be c9 85 e1 3e 9b 46 3e be
       -0.014331726 -0.39329073 0.44047382 -0.18581621
000130 17 13 4a 3f 93 85 81 bd ff 93 85 3e b5 d4 19 3e
       0.7893538 -0.063243054 0.26089475 0.15022548
000140 d9 f3 37 3e ca 1a 92 3e 46 4a 0f be b9 d7 33 be
       0.17964114 0.28536063 -0.13993177 -0.1756276
000150 c7 2c 70 3d bc 45 41 3e b3 c3 93 be 63 ad b0 3e
       0.058636453 0.18874258 -0.28860244 0.34507284
000160 35 16 b3 bd 72 73 9c 3c b5 b6 24 be 9c 01 d3 bd
       -0.0874447 0.019098017 -0.16085322 -0.10303041
000170 79 6d ea be bc b6 f7 3c 23 43 0b 3f d0 a1 80 bc
       -0.45786646 0.030238502 0.5439932 -0.015702158
000180 cc 21 c5 be 6b 5f ac be ef ef cf 3c 1a 76 55 be
       -0.38502347 -0.33666548 0.025382964 -0.20845833
000190 67 18 e1 bd 36 60 ad 3d 0c 0b c8 3d be 4b 22 be
       -0.109909825 0.084656164 0.09767732 -0.15849206
0001a0 8e 64 79 3e b5 31 8c be ff 16 0a bc 0b e1 f0 be
       0.24354765 -0.27381673 -0.008428334 -0.47046694
0001b0 ad 25 03 bf ac 77 a2 3e 53 05 8a be ee e5 30 3f
       -0.51229364 0.31731927 -0.26957187 0.69100845
0001c0 50 20 d6 bc d5 46 04 bf 0b da 9b bd f8 fe b1 3d
       -0.026138455 -0.5167058 -0.07609948 0.086912096
0001d0 36 93 86 3e f6 86 73 3a d9 db 66 be 5b 4a a8 bd
       0.26284188 0.0009289825 -0.22544803 -0.08217307
0001e0 1e be af 3b a1 dc 08 3f b0 39 09 bc e7 4b 0d be
       0.00536324 0.53461653 -0.00837557 -0.13798486
0001f0 0b a7 ae 3e a3 73 49 be ea 5a 78 bd 67 49 aa be
       0.3411182 -0.19673018 -0.060633577 -0.33259127
000200 19 ab 7e bd 4c 9c 25 bf 2a 36 d3 3e 04 dc b7 be
       -0.06217489 -0.64691615 0.4125226 -0.35910046
000210 8a 9e b1 be 85 af 83 bf 50 a1 04 3f 4a 64 a4 be
       -0.34691268 -1.0287939 0.51808643 -0.32107764
000220 e4 8e 9f bd e6 e7 f6 be 9b b1 7f 3e c8 e9 89 3f
       -0.07790926 -0.482238 0.24970095 1.0774469
000230 f6 6f 5f 3e c7 bc 45 be ec eb 3c 37 d7 84 2e bd
       0.21820053 -0.19310294 1.1260603e-05 -0.042607155
000240 9f 2a 9a bd 95 f2 fb bb 38 a2 c0 3c 9e 5a 63 3c
       -0.075276606 -0.00768883 0.023514852 0.013876585
000250 5e 89 81 3f 8a 7f 3d 3c ab bb c6 3d 07 7c ab 3d
       1.0120046 0.011566052 0.097037636 0.08373266
000260 13 44 7d 3d 53 e1 e9 be 48 09 5f bd 99 26 8d be
       0.0618325 -0.4567972 -0.05445221 -0.2756851
000270 e4 58 84 be fc 09 e6 bd d5 f6 42 3d 8b 1e 9e be
       -0.25849068 -0.11232373 0.04759868 -0.30882677
000280 db 5c 6b bd ae bd c6 3e 19 ee 57 bd 5f 20 ad be
       -0.0574616 0.3881659 -0.052717302 -0.3381376
000290 26 ac b9 be 9a 88 86 be 37 d1 f2 be 6d 3b bf be
       -0.3626415 -0.26276094 -0.47425243 -0.37350026
0002a0 e3 14 d5 be 45 3f b5 be 76 50 09 bf 22 a8 be be
       -0.41617498 -0.35399833 -0.536384 -0.3723765
0002b0 ac 72 db be 14 60 be be 0e 72 40 3e 90 1f 67 bd
       -0.42860925 -0.37182677 0.18793508 -0.056426585
0002c0 1d 98 e6 3d b1 52 04 bf 7c c9 9c be 36 01 e2 bf
       0.11259482 -0.5168868 -0.3062247 -1.765662
0002d0 62 0a 6d be e5 74 c6 3d 7c e4 c8 3e 6a 27 ac be
       -0.23148492 0.096902646 0.3923682 -0.3362382
0002e0 97 c0 25 bf b1 42 be 3c ba 71 44 be 3f f5 91 3e
       -0.64746994 0.02322516 -0.19184008 0.2850742
0002f0 dc d7 92 be 42 3c 82 3d c3 7e be 3d 4e 13 03 3e
       -0.28680313 0.063591495 0.09301522 0.12800333
000300 e6 5e c3 3e bf ed 4f be 4f d2 9d 3e 32 57 3c bf
       0.3815834 -0.20305537 0.30824515 -0.7357055
000310 f0 93 63 bf 85 6e eb be 62 f5 b0 3e 91 da 69 bf
       -0.8889761 -0.45982757 0.34562212 -0.9134913
000320 81 08 d1 bd d4 a1 79 3e fe e6 5f bd 6c 12 34 be
       -0.102067 0.24378139 -0.05466365 -0.17585152
000330 59 5e e6 3e ea c6 2a be b5 ec 97 be a3 10 4f 3e
       0.44993857 -0.16677442 -0.2967278 0.2022119
000340 fe 65 45 c0 5f fc 9c bc bc 26 b8 3e db 31 ad be
       -3.08435 -0.019163309 0.35967052 -0.338271
000350 1c e4 85 bd f9 09 ba 3e 22 c7 39 bf 1d 54 61 3d
       -0.06537649 0.36335734 -0.7256948 0.055011857
000360 46 ee 98 3e 28 52 a8 bb eb 12 d3 bd 61 44 c3 be
       0.29869288 -0.005136747 -0.10306343 -0.38138106
000370 d4 58 07 3f 6c 07 70 3e e8 9c 6e 3b 90 7e 25 bf
       0.52869916 0.23440331 0.0036409441 -0.64646244
000380 d5 d5 38 3e 58 02 0a bf 3a b4 c2 be f6 c3 3f 3e
       0.1805032 -0.53909826 -0.38028127 0.18727097
000390 4b 3c 79 be a3 dc 61 3d cf 90 73 be 00 34 9f be
       -0.24339406 0.055142056 -0.23785709 -0.3109436
0003a0 ac cc 4e bd 91 bd 2f 3e 33 93 aa 3c 30 cf f2 3d
       -0.05048816 0.17162158 0.020822143 0.11855924
0003b0 3c 1b e1 3c 1c da 23 be ed 40 27 bb a6 0f 3b 3b
       0.027478807 -0.16001171 -0.0025520877 0.0028543263
0003c0 3b 88 aa bc 52 a0 b4 3a ab c5 29 bd a9 6d 40 be
       -0.020816913 0.0013780689 -0.041448276 -0.18791832
0003d0 8a 37 4a 3d bb 63 e7 be ca 87 94 3e 02 b6 83 3e
       0.049369372 -0.45193276 0.2900985 0.25724798
0003e0 bc f9 46 3f f6 1f 1c bf c9 31 2a 3e 4d bb a1 be
       0.77724814 -0.6098627 0.16620554 -0.31588212
0003f0 92 c8 b6 3e 28 38 d3 be a1 3f c6 3f 52 86 90 be
       0.35699898 -0.4125378 1.5488168 -0.28227478

network.0.bias f4 [256]
000000 26 41 e3 be 45 a5 9a be 26 8d 9a be 8a 37 1c be
       -0.44385642 -0.30204216 -0.30185813 -0.15255561
000010 fd 76 75 be ec 31 09 bf aa 10 77 3d b0 38 ab be
       -0.23971172 -0.535918 0.060318626 -0.33441687
000020 54 d9 14 be d6 32 8b be d0 44 a4 be 4a 57 8e bd
       -0.14536029 -0.27187222 -0.3208375 -0.06950243
000030 91 36 38 bf 9b e6 9a be a0 00 ad be 72 85 00 bf
       -0.7195826 -0.30254063 -0.3378954 -0.5020362
000040 19 23 0f bf c9 58 9f be 04 48 c2 bd fd 87 c7 bd
       -0.5591293 -0.31122425 -0.09486392 -0.097427346
000050 9f 98 05 bf e6 31 8f be b7 17 ca bd d4 53 1f be
       -0.52186006 -0.27967757 -0.098678045 -0.15559322
000060 be 80 7d be 7a 2c c3 be 0d 8d dc bd e2 c4 21 be
       -0.24756142 -0.3811987 -0.10769091 -0.15797761
000070 b5 a5 be bd c6 98 9f bc 34 4c 41 be e0 69 16 bf
       -0.0930895 -0.019482028 -0.18876725 -0.587553
000080 9d 1e 38 be 6f 17 df be 27 cc 2b be 91 20 c0 be
       -0.17980428 -0.43572566 -0.16777097 -0.37524846
000090 59 70 a2 be 98 8d c0 be ee a0 8e be 12 81 87 be
       -0.3172634 -0.37608027 -0.27857155 -0.2646566
0000a0 ba 98 3e bf 6c 2b a0 be f6 35 57 be d2 68 57 be
       -0.7445179 -0.31283128 -0.21016678 -0.2103608
0000b0 f7 e4 63 be 28 39 23 be f2 47 9b be c3 69 7a be
       -0.22255312 -0.15939772 -0.30328327 -0.24454407
0000c0 f9 56 88 be c4 e1 83 be fb 35 77 be d7 27 a7 be
       -0.26628855 -0.25758183 -0.24141686 -0.32647583
0000d0 90 d0 d4 be d7 36 87 be 97 1f 30 be 97 7a a7 bd
       -0.4156537 -0.26409027 -0.1719955 -0.08177679
0000e0 5c da 35 bf 3b 34 cc be ff a3 40 bd 4f 88 a9 be
       -0.71036315 -0.398836 -0.0470314 -0.33111808
0000f0 a7 0b 36 bd b6 e2 f3 be 86 2a 6f be f9 5b 9b be
       -0.044444706 -0.47633904 -0.23356065 -0.30343607
000100 58 ac 86 be 6a 0f 56 be fa d9 48 be 35 c9 5d be
       -0.26303363 -0.20904317 -0.19614401 -0.21658786
000110 fb d6 ef bb 07 9a e1 bc ec ad 7a be 84 e4 bf be
       -0.007319329 -0.027539266 -0.24480408 -0.3747903
000120 7b 01 43 be 84 fe b6 be c1 21 b5 be ee 3d b5 be
       -0.19043534 -0.35741055 -0.35377315 -0.3539881
000130 20 d5 bb be 6f 08 bd be 05 19 9d be 9b 5d 7b be
       -0.3668604 -0.36920497 -0.3068315 -0.24547426
000140 c4 8c 65 be 12 2d d7 be 5f 2c 46 be 45 fb 81 be
       -0.22416979 -0.42026573 -0.19352864 -0.25387016
000150 06 6f fe be 66 62 a0 be 2e 33 8f be 11 d7 a8 be
       -0.4969408 -0.31325072 -0.27968735 -0.32976583
000160 95 c1 1a be ae c9 91 be 75 40 a6 be 68 80 f2 be
       -0.15112908 -0.28474182 -0.32471052 -0.4736359
000170 c6 f2 58 be 73 69 32 be 9c 73 48 be 86 23 bb be
       -0.2118636 -0.17423038 -0.19575351 -0.3655054
000180 81 3a 1a be a8 72 e8 be 89 25 6d be 02 07 f8 bd
       -0.1506138 -0.45399976 -0.2315885 -0.12110712
000190 b0 3d 06 be c1 4a cd be 17 68 80 be 65 04 d0 be
       -0.1310947 -0.40096095 -0.25079414 -0.40628353
0001a0 4c f9 cc be cb 97 4a bf e5 4b 2d bd 4a 45 c2 be
       -0.40033948 -0.7913787 -0.042308707 -0.37943488
0001b0 3a 49 66 be 89 fb 1c 3d a7 d2 73 be cf c5 b1 be
       -0.22488871 0.03832582 -0.23810826 -0.34721228
0001c0 28 1a 5b be 02 07 98 be 23 dc 84 be 1d 84 42 be
       -0.21396697 -0.29692847 -0.259492 -0.1899571
0001d0 66 54 be be 20 5e 80 bc 5c 49 ba be 5d 7d 84 be
       -0.37173766 -0.015669882 -0.36384094 -0.25876895
0001e0 65 44 b8 be 70 51 21 3e f5 b7 a4 bd fa ca b2 be
       -0.3598968 0.15753722 -0.080428995 -0.34920484
0001f0 de 8c 97 be f7 f6 e8 be 73 05 ad bd c9 18 67 bd
       -0.2959966 -0.4550092 -0.08448305 -0.05642012
000200 1b c7 8f be 82 cd 4e bd b1 94 1a be 47 7b 13 be
       -0.28081593 -0.050488956 -0.15095784 -0.14402495
000210 a7 4d 8f be 6e 7d 86 be ba dd 8a bd f0 67 56 bd
       -0.27988932 -0.2626757 -0.06780572 -0.052345216
000220 52 35 ac be 60 93 e5 bd a1 59 b0 be bc 99 b2 be
       -0.3363443 -0.1120975 -0.3444338 -0.34882915
000230 f8 34 8d be fa 4a 2c be 34 25 60 3d 6b 86 14 be
       -0.27579474 -0.16825476 0.05472298 -0.14504401
000240 34 a0 02 be fb 57 ae be 8a 6f 95 be 26 ab 43 be
       -0.12756425 -0.340515 -0.2918666 -0.19108257
000250 a4 03 99 be ef c2 47 be 7d ac 75 be 5e 85 c5 bd
       -0.2988559 -0.19507955 -0.2399158 -0.096445784
000260 a1 f4 31 be 31 46 a9 be 61 58 bc be 20 f5 4a be
       -0.17378475 -0.33061364 -0.36786178 -0.1982007
000270 9e 0a 17 be ba a5 40 be 46 5e b8 be 28 89 58 be
       -0.14750144 -0.1881322 -0.36009425 -0.21146071
000280 74 c7 84 be bf f0 92 be 22 bb 75 be 59 37 0b bf
       -0.2593342 -0.286993 -0.23997167 -0.5438133
000290 46 0c 3d be 21 8a 07 be 71 68 5b bc 6d e4 ee be
       -0.18461713 -0.13236286 -0.0133916 -0.4665865
0002a0 83 3b cb be 45 af 08 bf d5 ea 3d be 41 00 af be
       -0.3969384 -0.5339244 -0.18546613 -0.3417988
0002b0 ca 62 9e be 22 69 53 be 72 a6 4a be b2 92 00 be
       -0.30934745 -0.20645574 -0.19790056 -0.1255596
0002c0 ad 85 a2 be 5e 19 b0 be 3d 06 84 be 18 67 29 bd
       -0.31742612 -0.34394354 -0.2578601 -0.041358083
0002d0 98 f3 0c bd 74 33 d9 bd 85 b9 82 be 47 b7 4a be
       -0.034411997 -0.10605517 -0.25532165 -0.19796477
0002e0 02 c1 bd bd 83 5e f1 be 3b db 35 bf aa b2 73 be
       -0.09265329 -0.4714242 -0.71037644 -0.23798624
0002f0 71 f1 53 be 28 15 78 be c5 db 21 bd 57 fb 3c be
       -0.20697571 -0.2422682 -0.03951623 -0.18455254
000300 0f 30 25 be ee 0e 96 be 52 d5 79 be 0e e8 bb be
       -0.16131614 -0.29308265 -0.24397781 -0.3670048
000310 8d e8 96 be f0 4d 64 bd eb 35 31 be de ea a4 be
       -0.29474297 -0.05573839 -0.17305724 -0.3221044
000320 2f 30 71 be 7a 1a 98 be 0e 68 7c be 85 d3 1c bf
       -0.23553537 -0.297077 -0.24649069 -0.61260253
000330 57 8b f7 be 5a 1d 82 be c1 52 90 be 94 8c 96 be
       -0.48348495 -0.25413018 -0.28188136 -0.29404128
000340 9f 6f 8d be 84 82 88 be 56 62 a0 be 94 7e 86 be
       -0.27624223 -0.26662076 -0.31325024 -0.26268446
000350 2e 48 1d be 77 f6 1e be e4 b4 35 be 4f 5f 7a be
       -0.15359566 -0.15523706 -0.17744786 -0.2445042
000360 3b 9f 19 bf 58 c0 af be fc d6 c3 be 6f e2 e5 bd
       -0.6000859 -0.34326434 -0.38249958 -0.112248294
000370 9d 63 4d be 93 dd 7e be 1f ff c7 be 9b 11 a3 be
       -0.2005753 -0.24889211 -0.3906183 -0.3184937
000380 a1 1c a6 be 64 ae 63 be 75 ef 31 be 4d 75 4d be
       -0.32443717 -0.22234493 -0.17376502 -0.20064278
000390 7a 3e d4 be 66 f3 40 be 4c 78 04 bd 99 18 31 be
       -0.41453916 -0.18842849 -0.032341287 -0.1729454
0003a0 4f ad a0 be be c0 b4 bd 0a 14 b7 be 9d 72 d9 be
       -0.31382224 -0.08825825 -0.35757476 -0.42470255
0003b0 32 48 c5 be 14 c4 09 bf 06 8e f4 be f6 a8 a5 be
       -0.38531643 -0.53814816 -0.47764605 -0.3235547
0003c0 d0 ce 61 be e4 8d 82 be 8a 84 cf bd f1 74 99 be
       -0.22051549 -0.2549888 -0.10132702 -0.29972032
0003d0 b8 32 70 bc 90 42 a6 bd 4b 5e 91 be d3 9a 95 be
       -0.01466053 -0.081181645 -0.28392252 -0.29219684
0003e0 ae 13 da be 85 f1 b5 be 58 64 83 be 1d 57 c7 be
       -0.4259314 -0.35535827 -0.25662494 -0.3893365
0003f0 6c 83 05 bd e8 43 3d bc 61 24 8f be bd 6e a7 be
       -0.032596037 -0.011551835 -0.27957442 -0.32701674

network.3.weight f4 [128, 256]
000000 a3 51 9b be 26 17 de 3d 34 84 83 be d8 93 16 be
       -0.3033572 0.10844259 -0.256868 -0.14704835
000010 f7 de 62 bd d8 0a 37 bf 16 8a 43 be a8 e7 d3 be
       -0.055388417 -0.7150092 -0.19095644 -0.41387677
000020 98 11 74 bd ec d4 13 3e f7 d9 81 be c3 d2 47 be
       -0.05958709 0.14436692 -0.25361606 -0.19513993
000030 b4 4e 12 bf ba aa 0d bc c8 15 32 be 12 42 4c bf
       -0.5715134 -0.008646661 -0.17391121 -0.79788315
000040 b0 a6 84 3c ac 46 02 bf ec 6f d0 3b e3 83 83 3e
       0.016192764 -0.50889087 0.0063609984 0.2568656
000050 f3 f5 cd be 6d b1 43 be db 34 17 3e fa 0d 59 bd
       -0.40226707 -0.19110651 0.14766257 -0.052991845
000060 00 79 5a bd 18 9e 81 be a3 f5 0d bf 64 19 be bd
       -0.05333805 -0.25315928 -0.55452937 -0.092821866
000070 c1 dd e3 bd 6f 97 34 3e 89 47 fb bd e7 e1 9b be
       -0.111262806 0.17635892 -0.122695036 -0.30445787
000080 c8 90 bc 3d 30 12 3c 3e 69 76 36 3e 69 15 73 3e
       0.09207302 0.18366313 0.17818607 0.23738636
000090 0a 7c 3a 3e e1 43 6b 3f 03 8b 09 3e 57 98 3f be
       0.1821138 0.9190045 0.13431935 -0.18710457
0000a0 32 21 29 bf c0 0b a2 bb 19 a0 6c be a7 28 57 bd
       -0.6606628 -0.0049452484 -0.23107947 -0.052529003
0000b0 77 8b 30 bf 87 b0 76 3e e0 7b 4f bf 0b 2a ce 3d
       -0.68962806 0.24090777 -0.81048393 0.10066613
0000c0 e4 80 40 3e 20 2e 4d be b9 38 7f 3d b4 6a c7 3d
       0.18799168 -0.20037127 0.062309954 0.09737149
0000d0 00 21 30 3d 19 8d 25 be af 31 a5 3e e6 ba a6 be
       0.04300022 -0.16167106 0.32264468 -0.32564467
0000e0 47 46 05 bf f4 ac 5a be b2 0f aa ba 78 66 b2 bd
       -0.5206036 -0.21355039 -0.0012974648 -0.087109506
0000f0 ee 19 74 bd e4 80 ea bd af 0e 5e bc b4 f4 9b 3c
       -0.05959504 -0.11450365 -0.0135533055 0.019037582
000100 07 55 9c bd 37 75 e7 be b4 ed 88 bd 8d 83 da bd
       -0.07633405 -0.45206615 -0.06685963 -0.106696226
000110 70 39 ee bc 1c c3 7b bd b2 2e 1d 3e ba df 96 3f
       -0.029080123 -0.061465368 0.15349844 1.1787026
000120 43 e7 0c be 85 f6 0a bf aa 3c d1 bd a1 64 e1 bd
       -0.13760094 -0.5428241 -0.10216649 -0.110055216
000130 21 75 15 bf f5 f6 71 3e 7b 43 d9 bd f1 ab 31 bd
       -0.5838185 0.23629363 -0.10608574 -0.043376867
000140 e3 9c 91 3d 09 58 8d bd df 49 06 bf 60 ab d3 bd
       0.07110002 -0.06901557 -0.5245647 -0.103354216
000150 f6 0c 4e be 24 ce a5 bd 06 43 30 be 15 f4 c5 be
       -0.20122132 -0.08095959 -0.17213067 -0.38662782
000160 64 4e 83 bf f4 df df be 37 70 aa be 89 61 cb be
       -1.0258298 -0.4372555 -0.33288738 -0.3972285
000170 ed ea c0 3c bc 56 92 be ee f9 40 3e 75 9e d8 3d
       0.023549521 -0.28581798 0.1884534 0.10577098
000180 12 8f 8d be 8d f4 85 be e1 c3 04 be 46 30 e4 3e
       -0.27648216 -0.2616314 -0.12965347 0.4456808
000190 5d c3 cb be 78 b9 30 3d 78 98 43 be 56 59 71 be
       -0.39797488 0.043145627 -0.19101131 -0.23569235
0001a0 04 db c4 bc c8 48 00 bf cd 8a 4e 3e 4e 86 ea bd
       -0.024030216 -0.50111055 0.20170136 -0.11451398
0001b0 bd d3 22 be c1 a9 a4 be 8d cf 9f bd 9b e0 77 3d
       -0.15901084 -0.32160762 -0.07803259 0.060516935
0001c0 af d1 87 3d 9b 93 06 be a5 dc 8f bc a2 87 b3 3d
       0.06631791 -0.13142245 -0.017561266 0.08766104
0001d0 c7 47 06 bc e4 32 b5 bd 27 da d5 bd 5a 89 76 be
       -0.008195824 -0.08847597 -0.10442 -0.24075833
0001e0 9c 97 9b be fe b2 c2 bd 7e b3 ab bd b8 1c ef 3e
       -0.30389106 -0.09506796 -0.08383845 0.46701598
0001f0 41 41 da 3d 12 03 41 3e ec ea 4c be 3b 66 62 be
       0.106569774 0.18848827 -0.2001149 -0.2210931
000200 f6 82 f0 bd 7b 56 dd 3d 4b f6 48 bd 7c 19 f5 be
       -0.11743729 0.108075105 -0.04906301 -0.47871006
000210 97 12 80 3e 0b 21 0d be bb 2c 03 bf 47 f5 9c be
       0.25014183 -0.13782136 -0.5124013 -0.30655882
000220 b5 49 bc 3d 7e 7e 5c bd 31 9f de b9 f2 86 35 3e
       0.09193746 -0.05383157 -0.00042461746 0.17727259
000230 ae df 2d be ad 30 d6 3d c4 da 4e be 83 f8 c0 bc
       -0.16979858 0.10458503 -0.2020064 -0.023556
000240 f4 31 f6 3d e5 a6 99 bc ad c9 81 bd 23 d4 d6 3d
       0.120212466 -0.01875634 -0.06337295 0.104896806
000250 b9 50 f6 bc 10 60 bd be 3f 22 a8 be 38 22 59 3d
       -0.030067788 -0.36987352 -0.32838628 0.05301115
000260 6c 69 35 be 50 5e 00 3d 58 62 75 be b4 c6 6d 3d
       -0.17715997 0.031339943 -0.23963296 0.058050826
000270 4f 4f f6 be 07 96 96 be ea c8 17 3e 3a 31 15 be
       -0.48107383 -0.29411337 0.14822736 -0.1456956
000280 ba 7e a8 be b7 88 0d be cd b0 85 bd 64 49 34 be
       -0.32909185 -0.13821684 -0.06527863 -0.17606121
000290 06 0a 40 be 8a d8 08 bf 4d 44 14 be 76 68 09 bf
       -0.18753824 -0.5345541 -0.1447918 -0.5367502
0002a0 41 14 63 be cd 69 26 bf 91 e2 53 3e 26 12 38 3d
       -0.22175695 -0.6500519 0.20691897 0.044939183
0002b0 cb ce 96 be e8 78 10 bf f2 47 52 be 44 d6 9a be
       -0.29454646 -0.5643449 -0.20535257 -0.30241597
0002c0 48 2c 0a bd 3e 97 88 3e 43 0e 7a bc 9c 28 02 be
       -0.033733636 0.2667789 -0.015262189 -0.12710804
0002d0 d4 2b c4 3d c8 cc 9c 3d 44 ce d2 be 0a 9c 3b 3d
       0.09578672 0.076562464 -0.41172993 0.045803107
0002e0 27 09 0f 3e 2c 3b fd be 74 e0 b6 be 12 6e e7 bd
       0.13968335 -0.49459207 -0.3571812 -0.11300291
0002f0 35 f4 ce bd d9 5b 2a 3e 8f f0 95 3d 68 38 c4 bd
       -0.101051725 0.166366 0.073212735 -0.09581071
000300 c0 09 c1 3e 0f f0 28 bf 92 e6 55 be 8e 5c 29 bd
       0.3770275 -0.659913 -0.20888737 -0.041348033
000310 bc ea 09 bf 12 08 bf 3c 1f f0 92 3e d0 73 84 3e
       -0.538738 0.023319278 0.28698823 0.25869608
000320 0e a9 1b 3d d7 c9 11 be da 3a ad 3d 91 27 0e bf
       0.03800302 -0.14237152 0.08458491 -0.55529124
000330 f9 a4 65 3d 4d d7 5c 3d 10 46 9f be 4e 8b 05 be
       0.056065533 0.053916264 -0.3110814 -0.13041422
000340 03 a7 1f bc 90 30 f9 bd 9e f8 23 bf 10 27 95 3e
       -0.009744409 -0.12167466 -0.64051235 0.29131365
000350 cb 69 75 be 76 6c c9 bc 11 b6 2c 3e 65 65 f4 3e
       -0.23966138 -0.024587851 0.16866328 0.47733608
000360 db 55 7b 3e 3e 63 e6 bc b5 47 de 3c 80 40 9c bd
       0.2454447 -0.028123494 0.027133802 -0.0762949
000370 52 12 b0 be 44 b4 d1 3d a6 b8 ec 3c 94 11 18 3e
       -0.34388977 0.10239461 0.028896641 0.14850456
000380 4b 6e 9c 3d c4 fb 1c bf f3 b6 21 bf 31 55 25 be
       0.07638224 -0.61321664 -0.63169783 -0.16145779
000390 f6 25 40 3e 9f 35 02 be 3b 58 b7 be 40 fa a0 be
       0.18764481 -0.12715767 -0.35809502 -0.31440926
0003a0 7a b3 b0 be 0d 69 0d bf 9f e8 13 3d f9 5c 04 be
       -0.3451193 -0.5523842 0.036110517 -0.12926091
0003b0 7d f1 ae bc 85 b5 ce 3c bf 9a c5 3b 87 35 e4 bd
       -0.021355385 0.02523304 0.00603041 -0.11143022
0003c0 0e 5f fe be 21 74 74 bc 80 fe 85 be 49 5a 0a 3e
       -0.49681896 -0.014920265 -0.2617073 0.13511004
0003d0 76 02 d5 bd 9a d6 3f bf 4c 6b 42 3e bf e2 d1 bd
       -0.1040086 -0.7493683 0.18986243 -0.102483265
0003e0 16 e7 48 be ec 73 ce 3e d8 30 d4 bb 58 b2 90 be
       -0.19619402 0.40322816 -0.006475549 -0.28261065
0003f0 d9 d2 62 bf d3 5a 22 bf 54 c4 de bc 57 7a 06 be
       -0.8860298 -0.63419837 -0.027193226 -0.13132606

network.3.bias f4 [128]
000000 48 f1 cb bd 2d 1d c7 bf c8 06 9e 3d 5d f5 68 be
       -0.0995813 -1.5555779 0.07716137 -0.22749849
000010 ce 36 06 bf 6d 28 66 bf 92 30 1e bf 53 b1 1c 3f
       -0.52427375 -0.89905435 -0.6179286 0.61208075
000020 9b 31 38 bf ea a4 cf bd 19 0a 19 bf 75 e9 84 bf
       -0.7195069 -0.10138877 -0.5978103 -1.0383745
000030 aa 21 79 3d 9c f8 b5 be 62 76 da be ed 63 b2 3c
       0.06082312 -0.35541236 -0.42668444 0.021776164
000040 35 57 0c bf a6 ff 91 bd ad 17 1f 3d 55 9b ee be
       -0.5482057 -0.07128839 0.03884094 -0.46602884
000050 86 cf 9b be 8d 26 13 3f 4f 48 2c be 7e bc ac 3e
       -0.30431765 0.574807 -0.16824459 0.33737558
000060 35 19 c7 be e3 1e 10 3f 82 52 9b 3e cc 7e 10 bf
       -0.3888642 0.5629713 0.30336386 -0.56443477
000070 51 89 01 bf 14 a4 90 bf 0f 79 12 be 11 c6 9e 3e
       -0.50600153 -1.1300073 -0.14303993 0.31010488
000080 96 0e d5 3e c9 17 0c bf e9 12 c5 be 39 7c da bd
       0.4161269 -0.54723793 -0.3849099 -0.10668225
000090 97 71 96 be b8 0f 4c bd 36 5f 1f bf 63 4b 66 3d
       -0.29383537 -0.049819678 -0.62254655 0.056224238
0000a0 db 9f 05 bf fb 73 84 3e bc 31 24 3f 63 3e ff be
       -0.52197045 0.25869736 0.6413839 -0.49852285
0000b0 57 b7 0d 3e 52 0d 43 bf 94 0c 6d bf a2 24 02 3e
       0.1383947 -0.761922 -0.9259732 0.12709287
0000c0 5c 6a 91 bf b3 02 6e bf aa 62 d7 be 26 b0 bb be
       -1.1360583 -0.9297287 -0.42067462 -0.36657828
0000d0 80 6f da be 85 e7 38 bd 82 31 9c be 5a 3c e7 be
       -0.42663193 -0.04514267 -0.3050652 -0.45163232
0000e0 dd 49 a0 3d a4 d8 73 3c 41 45 ef bd e8 77 8f 3e
       0.07826588 0.014883194 -0.11683131 0.2802117
0000f0 e0 1e 99 be 9f 89 66 bf 06 ab c7 be fd d6 1b be
       -0.29906368 -0.90053743 -0.38997668 -0.1521873
000100 96 ed 18 bf 32 09 b3 be 17 d2 0a bf b1 24 1c bd
       -0.5973753 -0.34967953 -0.5422682 -0.03812093
000110 63 ed 3e bf 23 4d 2f bf 92 ad 83 3e c1 ce 28 3e
       -0.74580973 -0.68477076 0.2571836 0.1648512
000120 9a ac 53 be ce c3 57 3e ad f1 8d bf 2f ca 9e 3e
       -0.20671311 0.21070787 -1.1089379 0.3101363
000130 70 90 a0 be 43 b8 d7 bd f0 24 96 be ae 2d 36 3c
       -0.31360197 -0.10533192 -0.29325056 0.011119289
000140 49 60 bc bd 97 d8 24 3d c3 0a b1 3e 62 20 28 3f
       -0.091980524 0.04024562 0.34578523 0.6567441
000150 ea 78 00 3e 68 37 02 be 23 0f 09 3f 11 07 77 be
       0.12546125 -0.12716448 0.5353872 -0.2412379
000160 6c 6d fa bd 9a 4d 99 be 26 50 13 bf b8 b9 90 be
       -0.12227902 -0.29942018 -0.5754417 -0.28266692
000170 24 80 38 bf 91 89 0f bf 92 fe c5 be 95 0d 14 bf
       -0.7207053 -0.56069285 -0.38670784 -0.57833225
000180 ac f8 eb bd a9 c1 98 bf ad c1 c6 be cc 4d 53 3e
       -0.1152204 -1.19341 -0.38819638 0.20635146
000190 2f 0c 3f be 59 9b 95 3e 82 49 b2 be 6c b6 bb be
       -0.18656991 0.29220083 -0.34821707 -0.36662614
0001a0 5a df b5 bf 5e ca 35 3d a4 89 64 bc 95 a5 48 3f
       -1.4208786 0.044382446 -0.013948832 0.7837766
0001b0 a3 01 91 be 03 ee 0b bf 0a b5 a5 be 00 1d b8 3d
       -0.2832156 -0.5466005 -0.32364684 0.08989906
0001c0 96 b8 5f 3d be 23 21 3f 5c 6b 9a be 03 1f 68 3e
       0.054619394 0.62945163 -0.30160034 0.2266808
0001d0 0e 89 49 3e ac c6 87 be a8 e0 0f be 35 08 33 bf
       0.19681188 -0.26518762 -0.14050543 -0.699344
0001e0 2d 12 85 3b d9 5f 1e bf 91 f5 9a bf fe 49 37 bf
       0.0040610046 -0.61865 -1.2106191 -0.7159728
0001f0 75 e0 bb 3d 32 35 6d 3e ea 3d 9a be 6a d3 9d 3d
       0.09173671 0.23164824 -0.30125362 0.0770634

network.5.weight f4 [64, 128]
000000 70 86 9f bd 42 d7 0a bd 07 73 23 be 19 54 d6 3c
       -0.07789314 -0.033896692 -0.15961848 0.026163148
000010 1b 2e 81 3d 88 80 6c bd 4b 94 37 bd 81 e9 95 bc
       0.06307622 -0.057739764 -0.044819158 -0.01829982
000020 54 a4 18 3d aa cc f4 3d 4e 77 a1 3d f7 3f 62 3d
       0.03726609 0.11953099 0.07884084 0.055236783
000030 cb 65 20 3e e7 d1 0e be e5 58 50 be 22 0d a5 be
       0.15663831 -0.13947259 -0.2034641 -0.32236582
000040 06 83 c8 3e a4 99 67 bd 16 c4 d2 3d a5 75 34 be
       0.39162463 -0.056543007 0.10291307 -0.17623003
000050 44 1d 03 3c 39 95 28 3d 24 7e 9e 3c 85 2f 80 bd
       0.008002583 0.041157935 0.019347258 -0.06259064
000060 fd 25 45 bd e4 95 a7 3d 39 36 48 be 70 c7 0b 3e
       -0.04813193 0.08182886 -0.19551934 0.13650298
000070 d6 c3 f1 3d 85 8a 02 be bf 8c f4 3d 5d ad b0 3d
       0.11804931 -0.12748154 0.11940908 0.086268164
000080 79 d2 ac bd 3e ad cc bd 7a 56 1a 3d f3 03 00 be
       -0.08438582 -0.09993981 0.037680127 -0.12501507
000090 75 b1 a7 bc 16 b8 2b bd 1e 6e 30 3e d6 e0 88 be
       -0.02047036 -0.041923605 0.17229506 -0.26734036
0000a0 c7 77 e3 3e 16 8f c0 3c d8 a0 71 be 11 59 90 3d
       0.4442732 0.023505729 -0.23596513 0.07048238
0000b0 59 3f 32 3e ba c6 2e bd 86 0e d7 3c d6 94 9e 3e
       0.17406978 -0.04266999 0.026252043 0.30972928
0000c0 8f 10 01 be 0d 42 6c bc 30 da 0b bd 24 b0 14 be
       -0.12603973 -0.014420045 -0.034143627 -0.14520317
0000d0 97 c8 ad 3d df 87 b0 3c 67 dc ab bd ae 74 84 be
       0.08485525 0.021549163 -0.08391648 -0.2587027
0000e0 18 4b 81 3e ed ca 71 bc 5e 69 90 3d 79 cd 39 be
       0.25252604 -0.014757854 0.07051347 -0.18144788
0000f0 41 bc 12 3e f8 41 9e 3d 51 10 23 be ae e0 4c be
       0.14329626 0.07727426 -0.15924193 -0.20007583
000100 98 0e 33 bd 1b 42 a0 3d fa dc e9 3d 30 90 d1 be
       -0.04371509 0.078251086 0.11419101 -0.4093032
000110 60 2c 9d ba ea af 0a 3c 78 57 17 be f0 36 a1 bd
       -0.0011991374 0.008464793 -0.1477946 -0.078718066
000120 30 f8 98 3e 8d 96 5f be bb c8 b9 3d eb b9 66 be
       0.29876852 -0.21834774 0.090714894 -0.2253186
000130 1d f0 89 3f 57 9e 4f 3e 3a 52 85 be 26 a4 7b bd
       1.0776402 0.20275246 -0.26039296 -0.06143584
000140 86 69 23 3d 37 97 a5 be c9 1f dc 3d 9a 7e 40 bc
       0.039895557 -0.3234193 0.1074825 -0.011748934
000150 74 31 aa 3e 34 a3 af 3d ef a4 33 3e f9 8d 3e bd
       0.33240855 0.085760504 0.17543386 -0.046522114
000160 df 1a b5 3d 46 25 fa 3d c9 24 93 bd 77 d7 54 bd
       0.08843016 0.122141406 -0.071847506 -0.051963296
000170 51 c9 a0 3e b8 27 a9 bd 6c d3 df bd a2 dd 0a 3e
       0.31403592 -0.08259529 -0.109289974 0.13561109
000180 43 5e 1b be c5 ab a1 3d c2 38 70 3e a1 97 8d 3d
       -0.15172677 0.078940906 0.23459151 0.069136865
000190 6e 11 6d be 3c 7d 1f be 27 eb 0f 3e 0f 69 02 3e
       -0.2315118 -0.15575117 0.14054547 0.12735389
0001a0 d7 a4 4c be d9 3d 9d 3c 53 2c 59 be 4e b8 56 3d
       -0.19984756 0.01919453 -0.21208315 0.05242186
0001b0 4d 0c cc bd 84 fe 62 3e 97 a7 0b be 7b 8c 80 3d
       -0.09963284 0.22167403 -0.13638149 0.062767945
0001c0 8b 99 25 3d e4 cb 30 3d 71 d8 07 3e d5 0e 73 be
       0.040429633 0.043163195 0.1326616 -0.23736127
0001d0 78 d3 9b be fe be 18 3e 10 8a 35 3e cf 0e 4e be
       -0.30434775 0.14916608 0.17728448 -0.20122837
0001e0 81 4d 2a be a5 3c 04 bd fc 62 8e bd 56 11 8b 3e
       -0.16631128 -0.032284398 -0.069524735 0.27161664
0001f0 cd 99 0f be 59 0b 34 bc c2 83 c3 bd 58 b2 35 be
       -0.14023514 -0.010989034 -0.09546615 -0.17743814
000200 ec 7e 58 3e fd 7c 3a be fb d1 ba bd 95 2b 08 3c
       0.21142167 -0.18211742 -0.09122082 0.008311172
000210 2c aa 9d bd b1 06 80 3e 00 65 3a 3e 36 5d 17 be
       -0.07698473 0.25005105 0.18202591 -0.14781651
000220 c0 08 2b be a1 ac 29 3d 63 aa 4c bd f0 e5 a3 be
       -0.16702557 0.041424397 -0.04996718 -0.32011366
000230 f7 17 97 3d 56 da 2a be dc 7a d3 be da a6 c9 3e
       0.07377618 -0.16684851 -0.41304672 0.3938511
000240 c7 05 f1 3d 6f 06 b0 be 3f 36 ae bc a9 5c ca 3d
       0.1176868 -0.34379908 -0.0212661 0.09880955
000250 59 30 1f bf 5d b4 22 bd a8 89 25 be 21 a1 49 3e
       -0.6218315 -0.03972279 -0.16165793 0.19690372
000260 1e aa 9d be 56 d5 0d 3d 0f de ab 3d 08 8d 65 3e
       -0.30793852 0.03462728 0.08391964 0.2241708
000270 14 f1 0b bf 18 01 b7 3e 24 e4 c7 bc 4e 75 8a be
       -0.5466473 0.35743022 -0.024400778 -0.2704262
000280 e7 ea ed 3d 8a 4c b1 3e 5b fd b4 3d dc a4 8b bc
       0.1161707 0.34628707 0.08837386 -0.017046385
000290 e5 9a 72 3e 5d 1f b5 3d 84 8e 84 3e 0a 40 54 be
       0.236919 0.08843873 0.2588998 -0.20727554
0002a0 0d d2 6f 3d 68 80 da bd 4e f9 47 bd 33 65 1c 3e
       0.05854993 -0.10669023 -0.04882174 0.1527298
0002b0 bb 01 52 bd be 74 0f be f4 ef 46 3d a4 6d 2b 3e
       -0.05127118 -0.14009377 0.04856868 0.16741043
0002c0 ab 82 af 3e 59 d1 8d 3d 6b 27 17 3e f0 fe 82 3e
       0.3427938 0.069246955 0.1476113 0.25585127
0002d0 bb d3 9a 3d 55 c3 26 bf bf 35 53 bd c7 9d c8 bd
       0.07559916 -0.65141803 -0.05156493 -0.09795719
0002e0 62 dd 20 3e f6 0d 87 bd 18 cc 0c bd 94 a0 a0 3e
       0.15709451 -0.0659446 -0.034374326 0.3137251
0002f0 3f a6 82 3e 4b b0 85 3e 36 44 a8 bd 0c 1b 51 3c
       0.2551746 0.26111063 -0.08216135 0.012762796
000300 7b cc 83 bc 1b 04 43 3d df 26 01 be 5f af bb bc
       -0.016088715 0.047611337 -0.12612484 -0.022910772
000310 3e 5b cc 3e e7 a3 af 3e c3 bc 6b 3d b7 3f e1 bd
       0.39913362 0.34304735 0.057553064 -0.10998481
000320 e8 88 ae 3e f9 17 05 3e 6b fb 16 3e 58 24 92 be
       0.34088826 0.12997426 0.14744346 -0.28543353
000330 62 bf 21 be c1 b7 5b be 04 f1 fd bd 47 2a 93 3e
       -0.15795663 -0.21456815 -0.12399486 0.28743193
000340 a5 f8 a3 bd f3 02 35 3d 08 b5 7a 3e 73 04 ab bd
       -0.080064096 0.044192266 0.2448312 -0.08350458
000350 a5 83 9a 3e 7b 06 a5 bd 26 15 1b be f2 ed ba bc
       0.30178562 -0.08057877 -0.15144786 -0.02281854
000360 55 79 89 bd b0 e8 b7 3e a0 55 62 be 55 4a ea bd
       -0.067125954 0.35919714 -0.22102976 -0.11439959
000370 d4 23 03 3f 79 12 06 be cd 30 a0 bd e4 c5 2c be
       0.51226544 -0.13092984 -0.07821808 -0.16872364
000380 f0 95 63 bc e6 ec cf 3d b0 e8 4c 3e aa 2a 64 3e
       -0.013890728 0.10152607 0.20010638 0.222819
000390 38 d4 94 bd b5 76 0a be fc 9f 06 bf 88 05 3a be
       -0.0726704 -0.13521846 -0.52587867 -0.18166173
0003a0 8b 40 83 3c ac 5f 27 be 6a 1a b6 be c7 71 e2 3d
       0.016021987 -0.1634509 -0.35567027 0.110568576
0003b0 a5 f1 1d 3e 22 c2 fe be 87 a2 0e be aa bb 80 3e
       0.15424211 -0.49757487 -0.13929187 0.25143176
0003c0 9a 76 83 be b9 85 99 3d 3a 0f b7 3e 4e f8 47 bd
       -0.25676423 0.07496209 0.35753804 -0.048820786
0003d0 de 55 37 bd da b6 b4 bd 83 de 23 3d 8e e0 4b 3d
       -0.044759624 -0.08823939 0.040007126 0.0497747
0003e0 38 ff 42 3e 14 bb c9 bd 05 2c c1 be 65 25 74 3d
       0.1904267 -0.098501354 -0.37728897 0.059605975
0003f0 32 7f e0 bd d6 59 0b 3e eb c5 86 be 56 59 02 bc
       -0.109617606 0.13608488 -0.26322874 -0.00795587

network.5.bias f4 [64]
000000 51 cb 48 be fa e9 92 3e 03 8a 46 3e be c1 17 bf
       -0.19608809 0.28694135 0.19388585 -0.5928
000010 03 9e 84 3f 4d 89 cd be 80 8e af 3e f6 3d 20 be
       1.0360721 -0.40143815 0.34288406 -0.15648636
000020 77 1d b7 be da 53 0c be 57 5c e4 3d 3b 1b 63 3f
       -0.35764667 -0.13703862 0.11150425 0.88713425
000030 64 e3 e3 bd 0b b4 27 3f 36 5b a4 3e 0a e0 d6 3d
       -0.11127356 0.655091 0.32100838 0.10491951
000040 95 d5 c2 3c b1 e9 e3 3c 10 70 c8 bd c1 bb 3d 3f
       0.023783484 0.027821394 -0.09786999 0.74114615
000050 b4 88 c0 bb a6 52 51 3f ca c8 f1 bd 86 9d 2e 3e
       -0.0058756713 0.81766737 -0.118058756 0.17052278
000060 2c 31 5b bc df 31 24 bf 08 8d 08 be 35 76 0e be
       -0.013378423 -0.641386 -0.13335049 -0.1391228
000070 10 94 a2 be 9f 8b ba 3d 37 7d 47 bf 46 9e 8f bf
       -0.31753588 0.09108662 -0.7792544 -1.1220176
000080 4b 0d 31 3f b3 41 07 bf 08 db 53 3f 73 25 4f 3d
       0.6916091 -0.52834624 0.8275609 0.050572824
000090 66 8a 48 3f 76 14 60 bf e6 b2 3a 3f 1d 55 6f 3f
       0.7833618 -0.8753122 0.7292923 0.9348925
0000a0 74 19 fb 3d 96 8e 32 bf f0 c8 24 be 08 6c 3a 3d
       0.12260714 -0.6974882 -0.16092277 0.045513183
0000b0 36 93 fe be b5 25 22 3f 99 84 a7 3e 2d 59 20 3f
       -0.49721688 0.63338786 0.3271835 0.6263607
0000c0 15 f2 cc be cb 84 40 be 1f a7 60 3f b8 7c 6b 3f
       -0.40028444 -0.18800656 0.87755007 0.9198718
0000d0 83 0c b5 be c6 cf 05 bf ed 66 de 3d 50 af a1 be
       -0.35361108 -0.5227016 0.10859475 -0.31579065
0000e0 5f 89 0e 3e e3 b8 ad be d4 ee 52 bf 2e a8 63 bf
       0.1391959 -0.3393012 -0.8239567 -0.88928497
0000f0 e3 8e 10 3e 77 d5 41 3e aa 1c 18 be 9b 30 72 bf
       0.14117007 0.18929087 -0.14854684 -0.94605416

network.7.weight f4 [1, 64]
000000 9f 07 e6 3c e2 8b 0c 3d 55 53 97 3d 4a 91 20 3d
       0.028079806 0.03431309 0.07388941 0.03920106
000010 80 cf 72 3d 73 3e 0d 3e 34 cb 43 3d 89 a3 e9 bd
       0.05927992 0.13793354 0.04780121 -0.11408145
000020 11 61 ea bd 77 fd bd bd 61 40 63 be 7e 8d be bd
       -0.11444295 -0.0927686 -0.22192527 -0.09304331
000030 02 68 07 bd f2 fe 8a 3d 47 9f 7c bd 1e c8 5e bd
       -0.033058174 0.06786908 -0.061675336 -0.054390065
000040 4b 6d 26 bd d2 a8 be bd e8 36 c6 3d a6 96 46 3d
       -0.040631574 -0.09309544 0.09678441 0.048483513
000050 1c ed d8 bd 03 a2 7f 3d 2c 98 8b 3d fd 41 03 bf
       -0.105921 0.062410366 0.06816134 -0.51272565
000060 d5 5a 5e 3d 69 cb 8f 3d 68 fd 8b 3d 2a 43 1a be
       0.054285843 0.07021219 0.06835443 -0.15064684
000070 fd 5b 87 3d 47 44 a0 bd 4e 22 c2 bd 18 d4 70 bd
       0.06609342 -0.07825523 -0.09479199 -0.05879602
000080 5c a6 1a bd 60 3d ab bd 57 76 99 bd 26 fb b0 3c
       -0.03775631 -0.08361316 -0.07493275 0.021604132
000090 3b 4a 66 bd dc 62 6d bd 0a 0f 7e 3d 02 c8 4d bd
       -0.056223135 -0.057955608 0.06202606 -0.05023957
0000a0 88 4d 7c bd b3 d1 69 3d 92 ce 76 bd 15 70 05 3e
       -0.061597377 0.05708475 -0.060255595 0.13031037
0000b0 0a 35 6c 3d 29 e0 49 bd e3 0f 94 bd 26 22 77 3d
       0.05766777 -0.04928604 -0.07229593 0.0603353
0000c0 49 eb b4 3d 16 87 47 bd a1 b4 44 3d 73 21 26 3d
       0.088339396 -0.048712812 0.048023824 0.040559243
0000d0 9e dc 90 bd da 7e 29 3f 23 b5 95 bd da 8e d6 bd
       -0.070733294 0.66209185 -0.0730994 -0.104764655
0000e0 9d d9 71 bd 12 39 ab bd 31 f2 2c bd 69 fb 10 3f
       -0.059045423 -0.08360495 -0.04222316 0.5663362
0000f0 be 9c da 3d 15 d0 07 3e 3d e4 8f 3d a7 f0 63 3d
       0.106744274 0.13262971 0.07025955 0.055649426
