models/price_predictor_nn_v15.pth (torch, 200607 bytes, 7 tensors)

network.0.weight f4 [256, 30]
00000000: b307 b93b 5b8e 383c c8d0 52bc b8e0 443c
00000010: 70f4 a33c 6c41 d93d 5ed1 0a3c fb25 5a3c
00000020: 9d39 02bb a70d c73b 94d7 9dbe 5058 1cbe
00000030: 7190 b23e babb 8fbe 9804 afbe cded adbd
00000040: 9f7c 4bbd 6608 c93c c598 80bf a8a3 07bf
00000050: d972 edbe bf59 00bf eff1 9c3f 2666 5abf
00000060: cc33 9ebe 9a93 e93f 9ec9 d0be 3459 86be
00000070: 0da7 a0be b2e5 d1be 64ed dd3d d4c7 6dbf
00000080: 3acc aebd ac08 bc3e 8316 813e d366 323e
00000090: 8e9e 113d 31a1 13be 322e 083e b54a 21be
000000a0: cd7d 053e dcd3 99bd 2ed5 1e3e 60e6 63be
000000b0: aeed d93c d0e5 453e ee21 243e b1de 97bd
000000c0: 2cd1 f23d a2c8 b8be 9586 243e 0c86 81be
000000d0: 0c91 45be 9441 913e c5fc 77be 558b 6bbe
000000e0: a3cb e9bc a3e7 883d 8b78 523d a8b7 06bf
000000f0: 8940 3b3e c173 f13e ca65 2cbe cd0c 1bbe
00000100: 44ea e5be 5f3e 0a3f d649 603d 1466 abbe
00000110: a0b6 b53e 0ade 5e3e bef8 df3e 2517 0e3e
00000120: 8627 92bc 4c14 c63e c7a2 92be 322d 0abe
00000130: 444e 973e b3f1 823e e6b0 68be 0e89 a5be
00000140: 6be5 77be a83c 0d3e ce46 e73e 5d7c 1ebf
00000150: 3b11 a0be 75a8 1d3f 7e2a 66be 8a05 0f3e
00000160: 65ba 6fbe 6c4f c83e 7eb4 76bf 28d0 a13e
00000170: f1ee 22be 34cd 48ba e05a 24bd 983f 3ebf
00000180: ef3b 913d b6c8 323b aa40 b13b bd35 91bd
00000190: d0ee 8d3e f259 603e 8592 88bd ce18 143d
000001a0: 81ab 08bf e1a1 573e 16d0 fd3e bd1e 24be
000001b0: c629 89bd 76c3 24be 7dd0 56be ac5e 5abe
000001c0: 794d 5bbe 82fe 49bd 38d2 493e 7d16 9f3e
000001d0: 50fd 6cbe d44a 7bbd 2509 b13d f466 2ebe
000001e0: 2d88 fcbd 8188 443e 9719 c63c cdee e83c
000001f0: 3a15 c0be c869 6e3d 820d 5abc 9d54 f3ba
00000200: a7cb c23c f1de 57bd dd2c 9b3d 5e34 26bd
00000210: 3e86 0fbd d241 d4bd dd09 ac3d f7d5 86be
00000220: ed46 87be b929 f23e 92c0 d9be b917 1bbe
00000230: 93dc c3be b400 a73d f1ca c63e 94ba b8be
00000240: 03dc ffbe cffc c73f b6d8 23bf f6da 0f3e
00000250: 50a6 983e 22b0 05bf d53a 873e f84c 90bd
00000260: c2f8 6bbe cb42 49be 2494 c83d e429 d5bf
00000270: 31b6 96bd 0284 e6be 686c 40be d2ae 803e
00000280: edb8 15bc 1017 40be 100c 6dbe 92f5 3c3d
00000290: c5d7 1b3e 8cc1 a2be c207 e0be bf67 9bbe
000002a0: ef12 9a3d 0722 fa3e c454 c6bd e810 4e3e
000002b0: 4167 8cbe 515d 503e 2117 8abd 62a9 b03e
000002c0: 501b 1fbf 7d60 293e 025f e7be 7b67 be3d
000002d0: c252 d5be 6104 713e f3b9 26bd eeb9 18bd
000002e0: ed29 6a3d 0779 b2bf 5029 01bd d5c3 923d
000002f0: c07a 5dbd 5743 9bbc ed4c 523e 56e3 90bd
00000300: 8830 e83d 986f b4be a655 93be c440 9d3f
00000310: 35ef c8be 4ea7 f1bd 0121 9abe e7a2 763e
00000320: a6b3 64be f34d c73d 1daa 0b3f c27a 1e3f
00000330: f997 173d aa2d 07be e051 5ebe eece ccbe
00000340: 4c83 90be 14fb c7bc 3e0b babd c1d5 cdbd
00000350: e765 ab3d 4ad8 d2be 3840 0b3e 089e 88bd
00000360: 47e4 8e3d b907 a7be d857 933e 9c92 473e
00000370: 2bbb e93e aa91 45bc 374c 843e 5cdc 51bc
00000380: dacd c43c 5e3b 3b3e d056 413e 7d57 7ebe
00000390: 01d2 04be 71a5 053e 86a3 8bbd 3d7e 31be
000003a0: 89e7 283d 38f1 353e 9765 cd3e cb18 8dbe
000003b0: 9750 0abf ca0e 473d d46e 223e 5cb2 84be
000003c0: 4ab0 ba3d c0ef cfbd e2cc 453e 56c5 bbbd
000003d0: 66d4 d3bd 7279 813e 7b7c 823b edce 4dbc
000003e0: 858d b23e 071d 53bf 4449 233e a31c ff3d
000003f0: c6f2 efbb b168 bb3c beb4 d63d 407d d73d
0.00564667 0.011264409 -0.01286716 0.012016468 0.020014018 0.10608181 0.008472769 0.013314719
-0.0019870766 0.0060746255 -0.30828536 -0.15268064 0.34875825 -0.28072912 -0.34183192 -0.084926225
-0.049679395 0.024540137 -1.0046622 -0.52984095 -0.46376684 -0.5013694 1.2261332 -0.85312116
-0.30898893 1.824817 -0.40778822 -0.26239932 -0.3137745 -0.40995556 0.10836294 -0.9288304
-0.08535047 0.36725366 0.25212488 0.17422037 0.0355516 -0.14416958 0.13298872 -0.15751155
0.1303627 -0.07511112 0.15511009 -0.2225585 0.026602592 0.19325948 0.16028568 -0.07415522
0.118563026 -0.3609057 0.16066964 -0.25297582 -0.19293612 0.28370345 -0.24217518 -0.2300237
-0.028539484 0.06684806 0.05138449 -0.5262399 0.18286337 0.47158626 -0.16835704 -0.15141602
-0.44905293 0.5400142 0.054757915 -0.33476317 0.35490894 0.21764389 0.43744463 0.13876016
-0.017841112 0.3868736 -0.28639814 -0.13493803 0.295519 0.25575027 -0.22723731 -0.32331127
-0.2420861 0.1379267 0.45171207 -0.61908513 -0.31263146 0.6158517 -0.22477147 0.13966957
-0.23410948 0.39123094 -0.9636916 0.31604123 -0.15911461 -0.0007659972 -0.040125728 -0.74315786
0.070915096 0.0027280278 0.00540932 -0.07090328 0.27721262 0.21909311 -0.066685714 0.036156468
-0.53386694 0.21057846 0.4957282 -0.1602735 -0.06697421 -0.16090187 -0.2097797 -0.21325177
-0.21416272 -0.049314983 0.19709098 0.31071845 -0.23143506 -0.06135066 0.08644322 -0.17031461
-0.12330661 0.19192697 0.024182124 0.028434182 -0.37516195 0.05820635 -0.013308885 -0.0018564645
0.02377875 -0.052702848 0.07576916 -0.040577285 -0.035040133 -0.10364117 0.08400319 -0.26335117
-0.264213 0.47297457 -0.42529732 -0.15145768 -0.38254222 0.08154431 0.38826707 -0.36079848
-0.49972543 1.5624026 -0.6400255 0.1404837 0.29814386 -0.5222188 0.26412073 -0.070459306
-0.23044112 -0.19654386 0.097938806 -1.6653409 -0.07358969 -0.4502259 -0.18791354 0.25133377
-0.009138328 -0.18758798 -0.23149133 0.04613263 0.15219028 -0.3178829 -0.4375592 -0.3035259
0.075231425 0.48854086 -0.096841365 0.20123637 -0.27422526 0.20348097 -0.06742693 0.3450423
-0.6215105 0.16540714 -0.45189673 0.09297081 -0.41664702 0.23536827 -0.04070468 -0.03728669
0.05716889 -1.3943185 -0.03153354 0.07166258 -0.05407214 -0.018953009 0.20537157 -0.07074611
0.113373816 -0.3524139 -0.28776282 1.228539 -0.39245 -0.11799489 -0.30103305 0.2408558
-0.22334155 0.097316645 0.5455645 0.61906064 0.037010167 -0.13201013 -0.2171092 -0.40001625
-0.28225172 -0.024411716 -0.090841755 -0.10050536 0.08369046 -0.4118064 0.13598716 -0.06670767
0.06977134 -0.3262308 0.28777957 0.19489521 0.4565061 -0.012058655 0.25839397 -0.012808885
0.024023939 0.18284366 0.18880773 -0.24838062 -0.12970735 0.13051392 -0.06818299 -0.17333312
0.041236434 0.17767799 0.4011657 -0.27557978 -0.5402922 0.04859809 0.1586259 -0.25917327
0.09115656 -0.101531506 0.19316438 -0.09168498 -0.10343246 0.25287968 0.0039821244 -0.012561542
0.34873596 -0.8246617 0.15945917 0.12456634 -0.007322642 0.02287707 0.104836926 0.105219364

network.0.bias f4 [256]
00000000: f549 9dbe 431a c8be 07b8 55be 303e 7fbe
00000010: 8435 b4be 92cb 92be 7639 46be 4406 153e
00000020: 84ae 85be 0ab9 91be a68e debe beb6 c6bd
00000030: 23eb 42be 46a8 5dbd 2b9b 3cbe 4d1d 00bf
00000040: 3e52 a4be e73d 63be 98ff bfbe bb6a cabd
00000050: bcf4 6cbe be26 86be 9701 a6be 9154 96be
00000060: ce38 76be 4901 fcbe df4e 82be 2b3a 19be
00000070: ce84 49be 4591 08bf f5b3 d8be f68d 3abe
00000080: d178 a4be 8ce8 fcbd c52d 32be 1b52 bbbd
00000090: 54c9 17be c212 b1be 0c4d 9ebe 1036 34be
000000a0: 04e7 1dbe 855a 90be 4dc6 a4be 5ad4 ab3d
000000b0: 2dc6 8abe c843 9bbd a0f5 bbbe 363e 9dbd
000000c0: 4cfe abbd 0a08 10be 6101 86be 106a 98be
000000d0: ff47 8abe 26ef c7be 66e0 4dbe 0e0f 22be
000000e0: e9f7 25be af27 86be e18e 55be ed1d 4cbd
000000f0: dea3 b4be 2747 18bf 18e8 a3bd d1d3 c0be
00000100: ccaf 7cbe 15c2 2cbe e44b f8bc a495 19be
00000110: f667 b8bd 2cd6 0bbe 7de7 8bbe f97e a1bd
00000120: 531b 8e3c 2b8f b6be d6a4 8cbe 6ac2 94be
00000130: d44d 8ebe ca3b d2be 379a 18be bd24 3ebf
00000140: 97e5 a6be e4ea 1dbe d212 3bbe eca8 acbe
00000150: 2c6a 06be 151c 46be f96c 84be e846 dfbd
00000160: 2b58 9ebe 702d abbe 32be 97be f1da 91be
00000170: ef67 99be 77fb 30bf d3e7 99be 40ba 69be
00000180: d2ad 193d bc41 64bd 3ed6 32bd bdfe 8bbe
00000190: 3448 28be 7740 f0bd 8dbb 45bf 815d d7be
000001a0: 4c8a abbe e1b3 b0be 121c 92bd e352 4bbf
000001b0: 849e bcbe 102e f7be 3c43 a0be 0507 10be
000001c0: 0eea 5bbf 0f6d 1ebf 35a9 60be 4095 f3bd
000001d0: f726 afbd 1ae7 22bf 1e8f 18bf efa9 97be
000001e0: d21a 94be 2f80 11be a599 abbe b7de b0be
000001f0: b2ac 1cbe 4922 a9be f8dc 94bd 4c78 63be
00000200: 8cb3 39be 2bc9 a0bd 5898 e0ba 3a0e 463c
00000210: 9fee 6fbe b5b4 c3bd 5828 b3be 3505 59be
00000220: 993c 43bf f3d3 70bd c33e 5fbe 9a76 89be
00000230: 6239 69be dfac 10bf c675 81bd 2592 8dbe
00000240: dd00 96be 7f03 53bd cd6c 62be c086 93be
00000250: ee21 9cbd baee 25be 924b 43be 1cdd 8abe
00000260: c06c f6be 16b4 b6be d311 97be 3219 bfbe
00000270: 6fa5 68be c9f8 1abe 23df 35be 57af 8b3d
00000280: ca5f c7bd afe1 9dbe f61b b3be 039e 8ebe
00000290: c137 e5be f9a8 abbe cecc 15be af97 acbe
000002a0: fbf3 95be 2e49 d8bd ec66 ce3b 5b5a 963a
000002b0: 2108 7ebe 0203 c3be 8c3f 62ba 7d8e bcbe
000002c0: f92f a3be 01b7 b9bd 3759 83be 00d6 51be
000002d0: d42f 60be eaae 1b3d ac47 48be 0303 4ebe
000002e0: bf42 92be fab9 55be 2425 90be 9cdf 05bf
000002f0: 4f2f 6fbe 04b2 e5be 39da e3bd 44d2 babe
00000300: 3180 fbbd 9345 04bf 4a67 aebe 52df aabe
00000310: 21d7 cebd 1891 72be ec12 95be 1ccb 83be
00000320: 35d8 3b3d ad67 1abe 020c 27be 5912 97be
00000330: 3506 20be 404d 6ebe 2487 c4be ded4 2abf
00000340: 3c78 afbe 57d6 55be cd21 70be de35 01be
00000350: 248b 75be 5093 99be d1b1 04be 4105 60be
00000360: 6287 45be d6eb 75bd 8874 18be b151 3bbe
00000370: 5313 33be 888c 9bbe 8cba 29be dcc5 79be
00000380: 5e43 bebe b984 a3be 76ca 8cbe 02b5 46be
00000390: d737 6dbe 697d 3abe 62ca babd 243a 68bd
000003a0: 8b6b 73bd c529 fcbd 3e8a a8be d349 8ebe
000003b0: e602 b2be cea7 95be 656c 6dbe 2d91 503d
000003c0: d75a 8cbe 8198 52be 1ac0 8ebe 10f1 35be
000003d0: 1e6a 2bbe 2d76 51be d966 68be 145e a1be
000003e0: c6c4 0abf f732 07be 2d0e a7be 7286 fbbe
000003f0: b173 82be 5d66 32be 0742 8fbe 14ff 3dbe
-0.30720487 -0.39082536 -0.20870982 -0.24926066 -0.3519708 -0.28670937 -0.19357857 0.14553171
-0.26109707 -0.28461486 -0.43468207 -0.09702824 -0.1903501 -0.054115556 -0.18418567 -0.5004471
-0.32093996 -0.22191583 -0.3749969 -0.098836385 -0.23140234 -0.26201433 -0.32423088 -0.29361394
-0.24045107 -0.4921973 -0.254508 -0.14963596 -0.19679567 -0.53346664 -0.42324796 -0.18218216
-0.32123426 -0.12349042 -0.17400272 -0.0914652 -0.14822894 -0.34584624 -0.30918157 -0.17598748
-0.15420157 -0.2819406 -0.3218254 0.08390112 -0.2710432 -0.075812876 -0.36710835 -0.076778814
-0.08398113 -0.14065567 -0.26172927 -0.2976842 -0.27008054 -0.39049643 -0.20105132 -0.15826055
-0.16207851 -0.2620215 -0.20855285 -0.049833227 -0.3528127 -0.5948357 -0.08003253 -0.37661603
-0.24676436 -0.16870911 -0.030309625 -0.1499849 -0.09004204 -0.13655919 -0.2732505 -0.07885546
0.017347014 -0.35656103 -0.2746951 -0.29054576 -0.27793753 -0.4106124 -0.14902578 -0.7427481
-0.32597038 -0.15421635 -0.18268898 -0.33722627 -0.13126439 -0.1934665 -0.2586439 -0.10902196
-0.30926642 -0.33433104 -0.29637295 -0.28487352 -0.29962108 -0.69133705 -0.3005968 -0.22824955
0.037519284 -0.05572675 -0.04366135 -0.27342787 -0.16433793 -0.11731046 -0.77239305 -0.42063525
-0.3350395 -0.34512237 -0.0713426 -0.7942335 -0.36839688 -0.4827733 -0.31301296 -0.14065178
-0.85904014 -0.6188516 -0.21939547 -0.118937016 -0.08552354 -0.63633883 -0.5959338 -0.29621837
-0.28926712 -0.14209054 -0.3351566 -0.34544918 -0.15300253 -0.3303397 -0.07268709 -0.22213858
-0.18134898 -0.0785087 -0.0017135246 0.012088353 -0.2343087 -0.095559515 -0.34991717 -0.21193393
-0.7626434 -0.05879588 -0.21801285 -0.26848298 -0.22775796 -0.5651378 -0.063212916 -0.27650562
-0.29297534 -0.051517006 -0.22111817 -0.28813744 -0.07623659 -0.16204348 -0.19071797 -0.27121818
-0.48129845 -0.3568427 -0.29505786 -0.3732391 -0.22719358 -0.15133967 -0.17760901 0.06820553
-0.09735067 -0.30836245 -0.3498227 -0.27854928 -0.447691 -0.33527353 -0.14628908 -0.33709475
-0.29287705 -0.10560833 0.0062988903 0.001147102 -0.24807788 -0.38088232 -0.0008630685 -0.3682746
-0.31872538 -0.09068108 -0.25654003 -0.20491791 -0.21893245 0.038008608 -0.1955859 -0.20118336
-0.28566548 -0.20871726 -0.28153336 -0.52294326 -0.2335789 -0.44862378 -0.11125607 -0.36488545
-0.1228031 -0.5166866 -0.34063178 -0.33373505 -0.10099626 -0.23688161 -0.29116 -0.25740898
0.045860488 -0.15078612 -0.16313174 -0.29506186 -0.15627368 -0.23271656 -0.38384354 -0.6673106
-0.3427142 -0.20882545 -0.23450394 -0.12618205 -0.23978859 -0.29995203 -0.12958457 -0.21877004
-0.19289926 -0.060039364 -0.14888203 -0.18292882 -0.1748784 -0.30380654 -0.16575068 -0.24391884
-0.37160772 -0.31937197 -0.27498215 -0.19404987 -0.23165832 -0.18211903 -0.09120633 -0.056696072
-0.059428733 -0.123126544 -0.3291797 -0.27790698 -0.34767836 -0.29229587 -0.2318588 0.0509197
-0.27413055 -0.20565988 -0.27880937 -0.1776774 -0.16739699 -0.20455237 -0.22695483 -0.31517088
-0.542065 -0.13203035 -0.32628003 -0.4912601 -0.2547889 -0.17421861 -0.27980062 -0.18554336

network.3.weight f4 [128, 256]
00000000: 8032 1fbf 98da 533d 175f 7f3d f7e1 0ebd
00000010: 542a 0dbf 6d94 47be f4b7 85be 02da 4dbd
00000020: b597 85be 7b47 693d 0cdb 1c3c 5f90 943c
00000030: 19a5 9a3c 1273 78be 2968 083f f578 90be
00000040: 2a6a 0a3e 0ab2 0d3e 5544 68bd b6d7 2fbe
00000050: 9ec0 50bd 07e9 c9bd 49f5 51be e16d 933d
00000060: 053e 3ebe ab06 783e 4203 0b3e 7ca3 35be
00000070: 42d6 22be cd6d 46be 0f1b fdbd dbb2 c1bc
00000080: 8b06 0d3e ef87 113f 172a d33e 9dd9 d83c
00000090: c482 7cbe 1c18 143e 9941 743e ef61 8ebd
000000a0: 8e9d 5d39 4f7b 83bd af27 bf3d 47c6 a13d
000000b0: 0699 033e a035 e03d ffee 02be 443b ad3d
000000c0: 5370 57be 7d9a 1bbe 36cf 4cbd 910b 7d3e
000000d0: 4c07 1bbe ac04 a0bb dad5 013e 61a5 ab3e
000000e0: f04f 9d3d 25f1 753c 2b83 37be b1a9 b1be
000000f0: f00d 2e3e 437d 01bf 14a7 323d 601a aa3e
00000100: 1809 8a3e d112 c3be 090f 683e 51de a13e
00000110: c8cc 443d f784 1ebd 88c5 7dbe b901 223d
00000120: 1a58 0c3e 44bc d33d de50 b6be d7dd af3b
00000130: 1c1f 5e3d 3623 c13d ffa6 10be fd4f d63d
00000140: c424 13be d19a 09bd 322e 2d3e 9205 f4be
00000150: bb47 2a3e 6ed9 403c 3fb8 7e3d 60cb fabc
00000160: 89fc 9abd b270 333e c4ea adbd aedb 10be
00000170: 6619 013d c691 0dbe 1fe7 72be 0f7f 92be
00000180: 952b c7bd f914 0c3e 5a2b 0e3e 4151 5c3e
00000190: b514 85be 4f90 943e 3dd4 06be da6e 9fbd
000001a0: 7f56 023d 410e 2b3d a007 023d c256 adbd
000001b0: f5c4 2ebc 9f74 dd3e a3e6 e6bd d785 3e3d
000001c0: 9108 073c c108 99be fb57 cf3c baba 01bd
000001d0: 5a15 62be d759 19be c359 46be c414 5bbd
000001e0: 3388 02bd a5ff 983e 0508 873d a84c 12bd
000001f0: 0c34 e53c 69f0 c23e 5f51 3ebd 6b1c ebbd
00000200: b41a adbe e360 683d da34 09bf 6e55 3f3e
00000210: 4a47 513e f78e d5be 6233 ef3d 42b1 93be
00000220: d85f 173e 998d 27be d761 353c dd4f 3d3e
00000230: 6490 0cbd e72d 39be ff67 f9bd 2807 a43d
00000240: db96 3e3d b356 c93e 00ab 42be 9c89 543d
00000250: 5898 d7bd 94b2 fa3d bbf4 443c a5db 123d
00000260: 958e 703e 64c6 9e3d 1d6f a23e f95b 583e
00000270: f574 e23d c113 12be 8d81 a1bb 8b11 dabe
00000280: 22da 1abe 4acb 47be d2be bbbd 8a4b ae3d
00000290: d208 073f 6ae9 97bd 8fae 95be 2a10 913e
000002a0: 8c1f 5f3d 256e 5a3d 9eb4 4bbe b569 a2bd
000002b0: fc9a 8ebe b8b9 cebe 0304 0ebe 861a 133e
000002c0: b2db e33b eee9 22bd 87ea 153e 5138 0abe
000002d0: 40f2 183e 6673 e63c f619 e6bd 2b3c 96be
000002e0: 2644 1fbe 99ca 22be e292 f23e 34a4 cbbd
000002f0: 08bc a13d 157f a6be 5130 b3b8 6299 493e
00000300: 12ba 623e c564 64bd 42d0 97be 82fd 123e
00000310: 008b 8dbd 9c5b f83d a8aa dd3e f84d 0c3e
00000320: d483 8d3d f94e a13e fcfe 32bb 39ec adbe
00000330: b66e 6e3e 654d 38be 02cc 073f 68df 38bf
00000340: c3b0 ac3e f3ba 52bd 45b9 123d 5b27 af3d
00000350: 5f29 3fbc 1899 39bd f7de bc3e 6799 563e
00000360: 7d2b 0cbf e2ea 6dbe 46d4 9dbe d8e7 e3bd
00000370: 7e11 aa3e 3137 5dbe eac1 9c3d 7d7e 323e
00000380: 7b7a 843e cd81 933d b985 88be f989 a3bd
00000390: e41d ef3d 11c5 c8bd cc8e 013e 6e99 bd3d
000003a0: d125 e0bd 8be8 14bd 6884 3a3d c71f ddbe
000003b0: 9c38 93b8 639e 253e dd3a 7bbe 6098 69be
000003c0: 5c7e a1be a490 ccbd 6628 93bb 7762 90bc
000003d0: 54de e8bd 7360 19be d59d f73c ae12 8d3d
000003e0: 54c7 bc3e e05e a4be f010 b6be cff9 a43e
000003f0: 7490 f63d 798a 62be b23d da3d 2c0f 9bbd
-0.6218643 0.05172214 0.062346544 -0.034883466 -0.5514271 -0.19490214 -0.26116908 -0.050256737
-0.26092306 0.056952935 0.009573709 0.018135248 0.018877553 -0.24262646 0.53283936 -0.28217283
0.13517061 0.13837448 -0.05670579 -0.17172131 -0.050964944 -0.098588996 -0.20503725 0.07198692
-0.18578346 0.24221294 0.13575462 -0.17738146 -0.15902045 -0.19377823 -0.12358677 -0.023644855
0.13772027 0.56848043 0.4124305 0.026470954 -0.24659258 0.14462322 0.23853149 -0.06952273
0.00021134896 -0.064200036 0.09333741 0.078991465 0.12851343 0.10947728 -0.12786482 0.0845857
-0.21038942 -0.15195651 -0.0500023 0.24711443 -0.15139502 -0.0048833694 0.12679234 0.33524612
0.076812625 0.015011107 -0.1792113 -0.34699777 0.16997504 -0.5058176 0.04361637 0.33223248
0.26960063 -0.38100293 0.22661985 0.31614926 0.048046857 -0.038701024 -0.24782383 0.039552424
0.13705483 0.10338643 -0.35608572 0.0053670215 0.054228887 0.09430544 -0.14126204 0.10464475
-0.14369494 -0.03359491 0.16912153 -0.476605 0.16628926 0.011770589 0.06218743 -0.030614555
-0.075676985 0.17523459 -0.084920436 -0.14146301 0.031518362 -0.1382514 -0.23720978 -0.28612563
-0.097251095 0.13679875 0.13883725 0.21515371 -0.2599236 0.2901635 -0.131669 -0.07784815
0.03182077 0.04176164 0.031745553 -0.08463813 -0.010667075 0.43253037 -0.11274459 0.04651436
0.0082417885 -0.2988949 0.025310507 -0.031672217 -0.22078457 -0.14975677 -0.19370179 -0.0534866
-0.03186817 0.2988254 0.065933265 -0.035717636 0.02797892 0.38074043 -0.04646432 -0.1148003
-0.33809435 0.056733023 -0.5359627 0.18684933 0.20437351 -0.41710636 0.11679722 -0.28846174
0.14782655 -0.16362609 0.01107069 0.18487497 -0.03431739 -0.18083917 -0.12178039 0.080091774
0.046530586 0.3932396 -0.19010544 0.051889047 -0.10527104 0.12241092 0.012021239 0.035854
0.2349189 0.07752684 0.31725398 0.21128835 0.11057464 -0.14265348 -0.0049287737 -0.4259151
-0.15122274 -0.19511142 -0.091672555 0.08510502 0.52747834 -0.07417567 -0.2923474 0.28332645
0.054473445 0.0533277 -0.19893119 -0.07930318 -0.2785262 -0.40376067 -0.13868718 0.14365587
0.00695368 -0.039773874 0.14640246 -0.13498046 0.14936161 0.028131198 -0.112354204 -0.2934278
-0.1555334 -0.15897597 0.47377688 -0.09943429 0.07897192 -0.3251883 -8.544385e-05 0.19687417
0.22141293 -0.055760164 -0.29651076 0.14354518 -0.06911278 0.12126848 0.43294263 0.13701618
0.0690991 0.31505564 -0.0027312627 -0.33969286 0.2328442 -0.17998274 0.53045666 -0.7221589
0.33728608 -0.05144782 0.035821218 0.08552428 -0.0116675785 -0.045312017 0.3688886 0.20956956
-0.5475386 -0.23234132 -0.30826014 -0.11128205 0.3321647 -0.21603085 0.07654174 0.17431064
0.25874695 0.07202492 -0.26664522 -0.079853006 0.11675623 -0.098032124 0.12652129 0.0925778
-0.10944713 -0.036354583 0.04553643 -0.43188307 -7.0200505e-05 0.16173701 -0.24534173 -0.22812033
-0.31541717 -0.099885255 -0.0044909 -0.017625077 -0.11370531 -0.14978199 0.030226627 0.068883285
0.36870825 -0.32103634 -0.35559797 0.3222184 0.12039271 -0.22123136 0.10656299 -0.07571253

network.3.bias f4 [128]
00000000: 4aac 213e 17bc 043a fe24 143c e459 cfbe
00000010: 1333 623e f144 0a3e 298f 8b3e 4e2c 4e3e
00000020: 787a 7dbe 8916 12be de29 c9be c527 88be
00000030: 4d43 66be 878e ef3d a8bc 20bf 119c 86be
00000040: 2ba2 b7bf ff9c 3b3f 91a7 8fbf b279 5abe
00000050: 20f7 8cbe 38a5 45bf 6265 c1be 2646 1bbe
00000060: 43bc c7be 589f 73be b6fa f4bd f0b3 3fbf
00000070: 8cf3 88bd 46de 2dbf 3fe3 ae3e 6d55 b8be
00000080: 613e 24be 6279 d2be 96cb 05bd 11f2 08bd
00000090: 2b4c 183f 704e b2bd a02d 993f 36e3 0abf
000000a0: 3010 55bf 9ab3 e3bc 3f32 37bf 3bfd 31bf
000000b0: 8435 2bbf a061 a9bd 1667 a0bc 2ad1 c3be
000000c0: 75f6 a4bd 1e81 3cbf c5e9 efbe d470 1cbf
000000d0: 9096 48be 1caf 693d 14b3 bfbe 1118 05bd
000000e0: feef ecbe 5765 a13b 965e 8ebe 8867 bebe
000000f0: 951f 963d 240a efbe 0137 bfbe 012b af3d
00000100: 1fd3 7bbf 9274 a43e ac8c 97be e436 7a3e
00000110: 2e23 b73e 8559 cabe 84b5 d5be fd33 553e
00000120: f0a1 a1be 1364 30bf 6570 823e 04c8 a53a
00000130: 5490 bebe f98d 83bd 7b01 e9be 7389 a1be
00000140: 1265 b53e bc98 bb3b a0f9 683c 0f6b 1abc
00000150: 9b37 673d 00f4 0c3f 6aaa c8be bbd6 d5be
00000160: fa25 763d cd9a 2bbf e743 2cbf 6795 ff3e
00000170: 2a83 07bf f5f0 903c c0aa ac3d 862e a03e
00000180: 812e 2b3f c146 2cbf 8a53 aabe be5e d0be
00000190: 62f3 0bbf e004 f23e b55c 39bf 9976 c13e
000001a0: c6f1 073d 7a15 ba3d 9d72 4f3e da48 ee3e
000001b0: f6e5 c13e 462b a3be 0f51 91be 9af8 6e3f
000001c0: 8e02 1d3f 1156 da3e b71a 81bf 4004 2bbe
000001d0: ca75 8dbe 61e6 7abe ce52 e23d d738 08bf
000001e0: 0c8c 58bf ec12 b63e 9875 26bf 8b5a db3d
000001f0: 8a2e 65bc 1f34 e0be 509d e6be 3aa4 3cbe
0.1578838 0.0005063428 0.009042023 -0.4049827 0.22089796 0.13502862 0.2725766 0.20134088
-0.2475375 -0.14266409 -0.39289755 -0.26592842 -0.2248661 0.11697107 -0.62787867 -0.26290944
-1.4346365 0.7328643 -1.1223012 -0.21335486 -0.2753229 -0.7720523 -0.3777266 -0.15163478
-0.3901082 -0.23791254 -0.11961882 -0.7488394 -0.06687078 -0.6791729 0.3415775 -0.36002675
-0.1603942 -0.41108233 -0.032664858 -0.033433978 0.59491223 -0.08706367 1.1967049 -0.54252946
-0.83227825 -0.027795602 -0.71561044 -0.69527024 -0.66878533 -0.082705736 -0.019580405 -0.38245517
-0.080548204 -0.7363452 -0.4685804 -0.6110966 -0.19588685 0.057051763 -0.37441313 -0.032493655
-0.4627685 0.0049254107 -0.27806538 -0.37188363 0.073302425 -0.46687424 -0.37346652 0.08553124
-0.9836902 0.32120186 -0.29599512 0.24435002 0.35769027 -0.39521423 -0.41740048 0.20820613
-0.3156886 -0.689027 0.25476375 0.001264811 -0.3721949 -0.064235635 -0.45508942 -0.31550178
0.35428673 0.0057249945 0.0142196715 -0.009424939 0.056449514 0.55059814 -0.39192516 -0.4176539
0.06009481 -0.6703308 -0.6729111 0.49918672 -0.52934515 0.017693022 0.084310055 0.31285495
0.66867834 -0.6729546 -0.3326686 -0.40697283 -0.5466825 0.47269344 -0.72407085 0.37785795
0.033189557 0.090861276 0.20258565 0.46539956 0.3787076 -0.31868953 -0.28382155 0.93348086
0.61332023 0.42643788 -1.0086278 -0.1670084 -0.27628928 -0.24501945 0.1105095 -0.5321173
-0.84588695 0.3556131 -0.65023184 0.10710629 -0.013988147 -0.43789765 -0.45041895 -0.18422022

network.5.weight f4 [64, 128]
00000000: a307 87be 9c98 913c 7e3f 243e c1de b4be
00000010: 085d 4bbe 225c 97bc e545 9d3e f16c 8f3e
00000020: 5786 89be 1989 4ebc f10b 903e 526d 9b3d
00000030: cd1f 82bf cb44 cdbd 929c 8bbc 03ac 7dbd
00000040: c654 e93c ddc7 04be 2a83 9bbe 23bd 103e
00000050: 6bbd 05bf 7b73 a03c b8a9 9c3d 0b14 a73d
00000060: c377 af3c 8191 69be a70d c93d 4def bcbd
00000070: 563a ef3c a332 043e 6330 cebd 889c 6b3d
00000080: 4255 c53d 7694 863e 7ef3 60be a705 10bb
00000090: 9aaa 803e 19e1 bf3d 0cfd 15be d2f5 03be
000000a0: 0599 e43e cdd6 4cbe e1ba f73e ae2b f5bd
000000b0: b521 f33d 4ab5 72be 9581 48be e82e dabe
000000c0: e077 8c3d f165 23be c6c5 a9be 50d8 1c3d
000000d0: 15d4 3d3e 5c90 8bbe e9b0 253e aa67 673e
000000e0: 3bf5 45bd a34d 8b3c 8ea7 8e3d 549f 7ebf
000000f0: 383f ab3e 8ab1 713c 5b01 57bc af47 a03e
00000100: ef66 8bbe c863 933c 4bb2 cebe 6f13 2b3e
00000110: 6f16 663e a925 c1bd 31f3 a3bd f0c1 05be
00000120: 775b 953c 2386 27bf 744f 063e f572 2d3e
00000130: de4d c0bd a86a 53be 2ca4 893e 461a 06bb
00000140: ca53 3abe 8605 2cbe 8225 0cbf 8308 f2bd
00000150: ab11 98bc c8d5 6dbe 74f8 1b3e adec 973d
00000160: e231 ecbe 1339 40be ea9d abbe 853d df3c
00000170: a6fa 213d ad67 c63d 6818 043e a478 0abe
00000180: c712 02be b2b2 99be a922 de3d 0c00 8d3c
00000190: 692b aabe b512 e1bd ff5a 1bbe 807c 3f3e
000001a0: bb6a 0c3d 4b05 8d3e c6bb 8bbb 7333 0dbe
000001b0: dd21 0fbd d51b e2bc ec28 c2bc 331f fb3c
000001c0: 70da 943d 4c69 733e 3de2 653d 0089 823d
000001d0: bd36 773e 3734 febd 178f 86be afd3 59be
000001e0: e6ab 163e 9cc9 d33d dbcf 30bf e487 b63d
000001f0: f144 a63c 015f 173e af8d 443d 61a4 943d
00000200: 1e5f a2be 1d19 3e3e 83ff b5bd edc5 b13e
00000210: 9ebd c9be cb57 8bbd 2c2c 443e 6400 753d
00000220: de97 d8be 26e9 133c 04e6 05be 9de1 03bf
00000230: 5190 333e cc60 773c ccd1 a9be b5f6 66bc
00000240: 9f0d a2be 619b cd3d 04bc e6bd b0ee fdbe
00000250: 7d42 94be c593 8dbd 5f4e 4c3d 28bc 9abc
00000260: a3e2 54bd 9a7f f83d f316 60be 33ef 703e
00000270: cb0b e93d 37c9 01bf 67aa 2ebb 5282 dc3d
00000280: b693 82be b59d e73d d814 a8be 0314 98bd
00000290: 73a6 6b3e fc76 a8bc ebf0 9b3d c493 de3e
000002a0: b0d1 f3bc f4f9 26be 68b4 393c ca5b c5ba
000002b0: ba56 233e f334 c3be 5471 fd3d 25b2 683e
000002c0: b2d0 4bbd e900 2bbe a594 d8be 848a 5c3e
000002d0: 258b 76be 26f5 1dbd b1b8 38bd a69f f83e
000002e0: b00e 88be 1bec be3e ebec 8ebd cf92 273e
000002f0: 556d abbd 7482 09be d7b5 ed3d 519c 6fbe
00000300: e4a4 8b3d 4f31 3f3e 7a00 debe 123a 123d
00000310: 4961 70be 27ad 4cbe fddd 78bd 10c2 95be
00000320: ce7d 8bbe 1fce 5a3e e269 b1be 7269 20be
00000330: b6f4 a5be 0458 973e 0d93 1d3e bd09 5e3e
00000340: d01e d9bd 5eb8 31bd 92db 9bbd b22b 843d
00000350: f4ca 08be d50b dc3e 14a1 573e f3c8 87be
00000360: 388c df3d 7590 57be 1b68 06bf 3eb3 a9bd
00000370: 3413 42bf 9611 e0be 5120 803e 6c3f ee3d
00000380: 2a30 3bbe e469 fdbe ed1b 06bd 4a74 4b3e
00000390: 7aff d6bd 2185 13be c51d a5be b374 703c
000003a0: 9f69 803e 01f9 9fbd 2019 acbe 808d fcbc
000003b0: 3ac0 84ba f49a 49be 39b6 82bc 4071 3dbd
000003c0: 82f2 a03e 3e87 393e 55a4 02bf 3634 183f
000003d0: 857a ad3e afcd 733e e172 95bd db28 85bd
000003e0: ab42 dabe 0d04 303e b9f6 15bd 5726 51bc
000003f0: 6c57 51be 6ca0 a13d 7914 40bf 4845 c1be
-0.26373014 0.017772965 0.16039845 -0.35326198 -0.19859707 -0.01847655 0.30717388 0.28012803
-0.26860306 -0.012605929 0.2813411 0.075892106 -1.0165955 -0.10022887 -0.017042432 -0.06193162
0.028482806 -0.12966867 -0.30373508 0.1413465 -0.52242154 0.019586315 0.07649559 0.0815812
0.021419412 -0.22809412 0.09817057 -0.092253305 0.029202621 0.12909941 -0.10067823 0.057522327
0.09635402 0.26285142 -0.21967885 -0.0021976025 0.2513016 0.09369106 -0.14647311 -0.12886742
0.44647995 -0.20003815 0.48384765 -0.11971222 0.118716635 -0.23701969 -0.19580682 -0.42613912
0.06858802 -0.15956856 -0.33158702 0.03829223 0.18537934 -0.27258575 0.16180767 0.22598138
-0.048329573 0.017004794 0.06965552 -0.99461865 0.3344667 0.014751801 -0.013122882 0.3130469
-0.2722697 0.017991915 -0.40370402 0.16706632 0.22469495 -0.09431011 -0.080053695 -0.13062263
0.01823209 -0.6543905 0.13116246 0.16938384 -0.09389852 -0.20646155 0.26883066 -0.0020462438
-0.18196025 -0.16798982 -0.5474473 -0.1181803 -0.018563112 -0.23226082 0.15231496 0.07418189
-0.46131808 -0.18771772 -0.33518916 0.027251014 0.039545678 0.09687743 0.12899935 -0.13522583
-0.12702475 -0.30019146 0.10846455 0.017211936 -0.33236244 -0.10989896 -0.15171431 0.18699837
0.034281474 0.275431 -0.0042643277 -0.13789158 -0.034944404 -0.027601162 -0.023701154 0.030654525
0.07268226 0.23770636 0.05612396 0.06373787 0.24141975 -0.12412303 -0.26281044 -0.21272157
0.14714012 0.10341188 -0.6906716 0.08912638 0.020296546 0.14782335 0.047986683 0.07257915
-0.31713194 0.18564267 -0.088866256 0.34721318 -0.3940248 -0.068038546 0.19157475 0.059814826
-0.42303365 0.009027755 -0.13076025 -0.51516134 0.17535521 0.015098762 -0.33167875 -0.0140969055
-0.31651017 0.10039402 -0.1126633 -0.49596167 -0.28956977 -0.069129504 0.049879428 -0.018888548
-0.05197395 0.12133713 -0.21883754 0.23528747 0.113792025 -0.50697654 -0.002665186 0.10767044
-0.2550332 0.11309377 -0.32828403 -0.07425692 0.23012714 -0.020564549 0.07614311 0.4347211
-0.029763073 -0.16306287 0.011334516 -0.0015057262 0.15951052 -0.38126335 0.12375131 0.22724207
-0.049759574 -0.16699566 -0.42300907 0.21537215 -0.24076517 -0.03856387 -0.04509801 0.48559302
-0.26573706 0.3728951 -0.06978782 0.16364597 -0.08370463 -0.1342867 0.11606949 -0.23399474
0.0681856 0.18671153 -0.4335974 0.03569991 -0.23474611 -0.19987927 -0.06075858 -0.2924962
-0.2724442 0.21367691 -0.34651095 -0.15665224 -0.32413262 0.29559338 0.15388127 0.21683402
-0.1060158 -0.043388717 -0.07610239 0.06453647 -0.1335867 0.42977777 0.2105754 -0.265205
0.109154165 -0.210512 -0.525026 -0.08286141 -0.7581055 -0.43763417 0.25024655 0.116331905
-0.18280092 -0.4949485 -0.032741476 0.1986858 -0.10497947 -0.14406253 -0.32249275 0.014676261
0.25080582 -0.078111656 -0.3361292 -0.030829191 -0.0010128089 -0.19688016 -0.015956031 -0.04625058
0.3143502 0.18117997 -0.51032 0.5945467 0.33882537 0.23808931 -0.07297302 -0.06501933
-0.4262899 0.17189045 -0.036612246 -0.012765489 -0.20443505 0.07891926 -0.7503124 -0.3774817

network.5.bias f4 [64]
00000000: 819b d13e b77c a63e b312 4f3e aa74 e53e
00000010: 65e4 273f 802f 94bf 5d80 2f3f e32e 3bbd
00000020: 956e 99be 4574 10bf d70f f43e bc84 463f
00000030: 0024 26be 26b3 f33e 3c7a 0d3d 7282 07bf
00000040: 6396 54be b8f8 1cbf 1331 193d db93 dc3e
00000050: 5170 313f 15f5 3b3d 6c2a 073e eb86 e7bd
00000060: 7b02 90be 686d 3c3f c5c7 8cbd 7292 fa3e
00000070: 14ed 413e f87b 88be 0ad5 19be 9376 1dbf
00000080: 237c 853e 79ce 9bbd 892e 223f 86ab bcbd
00000090: c77a 0ebe 77de b9bd 624c d83e 883c 28be
000000a0: d7a8 ebbe 53c3 983e 3015 07bf 8008 fb3e
000000b0: 655e 1a3f 1ff6 1c3e f5f8 123f 6cb4 0b3f
000000c0: 0afd 243f 332b 6f3e 95ea 19bd 7aa8 d83e
000000d0: bd3a 01bf d552 ef3e 87a0 bc3d d6d6 153f
000000e0: f8a3 833e c6c7 0b3f f889 cbbe fb5a ffbd
000000f0: cd02 e9be 9c2b 6ebe 9783 8bbd be3c ca3e
0.40938953 0.32517025 0.20221977 0.4481557 0.6558288 -1.1576996 0.6855524 -0.04569901
-0.2996718 -0.56427413 0.47668335 0.77546287 -0.1622467 0.47597617 0.0345404 -0.5293342
-0.20760493 -0.61317015 0.037400316 0.43081555 0.69312006 0.045888025 0.13199776 -0.113050304
-0.28126892 0.7360444 -0.068740405 0.48939854 0.18938094 -0.2665708 -0.15022674 -0.61509055
0.2607127 -0.07607741 0.63352257 -0.09212403 -0.13914023 -0.09075635 0.42245775 -0.16429341
-0.46027252 0.2983652 -0.52766705 0.49029922 0.60300285 0.15328263 0.5741113 0.54572177
0.64448607 0.23356323 -0.03757723 0.42316037 -0.5048025 0.46742883 0.09210306 0.5853094
0.25711036 0.54601705 -0.397537 -0.12468525 -0.4550995 -0.23258823 -0.06812208 0.39499468

network.7.weight f4 [1, 64]
00000000: 30a2 02be 07e8 813d b936 7bbe a89a 763d
00000010: 1f70 643d 21db 93bd 4d34 84bd b9d4 a2bd
00000020: ce89 803d d345 e53d 785f cf3d 86a2 cd3d
00000030: 3985 293f 6641 24bd 3f68 f2bc 4707 e23e
00000040: ebc9 d63d 4ea8 c23d 65c5 d2bd 7d59 fbbd
00000050: 566b 68bd 9a2a 1dbd bbd4 d6bd 319e 853d
00000060: 0dcd 503e ff37 c0bd 6813 383d ce66 493d
00000070: 4ecb 09bd b124 8e3d cd25 94bd b024 87bd
00000080: a905 2bbd 0036 0ebe ef96 c03d 1f27 3f3e
00000090: ff69 513d 6f91 20be c44d 4abd 45a3 f63d
000000a0: 00dc 7fbd fee6 6a3d 2c1a da3e b933 38bd
000000b0: 3b18 2f3d 57b6 00bf d3f7 653d e0db 3f3d
000000c0: 89ae ad3d 3fe9 96be 8090 a1be 9cf4 ca3d
000000d0: 458e a9bd ce83 09be b153 a13d 7c06 783d
000000e0: 57da c83d b4f9 bd3d 415e 1cbd bfd5 abbd
000000f0: 0afb 763d 0e73 413d 6484 393d 2d9e 84bd
-0.12757182 0.06343084 -0.24532594 0.060206085 0.05577099 -0.0721953 -0.06455288 -0.0795073
0.06276284 0.111949585 0.10125631 0.100407645 0.66218907 -0.04010143 -0.029590724 0.44146177
0.104877315 0.09504758 -0.10291556 -0.12272928 -0.05674299 -0.038370706 -0.10489794 0.06524313
0.2039072 -0.093856804 0.044940382 0.049170308 -0.033641152 0.06940592 -0.072337724 -0.065987945
-0.041753445 -0.13887787 0.09403788 0.18667267 0.051126476 -0.15680479 -0.04939057 0.1204286
-0.062465668 0.057349198 0.42598093 -0.0449712 0.042747717 -0.5027823 0.056144547 0.04684055
0.084805556 -0.29474828 -0.31555557 0.09909937 -0.08279089 -0.13429186 0.07877291 0.06055306
0.0980727 0.09276143 -0.038175825 -0.08390378 0.060298003 0.047228865 0.045292273 -0.06475482
