models/price_predictor_nn_v15.pth (torch, 108959 bytes, 7 tensors)

network.0.weight f4 [256, 29]
000000 17 45 9b bd 46 08 95 bb e4 e6 62 3e dd 92 65 3b
       -0.07581537 -0.0045481054 0.2215839 0.0035030164
000010 8d 98 c6 3d f9 6b 38 3e c1 6d 01 3f eb 60 a5 3c
       0.096970655 0.18009938 0.50558096 0.020187816
000020 5c 31 85 be f0 cc 30 3f ba 05 b1 3d 82 05 99 3d
       -0.2601422 0.6906271 0.086436704 0.07471754
000030 55 ff d3 bd 35 7b 82 bf 6f c8 13 bf aa 78 50 3e
       -0.10351435 -1.019385 -0.5772771 0.2035853
000040 83 c1 33 be 64 27 90 bd db 27 88 be 85 35 34 bf
       -0.17554288 -0.07038763 -0.26592907 -0.70394164
000050 cc 08 0e 3f 45 89 07 3f 01 a9 55 bf 7f 6d fe be
       0.5548217 0.5294383 -0.83461004 -0.49692914
000060 fa 94 f6 3d 27 22 a0 bd 61 a3 46 bf 63 d6 c3 bb
       0.12040134 -0.07819014 -0.77593046 -0.0059764846
000070 d3 c0 2a be 9b e2 0f bf 13 98 10 3e b1 ba 36 3f
       -0.16675119 -0.5620515 0.14120512 0.7137862
000080 b2 35 a9 3e 2d 41 96 be d2 db 8d 3e ed 28 e6 3e
       0.3304878 -0.293466 0.27706772 0.449531
000090 a8 b9 6b be 70 18 31 3e 89 0a 95 3e e5 68 5a bd
       -0.23020041 0.17294478 0.291096 -0.05332269
0000a0 c8 ce 3c bd 84 50 e5 bc 54 ed 79 bc c2 73 c5 be
       -0.04609564 -0.027992494 -0.015254337 -0.3856488
0000b0 08 8c b1 bd 03 5c 27 3d db d5 ca 3e 3c b6 4b bf
       -0.08669287 0.040859234 0.39616284 -0.7957494
0000c0 c4 53 f9 3d 64 84 ce be 98 5c ac 3e eb b4 1f bf
       0.1217418 -0.4033538 0.33664393 -0.62385434
0000d0 17 e1 e2 be 84 71 2f 3e 91 40 05 bf e4 06 00 3f
       -0.44312355 0.17133147 -0.52051646 0.50010514
0000e0 82 94 a8 3d f7 5b 5c be 77 d0 23 bc 42 70 1a 3f
       0.082314506 -0.21519457 -0.009998432 0.6032754
0000f0 d4 5e fb 3d 3f 65 84 bd 8e af ea 3d 25 e6 1f 3e
       0.122739464 -0.06464624 0.11459266 0.15615137
000100 9c 01 ce 3c a7 74 21 3d 6d 13 54 bd fc eb 8d 3d
       0.025147252 0.03941789 -0.05177634 0.06929776
000110 8d 17 38 3e 0e 3a 53 3e 68 cd f8 bd 74 fd 72 be
       0.17977734 0.20627615 -0.12148553 -0.23729497
000120 ee 0a b5 bd 6c b6 5e 3d 3a bd 1b 3c 1d c4 b4 be
       -0.08839975 0.05437319 0.009505564 -0.35305873
000130 46 a2 f3 be b2 e7 1f 3c e5 6d f5 be 8e af f1 be
       -0.47584742 0.00975983 -0.47935405 -0.4720425
000140 57 2f 03 3f 3c f7 a0 3e 7c 8c f4 bd 79 ec 67 3f
       0.5124411 0.31438625 -0.11940858 0.90595204
000150 9c 75 69 be 9e 0b a4 bf 7c a8 35 3e 43 1b e8 bd
       -0.2279877 -1.2816045 0.17740053 -0.11333325
000160 d5 ec 8c bd 86 95 a4 3c 95 7c 98 be 89 7e 38 3e
       -0.068811096 0.02009083 -0.2978255 0.1801702
000170 99 2b 75 3e 38 3a 9b 3d 51 19 23 3e b8 87 58 bf
       0.23942412 0.07579464 0.15927626 -0.8458209
000180 7d 3d 47 3f b8 41 33 be 59 55 44 be b2 8f dc be
       0.778282 -0.17505538 -0.19173183 -0.4307838
000190 66 15 63 be 00 a1 43 be 8c d6 f3 bd d6 f4 60 3e
       -0.22176132 -0.19104385 -0.11906156 0.21968397
0001a0 77 8c 6a 3e e1 bc 55 3e 8b 58 08 be 56 84 4a 3e
       0.22905146 0.20872833 -0.13315026 0.19777045
0001b0 63 e8 86 be 3d 1d a1 3e 09 8c 94 be fe 0d b1 3d
       -0.26349172 0.3146762 -0.29013088 0.08645247
0001c0 48 3c 0f 3e 63 e6 22 bf 99 64 13 be 8f 10 4c be
       0.13987839 -0.6363279 -0.14393844 -0.19928192
0001d0 e4 65 ce be cf 4b 2a bd 7e a2 7e 3e 7d 94 d3 3d
       -0.4031211 -0.041576203 0.24866673 0.10331056
0001e0 5b bf b6 bd 9a 88 87 c0 59 5e d0 be 36 7c 4d 3e
       -0.08923217 -4.235425 -0.40696982 0.20066914
0001f0 a6 0e 48 bf 16 88 3f bc 2a 58 0b bf c3 7a 08 bf
       -0.7814735 -0.01169016 -0.544314 -0.5331232
000200 aa 1c 89 3e 3d 64 b5 bc dc 1c ab 3b 93 e5 0c 3e
       0.2677968 -0.022142524 0.005221946 0.1375945
000210 62 2b c0 3e 79 ae 8a be 7c 76 16 3e 78 c0 5e 3e
       0.37533098 -0.27086237 0.14693636 0.21753109
000220 07 ae 76 be d3 da ab 3d 8e 36 1f bd 0e 80 89 3f
       -0.24089824 0.08391347 -0.038870387 1.0742204
000230 4d ac 28 3d f5 6b e1 bd e1 ed f9 bd e9 45 06 3e
       0.041179944 -0.11006919 -0.12203575 0.13112606
000240 24 c7 17 be aa 10 57 be c4 5e 15 3e c3 44 45 bc
       -0.1482206 -0.2100245 0.14586931 -0.01204032
000250 8e b3 86 bb 9b c8 15 3e ff c8 ec bf d3 95 49 bf
       -0.00411076 0.14627306 -1.8498839 -0.7874424
000260 94 c4 f7 bd be a6 f3 be 3d bf 12 bf 9c d1 99 be
       -0.12098041 -0.47588152 -0.57323056 -0.30042732
000270 cb 58 a2 be d4 66 85 be 89 55 7f 3a 93 22 29 bc
       -0.3170837 -0.26055014 0.0009740224 -0.010323185
000280 af 1f 5e be 64 d4 91 be 6c b9 94 be 43 b9 80 3d
       -0.21691774 -0.28482354 -0.29047716 0.06285336
000290 30 d8 a2 be bf 8f ac be f7 e4 a0 be e3 63 8f be
       -0.31805563 -0.3370342 -0.31424686 -0.28005895
0002a0 1b 2d f8 3d f0 d5 41 3d a9 5e a8 3e 29 40 01 bf
       0.12117978 0.047323167 0.3288472 -0.50488526
0002b0 08 c3 a8 3d 7f 3c 61 3d fc 22 d1 bd c1 ab 92 3d
       0.08240324 0.054989334 -0.10211751 0.07161666
0002c0 7f b5 84 bd 16 38 75 bd 07 3e c0 3d 87 f5 65 3e
       -0.0647993 -0.05986794 0.09386831 0.22456942
0002d0 44 fb f4 bd fa 91 30 bf 27 3c c6 3f aa a4 c3 3d
       -0.119619876 -0.6897274 1.5487107 0.095528916
0002e0 81 7f 45 3e d8 dc 54 3e cc 1a cf 3e 24 2e 46 be
       0.1928692 0.2078737 0.40450132 -0.19353539
0002f0 2f 8f 73 bd 47 b7 4e 3e a1 47 1c 3e 1d fe 1d be
       -0.059462722 0.20187102 0.152617 -0.15428968
000300 43 8a 43 3d 94 9b 05 be 79 4e 34 be 75 39 67 be
       0.04773928 -0.1304763 -0.1760806 -0.22580512
000310 63 eb a1 bd fa b3 e2 bd 41 04 72 bd 4d 90 9a be
       -0.079062246 -0.11069484 -0.059086088 -0.30188218
000320 af dc 15 be ad 7a c3 bd d5 85 66 be 48 6c 96 bf
       -0.14634965 -0.09544883 -0.2251199 -1.1751795
000330 38 e8 a7 3e a0 a1 e9 bd 2b 5e 6a be ae 4a 80 bc
       0.32794356 -0.11407781 -0.22887485 -0.01566061
000340 9e e7 39 c0 2d 1d e7 3d d9 a7 5c 3e e8 24 06 bf
       -2.9047618 0.11284862 0.21548404 -0.52400064
000350 77 c7 61 3e c9 d1 81 bd e8 5f 91 bd fc 2f 2e 3e
       0.22048746 -0.063388415 -0.07098371 0.17010492
000360 e4 a5 20 3e 81 5e 0a be e9 87 c3 bd 2e 6d 09 3c
       0.15688282 -0.13512613 -0.09547407 0.008387847
000370 01 4e 06 bc 22 0a c7 bd 14 71 04 be be 24 b9 be
       -0.0081973085 -0.097187296 -0.12933761 -0.36160845
000380 23 ec 9b be 06 54 ee be bc 0a 94 be 51 a4 3b 3d
       -0.30453596 -0.4654848 -0.2891444 0.045811
000390 18 57 75 be b0 d0 d3 3b a7 6a 49 3e af 92 5a 3d
       -0.23959005 0.0064640865 0.19669591 0.053362545
0003a0 e7 1a 28 bd fc d4 72 3d 55 d8 0c 3c 63 c3 c5 bd
       -0.04104128 0.05928515 0.008596499 -0.09656408
0003b0 ab 2e 02 3e 31 b3 98 bd 9b df d0 3c 97 ba dd bc
       0.12713115 -0.07456053 0.025497248 -0.027066512
0003c0 9e 59 94 bd 9d 0d dd 3b 85 35 71 3d 56 f3 73 3d
       -0.072436556 0.0067460076 0.05888893 0.059558235
0003d0 6b ab fd 3e 0c 63 9c bf f6 a3 5f bd da 04 1d bf
       0.49544844 -1.2217727 -0.054599725 -0.6133553
0003e0 03 36 b3 3e fa b8 6e bf 49 f8 1a bf 01 2b 09 bf
       0.35002145 -0.93251 -0.60535103 -0.53581244
0003f0 0f 07 9d 3f d4 15 21 bf f6 dd 48 3f c0 63 a7 be
       1.2267779 -0.6292393 0.78463686 -0.3269329

network.0.bias f4 [256]
000000 de b3 23 be cd d9 da be 49 44 4f be 02 63 58 be
       -0.15986583 -0.42744294 -0.20240892 -0.21131518
000010 dc b5 bb be ca 0b e5 be e9 1a c4 be 28 14 c5 be
       -0.36662185 -0.44735557 -0.3830178 -0.3849194
000020 9d 01 ec be 01 08 65 bd ea 12 81 bf 19 e0 a6 be
       -0.4609498 -0.055915836 -1.0083897 -0.32592848
000030 c0 2b a8 be d4 eb 01 bf fc 62 ac be 12 fd 16 bf
       -0.3284588 -0.5075047 -0.3366927 -0.58979905
000040 04 a1 87 be 33 53 7d be a8 88 e3 be 78 e7 8a be
       -0.26490033 -0.24738769 -0.44440198 -0.27129722
000050 71 c3 3a be a0 ae 2e be b7 95 fd be a3 c2 e9 be
       -0.18238617 -0.17058802 -0.49528286 -0.4565631
000060 6b f5 84 be 26 0e cb be 5d b3 89 bc ae 58 91 be
       -0.2596849 -0.39659232 -0.01680916 -0.2838797
000070 8d 9e bd be 1f 7e ce be d9 ca f8 be 39 98 1f be
       -0.37035027 -0.40330598 -0.4859226 -0.15585412
000080 b7 da 66 be f1 58 c6 be ec a0 da be 28 84 03 bf
       -0.2254437 -0.38739732 -0.427009 -0.5137353
000090 99 3e ec be bc f2 84 bf 59 8b c3 bd df c8 8f be
       -0.46141508 -1.0386577 -0.09548063 -0.2808294
0000a0 31 55 14 bf 9e 28 92 be 58 96 b6 be e0 fa c9 be
       -0.5794249 -0.28546613 -0.35661578 -0.39449215
0000b0 69 c6 cd be 67 f6 a3 be 75 90 e7 be 36 4a 47 be
       -0.40190437 -0.32023928 -0.452274 -0.19461903
0000c0 f0 8f e4 be dc 9e df be 30 dd 8c be 82 b1 b1 be
       -0.44641066 -0.43675888 -0.27512503 -0.3470574
0000d0 58 ed bd bd 89 46 06 bf 41 25 0e bd 51 b0 97 be
       -0.09273785 -0.5245138 -0.034703497 -0.29626706
0000e0 dc 1a 0a bf 16 6e ab be e9 24 e0 be 9a 86 bf be
       -0.53947234 -0.33482426 -0.4377816 -0.3740738
0000f0 4f 95 d1 be 60 2b 44 bf bd 29 d5 bd f4 0d 69 bf
       -0.40934226 -0.76628685 -0.104083516 -0.91036916
000100 ad 37 c1 be 18 67 27 be c3 8b 9d be 00 70 68 be
       -0.3773779 -0.16347921 -0.30770692 -0.22698975
000110 ce 87 01 bf ea f0 56 be f8 e2 ad be e3 3a 57 be
       -0.50597847 -0.20990339 -0.33962226 -0.21018557
000120 fa 42 aa be 84 96 79 be bd 69 04 bf 12 48 58 be
       -0.33254224 -0.24373823 -0.51723844 -0.21121243
000130 7c 4c 8a be 24 3f 1f be 1d dd 48 be 94 f4 df be
       -0.27011478 -0.1555143 -0.19615598 -0.43741286
000140 d2 e2 ca be c8 a8 a1 3c 12 fd ba be a5 21 14 bf
       -0.39626175 0.019733801 -0.36521202 -0.5786384
000150 20 48 08 be 5d 76 b4 be 32 dc ec be a7 d2 5b be
       -0.13308764 -0.35246554 -0.46261746 -0.21467076
000160 1e 1f 91 be 24 be 0a bf 40 85 b4 bd 60 3e 02 be
       -0.28344053 -0.5419638 -0.08814478 -0.12719107
000170 fb ed b7 be ca 61 ac be fe e0 a6 be 3d fd 02 be
       -0.35923752 -0.33668357 -0.3259353 -0.12791915
000180 ee 00 a2 be 78 27 9f be 90 25 d9 be 8a e9 bb bd
       -0.31641334 -0.310848 -0.4241147 -0.091754034
000190 57 49 1b bf 8a 1a a3 be b3 18 c1 be 6b 98 ec be
       -0.6065878 -0.31856185 -0.37714157 -0.46210036
0001a0 34 7f 05 be 10 7e b7 be de 66 90 bf 07 1f 03 bf
       -0.13036805 -0.35838366 -1.1281393 -0.5121922
0001b0 59 62 26 bc 2e bd 56 bf db f1 94 3d 3a e4 cf be
       -0.010155284 -0.83882415 0.07272693 -0.4060381
0001c0 5a e9 52 be ad cc d7 be 57 ba c1 be a7 e8 af 3e
       -0.20596829 -0.42148343 -0.3783748 0.34357187
0001d0 c5 a6 13 3d 2b d9 77 be fa 33 7e be b7 87 07 bf
       0.036047716 -0.24203937 -0.24824515 -0.5294146
0001e0 ba 3e 2b be cc 91 18 bf 35 28 86 be 6d bd ce be
       -0.16723147 -0.5959747 -0.2620255 -0.40378895
0001f0 69 46 8f be 0b c0 c2 be ad 9d 16 bf e5 e6 a9 be
       -0.27983406 -0.38037142 -0.58834344 -0.3318397
000200 76 92 20 bf 79 43 05 be 6f ad 7d be 6c 35 13 bf
       -0.6272348 -0.1301402 -0.24773191 -0.5750339
000210 ba 7e 41 be 29 3b 7a be 12 22 65 bf 51 9d 17 be
       -0.18895999 -0.2443663 -0.8950511 -0.14806105
000220 78 c2 a9 be 16 09 3a bf 27 c9 04 bf 9b 9f f1 be
       -0.3315618 -0.72670114 -0.51869434 -0.47192082
000230 bd 17 48 be bb c9 9b be 5d 6f 83 3e bd b5 06 be
       -0.19540305 -0.30427346 0.256709 -0.13155265
000240 ef 9f a6 be 53 e2 24 be e4 b3 ee be 82 25 cc be
       -0.32543895 -0.16101961 -0.4662162 -0.39872366
000250 8c 94 bf be 54 6e b2 bd a5 98 d2 be c7 ef b9 bd
       -0.3741802 -0.0871245 -0.41132084 -0.09078937
000260 0b 20 9f 3c 2e cc 01 be 31 53 38 be 2b 15 e8 be
       0.019424459 -0.12675545 -0.18000485 -0.4532865
000270 16 a2 05 be 8f ed 9e be 28 1d 04 be 6c db 3f be
       -0.13050112 -0.31040618 -0.12901747 -0.18736047
000280 70 ff f4 bc 07 43 c0 be 0b dc 8f bd 15 9b 1c be
       -0.029906958 -0.37551138 -0.07024392 -0.15293534
000290 4c b0 ea bd bd 72 05 bf 05 26 fd be 28 46 24 be
       -0.11459407 -0.521282 -0.4944307 -0.16042387
0002a0 23 25 9d bf 21 b9 a8 be 3a 90 e6 be 80 61 fc bd
       -1.2276958 -0.32953742 -0.4503191 -0.12323284
0002b0 c7 d9 c2 be 66 de 88 be 2f 8c 30 be 51 2f b9 be
       -0.38056776 -0.26732177 -0.17240976 -0.36168912
0002c0 24 7e f1 3e 23 ed 7b be e8 a4 36 be e5 cb ac be
       0.4716655 -0.24602179 -0.17836344 -0.3374931
0002d0 b0 01 3a be 4c 93 1d bf 86 cc d0 be 9d b7 a3 be
       -0.18164706 -0.6155288 -0.4078104 -0.31976023
0002e0 1f b9 1f be ac 8a 32 be 1e d7 79 be 6a 6b 21 be
       -0.15597962 -0.17435712 -0.24398467 -0.15763631
0002f0 16 a7 f8 be 08 bf 55 bf e6 96 ef be 40 2b 6c be
       -0.48564976 -0.83494616 -0.46794814 -0.23063374
000300 52 cf 0d bf c9 e4 6d be 02 45 b6 be 4e 87 8a be
       -0.5539447 -0.23231806 -0.35599524 -0.27056354
000310 23 36 a9 3c d9 9f ab be bc a6 ff be 07 f3 b5 be
       0.020655697 -0.33520392 -0.49931896 -0.35536978
000320 01 79 bf be 1b bf ef be 76 e4 bb be 8d d3 05 bf
       -0.37397006 -0.4682549 -0.3669774 -0.52275926
000330 25 05 a9 be a2 32 bf be ad 98 a6 be 86 a4 ee be
       -0.33011737 -0.37343317 -0.32538357 -0.46609896
000340 5d 04 2b bf f8 42 dc be 18 15 93 3e 6b b0 37 be
       -0.6680353 -0.43019843 0.2872703 -0.17938392
000350 14 a3 ec be a3 61 dd bd 9e 66 b1 be fa 59 e5 be
       -0.4621817 -0.10809638 -0.34648603 -0.4479521
000360 f0 38 d9 bd 69 06 ca be b5 7d 44 be 26 21 6b be
       -0.10606563 -0.39458016 -0.19188578 -0.22961864
000370 2f 08 21 be 41 ff f4 bd 04 82 83 be 1b ec 7f be
       -0.15725778 -0.11962748 -0.25685132 -0.24992411
000380 7a b4 f5 be 70 53 e0 be 7c ce b3 be 57 e8 8c be
       -0.47989255 -0.43813658 -0.35118473 -0.2752101
000390 39 2b b7 be 9c 85 dc be 81 da aa be 6f 83 66 be
       -0.35775164 -0.43070686 -0.3336983 -0.22511075
0003a0 f0 43 40 be 20 50 01 bf ff 46 c2 be e3 53 98 be
       -0.18775916 -0.50512886 -0.3794479 -0.297515
0003b0 2f b9 8a be 33 be 06 be 69 8d 12 bf c1 56 f8 be
       -0.2709441 -0.13158493 -0.57247025 -0.48503688
0003c0 8d 7f f8 bd c5 e5 8d bd 49 a2 6f bf 15 32 a1 be
       -0.121337034 -0.06928591 -0.93607 -0.31483522
0003d0 05 e8 9c be 7d 6e b6 be 14 98 e0 be 01 8d d7 be
       -0.30645767 -0.3563117 -0.43866026 -0.42099765
0003e0 cc f1 2d bf 8a 5c ed be 0b 9a a5 be 60 9a 9d be
       -0.6794708 -0.46359664 -0.32344088 -0.3078184
0003f0 1b c4 2a be e5 7f fd be 61 ec da be 61 e5 49 be
       -0.16676371 -0.49511638 -0.42758468 -0.19716407

network.3.weight f4 [64, 256]
000000 3b b5 75 bd 70 04 93 bc 29 2f 78 be b9 0f b8 bf
       -0.059987288 -0.017946452 -0.2423674 -1.4379798
000010 26 6c d8 3e 50 2a c1 bd 5d 2f 04 3e f0 f8 63 3e
       0.4227001 -0.094318986 0.12908693 0.22262931
000020 70 7e 92 3e 06 08 0a 3e f0 c3 19 3d 54 c4 3c bf
       0.2861209 0.13479623 0.037540376 -0.7373707
000030 9f b0 34 bc 5d 26 00 3d 4f 54 19 be c2 9c 22 3f
       -0.011028438 0.031286586 -0.14973567 0.63520443
000040 44 c0 26 3e 41 7e b1 bc 94 8f fa 3d 52 2d 85 be
       0.16284281 -0.021666648 0.122344166 -0.2601114
000050 83 5d 5a bc 4a 2a 61 3d f5 db df 3d 17 7d 58 3e
       -0.013327959 0.05497197 0.10930625 0.21141468
000060 0c 61 8c be 4b c6 09 be dd bb e8 bc 8f d6 d1 3d
       -0.2741779 -0.13454549 -0.028409893 0.10246002
000070 c4 d9 0e bd ad 08 a4 bd 23 86 1d bf 9f 26 1c bf
       -0.034875646 -0.08009467 -0.615328 -0.6099643
000080 b8 64 a4 3e a8 38 a8 bd 90 eb 7f 3e 31 c2 ee bd
       0.32108092 -0.08213931 0.24992204 -0.11658133
000090 87 14 1b 3f 53 c5 c4 3d 61 67 26 bd 0a 4a 3d 3d
       0.605782 0.09607949 -0.040625934 0.046213187
0000a0 30 e2 06 3f 14 0d ed be 82 ee 3f be 82 a3 81 bf
       0.52688885 -0.4629904 -0.18743327 -1.0128024
0000b0 c6 99 ed be 36 af 53 be 6e 47 19 3f 60 0d 78 bb
       -0.46406382 -0.20672306 0.5987462 -0.003784977
0000c0 ad 1d b6 3f 25 9a 1e bf 90 29 13 be ea a7 b5 3e
       1.4227806 -0.61953956 -0.14371324 0.3547967
0000d0 b2 af b0 3e 21 24 04 3f 84 8d bd 3e ca 67 53 be
       0.34509045 0.5161763 0.3702203 -0.20645061
0000e0 2e d3 b7 3e d8 cb 2f bf bd 59 af bd 80 5e b1 bf
       0.35903305 -0.68670416 -0.08562038 -1.3856964
0000f0 81 44 4d bf d0 d7 ed 3c 31 0f 3e bf 92 7c fb 3f
       -0.80182654 0.029033571 -0.7424193 1.9647391
000100 95 87 00 be d4 9d 10 bf 1b f0 29 3e fe e5 f1 3e
       -0.1255172 -0.56490827 0.16595499 0.47245783
000110 96 fe 0a bf 33 0f 48 3d 22 df 68 be 24 c0 ad ba
       -0.5429472 0.04884262 -0.22741368 -0.0013256115
000120 0d e8 17 be 13 7f 83 bf f9 5b a6 be a7 e2 0c bf
       -0.14834614 -1.0273155 -0.32492045 -0.55033344
000130 47 cb a9 bf a3 0d a7 be 7a c4 07 3d be b5 b9 be
       -1.326516 -0.32627591 0.03314636 -0.3627147
000140 8a ab df be 3d 3b 6b 3e 2d 12 97 be a1 34 32 3f
       -0.4368556 0.22971816 -0.29506055 0.69611555
000150 5f 7e 1b bf 6b 2f 3f be 08 89 09 3d c4 b1 73 bf
       -0.607397 -0.18670432 0.03357795 -0.95193124
000160 a0 18 c7 bd af d5 fe 3e ac a9 1e 3f 36 23 51 3e
       -0.09721494 0.49772403 0.6197765 0.20423588
000170 41 a8 66 3e af 23 4c 3d 06 3e 4e 3d ce ab db be
       0.22525121 0.049838718 0.05035212 -0.42904514
000180 04 2c aa bd a3 69 82 3c ea f3 52 3f 99 02 99 3d
       -0.083091766 0.015919512 0.82403433 0.074711986
000190 60 bf 91 bd 19 4a e4 bc a3 e0 a2 bd 05 4b 8b be
       -0.0711658 -0.027867364 -0.07953002 -0.27205673
0001a0 94 b5 a1 be 54 d9 e3 bd b4 96 62 bc 1a 7a a0 be
       -0.31583846 -0.111254364 -0.013829876 -0.31343156
0001b0 db 55 cf 3e bf 3b 8c be 76 3c 03 3d 6a 69 08 39
       0.4049519 -0.27389333 0.032040082 0.0001300924
0001c0 e0 1d d8 be 57 4e 46 bc 78 d9 0e bf 60 da db be
       -0.42210293 -0.012103639 -0.5580058 -0.42940044
0001d0 15 eb 93 be 12 db 3c 3d 0f 64 03 bf b2 f5 5b 3d
       -0.2889029 0.04610736 -0.5132455 0.05370111
0001e0 df 38 5b bd b3 38 dc 3e 2c fd a1 bf 5a b3 99 bf
       -0.053521033 0.43012008 -1.2655387 -1.2007859
0001f0 83 65 17 3e ad 2e df be a9 f4 3d 3f ab 18 6e 3e
       0.14784817 -0.43590298 0.74201447 0.23251598
000200 67 15 73 be 1e 8c 54 be c1 23 5a bf cd 03 8c be
       -0.23738633 -0.20756575 -0.85210806 -0.2734665
000210 67 b5 b2 be 30 e9 63 bd c1 8f 1a 3e b8 5f c7 bd
       -0.34904024 -0.055642307 0.150939 -0.09735054
000220 47 9a ac 3d 0c 61 1b 3d 78 36 e4 be 54 14 09 3f
       0.084278636 0.037934348 -0.44572806 0.53546643
000230 d8 9e 55 bd 93 29 63 3c 3d e7 d4 be 98 bb 3c bf
       -0.05215344 0.013864893 -0.4158267 -0.73723745
000240 a6 8a 05 be 6a 96 7a bf 03 5f 06 bf 1f 78 59 3e
       -0.13041171 -0.97885764 -0.52488726 0.21237229
000250 3e 05 17 3f ae 29 4e be ad 6e 52 be 33 6a 5a 3d
       0.58992374 -0.20133087 -0.20550032 0.053323936
000260 8b 4d b4 be 52 15 74 3e dd a8 3b bf 21 eb db bd
       -0.3521541 0.23836258 -0.7330454 -0.10738207
000270 5f f4 59 3d 93 17 11 be d5 06 99 3e 4e bc e7 be
       0.053211566 -0.14169149 0.29888025 -0.45260853
000280 8c 9b 96 bf cd d4 9e bd 40 3a bd be 74 a9 17 be
       -1.1766219 -0.07755432 -0.36958504 -0.14810735
000290 e9 89 26 be 50 f8 29 bf 46 4b d5 3b a6 be 2a bf
       -0.16263546 -0.6639452 0.0065092174 -0.66697156
0002a0 78 7e 01 3e 02 fc c6 3e 61 10 86 3d 69 07 a3 3e
       0.126459 0.38864142 0.06546093 0.3184159
0002b0 e6 e8 84 bf 92 8d 90 3d 20 c6 3f be 57 2a 5c be
       -1.0383575 0.070582524 -0.18727922 -0.21500526
0002c0 34 d2 9c bd 99 b1 4f 3e f4 32 b1 bd 9f 88 05 bf
       -0.076572806 0.20282592 -0.08652297 -0.5216159
0002d0 32 fe 21 3e 86 48 3e 3f 51 34 ad be cb bc 27 bd
       0.15819624 0.7432941 -0.33828977 -0.04095153
0002e0 e8 94 16 bd a5 10 a9 bd 20 f2 4c 3e 70 8f d7 3d
       -0.0367631 -0.08255128 0.20014238 0.105254054
0002f0 2e 8f b4 bd 8b 48 11 be 04 36 02 3e 26 1d 4f 3f
       -0.08816372 -0.14187829 0.12715918 0.8090385
000300 3e 4a 81 3c cb 88 b2 bc cc a9 21 be 2a 89 83 3e
       0.015782472 -0.021793744 -0.15787429 0.25690585
000310 29 af 22 bf a3 89 9d be 03 75 e3 be 98 73 89 bf
       -0.63548523 -0.3076907 -0.4442521 -1.0738401
000320 61 b8 1f bf ae 04 02 bf a6 84 be 3e 6b a8 39 bd
       -0.62390715 -0.5078839 0.37210578 -0.04532663
000330 a1 11 3a bf 03 7a 2e bf cf 84 9a bd 1a 88 6e 3e
       -0.7268315 -0.68154925 -0.075448625 0.23294106
000340 7c 33 f7 3f 72 40 1d 3e 03 5e ef bd 2c 0c 9d bf
       1.9312587 0.15356615 -0.11687853 -1.226934
000350 9f e8 8c 3e 13 80 39 bf 99 66 e6 be e0 a1 26 bf
       0.27521226 -0.7246105 -0.4500015 -0.6509075
000360 cb 5c d4 be 34 39 d5 3e 78 db 04 be 38 bc 94 be
       -0.41477045 0.41645205 -0.12974346 -0.2904985
000370 13 aa 98 3e 07 52 9e 3e 93 fe e7 bd f8 0e fb 3d
       0.29817256 0.30921957 -0.11327853 0.122587144
000380 3f 52 0a bd 3f 9d ab bd b9 9a 50 be 53 df 58 bf
       -0.033769842 -0.08379602 -0.20371522 -0.84715766
000390 a9 05 d8 bc 3a 12 9f be e7 33 84 3e 46 84 ca be
       -0.026369886 -0.31068593 0.25820848 -0.39554042
0003a0 c5 b4 45 be 42 95 7f 3e 1d 75 94 be 49 f3 9c 3f
       -0.1930724 0.24959281 -0.289956 1.2261745
0003b0 fb 98 7b be ee 7d e8 bd e5 4f ab 3d d1 b4 5e be
       -0.24570076 -0.11352144 0.08364848 -0.21748663
0003c0 7c 1a ae bd c1 b2 b7 be 6e bd da 3d a4 6b c6 3d
       -0.08501145 -0.35878566 0.10680662 0.096884996
0003d0 4a 23 51 3e 85 8b 21 bf 4c 91 eb be 24 91 38 bd
       0.20423618 -0.63103515 -0.4600929 -0.045060292
0003e0 0b 49 a9 3e 1c 71 68 3f c4 fc a0 bf 19 26 50 3e
       0.3306354 0.9079759 -1.2577138 0.20327033
0003f0 f9 e0 c2 be db fa 96 be 89 1b f9 3e 7e bb e4 be
       -0.38062266 -0.29488263 0.4865382 -0.44674295

network.3.bias f4 [64]
000000 4f 20 40 bf 28 d4 65 be 81 7d 96 be 3d 9d a6 bf
       -0.750493 -0.22444212 -0.29392627 -1.3016735
000010 ab 72 32 3f c3 c4 90 bf d5 30 3d bf 72 69 46 3f
       0.6970622 -1.1310047 -0.73902637 0.77504647
000020 7e 77 6f 3e 90 a1 80 3f e6 c1 1a be 05 cc 82 3f
       0.23385426 1.0049305 -0.15113029 1.0218512
000030 a8 5f 25 3f 52 6c a4 be b4 dc 5b be 5e 64 35 3f
       0.64599085 -0.32113892 -0.2147091 0.70856273
000040 d0 a4 be 3e a8 16 34 3f d6 0f b3 3e 0e 36 a1 bf
       0.37235117 0.7034707 0.3497302 -1.2594621
000050 c0 e3 63 3f cd ba c5 be 83 84 67 bf 78 58 00 c0
       0.89019394 -0.3861908 -0.9043657 -2.0053997
000060 3b a3 1c c0 82 92 a9 be 89 9a 93 bf 8c e8 b1 3f
       -2.4474628 -0.3311959 -1.1531535 1.3899093
000070 ca b1 3c 3e 14 0e 8d 3e 9c e8 bc be 08 d0 48 3f
       0.18427196 0.27549803 -0.36896217 0.7844243
000080 cc e1 70 3f 22 6a a4 be cc 24 18 be 15 a7 e4 3d
       0.9409454 -0.32112223 -0.14857787 0.11164681
000090 44 89 8f 3e 3b 38 0c bf 01 5d 8c bf 95 f2 46 bf
       0.28034413 -0.547733 -1.0965883 -0.777139
0000a0 1b 9f 54 3f 2a 09 bf 3e a6 e5 36 3f 14 16 15 3e
       0.83055276 0.3731168 0.71444166 0.14559203
0000b0 50 60 e1 be cb df f3 3e a6 7f e3 bf f3 93 e9 be
       -0.44018793 0.47631678 -1.777333 -0.4562069
0000c0 ec 27 aa bd 99 7d a1 bf 4f 88 86 bf 72 e8 4f 3f
       -0.08308396 -1.2616454 -1.0510348 0.8121406
0000d0 2a 6e 96 3f a8 59 15 c0 9e 54 b3 3f 8a 00 b8 bf
       1.1752369 -2.3335972 1.4010198 -1.4375165
0000e0 ee 06 f1 bc 3b bb 27 3f 35 21 47 bf 50 03 b9 3f
       -0.02942225 0.65520066 -0.77785045 1.4454136
0000f0 6e 82 61 bf 84 6f c1 bd 5b 6e 91 3e bd 4c b4 be
       -0.88089645 -0.09445098 0.28404507 -0.35214797

network.5.weight f4 [32, 64]
000000 73 7c 83 3d 20 49 2d 3e cd 24 22 3f 9f d4 c3 3e
       0.06420221 0.16922426 0.63337404 0.38248155
000010 41 5f 8d 3a d3 53 1b bd 7e 8a cd 3b b7 8e dc 3d
       0.0010785834 -0.037921738 0.006272613 0.10769408
000020 31 db 16 be ea 20 23 bf 28 e4 84 3e 4e b2 d4 bd
       -0.14732052 -0.637221 0.2595532 -0.103855714
000030 60 3d 96 be fc e6 30 3d 4a 4a 85 bd ef 03 77 bd
       -0.293437 0.043189034 -0.0650831 -0.060306486
000040 5d 48 5c be 2e d0 9e bd 73 13 fa bc 73 7a 4e bf
       -0.2151198 -0.07754551 -0.030526852 -0.8065559
000050 f0 c3 93 be d7 b0 8d 3e 69 2f e8 be d2 0f 2c be
       -0.28860426 0.2767398 -0.4534867 -0.1680291
000060 7c 12 c7 be 82 fe a8 3e 56 71 9f 3d 66 61 94 bb
       -0.3888129 0.33006674 0.07785289 -0.0045282124
000070 48 f8 ea be 6d 4b 28 3f b3 a7 81 3d b3 56 c0 3d
       -0.4589255 0.6574009 0.06330814 0.093915366
000080 cd 14 93 be c7 7d 8e 3e 7b 8b a3 3e b2 a9 48 bb
       -0.28726807 0.27830335 0.31942353 -0.0030618724
000090 1c 63 32 be 14 ed 32 be b0 0b 3f be f9 4e 04 be
       -0.1742062 -0.1747325 -0.18656802 -0.1292075
0000a0 c3 12 8f be ec ee ca 3e 36 45 15 3f ef 78 46 3d
       -0.27944002 0.39635408 0.5830873 0.048455175
0000b0 0b 57 a4 3e d0 2a e4 be 23 6d 45 3e 29 65 7a 3e
       0.3209766 -0.44563913 0.19279914 0.24452652
0000c0 6b d4 cd bb c4 cf 99 be ff 5b c0 3e 66 24 67 3d
       -0.0062814257 -0.30041325 0.37570187 0.056431197
0000d0 92 a2 9b be 1f 64 4a 3d 88 00 30 be 90 29 74 3e
       -0.3039747 0.04941189 -0.17187703 0.2384398
0000e0 1a 26 33 be 2a b6 36 3e 1c ba 1f 3e 34 cb 1c bd
       -0.17495003 0.17842928 0.15598339 -0.038279727
0000f0 04 e7 b4 be a1 dd 71 bd 34 ed 23 3f d6 0f 4a be
       -0.353325 -0.059049252 0.6403382 -0.19732603
000100 c5 89 4f 3d dd f1 ce 3e d4 92 93 3e 33 e3 82 be
       0.050668497 0.40418902 0.28822958 -0.25563964
000110 d4 95 8e 3d b5 d3 9f 3e 57 03 25 3e fd 90 c9 3e
       0.06962171 0.31216207 0.16114555 0.3936843
000120 8f 74 b4 3d 1b 49 0c 3e e3 bc 43 be 90 4e a3 3b
       0.08811294 0.13699763 -0.19115023 0.0049837306
000130 12 0e f2 bc b5 48 76 3c 09 13 0d bf 55 37 45 3e
       -0.029547725 0.015031983 -0.5510717 0.19259389
000140 aa 05 ed be a5 1c 2e bd 35 b2 c6 bc 76 a6 98 3e
       -0.46293384 -0.042507786 -0.024254898 0.298145
000150 70 82 19 be 68 c9 95 3e 29 77 09 bf 2c 39 fe 3e
       -0.14991164 0.29255223 -0.5369745 0.49652994
000160 1f 58 10 be 90 64 8b bd 57 50 37 be 40 58 e0 be
       -0.14096116 -0.0680629 -0.17901741 -0.4381733
000170 25 03 9a be ed 58 9c be 30 44 0b 3f 08 fd 30 3d
       -0.30080524 -0.30536595 0.5440092 0.04321006
000180 72 80 1a 3e f9 9c b3 be 73 0f 9b bd 5c e2 1d bf
       0.1508806 -0.35080698 -0.07571306 -0.6167352
000190 b8 c2 82 3e e9 a3 60 be 26 d0 36 3e d2 3a 58 be
       0.25539184 -0.21937527 0.1785284 -0.21116188
0001a0 44 bc 36 3e 55 76 07 3e 54 67 2e 3e bb fd c8 3e
       0.17845255 0.13228734 0.17031604 0.3925608
0001b0 de ab cd bd 74 04 dc 3e ce 1d 1f be 65 0a 1f 3f
       -0.10042547 0.42972147 -0.15538713 0.62125236
0001c0 55 aa ce 3e 35 b1 67 be 5d 1e 0b 3f 96 5b cf ba
       0.40364328 -0.22626193 0.54343206 -0.0015820141
0001d0 37 d7 b7 bd d9 28 a7 be 77 e2 a5 bd ba 42 6b be
       -0.08976596 -0.32648352 -0.08099835 -0.22974673
0001e0 5a d4 69 3e 91 3b b1 bd 72 aa d4 3e e0 0c 84 be
       0.22834912 -0.086539395 0.4153629 -0.25791073
0001f0 db 44 d7 3c 93 6c a2 3d 87 3b bd be eb 57 85 bd
       0.02627795 0.07930865 -0.36959478 -0.0651091
000200 20 f3 58 3f 86 a2 cd be c1 c5 e4 bd fe 8a 02 be
       0.8474598 -0.40163058 -0.11170531 -0.12748334
000210 39 f9 cc 3e d7 0d 22 be b5 b5 a5 bf 2e fa 82 be
       0.40033892 -0.15825592 -1.2946078 -0.25581497
000220 aa d2 ef 3e 69 67 6c be 9e d4 c6 be 62 50 9c bc
       0.4684041 -0.23086323 -0.3883409 -0.019081298
000230 22 cf 11 be e5 61 7c bd ca 85 a9 3e eb f0 a3 be
       -0.14239171 -0.061616797 0.33109885 -0.32019743
000240 4f 53 77 bd c9 8c 24 bf ee 3b 02 bf 71 88 f9 3e
       -0.060382184 -0.6427732 -0.50872695 0.4873691
000250 9c 0f ab 3e e9 57 cb bd eb ca 38 be 39 e1 64 bd
       0.33410347 -0.09928877 -0.18046157 -0.05587885
000260 4d 33 be 3d e6 fc ae bd b2 a5 57 3f d1 63 5f be
       0.092871286 -0.0854433 0.84237206 -0.2181542
000270 32 e7 35 bc 13 3f 16 bc 48 24 ad 3e 2a e9 0b 3e
       -0.011102485 -0.0091703115 0.33816743 0.13663164
000280 62 24 76 3e 9a b1 b9 bd 0c a2 96 3d 2f d9 13 3e
       0.24037316 -0.09067078 0.07355127 0.14438318
000290 3c 83 fe bd e3 c1 c0 3e 38 fa a8 3e ce af b7 be
       -0.12427375 0.37647924 0.33003402 -0.35876316
0002a0 60 2e c9 3d de c4 d4 3e 36 77 20 3e 1e c6 33 be
       0.098232985 0.41556448 0.15670475 -0.17556044
0002b0 60 91 b2 be d6 9c 9f be 91 66 2a 3f 37 11 ad 3d
       -0.34876537 -0.31174344 0.66562754 0.08450549
0002c0 45 82 c3 3d 3f b7 07 3f 2b ce cd 3e 15 d3 6c 3c
       0.09546331 0.53013986 0.40196356 0.014454623
0002d0 24 7a b3 bd 3d 05 03 be 87 d4 08 bd 05 34 32 bf
       -0.08763531 -0.12794967 -0.033405807 -0.69610626
0002e0 04 05 06 3f 0c 57 98 3e 70 cb 86 be 98 6b e1 bc
       0.52351403 0.29753911 -0.26327085 -0.027517125
0002f0 eb fa 38 bc f5 69 8a be 7e f7 29 bd 57 c9 d2 bc
       -0.011290292 -0.27033964 -0.041495793 -0.025730772
000300 70 ae d1 bd 87 63 09 3e e3 49 a8 be a0 bf 7a be
       -0.102383494 0.13416873 -0.3286887 -0.24487162
000310 6a fe e4 3d 95 1d 0c bf 4a 03 eb bd a4 af c8 3c
       0.11181338 -0.5473264 -0.11475237 0.024497814
000320 4e 29 8c 3c 36 61 8a 3e b0 0f b2 3a 89 f4 3c bf
       0.01710954 0.2702729 0.0013584998 -0.7381063
000330 4c f2 94 3e 5b 76 c2 3e f7 df 27 bf c0 c9 46 be
       0.29091108 0.37980923 -0.6557612 -0.19412899
000340 7a 05 3e 3e 91 25 53 bd d8 07 ba bc ad ef b2 3e
       0.18556777 -0.051549498 -0.022708818 0.34948483
000350 68 c3 77 be 62 cb 1e be 34 3e 0d bf d5 40 cd be
       -0.24195635 -0.15507272 -0.5517304 -0.40088525
000360 63 f7 b9 be fb 56 9c be d0 28 a2 3e ac 62 a4 3e
       -0.36321554 -0.3053511 0.31671762 0.3210653
000370 04 e5 74 be 10 16 80 be c8 4c 99 3a 1e 29 89 be
       -0.23915488 -0.25016832 0.0011695856 -0.26789182
000380 f7 2b 1b be b0 72 ea 3d 7f 90 be be 3f 68 31 3e
       -0.1515349 0.11447656 -0.37219617 0.17324923
000390 aa b7 fd bd 16 6c 74 bd 5d 74 53 be 5a c5 28 3e
       -0.12388547 -0.05967339 -0.20649858 0.16481534
0003a0 4d d9 f4 3d 77 dc 22 3e da 74 fe bd 3c 8a 21 bf
       0.11955509 0.15904413 -0.124246314 -0.63101554
0003b0 86 c7 53 be 61 79 f7 3d 91 dd 52 be 9a d3 82 bf
       -0.20681581 0.12083698 -0.20592333 -1.0220826
0003c0 a5 88 49 3e 9d 79 1f bf f1 18 ac be 21 b1 d8 be
       0.19681032 -0.6229494 -0.3361278 -0.4232264
0003d0 6a 63 c1 3d e2 2e 84 bd a1 fa 14 bf f3 26 97 bd
       0.0944279 -0.06454255 -0.5819493 -0.07380476
0003e0 e7 14 de 3d af 32 6a 3e 4d 41 38 be 9f 30 62 be
       0.108438306 0.22870897 -0.1799366 -0.2208886
0003f0 03 40 0d be 5e 9f 11 be 40 34 d6 be 6f fc 9e be
       -0.1379395 -0.1422095 -0.4183674 -0.31051967

network.5.bias f4 [32]
000000 67 fd 7b 3e 3f 2c 90 bf ee 64 8f bf f5 c5 f0 3f
       0.24608384 -1.1263503 -1.1202676 1.8810412
000010 d2 38 65 3f 21 be 7c bf 04 33 db 3e a2 a7 50 be
       0.89539826 -0.98727614 0.4281236 -0.20376447
000020 5f a9 ad be f5 ea 0e 3e 5c 94 d0 3e 03 8b 62 bf
       -0.33918282 0.13956816 0.4073819 -0.88493365
000030 17 d0 af bd fe 1b ab 3f 6f 0d 17 3f 6b 7c 8e bf
       -0.08584612 1.3367918 0.59004873 -1.1131719
000040 77 4c 88 3e d5 36 db be 86 b0 80 3e af 36 40 bf
       0.26620838 -0.4281527 0.25134677 -0.7508344
000050 fd 6b 3c 3f f6 c7 70 bd 9d 8a 5e 3e 6c cd b2 3e
       0.7360228 -0.058784448 0.21732564 0.3492235
000060 c2 c1 99 3e 6c da 75 3f d9 1c 80 3f 80 5b 1a c0
       0.30030638 0.9603641 1.0008804 -2.4118347
000070 f1 21 0e 3e 19 00 1d 3f fd a6 b4 be a9 93 c4 3f
       0.13880135 0.61328274 -0.35283652 1.5357562

network.7.weight f4 [1, 32]
000000 6e 3a 3d bd 75 1c 1b bd b1 8b 51 3d 6c 94 91 3d
       -0.0461983 -0.037868936 0.05115861 0.07108387
000010 6b 2c 20 bd c4 b9 d1 3e 07 2b b1 3d e8 da a6 3d
       -0.03910486 0.4096204 0.08650785 0.08147222
000020 4f f7 b2 3d 53 ac 8d 3d 51 82 20 bd 97 e1 bb bd
       0.087385766 0.06917634 -0.03918678 -0.09173887
000030 45 f5 d7 3e 7e 93 88 3d da 2d 2b 3d 8c 5a 53 3d
       0.42179313 0.06668757 0.041791774 0.051600024
000040 02 75 6f 3d 7d db 50 be 28 97 3c bd 3a 2b a7 3d
       0.058461197 -0.20396228 -0.04604259 0.08162542
000050 6f db f2 bd 42 ec a8 bd 2c 47 d9 be 00 7a 12 3d
       -0.1185826 -0.082481876 -0.42437112 0.03576088
000060 53 2b 33 3d 5f d5 95 bd 5d 80 7a bd 9b bf 97 3d
       0.04374249 -0.07316088 -0.061157573 0.07409593
000070 4f a7 11 bd 6d 23 31 3d 4e 15 07 3e 9a 39 29 3d
       -0.03555995 0.043246675 0.13191721 0.0413147
