models/price_predictor_nn_v9.pth (torch, 85245 bytes, 5 tensors)

network.0.weight f4 [128, 29]
00000000: 6a39 9b3d b01b 1e3d fa20 32bd 1cef 05bc
00000010: 82b1 063a a2f1 703e cf37 c5bd 6d25 9cbc
00000020: a366 f13e c991 aa3d 8272 d3bd fd48 a5bd
00000030: 4f21 94bd d98f 013f 24f1 dcbd 3934 debe
00000040: d0f5 213d 1e26 403d 47cb 9ebd 7638 6d3c
00000050: 49af bebe ec01 cfbd 15c8 35bc 1e75 2d3e
00000060: d1d5 67be 9381 45bf 78ec 1c3e c623 fd3d
00000070: 5fc7 c8be 3313 3fbd 7bd7 c93d 0e2e 3b3d
00000080: f4f7 3ebd c791 43bb a82a 96bf 8305 283e
00000090: 5247 dc3e 3b55 4bbf 5723 a1be ae94 fdbe
000000a0: 2801 d5be b769 01bf 1dde 27bc 9676 dd3d
000000b0: 6c07 163e 9762 88bd b90e 773b 4f55 12bd
000000c0: ca50 15be 96dc 59be c15b 293a 93a7 9cbf
000000d0: 5f1a 8dbe a795 fdbd 62e4 85be 0952 d3be
000000e0: b9b1 11bf 05e3 a8be 39a9 c73d b65d d2bc
000000f0: 57a1 f6bc e1bc 0cbe 51fe 983c 65e7 3c3f
00000100: 680c 613d 0712 2a3e 0580 073e 476e 293e
00000110: 3824 b13d 4130 263d 6715 23bc f628 873d
00000120: b251 db3d d63d 86bd a0a8 d0bb f555 99bd
00000130: adea 703d 44ec acbd 8700 e7bc 93a9 993d
00000140: bbef 423e 3a31 70be 097b 4e3d c9dd e53c
00000150: c6f6 05bf 2b75 7e3e 092f 453e d94a ffbe
00000160: f4d4 d73e 1fe7 5dbe 0567 d43d 9f8f 63bd
00000170: 356d 22be 2088 e43d e9bf 193e 4e75 aebe
00000180: 9064 6d3f 424c de3c 4aad 133c 86ec 163d
00000190: e2db 083d a9ba 383d d435 9bbb 577a 3dbe
000001a0: 8134 9c3d 9992 4abf 09d8 abbe a7f6 f0be
000001b0: 91e2 12bf 3822 9abe 9d22 61bd 33d1 663e
000001c0: 4ee4 96be d767 53bf 4fd3 4d3e 8eab 09bf
000001d0: 809f 81bf a948 013d 14d0 ab3d 3a23 163d
000001e0: 4374 d1bd 5bce b13e 2b1e ccbe 1fe5 01bf
000001f0: dd9c 0d3f 9c0d 55be a3a8 cbbd 8e95 00be
00000200: 03cc cdbd 1a9f 8b3d 0be7 0c3d f75f e53b
00000210: b78f 94bd 309e 653d c286 513d bec3 84bd
00000220: 352d bbbd c5f7 26bd c9a9 cdbe 35bc cebe
00000230: 6b28 d1be 4925 5abe a345 e8bb c43a 82bd
00000240: dc07 3fbf 15ee aa3d c3bc 1cbd 4add f3ba
00000250: f4cb 213f 36ba 443d b04d eebe 4f6e 06be
00000260: 63f6 69be 34f9 e6be 584e 1fbe 7503 81bd
00000270: 1987 87bd c45b 9ebd cdee a23d 6b64 213e
00000280: 5f06 183e 8431 6dbd ae93 99bd 4cb3 4fbe
00000290: f1f6 a2bc 0bd7 1abe 87db 90be 4988 50be
000002a0: 8966 163e 5943 fcbe dbe0 5fbf abc8 adbe
000002b0: f40d f33c 7cfe 27bf 434b acbe e889 e13d
000002c0: a01d 41bc acbe 25be e831 9a3c 2ada 0bc0
000002d0: be3d 27be 54a3 82bd e0dc c6be daa8 9a3e
000002e0: 8897 66be c060 67be 03da 87be 542b a7bd
000002f0: 22e8 6abd 7903 913e 1d6d 56be 79bb 61bd
00000300: 2ef2 903e 14db 40be dde5 09bf 87d1 9a3e
00000310: b7fd 39bf 6db7 593e 7c2a a83b 0123 5abe
00000320: 397c dabc bcc2 f43d 8119 1bbe 077e 2d3e
00000330: e64e 803c 8c5f 70bc 2eda 71bd 4776 fb3d
00000340: b203 973e 57d8 54be 9dae b5be 4f98 2e3f
00000350: 61f2 1f3f 6ab4 e73e 9904 f73e 58ad c83e
00000360: b02f 26be 3157 413d 6da4 d23d fa36 e83d
00000370: fd72 09be 0baf 3bbe c4bf 73be f075 58be
00000380: 8854 37be 59aa 45be 4ff1 83be 95a6 50be
00000390: 9fd7 4abe dbee 82be 1ee1 8bbe 3ee6 4ebe
000003a0: 4ddd 26be e5f1 81be 316b e8be 8e34 81bd
000003b0: a86a 06bf 040f 0ebe e864 26bc 29b4 383d
000003c0: 55bc f4bc 57fa 6ebd 6e6d 89be 4fe7 94be
000003d0: 2600 26be 7260 dcbc 9444 423d fc4b 4c3e
000003e0: 5e60 d1bc 5ef7 49bd 1f2b f0be 70c5 073e
000003f0: 98f9 27bf 10b7 a43e 5738 b9be 02da 8b3e
0.0757931 0.038600624 -0.04348848 -0.008174684 0.0005138145 0.23529676 -0.09629785 -0.019060815
0.47148618 0.083285876 -0.10324575 -0.08070562 -0.072329156 0.5061012 -0.107881814 -0.43399218
0.039541066 0.04691135 -0.07753616 0.014478793 -0.37243107 -0.101077884 -0.011095067 0.16939208
-0.22640158 -0.7715084 0.1532458 0.12360339 -0.39214608 -0.04664917 0.09855553 0.045698218
-0.046623185 -0.0029841529 -1.1731768 0.16408353 0.43023163 -0.79426926 -0.31472275 -0.49527496
-0.41602445 -0.50551933 -0.010245827 0.10813634 0.14651269 -0.066594295 0.0037697984 -0.035725888
-0.145816 -0.21275553 0.0006460511 -1.223864 -0.27559182 -0.123820595 -0.26150805 -0.41273525
-0.5691181 -0.32985702 0.097490735 -0.02567945 -0.03010623 -0.13743927 0.018675955 0.7379058
0.054943472 0.1660844 0.1323243 0.16545974 0.08649486 0.040573362 -0.009953833 0.065996096
0.107089415 -0.06554763 -0.006367758 -0.07487098 0.058817554 -0.084435016 -0.028198494 0.07503047
0.19036762 -0.23456278 0.050410304 0.028059857 -0.5232967 0.24849384 0.19256224 -0.49861792
0.42154658 -0.21670197 0.10371212 -0.05555689 -0.15861972 0.11158776 0.15014614 -0.3407387
0.9273157 0.027135972 0.009013483 0.03684666 0.03341282 0.045099888 -0.0047366414 -0.185037
0.07627202 -0.7912994 -0.3356326 -0.4706318 -0.5737696 -0.30104232 -0.05496465 0.2254074
-0.29471058 -0.8258032 0.20100139 -0.53777397 -1.01268 0.031563435 0.08389297 0.03665469
-0.10227253 0.3472775 -0.39866766 -0.50740236 0.5531748 -0.20805973 -0.09944274 -0.1255705
-0.10048678 0.068174556 0.034400027 0.0069999653 -0.07253974 0.056059062 0.051153906 -0.06482647
-0.09139482 -0.040763635 -0.40168598 -0.40377966 -0.4085115 -0.21303286 -0.0070883795 -0.06358865
-0.7462137 0.08346192 -0.038265955 -0.0018605378 0.6320183 0.048029147 -0.46543646 -0.13128017
-0.22847895 -0.45112002 -0.1555723 -0.062994875 -0.06617565 -0.07732347 0.07955704 0.15760963
0.1484618 -0.05790855 -0.07498871 -0.2028324 -0.019893141 -0.15121095 -0.28292486 -0.20364489
0.14687552 -0.49270132 -0.8745248 -0.3394216 0.02966974 -0.6562269 -0.3365117 0.11012632
-0.011786848 -0.16186017 0.018822625 -2.1851907 -0.16332147 -0.063788086 -0.3884039 0.3020695
-0.22518742 -0.22595501 -0.26533517 -0.08162561 -0.057350285 0.28322962 -0.20940061 -0.05511043
0.28309768 -0.18833572 -0.5386637 0.30237982 -0.72652763 0.21261378 0.0051320177 -0.21302415
-0.026670562 0.11951205 -0.15146448 0.16942607 0.015662622 -0.014671218 -0.059045963 0.12278419
0.29495007 -0.20785652 -0.35484782 0.68201154 0.62479216 0.45254833 0.48245695 0.3919475
-0.16229129 0.047202293 0.10285268 0.11338611 -0.13422771 -0.18328492 -0.23803622 -0.2113874
-0.1790334 -0.19303264 -0.2577004 -0.20376046 -0.19808815 -0.25572857 -0.27320188 -0.20205018
-0.16295357 -0.25379863 -0.4539428 -0.06308852 -0.52506495 -0.13872916 -0.010155894 0.04509369
-0.02987496 -0.05834421 -0.268413 -0.29082724 -0.16210994 -0.026901457 0.047428682 0.1995086
-0.025558647 -0.049308173 -0.469079 0.1325891 -0.65615225 0.32170916 -0.36175796 0.27314764

network.0.bias f4 [128]
00000000: 60c4 c3be 2b7e cdbe 0de5 2fbd b86f cdbe
00000010: 7f11 f7be 8acb 08bf b0ec 2c3d 9e9d 25be
00000020: 7a17 cbbe 2769 61be 63e7 6ebe f916 2fbe
00000030: 0f8d 22bf b544 fbbd ec77 95be f2aa debe
00000040: 876f c9be 1628 abbe 506c bdbd b06c 51be
00000050: a6d1 79be 6738 edbe 58a3 b4be 8097 06bf
00000060: 150b f5be f7f8 52bf 6f6d 58be ae6d 92be
00000070: a56a 68bf 1b32 43be db47 95bd 30c1 55be
00000080: 6ca0 8ebe 25c8 0cbe 7084 20be 9022 c6be
00000090: 7d50 e3be 8034 97ba be92 dbbe edf2 f0be
000000a0: 579b ecbe 382f 87be 9f43 77be ff4d a4be
000000b0: 818a f8bd e74e 8b3d faff eebe e78b c1be
000000c0: 4175 b7bc b0fd dabe 4451 d0be 75a4 4cbe
000000d0: bc40 7abd 094e 49be 5a47 79be 91c4 b1be
000000e0: 4328 fbbe d41f 91be e460 b1bc 198f 7f3c
000000f0: 07c4 55bd cc8f bbbd c71c 13bf 74d7 15be
00000100: 9477 ffbd a00b 13bf ca91 6fbe 1033 d6be
00000110: 451a 99be 4ed9 21bf 06e4 7cbe f64c 14be
00000120: 2a57 a7be 341b 5abe 6211 16be 7004 dcbe
00000130: d6da 0dbf 74b0 2ebf caad 6dbd db2c 17be
00000140: 3c1f 9abe 3aa4 3dbf d376 45bf 536d c9be
00000150: 2f45 f7be 8e79 58bf d9e0 98be cb12 b2be
00000160: a3bc 47bf 5db9 b3bd bd32 1fbf 02a8 0dbe
00000170: 2509 c5bd c681 62bd f4d3 b9be f2d0 e6be
00000180: 11d9 b6be 77cc 2fbf 14bc d0be 2ee7 01be
00000190: 911a 9fbe addc 20bf c7d9 c6bd a092 78be
000001a0: ec6f 7dbe f14c 94be be98 46bf eede 5e3d
000001b0: f244 00bf df1a 90bd c220 d5bd 610d c5be
000001c0: 097f e0be 498a 823c c61c 24be b81f bfbe
000001d0: c8b2 8dbe d3bd 6bbe 37bd c33d 8228 b6be
000001e0: a7c0 d2be 640f c7be 258b 15bf e261 91be
000001f0: 6cd2 19bf 22ee dabd 3a2e 0ebf 5b11 f8be
-0.3823576 -0.4013532 -0.04294305 -0.40124297 -0.48255536 -0.53435576 0.04221791 -0.16173407
-0.3966635 -0.22012769 -0.23330455 -0.17098607 -0.6349649 -0.12268964 -0.29193056 -0.43489796
-0.393429 -0.3342902 -0.092491746 -0.20451617 -0.24396381 -0.46332094 -0.3528087 -0.5257492
-0.47860017 -0.8241114 -0.21135496 -0.28599304 -0.90787727 -0.19062082 -0.07289096 -0.20874476
-0.27856767 -0.13748224 -0.15675521 -0.38698244 -0.44397345 -0.0011536032 -0.42885393 -0.47060338
-0.46212265 -0.26403213 -0.24146889 -0.32090756 -0.121357925 0.06802159 -0.4667967 -0.3780205
-0.022394778 -0.42771673 -0.40687 -0.1998461 -0.06109689 -0.19658674 -0.24343625 -0.3472028
-0.49054155 -0.28344595 -0.021652646 0.015598082 -0.0521889 -0.091582865 -0.57465786 -0.1463297
-0.124739796 -0.57439613 -0.23395458 -0.41835833 -0.29902855 -0.63222206 -0.24696359 -0.14482483
-0.32683688 -0.2129944 -0.14655069 -0.42972136 -0.5541204 -0.68237996 -0.058027066 -0.14763205
-0.30101955 -0.74078715 -0.77134436 -0.3934122 -0.4829497 -0.8456048 -0.29859045 -0.34779963
-0.7802221 -0.087755896 -0.62186795 -0.13833621 -0.09620885 -0.055299543 -0.3629452 -0.45081288
-0.35712484 -0.68671364 -0.40768492 -0.12685844 -0.31074956 -0.62836725 -0.097095065 -0.24274683
-0.24749726 -0.28964952 -0.77576816 0.05441182 -0.501052 -0.07036375 -0.10406639 -0.3848677
-0.4384692 0.01593508 -0.16026601 -0.37328887 -0.27675462 -0.23021631 0.09557574 -0.3557778
-0.41162607 -0.3887893 -0.5841544 -0.2839499 -0.60086703 -0.106899515 -0.55539286 -0.4845074

network.3.weight f4 [128, 128]
00000000: bba5 6e3d 287a 1b3d 44fe 113e 0260 5fbd
00000010: 1388 8f3d 9c9e e8bd 441e 573e 1fa7 e2bd
00000020: f709 953d 906a 613c 27f7 0cbd ebb9 dabc
00000030: bd36 cbbd a3ce bfbc ef2c b43c ff73 6e3d
00000040: 11c7 7d3e 0e39 e4bd 2ea0 32be 17dc 513c
00000050: 9f65 dcbc dd00 f4be 8372 f93c 228c 3e3c
00000060: 14d7 253e 5e19 3ebf fd76 a0bd 2e37 193e
00000070: b4e1 e7be e613 333c 9c3b e03c cc49 053e
00000080: f17e adbc b157 8d3c a9a6 8bbf 11f1 313e
00000090: c12f f23c 2594 fd3d c8f7 313c 6406 0e3e
000000a0: 983c 9bbf ee2b 28bc b350 273e 262a 40bd
000000b0: 9b87 e63c 5508 063e c27e 393e 768e 0e3d
000000c0: 42ca 0cbe 66b3 1abf d033 ccbc ff12 553d
000000d0: 4991 2cbe f7a1 c63d 6a03 2abb 4db7 423d
000000e0: ee6e 32bc 556c 6bbe 5331 50bd 9583 1d3d
000000f0: a2ab a6bd 826c cd3d d46c 533e 5c9c 793c
00000100: 2fd5 87bc dbc4 23bf 14bc f53d 02a9 133c
00000110: 2e80 3dbd c296 513e 767c 40bf b0d3 473e
00000120: a336 a33d 8aa4 1dbe 4c3a a03c 4b52 3dbf
00000130: aafd d3bd e3d6 283e 6fd9 c03d c3a5 32be
00000140: cfce 3cbe 1462 a33e fccc 25bf 3f2d 48bf
00000150: ee4f 4cbe acd0 ef3c a7ec 80be c3fc 1c3e
00000160: 482d 10bf f06a ea3c 12eb 963e 7628 9e3d
00000170: 2357 b9bc 69f7 d0bd 9cd0 203e 16ca 82bf
00000180: e1f3 833c ca1f 9bbe c8c8 ea3b d072 743c
00000190: dcfe 743e a819 dbbf 3c7a b73d 078c fe3c
000001a0: 16e2 22be 80ea ee3d 6b65 e6be 5f40 f73c
000001b0: d87d d5bf 672c 42bc a163 433e 0b23 afbe
000001c0: e9c4 ba3d 53f4 18be 4519 98bd 911c 673e
000001d0: cc68 543d d03c 59be ca06 653d bb2f ad3d
000001e0: e2b2 393e 8c6a 87bd 61df 39bd 4d3f d13d
000001f0: b32c 8bbf 50bf 31bc 0a7b e73e 2c82 41bd
00000200: 6b5d 5cbf 2f94 0abd 6943 07be 6d35 b7bf
00000210: ab85 923e b328 823c 96e4 223d 6069 42bf
00000220: 57b2 293c de9e c23d f715 8cbf 5a64 293c
00000230: ce9c 063f 9d5d 18be 9c39 173e 3b3a 203e
00000240: be25 94bd a745 97bf bcf9 3c3d 7358 c5be
00000250: b7b8 c73c 92b3 06be 386f c0bf 40c1 e5be
00000260: 6506 d83d 33b4 113e c36c c3bd e5fb b03c
00000270: e8fe d33d 6f28 2b3e ef36 1ebd b1c8 e0bd
00000280: e0bd 5f3e e7ae 82be 447a f33b 43f3 2fbd
00000290: f956 40bf 3fb2 163e d5e5 aabc 675d 00bf
000002a0: 2d4a 1d3e 7b76 edbd 0098 583d b318 383f
000002b0: 160c 193e 5dfd b4bd 3de8 1bbe cb35 4f3e
000002c0: a82b 933d 9924 393d 9a8b af3e 42af 54bb
000002d0: 0906 923c 7ce6 8fbe 8350 94be c6ab 1e3e
000002e0: 635e 31be dbb2 d0bd 1ceb 3ebd 160a 20bd
000002f0: 1568 9abd 7916 4ebc ed9e 0b3e eaa9 8abe
00000300: 83a3 e93d 0679 8abd d210 e43d 5428 853e
00000310: 77d8 883e ec2e a9be 58a9 89bb b57b 3cbe
00000320: bded a5bf e52c 003c 08fe 7ebe 3eef f03c
00000330: 5f48 993d b6c2 89bf 95ab 70bd 404f b7bd
00000340: 5c8e c3bc bb2d 9f3c 48e6 403e 2a14 51bd
00000350: 06f8 9a3e fb24 48bf 5163 a23c 4e6b 17be
00000360: 30ee 193f 83d5 c2bc 2ee8 70bf e1cc cdbe
00000370: 6093 e63d 8447 fbbd 68db d03d 57ed 1d3e
00000380: a451 5ebf d6e4 a03e d40f 563c 918a 94bd
00000390: 7c3b 16bf 504e 553e 5ccc d2bf 61b2 27be
000003a0: 6874 6b3d 396b 1dbe 242d 3d3e bf63 543d
000003b0: c196 ddbc 228e d0be 65a1 0dbe 3063 183d
000003c0: 91aa a5bd 4bef f0bc 70e9 bcbd d9e9 98bf
000003d0: ea9e 8fbf d225 fcbe 1d2f 95be 730e c53d
000003e0: 8d1a 8abe 4ec2 b63d 54f6 f33d a2b6 d5be
000003f0: 6238 813e e9aa 68bc a9ca de3e cefe bebc
0.05826352 0.037958294 0.14257151 -0.05453492 0.07008376 -0.11358377 0.21007639 -0.11067032
0.07277291 0.013758317 -0.03441539 -0.02669998 -0.0992255 -0.023413962 0.021994082 0.05821609
0.24782969 -0.11143695 -0.17443916 0.012808821 -0.026903925 -0.4765691 0.030450111 0.01163009
0.16195327 -0.7425746 -0.07835195 0.14962456 -0.45289385 0.010930037 0.027372174 0.13016433
-0.021178694 0.017253729 -1.0910236 0.17377116 0.029563786 0.12381772 0.010862298 0.13869625
-1.2127867 -0.01026438 0.16339378 -0.046915196 0.028140834 0.13089116 0.1811476 0.03480383
-0.1374903 -0.6042999 -0.02492705 0.05202007 -0.16852297 0.09698861 -0.0025941976 0.04753809
-0.0108907055 -0.22990544 -0.05082829 0.038455565 -0.08138205 0.10030462 0.20646983 0.015235033
-0.016581146 -0.6397225 0.11998764 0.009012463 -0.04626482 0.20467666 -0.7518991 0.19514346
0.079694055 -0.15394798 0.019559048 -0.73953694 -0.10351117 0.16488223 0.09416472 -0.17446046
-0.18438266 0.31910765 -0.64765906 -0.7819404 -0.19952366 0.029274307 -0.2518055 0.15330796
-0.56319094 0.028615445 0.2947622 0.07722561 -0.022624558 -0.1020344 0.15704578 -1.0217922
0.016107501 -0.3029769 0.0071650483 0.014919952 0.23925346 -1.7117205 0.08958861 0.03107263
-0.15906557 0.11665821 -0.4499925 0.030182062 -1.667903 -0.011851407 0.19080974 -0.34206423
0.09119589 -0.14936952 -0.07426695 0.22569491 0.051857755 -0.21214604 0.055914678 0.084563695
0.18134645 -0.06612119 -0.045379046 0.10217152 -1.0873016 -0.010848835 0.4521106 -0.047243282
-0.86080045 -0.033832725 -0.13209309 -1.4313179 0.28617606 0.015888548 0.039768778 -0.7594204
0.010357461 0.09502958 -1.0944203 0.010338867 0.52583015 -0.1487946 0.1476807 0.15647213
-0.07233761 -1.1818131 0.046136603 -0.38544044 0.024380071 -0.13154438 -1.5033941 -0.44874
0.10548095 0.14228897 -0.09542229 0.021604488 0.10351354 0.16714643 -0.038626608 -0.10975779
0.21849775 -0.25524065 0.0074303467 -0.0429566 -0.7513271 0.14716433 -0.020861546 -0.5014252
0.15360327 -0.11594864 0.052879333 0.7191269 0.14946017 -0.08837388 -0.1522531 0.20235364
0.07186061 0.045200918 0.34286195 -0.0032453095 0.017825143 -0.28105533 -0.28967676 0.15495214
-0.17321162 -0.10190364 -0.046610937 -0.03907212 -0.07539383 -0.0125786 0.13634844 -0.2708276
0.114081405 -0.06761365 0.11136021 0.2600733 0.2672765 -0.3304361 -0.0042010956 -0.18406565
-1.2963177 0.007823204 -0.24901593 0.029410955 0.07484507 -1.0762546 -0.058757383 -0.089506626
-0.023871593 0.019430986 0.18837845 -0.05104462 0.30267352 -0.7818143 0.019822748 -0.14787027
0.6012907 -0.023783451 -0.9410428 -0.40195373 0.11258578 -0.122695 0.101980984 0.15422569
-0.86843324 0.31424588 0.013065297 -0.07252992 -0.58684516 0.20830655 -1.6468616 -0.1637664
0.05748406 -0.15372933 0.18474251 0.051852938 -0.027049424 -0.4073344 -0.13831098 0.037203968
-0.080891736 -0.029410979 -0.09224212 -1.1946365 -1.1220372 -0.49247605 -0.29137507 0.096218966
-0.26973382 0.089237794 0.11912218 -0.417409 0.2523833 -0.014200904 0.43513992 -0.02331486

network.3.bias f4 [128]
00000000: 4c51 953e cba3 f23e b3b1 ca3e 9f3f 8d3e
00000010: 896f e73e 505a d93e 8ca1 953e 707a 0b3f
00000020: 3dbb 083f 1d66 0d3f 3914 ec3e 3a8d 043f
00000030: 1bbe 5c3e 8314 50bf 6f43 863e ad71 173f
00000040: 8941 ec3e ae6e 80be ee2a 973e 0db2 d73e
00000050: 77d7 0c3e 49ca 06bf ecd3 bb3e f7a1 093f
00000060: acb4 af3e fdf4 b73e cacc ff3e 918d e53e
00000070: 5fd4 1b3e c0a1 fd3e c556 183f 6de5 0e3e
00000080: b905 b03e fea5 313d ecb2 f33e 1d18 d23e
00000090: 71cd 6b3e a87a 053f 296d e9bc 2adf aa3c
000000a0: b8a9 3c3e 1a46 dd3d e921 eb3e 5177 18be
000000b0: c1c0 cabe a8a3 de3e 6879 103e 7e34 923e
000000c0: 7b0d c63e c284 ed3e be55 783e 9008 b53e
000000d0: 7dbd 843e 4586 05bb 48d2 a13e c4f5 013f
000000e0: 6264 02be 6275 5d3e 44c7 313f c92a f43e
000000f0: 22a5 9b3e c192 c83e b264 f43e 5a64 37be
00000100: 3779 053f 3cde f53e 73cd 043f 6a20 c03c
00000110: a031 793e cf3c b73c 929c c33e f0ae 033e
00000120: fa56 17be 2bb2 1b3f 0ac5 38be a94f 8e3e
00000130: 0399 5e3e f1c3 1f3e 9d46 f63e 26ff c23e
00000140: 829d 8d3a 0029 de3e 6a00 c73e 1830 be3e
00000150: d5a0 f43e 86aa ba3e 3937 b8bd e0de 833d
00000160: dbe2 ab3e 3355 163f 2ff8 903e ccb2 8b3e
00000170: 4919 2d3d 79e9 183f ad8a 44bc 02f2 88bd
00000180: da73 d43e 654d 5fbe ee13 463e ea1a e73e
00000190: ed3a ee3e 4655 ff3e e6eb 373e a769 eb3e
000001a0: 0574 c83e f04e b23e 74d5 163e 0de0 fa3e
000001b0: 209f 853e faae 823e 77fb a53e 66d4 0c3f
000001c0: eb43 54be 93c4 ef3e d0ae 2d3e 63d6 e43e
000001d0: e56f 11be c942 8e3e 9da2 fe3e 31be b93e
000001e0: 373a a63e 50ac 663d 4308 b03e 4518 f93e
000001f0: 0b13 903e b5ae da3e e370 4a3c c800 ee3e
0.29163587 0.4739059 0.395887 0.27587602 0.45202282 0.42451715 0.29224813 0.544837
0.534107 0.5523394 0.4610918 0.51777995 0.21556894 -0.812813 0.26223323 0.5915783
0.4614375 -0.25084442 0.2952494 0.4212803 0.13754068 -0.5265241 0.3668512 0.53762764
0.3431753 0.359291 0.4996093 0.4483457 0.15217732 0.49537468 0.595074 0.13954706
0.34379366 0.043371193 0.47597444 0.41034022 0.23027588 0.52140284 -0.028494434 0.020858366
0.18424118 0.108043864 0.4592431 -0.14889266 -0.39600185 0.43484235 0.14108813 0.28555673
0.3868216 0.4639035 0.24251458 0.35358095 0.25925818 -0.002037422 0.31605744 0.50765634
-0.12733606 0.21626809 0.6944468 0.47688892 0.30399424 0.39174464 0.47733074 -0.17909375
0.52138084 0.48021114 0.5187599 0.023452956 0.24335337 0.022367863 0.3820539 0.12859702
-0.14779273 0.6081874 -0.18043914 0.2779515 0.21738057 0.1560209 0.4810075 0.38085288
0.0010804387 0.43390656 0.38867503 0.37146068 0.47778955 0.36458224 -0.08994908 0.064389944
0.33571514 0.58723754 0.2831435 0.2728485 0.042260442 0.5973125 -0.0119959535 -0.06686784
0.41494638 -0.21806867 0.1934354 0.4513772 0.46529332 0.49869746 0.17961082 0.45979044
0.39151016 0.3482585 0.14729863 0.48999062 0.26097965 0.25524122 0.32418415 0.55011594
-0.20729034 0.46829662 0.16961217 0.44694814 -0.1420284 0.27785328 0.4973344 0.36277917
0.3246629 0.056316674 0.34381303 0.4865133 0.2813953 0.42711416 0.012356016 0.4648497

network.6.weight f4 [1, 128]
00000000: 5bdb bd3c c14c 31bd b025 8a3c 2e9d dcbc
00000010: a314 e53c 79bc d23c 4e34 08bd 8c6e 1c3d
00000020: f5bd 463d bd5e 54bd d62b ff3c 7d73 c83d
00000030: 9619 1c3d dabb b13e 07c2 713d f4d1 473d
00000040: aec6 e73c 75ef 3a3e 014c 2d3d e7b9 393d
00000050: 90ac e8bc 5c76 2d3f d3dd 3c3d edf3 b53d
00000060: de30 cd3c 89c0 4d3d 8b95 3b3d da38 19bd
00000070: 2343 e9bc cf57 eb3c 58a8 b83d 417e 05bd
00000080: 9f94 833d 1b5a f3bc 9480 f53c 4c56 fb3c
00000090: b4f1 783d 7591 d7bd 5c4b e9bc f9f7 bcbd
000000a0: 3851 bfbd 71a9 a0bd 5dcd 783c 0fec 97bd
000000b0: 6f51 7abd 1044 1a3d d1b7 bfbd e9ac e83c
000000c0: ea05 be3c 2eae 1bbd 7126 14bd 3847 c53c
000000d0: 83fc 33bd f0ad 31bd dfb1 613d 001a 513d
000000e0: bc29 d7bc 941a 81bd 4278 cd3d 8f01 113d
000000f0: 71ae e9bc 9ff8 d63c af15 f33c acff e23a
00000100: a472 c83c 9319 b53d 72fb 663d 81ed 0cbd
00000110: ff97 dd3c bfe9 e7bc 8d40 353d e3e1 943d
00000120: 43c3 fd3d c972 a3bd cb4c babc a788 e83c
00000130: 8f80 503d e060 a7bd 1069 0b3d bd05 d83c
00000140: f90f c6bc 925b 373c 66a0 2d3d 6776 d93c
00000150: 2a11 0a3d 9dd8 18bd 8734 033c 898f 16bd
00000160: 54de 053d 1e9b 953d 1b5d f2bc 23e6 563d
00000170: 510d b3bd 34de 343d 647a dcbd 677d 4dbd
00000180: ff47 be3c 9c7e 1abb 240d 6dbd 1399 263d
00000190: 7841 8b3d fd2c 803d f374 a3bc 4218 e43c
000001a0: 3e28 203d 9ae4 f33c 5052 58bd 98d5 b43c
000001b0: 0b08 4ebd 09a8 d4bc d627 d5bc 1871 f53c
000001c0: 3cb3 3c3d abdf 2b3d 8b50 b9bc bbaf 443d
000001d0: a85e d63b 6e42 3c3d 8c44 023d 0942 023d
000001e0: 8b92 ffbc 15e1 39bc 008f 113d 3763 0f3d
000001f0: cc96 233d d86d 3d3d 5183 05bd 6dd4 683d
0.023175886 -0.04328609 0.016863674 -0.026930418 0.027963942 0.025724636 -0.033253007 0.038191363
0.048521 -0.051848162 0.031148832 0.09787653 0.03811034 0.34713632 0.05902293 0.04878421
0.02829298 0.18255408 0.04230881 0.045343306 -0.028402597 0.6775873 0.046109986 0.08884416
0.025047716 0.050232444 0.045796912 -0.037407734 -0.028474396 0.028728394 0.09016484 -0.03259111
0.064248316 -0.029706052 0.029968537 0.030680798 0.06077738 -0.105257906 -0.028478317 -0.092269845
-0.09341663 -0.078448184 0.015185681 -0.074180715 -0.061112817 0.037662566 -0.09361232 0.028402762
0.02319618 -0.038007908 -0.036169473 0.024081811 -0.043941986 -0.04337877 0.05510127 0.051050186
-0.026265018 -0.063038975 0.10032703 0.035401877 -0.028525563 0.026241599 0.029673425 0.0017318628
0.024468727 0.088427685 0.05639214 -0.03440619 0.027050016 -0.028309701 0.044251014 0.07269647
0.12390759 -0.07980878 -0.022741696 0.028385473 0.050903853 -0.08172774 0.034035742 0.026369924
-0.024177538 0.011191266 0.042389296 0.026545716 0.033707775 -0.037315954 0.008008129 -0.03675798
0.03268273 0.07304977 -0.029585412 0.05246557 -0.08742774 0.044157222 -0.10765532 -0.05016842
0.02322769 -0.0023574 -0.05787386 0.040673327 0.067995965 0.06258581 -0.019953227 0.027843598
0.039100878 0.029772092 -0.052812874 0.022074506 -0.05030064 -0.025959032 -0.026019972 0.029961154
0.04606937 0.041961353 -0.022621414 0.048019152 0.0065420456 0.04596179 0.031803653 0.031801257
-0.031197807 -0.011345168 0.035536766 0.035006728 0.039938733 0.046247333 -0.032595936 0.05684321
