models/price_predictor_nn_v14.pth (torch, 108959 bytes, 7 tensors)

network.0.weight f4 [256, 29]
00000000: 8ca6 1cbe f931 563e 674d bfbd 2824 043d
00000010: 5cc4 3c3d c203 64c0 b023 32be 45a2 a7bc
00000020: f45b 46bf d170 033f 8530 38bd b7a4 7fbd
00000030: 3db2 313e b79e fcbe f8c1 a63e e822 d93e
00000040: 3fbd 93bc cd88 53be a8e5 eabe 70e4 a83d
00000050: e30c b83d b916 8abe 5217 5a3e aad4 0dbe
00000060: e220 363e 8c91 32bf bdb4 68be 3ccd 1c3e
00000070: 58b7 bf3d 5d17 113e d852 8fbc 558b 373e
00000080: 4561 803c 9282 e0bc 2d61 e0be ae77 6c3d
00000090: f724 27be fece 3a3d 0d3e 4dbc 5227 553b
000000a0: 1433 14bc 17c7 303e 9fa7 3c3f 66b6 81bd
000000b0: 85a2 c33e 9296 b73d 4a47 30bf 8546 e33f
000000c0: 0f63 76bf e423 f7bf 8d9a b7bd 728c ecbe
000000d0: dce6 fabe 13f8 87bf 437a 57be e97a 60be
000000e0: 74f0 1bbe 0e0c 67bf 0a0c 0dbf 41a0 eabd
000000f0: bcbf 11bf ac97 9c3d eb4c 33bf 3811 d43e
00000100: 99b0 61be 16db ef3e cc66 adbd 5650 1bbf
00000110: f9a0 d53b 8642 953a 0c5a 313d 1601 30be
00000120: 0db4 dbbd 5343 9a3b f779 a6bc 0e06 3abe
00000130: 140c edbe cdce c53d 45d3 ffbe c6f0 4dbf
00000140: 2761 32be ecf9 6c3f 753e 8fbe f48d 1abf
00000150: a29c af3d aed9 61bf 5ee3 e5bd 9caa b8bf
00000160: 71f0 68be d5e2 5abe 3818 0fbe 951a 4d3f
00000170: 77f9 f2be c2e8 dabd 2e57 8f3e 1a53 91bd
00000180: 00cd cfbd 0c24 5fbc 8a79 16bd ad37 0abe
00000190: 4f66 453e b66b e83d 9280 583d bf00 aa3d
000001a0: 33ef fcbc 98e1 23be ce45 23be 74e0 98be
000001b0: 323c 70bd 956b 443e 8108 113f a221 20bf
000001c0: d4f8 eebe 33c3 10bf 4de1 fbbf 7332 043e
000001d0: 3950 94be 6fcd 48bc 669b 3f3d c68e c5bc
000001e0: 37b0 e3bd 1c44 7ebf 44f6 86be 821b 11bf
000001f0: c494 4ebd e5fa 5f3f 6441 5b3c 137b 833c
00000200: 0de8 9fbd f9bd 1dbe f0f3 e23d f498 db3e
00000210: 6c5d a5be d9c9 6e3d 87f5 993e 28f9 143d
00000220: 500c cebe c69f eb3e 60e9 4ebf b129 4bbf
00000230: eaab 713d f1f3 27be f726 9bbe bde4 103d
00000240: dbc3 49be 38d9 79bf 6539 cebe db14 963e
00000250: d59a 623e 1da3 20bd e4c2 88bf 3195 18be
00000260: 5069 1dbd 9404 953e 0208 b5be 00ca ffbc
00000270: fd1f cebc 6a0b f83d b2ba eabe 5fc8 c9bd
00000280: 3f81 88bd f1dc 9b3e 2b2c 79be 593b 2abf
00000290: d4d6 b5be b5e8 2a3e 7b51 bebe 298e 0f3f
000002a0: c615 30bf 75c3 493e c21b 0ebf 3489 333e
000002b0: 3ece a2bf 473b 5f3e 065d 18bf 1951 913e
000002c0: 358d 92bf b92e 8e3e 85a8 8ebd fdbc 6f3d
000002d0: e59e 07be e720 ae3e b419 babe 8a39 813e
000002e0: 2c52 df3c 83fa 553c 0bf1 193e 19b2 a4bd
000002f0: 7370 c5bd 5081 8e3d bd5f d63d 91bf 713e
00000300: 1566 b7be 74cb 153d 6dcc b3bf f370 14bf
00000310: 15c9 88bf f241 0ac0 034c 6fbe fb1d 38bf
00000320: 0c22 aa3e 0b15 10bf ab90 31be a025 913c
00000330: e0e3 90bd b914 6b3e ef63 b0bd 2fd2 3a3d
00000340: cf59 3d3f 7e25 9dbe ca31 e73d cb11 503e
00000350: 688e 193f cc39 2f3d 1e34 173d 4bd9 f63d
00000360: 8048 a83d 14f7 68bd 1a5d 0ebe 0b6b 56bc
00000370: ed3f 37be 6c94 943e d23e 9ebe 4bb6 dabe
00000380: 4011 adbe 8cf6 84be f66a 84bd d765 d5bd
00000390: 4457 9fbe 7048 febb fd48 0bbd 6e98 1dbe
000003a0: a01d d3be c027 39be 3a3f ad3d 7f7c 0dbf
000003b0: 5b12 f13e 00fb 32c0 ebe9 3bbf 7266 b6be
000003c0: fa51 8dbd daa5 f1be 2993 2dbd 143d edbc
000003d0: f2e5 17be 85f7 53be db39 b3bc e1e8 39be
000003e0: 94ac 05be 0b98 0d3e 3758 b0bf 3609 c5be
000003f0: 88a8 9abf 13b7 243e d397 40be 1729 7fbe
-0.15297908 0.209175 -0.09340935 0.032261044 0.0460857 -3.5627294 -0.17396426 -0.020463118
-0.7748406 0.5134402 -0.044968147 -0.062412944 0.17353149 -0.4933984 0.3256986 0.42409444
-0.018034576 -0.20657654 -0.4587834 0.08246696 0.08986833 -0.2697046 0.21297958 -0.13850656
0.17785981 -0.69753337 -0.22725196 0.15312666 0.09361142 0.14169069 -0.017495558 0.17924245
0.015671382 -0.02740601 -0.4382414 0.057731323 -0.16322695 0.04560756 -0.012527001 0.0032524657
-0.009045381 0.17263447 0.7369327 -0.06333618 0.3820993 0.08964266 -0.6885878 1.7755896
-0.962449 -1.9307828 -0.08965025 -0.462009 -0.49004257 -1.0622581 -0.21042733 -0.21921887
-0.15228444 -0.9025277 -0.55096495 -0.11456347 -0.5693319 0.076461166 -0.7003924 0.41419387
-0.22040023 0.46846837 -0.084668726 -0.6066946 0.0065194336 0.0011387623 0.043298766 -0.17187914
-0.10727701 0.0047077327 -0.02032183 -0.18166372 -0.46298277 0.09658585 -0.49965873 -0.80445516
-0.17419873 0.9256885 -0.27977338 -0.60372853 0.08574797 -0.8822278 -0.112250075 -1.4427066
-0.22747971 -0.21375592 -0.13974082 0.80118686 -0.47455952 -0.10688926 0.279962 -0.070959285
-0.101465225 -0.013619434 -0.036737002 -0.13497801 0.19277309 0.11348669 0.05285699 0.083009236
-0.030875778 -0.16004026 -0.15944597 -0.29858744 -0.058651157 0.19181664 0.566536 -0.6255132
-0.46674216 -0.5654785 -1.9678131 0.1290987 -0.28967455 -0.01225601 0.04677906 -0.024115931
-0.11117595 -0.99322677 -0.2635976 -0.566826 -0.050434843 0.8749221 0.01338229 0.016049897
-0.07807932 -0.154045 0.11081684 0.4289013 -0.32297838 0.058297966 0.30070135 0.036370426
-0.4024377 0.46020335 -0.8082485 -0.7936049 0.05900184 -0.1640165 -0.30303165 0.03537439
-0.19703619 -0.97597075 -0.40278164 0.29312786 0.22129376 -0.039218057 -1.0684476 -0.14900662
-0.038430512 0.29105055 -0.35357672 -0.03122425 -0.025161738 0.12111552 -0.45845562 -0.09852671
-0.06665277 0.30442002 -0.24333255 -0.6649681 -0.35515463 0.16690333 -0.3717154 0.56076294
-0.68783224 0.19703467 -0.55511105 0.17532808 -1.271919 0.21799956 -0.5951694 0.28382185
-1.1449343 0.27770022 -0.06965736 0.058529843 -0.13244207 0.34009477 -0.36347735 0.2523921
0.027260862 0.013060215 0.15033357 -0.08041782 -0.096405886 0.06958258 0.104674794 0.23608233
-0.3582007 0.03657098 -1.4046761 -0.57984847 -1.0686365 -2.160275 -0.2336884 -0.71920747
0.332291 -0.5628211 -0.17340343 0.017718136 -0.07074714 0.22957124 -0.08612811 0.045610603
0.7396516 -0.30692667 0.112887934 0.20319287 0.5998292 0.04277973 0.036914937 0.12053164
0.08216953 -0.056876257 -0.13902703 -0.0130870445 -0.1789548 0.29019487 -0.30907303 -0.42717203
-0.33802223 -0.2596935 -0.06465714 -0.10419815 -0.31121266 -0.0077601 -0.034005154 -0.15390179
-0.4123354 -0.1808157 0.08459325 -0.5526809 0.47084317 -2.7965698 -0.73403805 -0.35625035
-0.069004014 -0.47196847 -0.04237667 -0.028959788 -0.14833811 -0.2069989 -0.021878174 -0.18155243
-0.13054115 0.13827531 -1.3776921 -0.3848359 -1.2082682 0.16085462 -0.18807916 -0.24918018

network.0.bias f4 [256]
00000000: 5cc0 dabd 321d 28bf a948 3fbf 876c fdbe
00000010: 8c24 b5be 4880 84be e4f6 f8be ed56 f7bd
00000020: 4f67 27bf 7ebb 883d 567b 10be 7e4f c4be
00000030: f439 02bf 8c59 bebe 1728 5dbf 53f3 afbe
00000040: 53e0 babe 221a afbe e641 d4be a870 30bf
00000050: b4f3 29bf 395c 15be 70d9 dfbe 4770 a8be
00000060: 16f6 d3be 78f9 fdbe f484 2cbe 1e46 f4be
00000070: 23cc 21bf 059b eabe 6b35 0b3f 255d eebe
00000080: 184e 58bf 3af6 f0be 7892 edbe d2b5 bbbe
00000090: b562 18be 59f7 e7be 4469 bdbd cbb2 30bf
000000a0: d408 e5be 1e7d eabe a7b9 4ebf 5f65 0bbf
000000b0: bc2b 3abe 7dfd 66bf 407c 31bf 5a71 43bf
000000c0: ddce 3abf 5165 9abe 6eb9 c3be bd47 28be
000000d0: 5f67 76bf e36a 26bf c30c d63e 2d34 d0be
000000e0: 4d1a f9be fc7e d9be 5009 3ebf a139 c7be
000000f0: 7f53 6ebd 5275 dabe 8f8d 88be 95d4 dfbe
00000100: 32d0 9bbe 45d9 04bf f3c8 e1be d852 f0be
00000110: e740 c6be d176 38be 270f b9be 6389 9abe
00000120: 4c41 2cbf 1d3c b9be 95d7 10bf 62f3 1ebe
00000130: 2c91 2ebe f09e 94be b5f2 b0be d034 6bbe
00000140: a771 80be ca60 6fbe 3cd3 18bf 2e20 9ebe
00000150: e6f6 64bf 60f8 e0be 959d 20be c277 d1be
00000160: 8455 c53d 6f7d 04bf 7045 b9be 44d2 acbe
00000170: 9a8d 47be 0d15 9ebe 59ca 23bf 4ae6 d9be
00000180: 2f6c 92be cf8a 50be 1b69 28bf 8bf4 adbe
00000190: 372d aebc 1d81 01bf a039 b5bd 3fa0 1fbf
000001a0: b11e bebd 72d7 e8be 0540 11bf 5d6f 0ebf
000001b0: 9929 63bf 0495 29bf 6c3b d2be 128e 01bf
000001c0: 29e3 5abf c10a 3fbe b397 efbe 4ff0 e7be
000001d0: 8773 27bf f5fc a8be 3f27 08bf 4190 5cbf
000001e0: 3a43 04bf db93 c9be a078 abbe accc e7be
000001f0: d443 a2be 1544 d3be 5002 09bf c029 43bf
00000200: 2616 07be 6a19 c6be 3553 debe 80d8 aebe
00000210: e89d 45bf 18a7 c0be 57a4 a7be 051e 74be
00000220: a299 b8be 6f1c abbe 5305 c2be a2c5 d9be
00000230: 1dca 8ebe cacd 05bf 2f35 26bf d63d 9dbe
00000240: dc91 28bf 676c acbe 749c 58bf db52 67be
00000250: dc3d 8abe 7011 48be bb67 ebbe d088 4ebe
00000260: ec08 2fbf 73a4 123f 4d0f 70bf 892d fbbe
00000270: fb29 01bf 3cf0 0fbf ec1a babe 273d 60bf
00000280: 1710 0abf b72a 00bf 480d b5be d55e 94be
00000290: eb81 12bf 7bb1 f5be 0348 ecbe 7f31 9ebe
000002a0: eeac 13bf 868d 50bf 9697 8cbd 33da fabe
000002b0: f880 04bf a18a 20bf 3b89 11be b14f 04bf
000002c0: b930 00bf 24b0 19bf 0a1a ecbe 20d3 1fbd
000002d0: 66ef 2fbf 7980 e8be fa31 eabd dc92 13bf
000002e0: 9bb0 63bf 6d9c afbe 894d 20bf 3e52 13bf
000002f0: ddb9 73bf c3e8 8dbe b44a 36bf e4d7 cebe
00000300: b603 d7be 40bd 93be 9a75 10bf f8ad f7be
00000310: 173b 5cbf ce41 f0be 4f55 bd3c ac73 59bf
00000320: b2e0 8cbe d139 1dbe e295 7fbd 1124 e0be
00000330: 940c 31bf aaf5 c3be 31ea f8bd 6451 b6be
00000340: e28a 40be 7dcc 07be 0a5a e2be f079 2bbe
00000350: f9e9 e3be 1e7b 4ebf eab9 bfbe ff16 3abe
00000360: b1ae dabc 3531 5abe 317f bfbd a209 20bf
00000370: 9204 37bf bfcb 8ebe 83bc 5ebd 425d fe3e
00000380: 72f2 49bf 43c0 adbe 7a55 6dbe d3ab 20bf
00000390: ca90 25bf 3d0f 10bf f7e5 b2be e130 36be
000003a0: 438d 98be 746d 6ebe 5b5e 81be fb2d b2be
000003b0: 614b 21bf 5f28 c4be 0922 1bbf 1c4a 87be
000003c0: ceda 173f e637 03bf 80ed 2fbf 5fa3 41be
000003d0: fbaf 93be 7fb9 30bf 805f 15bf 64c3 61bf
000003e0: 400c 5fbf f18b 82bf 0d98 1bbe d396 76bf
000003f0: 2895 a53c 15a6 b7be 710b b1be 9ce7 79bd
-0.10681221 -0.6566955 -0.74720246 -0.49496862 -0.35379446 -0.2587912 -0.48625863 -0.12077127
-0.6539201 0.06676386 -0.14109549 -0.38341898 -0.5086968 -0.37177694 -0.863893 -0.3436533
-0.3649927 -0.34199625 -0.41456527 -0.689219 -0.66387486 -0.14585961 -0.4372058 -0.3289816
-0.41398686 -0.49604392 -0.16847593 -0.47709745 -0.6320211 -0.45821396 0.54378384 -0.4655544
-0.8449416 -0.47062856 -0.4640081 -0.36662155 -0.14881404 -0.453059 -0.092485934 -0.69022816
-0.44733298 -0.45798582 -0.80752033 -0.54451555 -0.18180746 -0.9023054 -0.69330215 -0.76344836
-0.729719 -0.30155423 -0.3822741 -0.16433616 -0.9625148 -0.65006846 0.4180661 -0.40664807
-0.48652878 -0.42479694 -0.7423296 -0.38911155 -0.058185097 -0.42667633 -0.266705 -0.43716875
-0.30432278 -0.51894027 -0.44098625 -0.46938205 -0.38721392 -0.18014075 -0.36144373 -0.30182943
-0.67287135 -0.36178675 -0.5657895 -0.1552253 -0.17047566 -0.2902751 -0.3456017 -0.22969365
-0.2508671 -0.23376766 -0.5969732 -0.30883926 -0.8943924 -0.43939495 -0.15685113 -0.4091168
0.096354514 -0.51753896 -0.3618579 -0.3375417 -0.1948761 -0.30875435 -0.63980633 -0.4255851
-0.28598163 -0.20365451 -0.6578538 -0.33975634 -0.021261794 -0.50587636 -0.08848882 -0.6235389
-0.09283198 -0.45476872 -0.5673831 -0.55638677 -0.8873535 -0.66243005 -0.4106096 -0.5060741
-0.8550287 -0.18656446 -0.46795425 -0.45300528 -0.65410656 -0.3300549 -0.53184885 -0.86157614
-0.5166508 -0.39370617 -0.33490467 -0.4527334 -0.31692374 -0.4126288 -0.53519154 -0.7623558
-0.13192043 -0.38691264 -0.43422857 -0.3414955 -0.7719407 -0.37627482 -0.3274257 -0.23839577
-0.36054713 -0.3342013 -0.37894687 -0.42533594 -0.27888575 -0.52267134 -0.649249 -0.3071124
-0.65847564 -0.33676454 -0.8461373 -0.225902 -0.2700032 -0.19537902 -0.45977578 -0.20169377
-0.6837299 0.5728218 -0.9377335 -0.49058178 -0.5045468 -0.56225944 -0.36348665 -0.8759331
-0.539308 -0.5006518 -0.35361695 -0.289786 -0.5722949 -0.4798697 -0.4614869 -0.30897138
-0.57685745 -0.8146595 -0.0686485 -0.48994598 -0.5175929 -0.6271153 -0.14212506 -0.516841
-0.50074345 -0.60034394 -0.46113616 -0.039019704 -0.6872467 -0.45410517 -0.114353135 -0.57645965
-0.88941354 -0.3429903 -0.6261831 -0.57547367 -0.9520548 -0.27716646 -0.7120774 -0.40399086
-0.4199502 -0.28855324 -0.56429446 -0.48374915 -0.86027664 -0.46925205 0.023111967 -0.84942126
-0.2751518 -0.15354086 -0.0623988 -0.43777516 -0.6915982 -0.38273364 -0.121540435 -0.3560897
-0.1880298 -0.132616 -0.4420932 -0.16745734 -0.44514444 -0.8065661 -0.3744653 -0.18172835
-0.026694627 -0.21307833 -0.09350432 -0.625147 -0.7149135 -0.2788982 -0.054378998 0.49680525
-0.7888557 -0.33935747 -0.23177138 -0.6276218 -0.64674056 -0.5627325 -0.34941074 -0.17792083
-0.29795274 -0.2328394 -0.252673 -0.34800705 -0.63005644 -0.3831205 -0.6059881 -0.26423728
0.59318244 -0.5125717 -0.6872177 -0.18909977 -0.288452 -0.69033045 -0.58348846 -0.8818877
-0.87128067 -1.0198957 -0.15194722 -0.9632389 0.020212725 -0.35868898 -0.34579042 -0.061011896

network.3.weight f4 [64, 256]
00000000: f01e 71bd fb1e d4be 8013 da3d 0b60 763e
00000010: f6cd ccbb ee43 a7be 775b 293f 2c00 21be
00000020: 48f9 4e3c b0c9 e2bc 29db efbf 6d6c aa3d
00000030: 09ea 1a3e ad92 c1c0 2c35 883c 6bcb 223d
00000040: f133 56c0 7c5d 14c0 6a8c 2b3d 73ab 3fbe
00000050: 4049 34be f96c 0bbe 1376 ecbc 2dae 37be
00000060: d1b1 83bd 0635 973d b69a 063e 3225 aebd
00000070: b0e1 d7bd d0db b73e d303 3fbc de18 48bf
00000080: 06f5 9abe 0029 1d3e ce91 6bbe fc4a 7abe
00000090: d466 313e ffe4 123e c015 2cbc 5d84 71bc
000000a0: 4ddd f4bd d021 c5bd da2d 07bf 9b3a 92bf
000000b0: 6172 ba3d 3a86 803d 42fb 363f 0331 9cbd
000000c0: a8a2 93be 2312 073e 7ea6 033e d9ba f73d
000000d0: 4fef 5abe fb49 d53d c8eb e13b 9bb6 863d
000000e0: 1eaa 753d ef0b e8bf 653b 62bf cfff ee3d
000000f0: 6199 6abd 1c18 e6bb 6f5b e23d 4878 90be
00000100: 0412 153e df0f 2ebe 496b 533d ead5 3e3d
00000110: 0c52 64bd e65b 783e 53bd 83bc 4cf0 e4be
00000120: 28c7 efbd 8c13 6d3e 0271 a4bf a10e 52bf
00000130: 1bb6 c4c0 2528 f8bf 2b8a 53c0 daea 96be
00000140: 0068 bfbd 0cff 78bf 4615 063e b7c6 ddbe
00000150: 5536 dbbe f0dc 17be abc6 933e 842d 16bd
00000160: e079 ac3d ffe3 29c0 5096 3bbd a4e9 21c0
00000170: 8212 02bf 6423 e8be fdd6 acbb 3d73 f7bf
00000180: 9445 0bbc d99f 513d 07c8 5dbe 066a d83e
00000190: 5002 e93d f70c ed3e 9c30 583d 5646 4b3b
000001a0: f9ba 813e 279b ea3d 38b0 0c3e 9b86 373e
000001b0: c9ed f4bd 31bc d13e febc 3dbe 8f4b 54bf
000001c0: 547d e6bf 35d3 abbe 4e7d 873e 4a8f 9bbf
000001d0: 3e45 16bf 9ce4 8ac0 58b9 7bbc 4ffd 9dbe
000001e0: 9718 193e b0aa 8cbe b6d2 a03e f049 adbf
000001f0: 0ad8 063e 3649 0bbe 41af d6bf b9e2 04bd
00000200: 1d62 c6bd 7748 c63e a4f1 a53d 4506 d2bc
00000210: 532d 013e f1a7 b73b 8fa8 cdbf 46ab 52bf
00000220: c824 5e3f d6d2 e93e 7e2e b43d 4361 54bd
00000230: 356a abbe 7497 4ebe 7e48 da3e c543 9cbe
00000240: 16dd 2abe 29b8 483d 3abe 503e 6aac 1ebe
00000250: 6b82 f3be 0be8 e2bd 21b5 303e 540a 6c3a
00000260: ad3a b9be 20c4 3c3b 59b1 3fc0 1cd8 30c0
00000270: 3ef2 c23d 99fd 0dbe 700f 7b3d 35ec 25bf
00000280: 7af7 61bf 457e 56bf fa74 663f ad48 6a3d
00000290: 9900 07be 8993 273e 71b6 10bd fc51 773c
000002a0: 14b5 043e 5646 d63e d308 67b8 c650 03bf
000002b0: 7248 b03c e1ff 563c 7e47 ff3d 08f4 163e
000002c0: ab29 68c0 daa1 f2be 557a 63bf 016e 0fc0
000002d0: bec7 0dbe 6f4b 8d3e 62cd f2bc 90b0 16bd
000002e0: d63b 083e ec94 073d 5be7 61bd 7cc7 b7bb
000002f0: f13a 9abe 70ce 84bd aba5 343e 3b7d a0bc
00000300: 5922 ce3d 3777 c4be dd5f 73c0 554e 80bd
00000310: ff18 b5bd f751 03be b5bb 533d 4c8a 803d
00000320: 3e9a 55c0 ad1c 25be 26e7 6ec0 206b 903e
00000330: 2c4b 90bd 65a4 7c3d ef16 ac3c e190 a43d
00000340: e71f d5bc 8056 4fbf d457 51bd 92ea 903d
00000350: e857 7c3e c47d 72be d86d efbd 2e11 5bbf
00000360: 4769 88bc fd55 07bb d7e6 15bf 76c0 b63e
00000370: 9732 e4bf 08c2 6e3e 93fc 7fbf c028 d53c
00000380: 9454 e43d 3dac 27be 3554 c9be f74a 55bf
00000390: a18f e1be eb8a 2cbe 9b80 cbbf f3a3 3a3d
000003a0: 05ac 11c0 4c7a 9d3c d888 ad3e 33af b3be
000003b0: 535c d43c 2e4f 67be 93e9 9a3d 2727 8f3d
000003c0: 1947 b33b 6b13 3b3e 44c6 b0be a37a 42be
000003d0: 2525 a3bc e808 1cbf f2c5 26bd 2a56 283d
000003e0: 43ae 193e df07 b33d 565c 99bb 2237 483f
000003f0: 538b e0be 7281 aa3b cda7 bdbd eba0 03bd
-0.058867395 -0.41429886 0.106482506 0.24060075 -0.0062501384 -0.32669014 0.6615519 -0.15722722
0.0126326755 -0.027684063 -1.8738757 0.08321462 0.1512834 -6.0491548 0.016626917 0.039744776
-3.3469203 -2.3182058 0.041881956 -0.18717746 -0.17606068 -0.13615789 -0.028864896 -0.17937537
-0.064304 0.0738316 0.13144955 -0.08503188 -0.10541093 0.3590989 -0.011658627 -0.78162944
-0.30265063 0.15347672 -0.23004839 -0.24442667 0.17324382 0.14345168 -0.0105032325 -0.0147410305
-0.11956272 -0.0962559 -0.5280434 -1.1424135 0.09103847 0.06275602 0.7147714 -0.07626536
-0.28835034 0.13190512 0.1285648 0.12096185 -0.21380351 0.10414501 0.0068945624 0.06577798
0.05997669 -1.8128642 -0.8837188 0.11669885 -0.05727518 -0.007021917 0.11052596 -0.28216767
0.14557654 -0.16998242 0.051615987 0.046590723 -0.05574231 0.24253806 -0.016081488 -0.44714582
-0.11707908 0.23151988 -1.2846987 -0.8205357 -6.1472297 -1.9387251 -3.305308 -0.29476053
-0.09346008 -0.9726417 0.13094053 -0.4331567 -0.4281489 -0.14830375 0.2886251 -0.0366645
0.08421683 -2.6545408 -0.045797646 -2.5298853 -0.5080949 -0.453395 -0.005274652 -1.9332043
-0.008500475 0.051177833 -0.21658336 0.4226839 0.11377394 0.46298954 0.052780733 0.0031017265
0.2533796 0.11455374 0.13739097 0.17922442 -0.119594164 0.4096389 -0.18529126 -0.82927793
-1.8006997 -0.33559576 0.26462787 -1.2153103 -0.58699405 -4.3404064 -0.015364014 -0.30857322
0.14950787 -0.27473974 0.3141076 -1.3538189 0.1316835 -0.13602147 -1.6772233 -0.032442782
-0.096866824 0.3872716 0.0810273 -0.025637755 0.12614946 0.005604737 -1.6067065 -0.8229259
0.86774874 0.45668668 0.0879793 -0.05185057 -0.33479467 -0.20174962 0.42633432 -0.30520454
-0.166859 0.049003754 0.20385066 -0.15495458 -0.4756044 -0.11079415 0.17256595 0.00090042246
-0.3617758 0.0028803423 -2.9951994 -2.7631903 0.0951886 -0.13866271 0.06129402 -0.6481355
-0.88268244 -0.8378642 0.9002224 0.057198215 -0.13183822 0.16364874 -0.03533024 0.01509523
0.12959701 0.41850537 -5.508291e-05 -0.51295125 0.02151892 0.01312253 0.12464808 0.14741528
-3.6275432 -0.47389108 -0.8885854 -2.241089 -0.13845727 0.27596614 -0.02963895 -0.036789477
0.13304076 0.033101007 -0.05515228 -0.005608497 -0.30123094 -0.06484687 0.17641322 -0.019590965
0.10065145 -0.38372204 -3.802726 -0.06264941 -0.08842658 -0.12824236 0.051692683 0.06276378
-3.3375392 -0.1612422 -3.7328582 0.2820673 -0.07045588 0.061680216 0.02100703 0.08035446
-0.026016189 -0.80991364 -0.05110915 0.07075991 0.24642909 -0.23680788 -0.11690873 -0.8557309
-0.016651763 -0.0020650618 -0.5855536 0.3569371 -1.7827939 0.23316205 -0.9999477 0.026020408
0.111489445 -0.16374297 -0.39322057 -0.8331751 -0.44054893 -0.16849868 -1.5898622 0.04556651
-2.2761242 0.019223355 0.33893466 -0.35094604 0.02592293 -0.22588798 0.07564082 0.069898896
0.005471122 0.18269126 -0.34526265 -0.18992095 -0.019915173 -0.6095109 -0.04071612 0.041097797
0.15007882 0.08741736 -0.0046801968 0.78209126 -0.43856296 0.0052034194 -0.09260521 -0.032135885

network.3.bias f4 [64]
00000000: 1c71 163f 1811 90be 35ca 043d 2524 d43e
00000010: 1176 883d 865a 623e 860b 2c3e e20d 01be
00000020: 4f39 7e3f 81ca bb3e c2ee 8c3f 3818 083d
00000030: 6a57 3d3f fe33 2c3f 51a4 893f aa28 343f
00000040: 2648 99bd a453 a13f f623 11be 939a 3a3f
00000050: f401 583f b90b 503e b834 bd3e 2760 0e3f
00000060: 2962 b43d c771 de3e 652c ab3e 20d2 933e
00000070: 41a4 683f d134 353f 6cac 5e3f 78cb 2a3f
00000080: 84a3 96bd b827 66be 8087 5abd 6584 a5bd
00000090: cc34 263f 7ee7 0140 c877 b63e 535c 2d3f
000000a0: bed7 003f 580c 933e 2668 b73f 2c9d 923e
000000b0: 509b 0cc0 bc75 2f3f e87d d8bd c85f a23f
000000c0: 2b9a 0bbe a451 4c3f 2a3c 96bd ddeb e3bd
000000d0: acda 8e3e 5264 0c3f d7ad 803f 72a4 19bf
000000e0: 6145 843e 9b03 143f 5e22 1a3f 0ca1 a53f
000000f0: 85a8 e9bd e247 0840 ce07 4abe 733c 943f
0.5876634 -0.28138041 0.032419402 0.41433826 0.066631444 0.22104844 0.16801271 -0.12602952
0.99306196 0.36677936 1.1010363 0.03322622 0.7396151 0.67266834 1.075327 0.7037455
-0.07484464 1.260365 -0.14173874 0.7289211 0.8437798 0.20316972 0.36954284 0.55615467
0.08807785 0.4344618 0.33432308 0.2887125 0.9087563 0.70783716 0.86981845 0.6671672
-0.07355407 -0.22476089 -0.05335188 -0.08081893 0.6492431 2.0297542 0.3563826 0.67719
0.50329196 0.28720355 1.4328659 0.28635538 -2.1969795 0.68539023 -0.1057089 1.268548
-0.13633029 0.79812074 -0.07335694 -0.11128972 0.27901208 0.54840577 1.0053052 -0.6001655
0.25834182 0.57818 0.6020869 1.2939773 -0.11409096 2.1293874 -0.1972954 1.1580948

network.5.weight f4 [32, 64]
00000000: 31ba e93e cb03 cbbf daf7 b73e 6094 9fbe
00000010: 6f5a d0be 31b1 c5bf f434 32be d9f8 ff3d
00000020: 4a1a 93be 5afc 39bc bc55 843d a51e 0ebd
00000030: eb9d bebe 602c 21be 3a2f 5abe 08b4 84bd
00000040: 71d8 983e 0962 7abe 0e5d 923e c5c6 cd3e
00000050: 2d99 573e 7de4 c03d 7bd1 f7bc ed59 6d3e
00000060: 53a6 333e b7fd a2bf dc4c bdbe b0c0 32bd
00000070: 1ca9 03be b378 9b3e 2327 f3bd c7b5 02bf
00000080: 38c5 c9bd ca95 63be a065 83be 737a b63e
00000090: 7fdb eb3d a650 c53d aeee 38bf e1ec 4dbe
000000a0: 02f4 a4be 871b a5bd 241b b5bd cee8 123d
000000b0: c6f0 a1bd cf3e 983d f083 c43d 50d8 923f
000000c0: 9e7b 6bbf a7cb c4bd 11ba c43d ac9a 5c3c
000000d0: 6be9 073e 23d3 db3c edd0 263e 561f 043e
000000e0: 45ed 69bd 5645 bdbe e706 5cbe 78bb 38be
000000f0: 52a1 003d ad78 2fbe 6c3c b03d f0b5 05bf
00000100: 4dc0 cabe cdd3 51bf 11dd 4ec0 25f0 a3bc
00000110: 86b9 7ebe b561 ce3e 1eca e3bc a2f5 95bc
00000120: 553d 243d ede1 c0bc e65e 0c3e 2b4b 17bc
00000130: d206 cfbd 835c 7a3e dc5c a63e 2c7e 63bd
00000140: 15aa 31bf f1fd 71bd 10a6 303e aba2 0dbe
00000150: 11cb 493d 3021 12be e76d 1dbe 5d3f c33d
00000160: 5b09 0d3e b62b 3abf 372e b1be afe8 cb3d
00000170: 51a1 7dbd d164 093e 705d bdbc da55 60be
00000180: 8c83 c3bc 30da 0240 6cf5 8f3d b9e3 573d
00000190: 03e9 3c3d 7c98 153d 1a23 edbd a3d9 54bc
000001a0: 78c2 3ebe 87c0 27bd 0541 7f3d b46c 89bd
000001b0: 6644 5dbe c0c5 733d be1f 72bd d42c 8c3e
000001c0: cbbd 17bf 2d9f 0c3e eb2b 413d 1d29 0b3d
000001d0: a135 c8be 49ef 01be 3088 713e 7f4d 30be
000001e0: 0950 e7bd 33d6 d13d afae 99be a237 e1be
000001f0: c1c4 e3be be5b ca3e 95e9 c3bc 2f37 aabe
00000200: f5e9 da3d 6e45 bf3f fd87 e9bf 2212 ddbf
00000210: e0c8 793d 0731 6cc0 f793 8ebd 224c d6bb
00000220: 3f62 423e 5211 173e 2e1e 7dbd 950c 6b3d
00000230: e61c 5bbd b811 65be 96a6 c1be d5b5 8f3e
00000240: 24a0 bcbd 5b37 4abe 1c39 15be c5f7 dd3e
00000250: bc0c a63e 4534 583e 85fa 033e 38e5 afbe
00000260: 1c4a 3a3e 5494 46bf c84a 6ebd 1fa8 243e
00000270: 59bf 92be c8ce f6bd b691 67bc ff25 bebe
00000280: afce c7bc 6355 66be 9c61 a83d 3a15 0abe
00000290: db67 cfba 8112 efbd 8b41 74bf 0478 f3be
000002a0: 3d6c 57be 5668 b83c a4f8 ed3d 1eb2 46be
000002b0: 58d6 b5b9 bbf0 88bd 43c5 16be 7e5f 333f
000002c0: 33a3 f7be 8978 b2bd 79e2 b1bd a9dd e5bd
000002d0: 1dc3 963e 9b1d 73be fcd3 693e 5a19 953e
000002e0: 9dda 563d c51d 093e 2284 3ebd de83 d83e
000002f0: a825 d9be 46fd e93c a2a0 24be 6ee2 723c
00000300: a634 073e bf9a 05c0 e72c 743f 9095 b03e
00000310: bc1c 2dbe 2291 a23e c229 81bd d316 323d
00000320: 44c7 8ebe 5394 0f3e 4ba1 26be b046 f5be
00000330: 241a 323e 619f cebc 3742 1dbe 0ec6 6ebe
00000340: e0aa b4be f7a4 0f3e 1800 f0bd 1dd4 2ebd
00000350: bb5f 40bd ad70 2a3e e87e f5be 84cb c9bd
00000360: d3fe babe 0f3b 0abe 3279 96bc 2039 1ebe
00000370: a58d 55bd bb89 d23d 6004 583d 64ef 0abd
00000380: 4036 b13d a828 bbbf 09b2 423e 3753 5b3e
00000390: c66d 373e 09fa 7c3e 6c24 f2bd b409 2abe
000003a0: ca9b 543e ddfb fcbc f882 cfbd f53b a03e
000003b0: e1a9 91bc 88dc 083b 3313 963d 2e9f 0cbf
000003c0: e3ac 2ebf 6d52 513e 9690 493d 18e7 6c3c
000003d0: d600 c3be a1ee 51be 4182 223c f157 973c
000003e0: cc9c 92bb f377 693e 993c fe3d 364b 0fbe
000003f0: 5d73 15be 6694 c33e ec4d 803d deb1 013e
0.45649865 -1.5860533 0.35931283 -0.3116789 -0.40693995 -1.54447 -0.17403013 0.12498636
-0.28730994 -0.011351669 0.06461665 -0.034697194 -0.37229857 -0.15739584 -0.21307078 -0.06479651
0.29852632 -0.2445146 0.2858662 0.40190712 0.21054526 0.09418581 -0.030251255 0.23178835
0.17543916 -1.2733678 -0.36972702 -0.043640792 -0.12857479 0.30365524 -0.11872699 -0.5105862
-0.098520696 -0.22225109 -0.2566347 0.35640296 0.11516475 0.09634523 -0.72239196 -0.20109893
-0.32217413 -0.08061891 -0.08843067 0.03586655 -0.07907252 0.07433855 0.095954776 1.1472263
-0.919855 -0.09609156 0.09605802 0.013464611 0.13272636 0.026834076 0.16290636 0.12902579
-0.057111043 -0.36966962 -0.21487008 -0.18040264 0.031403847 -0.17135878 0.086052746 -0.5223074
-0.3959984 -0.8196381 -3.2322428 -0.02001197 -0.24875459 0.4030892 -0.027806338 -0.018305603
0.040097553 -0.02354523 0.13708076 -0.00923423 -0.10108723 0.24449353 0.3249272 -0.05554025
-0.6940015 -0.059080068 0.17250848 -0.13831584 0.049265925 -0.14270473 -0.15373956 0.0953357
0.137731 -0.7272295 -0.34605572 0.0995649 -0.06192142 0.13417365 -0.023115844 -0.2190775
-0.023866437 2.044567 0.070292324 0.052707408 0.046120655 0.036522374 -0.11578961 -0.012991342
-0.18628871 -0.040955093 0.062317867 -0.067101866 -0.21608123 0.05951476 -0.059112303 0.2737795
-0.59273976 0.13732596 0.047161024 0.033974756 -0.39103416 -0.12688936 0.23587108 -0.17217062
-0.11294562 0.102459334 -0.30016086 -0.43987757 -0.4448605 0.3952312 -0.023915092 -0.33245227
0.10689155 1.4943063 -1.8244625 -1.7271159 0.060982585 -3.6904924 -0.06961816 -0.0065398375
0.1898279 0.14752701 -0.06179636 0.057385046 -0.053494357 -0.2237004 -0.37822407 0.28068414
-0.09210232 -0.19747679 -0.14572567 0.43353096 0.3243159 0.21113689 0.12888534 -0.34354568
0.18192333 -0.7757008 -0.058176786 0.16079758 -0.28661612 -0.12051159 -0.014133861 -0.37138364
-0.024390547 -0.2249351 0.082217425 -0.1348466 -0.0015823798 -0.11673451 -0.9541251 -0.47552502
-0.21037383 0.022510689 0.1161969 -0.19403884 -0.0003468271 -0.06686541 -0.14723687 0.70067585
-0.483667 -0.087143965 -0.08685774 -0.11223919 0.29445735 -0.23741762 0.22834772 0.29120904
0.05245458 0.13390262 -0.04651273 0.42288107 -0.42411542 0.028563153 -0.16076902 0.014824493
0.13203678 -2.08757 0.95381016 0.34489107 -0.16905493 0.31751353 -0.06306793 0.043478798
-0.27886403 0.14021425 -0.16272466 -0.47905493 0.17392784 -0.025222482 -0.1535729 -0.2331774
-0.35286617 0.14027773 -0.11718768 -0.042682756 -0.046966296 0.16644545 -0.47948384 -0.09853271
-0.3652254 -0.13499092 -0.018368337 -0.15451479 -0.052137036 0.10280176 0.052738547 -0.033919707
0.086529255 -1.4621782 0.19013228 0.21418463 0.17912969 0.24704756 -0.11823353 -0.16605264
0.20762554 -0.030881817 -0.10132402 0.31295744 -0.0177812 0.00208834 0.07327881 -0.5493039
-0.68232554 0.20441599 0.049210154 0.014459394 -0.38086575 -0.20501186 0.00991875 0.01847455
-0.004474258 0.22799663 0.12413902 -0.13993534 -0.14594789 0.38199157 0.062648624 0.12665507

network.5.bias f4 [32]
00000000: 4ebc b13f 527b 783f 4e2a ed3e c96e 313f
00000010: aca3 463f a299 56be 4baa 203f ac32 553f
00000020: 9aa8 a73f ad5e 2abd 4401 7d3f b000 843f
00000030: 32d0 03bf 64a4 1d3f c15e fcbe a971 d43e
00000040: f301 f0be cb77 be3e dce3 7fbf d3e9 d03e
00000050: d73a 713f 522f 103e 7d0f bfbe 7180 3e3e
00000060: 9b21 293f 59ca 5d3f ad68 acbe 02a4 81bf
00000070: e8ed 773f 1576 8a3f 2a69 49bf b4d9 99bf
1.3885591 0.9706317 0.46321338 0.6930967 0.77593493 -0.20957044 0.62759846 0.83280444
1.3098328 -0.041594196 0.98830056 1.031271 -0.51489556 0.61578965 -0.49291041 0.41492966
-0.46876487 0.3720077 -0.9995706 0.40803394 0.9423041 0.14080551 -0.37316504 0.18603684
0.660669 0.86636883 -0.3367361 -1.0128176 0.9684739 1.0817286 -0.7867609 -1.2019563

network.7.weight f4 [1, 32]
00000000: 01da 4bbd c6e4 28bd 7dbb fbbc fc10 57bd
00000010: 176f 7fbd 793c df3d 77bc cbbd cf99 3c3d
00000020: d8ae b83d 0b84 97bd ec3a c33d 4f26 983d
00000030: 1c57 993d 9915 6abd 43a8 9f3f d78e 09bd
00000040: 9493 55bd 7c3d 15bd 4866 57be c1d4 19bd
00000050: 3b22 65bd 15ad b5be 6812 fab9 0453 4d3d
00000060: 8e3c ee3c 23f9 883d 4e5c 9e3c c5a6 c9be
00000070: 7a5d d13d 7dc3 093e 7022 aebd a910 443d
-0.04976845 -0.0412338 -0.03072905 -0.052506432 -0.062361803 0.10900206 -0.09948056 0.04604512
0.09017724 -0.07398232 0.09532723 0.07429182 0.07487318 -0.057149503 1.2473224 -0.03358349
-0.052142695 -0.03643559 -0.21035111 -0.037556414 -0.055940848 -0.35483614 -0.0004769743 0.050127998
0.02908161 0.06688144 0.019331124 -0.39385048 0.10222907 0.13453479 -0.08502662 0.04786745
