models/price_predictor_nn_v7.pth (torch, 60753 bytes, 7 tensors)

network.0.weight f4 [128, 29]
-0.030277198 -0.10407766 -0.24552608 -0.059811957 -0.1114155 0.41426954 -0.019990984 -0.97352684
0.4400064 -0.2529162 0.26581725 -0.4656332 0.24154437 0.20909584 -0.026854217 -0.005525995
0.032888096 0.23422702 -0.16966675 -0.0792147 -0.32366884 -0.014216587 -0.30650166 0.22302034
0.115358576 -0.22463575 -0.3600746 -0.5411142 -0.43786514 -0.98921883 0.18085079 -0.21211837
-0.19403969 0.3715942 -0.2114181 -0.011802252 -0.28098652 0.13321929 -0.16707358 0.47861946
-0.18422627 -0.29194698 0.13698499 0.046579033 -0.4657314 -0.28644836 -0.38301653 0.43248782
-0.09470828 -0.596288 -0.37469986 -1.0538439 0.07332954 0.42517713 -0.31658462 -0.062288657
-0.06499535 -0.5373036 0.45664456 -0.15436277 -0.0009420642 -0.05260935 0.47848418 0.25189617
-0.017163271 -0.029006176 0.12789725 -0.06451507 0.3197747 -0.13106827 -0.008214964 -0.6071212
-0.09778395 -0.29200128 -0.17343056 -0.3198715 -0.3326087 0.17206033 -0.23800887 -0.33904436
-0.18420398 -0.73929095 0.28235957 0.37233174 0.092019446 -0.29024735 0.49410468 0.025984347
-0.014889375 -0.0021860856 1.1785115 0.0035949538 0.06530371 0.050216172 -0.050651204 -0.35335648
-0.21880767 -0.1923214 0.02234152 -0.08320011 -0.030743567 0.48611763 0.036226325 -0.5330243
0.06109583 -0.3616567 -0.33175686 -0.26335365 -0.34039727 -0.36385128 -0.3352416 -0.37679005
-0.6350412 -0.64846367 -0.55898386 -0.6821118 -0.20863995 -0.65874815 -0.070563786 -0.015613659
-0.10570652 0.23630802 0.090750016 -0.22479819 0.24742417 -0.08730696 0.2869022 0.21741024
-0.15718462 0.19358404 0.45463833 -0.2279389 -0.20115519 -0.15583089 0.11667544 0.015318991
0.039613754 0.13299453 0.3601851 -0.4746598 -0.46937817 -0.4412738 0.26246965 -0.247747
-0.043264985 -0.13463658 0.14584409 -0.16640714 -0.36793756 -0.049297452 -0.5024083 0.058514938
0.67429084 -0.44813383 -0.2368034 -0.12834184 -0.3324895 0.12399757 0.27437505 0.10362601
-0.3387421 -0.24560931 0.33341414 0.01588115 -0.17857233 0.3716788 0.22522041 -0.2575627
-0.25472328 0.093139686 -0.39969552 -0.10216969 0.14042518 0.31150675 -0.567974 0.06634947
-0.047424845 -0.21833925 0.04720324 -1.659153 -0.04107087 -0.010199031 -0.040169887 0.21593164
0.1570732 0.14629844 0.13847455 0.1580386 -0.16022323 -0.07327157 0.15005663 0.23713762
-0.4860091 -0.07087971 -0.12153251 0.20311603 0.16874947 -0.03756515 0.7851845 0.17572975
-0.34511095 0.23407122 0.21030101 -0.7634981 -0.26715207 0.40308025 -0.009165259 0.0258866
0.18263005 -0.03375702 -0.1805206 -0.38406986 0.2576124 -0.013820596 0.11919378 0.42044926
-0.32183287 -0.6682637 0.2181734 -0.04375234 -0.4950726 0.15453781 0.23887244 0.15706572
-0.27355906 -0.57088745 0.15121803 0.3120139 -0.34240377 -0.05882309 0.097229145 0.07608909
-0.1423319 0.006535275 0.030714564 -0.11974203 -0.035511754 -1.7230339 -0.08191813 -0.1865094
-0.2028187 0.17864206 0.14781407 0.258055 0.061113447 -0.025701212 -0.93475693 1.1170311
-0.31956148 0.3960574 0.14077975 -0.24718168 -0.5700212 0.42809907 -0.5992872 0.3006276
00000000: e307 f8bc ab26 d5bd 306b 7bbe 62fd 74bd
00000010: cf2d e4bd 231b d43e 22c4 a3bc 0e39 79bf
00000020: 8548 e13e 3b7e 81be 3319 883e 7a67 eebe
00000030: 6857 773e 381d 563e 60fd dbbc 6813 b5bb
00000040: abb5 063d 35d9 6f3e 1fbd 2dbe 513b a2bd
00000050: ecb7 a5be b0ec 68bc c9ed 9cbe 725f 643e
00000060: 1e41 ec3d ea06 66be b35b b8be 7686 0abf
00000070: dc2f e0be 723d 7dbf f330 393e 8f35 59be
00000080: 57b2 46be 9841 be3e fd7d 58be 3c5e 41bc
00000090: 77dd 8fbe a36a 083e 5615 2bbe 9c0d f53e
000000a0: d0a5 3cbe 137a 95be cb45 0c3e a8c9 3e3d
000000b0: 5974 eebe 5ca9 92be be1a c4be 0b6f dd3e
000000c0: 6af6 c1bd 55a6 18bf a9d8 bfbe 5be4 86bf
000000d0: cc2d 963d d1b0 d93e 6117 a2be 6422 7fbd
000000e0: 481c 85bd bb8c 09bf 51cd e93e 4611 1ebe
000000f0: dcf4 76ba e77c 57bd e1fb f43e 89f8 803e
00000100: fd99 8cbc 5c9e edbc 7ff7 023e 7a20 84bd
00000110: 82b9 a33e c336 06be 0e98 06bc 4c6c 1bbf
00000120: f442 c8bd 3181 95be c897 31be 32c6 a3be
00000130: b04b aabe 9530 303e 99b8 73be 3997 adbe
00000140: f89f 3cbe 2c42 3dbf 6f91 903e 44a2 be3e
00000150: b174 bc3d 4d9b 94be 4afb fc3e 20dd d43c
00000160: 91f2 73bc 6e44 0fbb 77d9 963f 5199 6b3b
00000170: f4bd 853d 79af 4d3d a377 4fbd 24eb b4be
00000180: 1e0f 60be e7ef 44be 9005 b73c d264 aabd
00000190: efd9 fbbc 69e4 f83e 0e62 143d 4874 08bf
000001a0: 9f3f 7a3d 112b b9be 09dc a9be 4ad6 86be
000001b0: 8d48 aebe b74a babe c9a4 abbe a0ea c0be
000001c0: 0f92 22bf b701 26bf 9119 0fbf e19e 2ebf
000001d0: b6a5 55be b8a3 28bf bf83 90bd 6fd0 7fbc
000001e0: a97c d8bd bbfa 713e 25db b93d 7f31 66be
000001f0: c35c 7d3e fecd b2bd d8e4 923e caa0 5e3e
00000200: 01f5 20be e53a 463e 5bc6 e83e d168 69be
00000210: a0fb 4dbe 2292 1fbe 88f3 ee3d 81fc 7a3c
00000220: 0842 223d b82f 083e 2e6a b83e 9c06 f3be
00000230: 5652 f0be a4ee e1be 6c62 863e 64b1 7dbe
00000240: a036 31bd 2cde 09be 2758 153e a266 2abe
00000250: 5062 bcbe 20ec 49bd d59d 00bf 5cad 6f3d
00000260: 539e 2c3f cc71 e5be 977c 72be 0b6c 03be
00000270: 103c aabe 70f2 fd3d e37a 8c3e e039 d43d
00000280: 9b6f adbe 0281 7bbe 42b5 aa3e 2f19 823c
00000290: aadb 36be af4c be3e 2ea0 663e 42df 83be
000002a0: 176b 82be 05c0 be3d e4a4 ccbe 583e d1bd
000002b0: 9ecb 0f3e d07d 9f3e be66 11bf 3be2 873d
000002c0: 8e40 42bd 5394 5fbe 2f58 413d 205f d4bf
000002d0: ee39 28bd d619 27bc 2e89 24bd 2f1d 5d3e
000002e0: ccd7 203e 42cf 153e 46cc 0d3e dfd4 213e
000002f0: 8f11 24be 680f 96bd 72a8 193e 34d4 723e
00000300: 2fd6 f8be 6229 91bd 09e6 f8bd a6fd 4f3e
00000310: a9cc 2c3e eadd 19bd da01 493f 80f2 333e
00000320: 62b2 b0be 5eb0 6f3e 2659 573e 9d74 43bf
00000330: 28c8 88be 8960 ce3e e229 16bc 2310 d43c
00000340: 5f03 3b3e cd44 0abd 64da 38be cea4 c4be
00000350: c6e5 833e c86f 62bc de1b f43d 2045 d73e
00000360: 47c7 a4be 5413 2bbf d968 5f3e a735 33bd
00000370: 287a fdbe 293f 1e3e fa9a 743e d6d5 203e
00000380: ef0f 8cbe ae25 12bf e6d8 1a3e 49c0 9f3e
00000390: 8c4f afbe 7bf0 70bd 1320 c73d 99d4 9b3d
000003a0: 74bf 11be dc25 d63b 1c9d fb3c 4f3b f5bd
000003b0: c674 11bd 608c dcbf b1c4 a7bd 52fc 3ebe
000003c0: b5af 4fbe f2ed 363e 925c 173e c91f 843e
000003d0: 1852 7a3d 598b d2bc 3b4c 6fbf e0fa 8e3f
000003e0: 909d a3be 09c8 ca3e 9128 103e 321d 7dbe
000003f0: e9ec 11bf cd2f db3e e36a 19bf dceb 993e

network.0.bias f4 [128]
-0.3507577 -0.20785363 -0.37960032 -0.73744506 -0.29967535 -0.15950753 -0.06699058 -0.23824547
-0.1437191 -0.31179777 -0.6068659 -0.26099578 -0.7477934 -0.20197321 -0.29766476 -0.4495725
-0.14808989 -0.18278274 -0.2521092 -0.30711982 -0.27989823 -0.0019357502 -0.11951485 -0.09523522
-0.19674179 -0.25948688 -0.38623273 -0.24189065 -0.33876187 -0.13413556 -0.39826748 -0.26711258
-0.18214093 -0.4836708 -0.35446936 -0.3842252 -0.3328755 -0.29833293 0.09152753 -0.30358535
-0.12110793 -0.17773102 -0.40967867 -0.30114713 -0.33056527 -0.3252792 -0.38646808 -0.28628367
-0.3796657 -0.12730615 -0.0923277 -0.3979968 -0.4068178 -0.3298017 -0.26543325 -0.16170634
-0.5606098 -0.16932173 -0.19833012 -0.36098045 -0.41783768 -0.27480134 -0.08047264 -0.5187768
-0.28438258 -0.32760844 -0.24493039 -0.55461526 -0.3619583 0.034878578 -0.9569973 -0.5247942
0.010373179 -0.55336463 -0.2542455 -0.20640698 -0.44081867 -0.2196834 -0.47828418 -0.49904105
-0.32427084 -0.3797142 0.12116217 0.024808373 -0.19390456 -0.09714908 -0.13991244 0.16719109
-0.30084804 -0.44697204 -0.2903364 -0.60190886 -0.45648977 -0.2096932 -0.3975838 -0.23977602
-0.17240357 -0.61832106 -0.2777488 -0.31076568 -0.21261537 -0.72459847 -0.35946947 -0.05985519
-0.2377929 -0.06858026 -0.51797515 -0.35012484 -0.1820981 -0.3280913 -0.37576377 -0.2996739
-0.17921697 -0.24247897 -0.41727522 -0.3690289 -0.17082338 -0.117785215 -0.55651385 -0.3339197
-0.07295572 -0.07137499 -0.49190608 -0.19632125 0.035365634 -0.25004154 -0.2693761 -0.37081313
00000000: 8396 b3be 95d7 54be f95a c2be 33c9 3cbf
00000010: 0c6f 99be f155 23be 5b32 89bd 9ff6 73be
00000020: 1a2b 13be f5a3 9fbe 905b 1bbf 3da1 85be
00000030: 636f 3fbf 11d2 4ebe 8467 98be 5e2e e6be
00000040: e0a4 17be 662b 3bbe 7514 81be cf3e 9dbe
00000050: d24e 8fbe 00b9 fdba 34c4 f4bd af0a c3bd
00000060: ae76 49be 77db 84be 4cc0 c5be 2fb2 77be
00000070: 3272 adbe d55a 09be b7e9 cbbe fbc2 88be
00000080: 2783 3abe b3a3 f7be 027d b5be 2ab9 c4be
00000090: a86e aabe 18bf 98be c972 bb3d 8a6f 9bbe
000000a0: 6f07 f8bd 1fff 35be 67c1 d1be f52f 9abe
000000b0: da3f a9be ff8a a6be 25df c5be c693 92be
000000c0: 8b63 c2be 8b5c 02be 4e16 bdbd 3dc6 cbbe
000000d0: 6c4a d0be c5db a8be dee6 87be 5996 25be
000000e0: 2084 0fbf ad62 2dbe 0d17 4bbe 6ed2 b8be
000000f0: d2ee d5be c3b2 8cbe d7ce a4bd 8ece 04bf
00000100: 989a 91be 4bbc a7be 08cf 7abe 44fb 0dbf
00000110: 9952 b9be d7dc 0e3d c6fd 74bf ea58 06bf
00000120: 44f4 293c 4ea9 0dbf 772c 82be 5a5c 53be
00000130: fcb2 e1be aff4 60be aae1 f4be 4f82 ffbe
00000140: d406 a6be e669 c2be df23 f83d ee3a cb3c
00000150: eb8e 46be 19f6 c6bd 3545 0fbe 2434 2b3e
00000160: c108 9abe 85d9 e4be f9a6 94be b316 1abf
00000170: 07b9 e9be d0b9 56be 1b90 cbbe d887 75be
00000180: 908a 30be 4a4a 1ebf 1735 8ebe ae1c 9fbe
00000190: d8b7 59be 497f 39bf 620c b8be b72a 75bd
000001a0: fb7f 73be cf73 8cbd 059a 04bf 9043 b3be
000001b0: ed77 3abe 95fb a7be 1c64 c0be db6e 99be
000001c0: a784 37be 684c 78be 19a5 d5be 5bf1 bcbe
000001d0: 53ec 2ebe 6039 f1bd b177 0ebf 86f7 aabe
000001e0: cf69 95bd 0d2d 92bd 1ddb fbbe 7008 49be
000001f0: 8edb 103d 7205 80be aaeb 89be 38db bdbe

network.3.weight f4 [64, 128]
-0.008018452 0.04129823 -1.055476 -0.012575288 0.03832927 -0.06914178 0.0035172533 0.049615882
0.12244609 -0.121996015 0.015219746 -0.38757592 0.02248187 -0.12305532 0.04879298 0.10670331
-0.110316716 -0.26902294 0.029899465 0.08639946 -0.021245733 0.058672316 0.31716618 -0.070600174
0.02420511 0.09096447 -0.18346821 0.037637368 -0.389421 -0.14650242 -0.2817774 -0.018525377
0.0035598355 -0.026172128 0.18222147 0.12867653 1.7884011 -0.052171305 -0.09176916 -0.049012613
0.010785036 0.14673021 0.035076194 -0.8730732 0.32706118 -0.26752508 0.54750985 -0.12070835
-0.18662497 0.07335715 -0.051798794 0.28022942 0.079620816 0.03557315 0.306121 -0.05368541
0.1649339 -0.11473566 -0.008147597 0.109362654 0.049860943 -0.046485458 -0.25424048 -0.056852624
-0.08542496 -0.19036596 -0.10621996 0.1267188 0.32516903 -0.41072974 -0.06578571 -0.54186285
-0.5038337 -0.14816861 0.083810724 0.056128327 -0.27058277 -0.07119654 -0.07083803 -0.33411884
-0.39116502 0.4417298 -0.077012606 0.023115406 -0.06568163 -0.46762276 0.0020521053 -0.2739593
-0.6379657 -0.025912495 0.043308362 0.0010931846 0.1913934 0.14735857 -0.22643703 -0.23514666
-0.18629038 -0.14818977 -0.08967572 0.02351969 -0.10964452 -0.10846479 0.031551484 -0.018419828
0.088784605 -0.21599664 -0.25598544 0.5740077 -0.11563971 -0.032032248 0.27048254 0.10644195
-0.3874963 0.0040035346 0.095738105 0.07287413 -0.824203 0.20756541 -0.07204153 -0.2272778
-0.6531301 0.011328198 -0.11347897 0.33997825 0.11150032 -0.0169119 -0.10658428 0.14819248
0.23051769 -0.1543779 0.0567234 1.4450006 0.20816115 0.17820057 0.016379727 -0.12694858
-0.63752675 0.12870795 0.25388885 0.1886779 0.52671605 0.13759175 0.43994918 0.009069704
-0.13544706 0.2189849 -0.189751 -0.018324137 -0.14735885 -0.30321702 0.14260902 0.06605467
-0.25929514 0.13548419 2.4255394e-05 -0.1513447 -0.17001772 -0.30134678 -0.24543118 0.010463924
0.3048404 -0.20650272 0.14871427 0.016688544 -0.32083908 0.08179379 -0.34889847 -0.05906008
-0.014054652 -0.17721331 0.04482887 0.08688441 -0.12292439 0.22309723 0.16705814 0.043577813
-0.46606013 -0.05230037 0.21970916 -0.21679904 0.008328718 0.13746397 -0.40445492 0.09609018
0.2059875 -0.28151032 0.19651671 -0.67877966 -0.13612841 -0.094863065 0.43840674 0.049860347
0.24347723 0.14659277 -0.06346798 0.04750843 0.05790658 -0.008621178 1.5157989 0.02147487
-0.047975324 0.0527208 -0.1249254 0.029106237 1.0215396 -0.041780125 -0.2043647 -0.051310074
0.06958397 0.0114335 0.12372322 0.09784962 0.2630026 0.11169023 -0.062061273 -0.117876895
-0.012032235 0.0576273 -0.16226603 0.76660603 -0.17177291 0.0069054835 0.1533314 -0.27284604
0.1705298 0.6595387 -0.054368317 -0.110130794 -0.18017514 1.0193936 -0.22626922 0.1446419
-0.25421712 -0.41082832 0.08209549 0.09365525 -0.033769306 -0.16775583 -0.2196182 -0.035130266
0.21102254 0.11021956 -0.080824316 -0.02906852 0.088502765 0.27519956 0.41312838 0.15654725
0.075611256 0.0038017083 -0.055889633 -0.0516945 -0.15856901 -0.16076046 0.25267807 0.24542895
00000000: d35f 03bc 5528 293d d619 87bf 9508 4ebc
00000010: 27ff 1c3d 359a 8dbd b881 663b 063a 4b3d
00000020: 04c5 fa3d 0cd9 f9bd 3e5c 793c 5a70 c6be
00000030: e62b b83c 6d04 fcbd 26db 473d 4487 da3d
00000040: bbed e1bd 60bd 89be b9ef f43c 33f2 b03d
00000050: 880b aebc 6252 703d 9b63 a23e d396 90bd
00000060: cb49 c63c 944b ba3d 17df 3bbe a429 1a3d
00000070: 3062 c7be bb04 16be 2145 90be 88c2 97bc
00000080: 214c 693b ee66 d6bc 4498 3a3e c8c3 033e
00000090: 54ea e43f 94b1 55bd 78f1 bbbd 73c1 48bd
000000a0: b8b3 303c 7240 163e 0eac 0f3d ba81 5fbf
000000b0: 9074 a73e 0cf9 88be 9b29 0c3f f035 f7bd
000000c0: 9e1a 3fbe 463c 963d f92a 54bd 3b7a 8f3e
000000d0: 3d10 a33d 27b5 113d e4bb 9c3e 3ce5 5bbd
000000e0: 6fe4 283e 88fa eabd 807d 05bc 87f9 df3d
000000f0: fd3a 4c3d 8967 3ebd cf2b 82be 4cde 68bd
00000100: 48f3 aebd 4bef 42be da89 d9bd 93c2 013e
00000110: 8e7c a63e 2b4b d2be a9ba 86bd 86b7 0abf
00000120: 3ffb 00bf 83b9 17be f5a4 ab3d d1e6 653d
00000130: d389 8abe 7ecf 91bd 8713 91bd a011 abbe
00000140: c846 c8be 692a e23e c9b8 9dbd 855c bd3c
00000150: 1784 86bd 406c efbe 9d7c 063b 6544 8cbe
00000160: b851 23bf 7146 d4bc 1c64 313d 3049 8f3a
00000170: a2fc 433e 2ae5 163e 1cdf 67be 49ca 70be
00000180: e8c2 3ebe 0fbf 17be e7a7 b7bd 5dac c03c
00000190: 4e8d e0bd ca22 debd 213c 013d 2ee5 96bc
000001a0: b4d4 b53d 392e 5dbe 8610 83be 2bf2 123f
000001b0: 83d4 ecbd 3f34 03bd b07c 8a3e 3dfe d93d
000001c0: ea65 c6be 1530 833b 5712 c43d 083f 953d
000001d0: f8fe 52bf 078c 543e 828a 93bd 83bb 68be
000001e0: 8933 27bf e899 393c aa67 e8bd a111 ae3e
000001f0: 485a e43d d38a 8abc dc48 dabd c5bf 173e
00000200: d40c 6c3e 3d15 1ebe cc56 683d c8f5 b83f
00000210: 3228 553e 367a 363e c72e 863c cffe 01be
00000220: f434 23bf 04cc 033e b8fd 813e c834 413e
00000230: ddd6 063f dae4 0c3e 0541 e13e 1999 143c
00000240: a2b2 0abe 943d 603e 164e 42be 801c 96bc
00000250: 3de5 16be 433f 9bbe 1908 123e ac47 873d
00000260: 55c2 84be 5ebc 0a3e 1078 cb37 1bfa 1abe
00000270: 2019 2ebe 204a 9abe 5052 7bbe e170 2b3c
00000280: 0a14 9c3e 7375 53be 8e48 183e 6ab6 883c
00000290: 0545 a4be 8183 a73d d2a2 b2be fce8 71bd
000002a0: 7c45 66bc 6877 35be 7a9e 373d 74f0 b13d
000002b0: c8bf fbbd 9a73 643e 4a11 2b3e a67e 323d
000002c0: 6f9f eebe ea38 56bd 70fb 603e 9100 5ebe
000002d0: 2d75 083c 5bc3 0c3e b714 cfbe eeca c43d
000002e0: 63ee 523e 1f22 90be ad3b 493e 81c4 2dbf
000002f0: 3f65 0bbe 9147 c2bd d976 e03e 5d3a 4c3d
00000300: 1852 793e 6a1c 163e 80fb 81bd 3398 423d
00000310: 732f 6d3d d73f 0dbc b305 c23f 11ec af3c
00000320: c681 44bd c4f1 573d e3d8 ffbd 3470 ee3c
00000330: cfc1 823f a321 2bbd fb44 51be 832a 52bd
00000340: 0a82 8e3d 9353 3b3c 9962 fd3d 6265 c83d
00000350: 47a8 863e d9bd e43d f633 7ebd 7169 f1bd
00000360: da22 45bc 9b0a 6c3d 1129 26be 4b40 443f
00000370: 3de5 2fbe 6547 e23b e802 1d3e 7ab2 8bbe
00000380: 5d9f 2e3e 87d7 283f 50b1 5ebd 418c e1bd
00000390: d57f 38be 7d7b 823f 1eb3 67be 021d 143e
000003a0: bf28 82be 1758 d2be ae21 a83d 53ce bf3d
000003b0: af51 0abd 2fc8 2bbe 98e3 60be c1e4 0fbd
000003c0: 4b16 583e cbba e13d 3887 a5bd 1b21 eebc
000003d0: f040 b53d f5e6 8c3e 9085 d33e ec4d 203e
000003e0: 13da 9a3d 1526 793b 87ec 64bd 9dbd 53bd
000003f0: ea5f 22be 649e 24be 055f 813e ba51 7b3e

network.3.bias f4 [64]
0.49038053 -0.45370477 -0.5651726 -0.000630053 -0.017567704 -0.40121865 -0.37276226 0.7103134
0.31984818 -0.57402796 -0.14615001 0.33113068 -0.38785473 0.11961452 -0.9569134 -0.44014686
-0.69773525 -0.14664724 0.035809018 -0.20827591 -0.35040343 -0.6388926 0.26006234 -0.74757916
0.59755015 -0.16621937 0.78497463 0.06932382 -0.053512435 0.05377162 -0.22169231 0.14109495
0.4625745 -0.28390732 0.042758543 -0.2819877 0.17068706 -0.19344 0.43608892 0.27562955
0.2326794 -0.68809724 -0.076858215 -0.3669258 -0.24061044 0.07034287 0.33115634 0.039151363
-0.02361992 0.56907624 0.4963142 0.5138918 0.21774592 -0.022558354 0.26382482 0.13472487
-0.7160613 -0.11460446 -0.039011985 -0.5294014 -0.011799899 0.045835774 0.0110322675 -0.03442142
00000000: 2813 fb3e fe4b e8be 27af 10bf 242a 25ba
00000010: 25ea 8fbc 886c cdbe b2da bebe 19d7 353f
00000020: 24c3 a33e 7ff3 12bf 59a8 15be f689 a93e
00000030: e594 c6be 75f8 f43d 47f8 74bf ee5a e1be
00000040: c79e 32bf b22a 16be 7aac 123d 4846 55be
00000050: 1468 b3be 778e 23bf e426 853e 5961 3fbf
00000060: 0cf9 183f 6935 2abe 19f4 483f a6f9 8d3d
00000070: db2f 5bbd a13f 5c3d 4f03 63be 327b 103e
00000080: 91d6 ec3e 4d5c 91be 9523 2f3d b160 90be
00000090: 97c8 2e3e 2315 46be 0c47 df3e 511f 8d3e
000000a0: 8243 6e3e 2427 30bf d767 9dbd b3dd bbbe
000000b0: 9562 76be ec0f 903d 538d a93e 2e5d 203d
000000c0: 907e c1bc fbae 113f e51c fe3e 6a8e 033f
000000d0: c9f8 5e3e 4ccc b8bc 0c14 873e 51f5 093e
000000e0: cb4f 37bf beb5 eabd 08cb 1fbd da86 07bf
000000f0: 5d54 41bc 4bbe 3b3d afc0 343c 7afd 0cbd

network.5.weight f4 [32, 64]
-0.016782407 0.32625225 -0.027559811 0.010643545 0.3180215 0.40815926 -0.12347398 -0.42296955
0.16273634 0.3296806 -0.029683506 0.13718818 -0.21807837 -0.06145641 -0.12797536 -0.067902215
0.48214144 -0.124818094 -0.3774381 -0.053182364 0.12995724 -0.029668447 -0.008517629 0.4454721
0.03716472 -0.31904203 -0.5344174 0.17748705 -0.70872855 -0.3181826 0.30244854 -0.020656891
-0.018999193 0.009088271 -0.39609742 -0.3688594 -0.47616315 -0.19760723 -0.07290658 -0.11237246
-0.065951176 0.15896773 -0.15574393 -0.13489354 0.060433283 -0.1772446 -0.2832664 -0.039247666
0.28459978 -0.000672525 -0.19152352 -0.22809194 0.2931895 0.21027921 -0.10046247 0.34437743
0.34326455 0.34392717 -0.25103915 -0.3024401 -0.20865448 0.07049414 -0.089639835 -0.22366495
-0.1731781 -0.2767722 -0.3468372 -0.2894808 0.076967105 0.029064877 -0.22744676 0.14535715
0.40647 -0.27246356 -0.330264 0.47439787 -0.14862251 0.21526042 -0.58025134 -0.19456059
0.22142495 -0.17819029 0.25733927 0.0255458 -0.18714951 -0.34250176 0.05659447 0.1235213
0.15109284 -0.22804251 -0.24543327 0.05266289 0.07287065 0.167108 -0.14382565 -0.10213083
-0.24622571 -0.16237073 0.08107495 0.46722826 -0.049866203 -0.107440926 -0.32837185 0.3092475
-0.3590442 -0.060187344 -0.016077986 0.023851082 0.5573994 0.39313525 0.68901163 0.12600711
0.089466505 0.15641949 -0.32150626 -0.24764533 -0.0074865716 0.3643827 -0.056077708 -0.39446872
-0.029652739 -0.2956139 -0.007170692 -0.02837576 0.53029984 -0.6919206 -0.21409194 0.13664679
-0.13561569 -0.146763 -0.23510796 0.0026601453 0.059901264 0.048713196 -0.6318476 -0.24201636
0.24787316 0.2635171 -0.013967919 -0.21762928 0.003416739 -0.2605861 -0.4294972 0.07644475
0.07258176 -0.015815537 -0.15114853 -0.08261752 0.16077782 0.3674965 0.17742379 -0.07623676
0.30751082 -0.16373539 -0.4657143 0.27242857 -0.28536493 0.12031226 0.10651308 -0.19676931
0.085773304 -0.20575021 0.046495833 -0.18694563 0.16988254 0.57055527 0.18335947 0.018237757
-0.3651587 0.19854197 0.24427602 0.28825906 -0.0373431 0.40762517 0.27998048 0.045161955
0.0043649008 -0.03916909 0.6172224 0.023139503 -0.085431635 -0.04494706 -0.22992028 -0.30050743
0.21185061 0.17570342 0.2709715 0.08970765 0.5976416 -0.11198418 -0.1270754 0.39036772
0.08368308 0.11781723 -0.2109711 -0.03668453 0.35762438 0.40280575 -0.40868148 -0.009629014
-0.1593957 -0.106270626 0.07317105 0.3081959 -0.56713635 -0.11428471 0.20091406 -0.41333213
0.22701485 -0.16835895 -0.5431504 0.102178395 -0.048283435 0.03865409 -0.010406449 -0.36962137
0.023673447 -0.17901178 -0.18153952 0.12583844 -0.32503793 0.020733321 0.025419315 0.09312362
0.18297386 0.08451263 -0.2902563 -0.3879491 -0.35594964 0.20962133 0.005493476 0.12705404
-0.22493967 0.5533576 -0.09088033 0.10387839 -0.34982985 0.2146416 0.14179944 -0.39835355
-0.10550225 0.4328072 -0.009335954 0.078760736 -0.3003643 0.30101877 0.1536644 0.1146392
-0.37313712 0.13333553 0.22948109 0.059749223 -0.3419121 0.12127529 -0.46830717 0.18806458
00000000: 427b 89bc 890a a73e 1dc5 e1bc 4362 2e3c
00000010: b7d3 a23e 40fa d03e eddf fcbd 778f d8be
00000020: 5ba4 263e e5cb a83e d32a f3bc 0f7b 0c3e
00000030: f04f 5fbe b7b9 7bbd f90b 03be 5110 8bbd
00000040: 3edb f63e a1a0 ffbd 913f c1be c0d5 59bd
00000050: 8313 053e 3e0b f3bc 868d 0bbc eb14 e43e
00000060: 093a 183d 7a59 a3be 94cf 08bf 2abf 353e
00000070: 3c6f 35bf d4e8 a2be 89da 9a3e a438 a9bc
00000080: 32a4 9bbc f9e6 143c 48cd cabe 24db bcbe
00000090: a8cb f3be 8d59 4abe 0c50 95bd 8823 e6bd
000000a0: 6911 87bd 70c8 223e 567b 1fbe 8821 0abe
000000b0: e488 773d 9c7f 35be 4b08 91be 29c2 20bd
000000c0: 10b7 913e 644c 30ba be1e 44be ef90 69be
000000d0: ef1c 963e 6f53 573e 44bf cdbd 3d52 b03e
000000e0: 5fc0 af3e 3917 b03e 3488 80be 6ed9 9abe
000000f0: 85a9 55be 3b5f 903d 1795 b7bd 6d08 65be
00000100: 9a55 31be 16b5 8dbe a594 b1be d436 94be
00000110: eea0 9d3d 7719 ee3c cee7 68be 81d8 143e
00000120: d61c d03e 5880 8bbe 5d18 a9be 47e4 f23e
00000130: 8030 18be 3a6d 5c3e 5a8b 14bf e43a 47be
00000140: 39bd 623e 8477 36be f9c1 833e 6d45 d13c
00000150: 1fa4 3fbe 645c afbe 9acf 673d bcf8 fc3d
00000160: 15b8 1a3e fa83 69be dc52 7bbe 0bb5 573d
00000170: 353d 953d 5c1e 2b3e 0847 13be f829 d1bd
00000180: 9822 7cbe 8344 26be a00a a63d 8b38 ef3e
00000190: 8140 4cbd fd09 dcbd 5b20 a8be b055 9e3e
000001a0: a4d4 b7be 0187 76bd fbb5 83bc 5863 c33c
000001b0: bab1 0e3f 0649 c93e 1163 303f 0208 013e
000001c0: 373a b73d 6e2c 203e 789c a4be bd96 7dbe
000001d0: ea51 f5bb 5f90 ba3e bdb1 65bd cef7 c9be
000001e0: 4dea f2bc b55a 97be 20f8 eabb 4874 e8bc
000001f0: bbc1 073f b521 31bf eb3a 5bbe 23ed 0b3e
00000200: d7de 0abe 0a49 16be 24c0 70be d555 2e3b
00000210: 075b 753d 7d87 473d c4c0 21bf 23d3 77be
00000220: 76d2 7d3e b7eb 863e b3d9 64bc 36da 5ebe
00000230: 5eeb 5f3b 8b6b 85be 0fe7 dbbe 118f 9c3d
00000240: bfa5 943d 968f 81bc aec6 1abe 6033 a9bd
00000250: f1a2 243e 8028 bc3e 95ae 353e 0522 9cbd
00000260: 0f72 9d3e 40aa 27be 1b72 eebe c27b 8b3e
00000270: 5a1b 92be 4666 f63d 8823 da3d e57d 49be
00000280: eaa9 af3d 2fb0 52be 6a72 3e3d ad6e 3fbe
00000290: b0f5 2d3e e90f 123f 96c2 3b3e 5967 953c
000002a0: 15f6 babe 964e 4b3e 7e23 7a3e b196 933e
000002b0: 14f5 18bd 3fb4 d03e 9a59 8f3e befb 383d
000002c0: 7107 8f3b c56f 20bd 4a02 1e3f 0e8f bd3c
000002d0: c8f6 aebd 691a 38bd 3970 6bbe 1cdc 99be
000002e0: 5eef 583e 99eb 333e c7bc 8a3e a5b8 b73d
000002f0: 0aff 183f f657 e5bd 0e20 02be 47de c73e
00000300: 0962 ab3d 294a f13d cf08 58be 8542 16bd
00000310: 8b1a b73e 8e3c ce3e b33e d1be 03c3 1dbc
00000320: a038 23be 6aa4 d9bd b4da 953d dacb 9d3e
00000330: d92f 11bf 1a0e eabd 6abc 4d3e 45a0 d3be
00000340: 9576 683e 4a66 2cbe e80b 0bbf e842 d13d
00000350: dac4 45bd c053 1e3d d07f 2abc 033f bdbe
00000360: d1ee c13c dd4e 37be 7fe5 39be cbdb 003e
00000370: 5f6b a6be edd8 a93c 2b3c d03c 99b7 be3d
00000380: 805d 3b3e f514 ad3d 799c 94be 44a1 c6be
00000390: 083f b6be f9a6 563e 9e02 b43b 741a 023e
000003a0: 9656 66be d8a8 0d3f 771f babd 31be d43d
000003b0: e61c b3be 02cb 5b3e df33 113e fff4 cbbe
000003c0: 9011 d8bd e898 dd3e d4f5 18bc 4f4d a13d
000003d0: 59c9 99be 221f 9a3e 335a 1d3e f5c7 ea3d
000003e0: d40b bfbe 1c89 083e 17fd 6a3e 9abb 743d
000003f0: 1a0f afbe 2e5f f83d f5c5 efbe 0094 403e

network.5.bias f4 [32]
-0.07743003 0.34467202 0.11237404 0.51824707 0.2646553 0.23125543 0.11642028 0.3904405
0.8801699 0.048023626 -0.2289434 0.1960228 0.5728146 0.09585386 0.2524636 -0.32905182
0.52064234 0.45069915 0.28279582 0.3883064 0.28626618 -0.92371 0.077096514 0.6578944
0.44053358 0.44376066 -0.050678924 -0.165708 0.14682084 0.4392692 0.08398681 0.1504107
00000000: a393 9ebd da78 b03e 5c24 e63d d7ab 043f
00000010: e680 873e 39ce 6c3e c16d ee3d d1e7 c73e
00000020: d152 613f 6cb4 443d 2370 6abe 33ba 483e
00000030: faa3 123f 074f c43d e942 813e 7b79 a8be
00000040: d148 053f 0ac2 e63e 9dca 903e 19d0 c63e
00000050: 7b91 923e 4278 6cbf c7e4 9d3d c46b 283f
00000060: 9e8d e13e 9934 e33e b494 4fbd 5caf 29be
00000070: 3458 163e e5e7 e03e 4701 ac3d 4305 1a3e

network.7.weight f4 [1, 32]
-0.3415718 -0.08495427 0.07584861 -0.056819364 -0.1018884 0.097292475 -0.048918325 0.10435932
0.14143628 -0.66331345 -0.19293383 -0.060934328 0.11889607 0.13891485 0.09858764 0.30366546
-0.07696052 -0.068660565 -0.090641275 -0.081054404 0.11070549 0.81504285 -0.17600037 -0.059592966
-0.09186477 0.09748312 0.3964927 -0.094321884 0.05384657 -0.088912904 -0.36460748 -0.051350415
00000000: 80e2 aebe 81fc adbd 8456 9b3d 6cbb 68bd
00000010: deaa d0bd 4741 c73d 955e 48bd 57ba d53d
00000020: acd4 103e e9ce 29bf 7290 45be 4696 79bd
00000030: c87f f33d b23f 0e3e 51e8 c93d 0a7a 9b3e
00000040: 7a9d 9dbd e99d 8cbd 22a2 b9bd daff a5bd
00000050: 8fb9 e23d a6a6 503f 7139 34be c117 74bd
00000060: 9923 bcbd 3ba5 c73d 1701 cb3e d52b c1bd
00000070: 398e 5c3d f817 b6bd d5ad babe d054 52bd
