models/price_predictor_nn_v12.pth (torch, 108959 bytes, 7 tensors)

network.0.weight f4 [256, 29]
000000 10 e4 9e bf 84 4a d9 be c9 5d 22 3e 0a 5b 9c bd
       -1.2413349 -0.42439663 0.15856089 -0.07634552
000010 75 0b a6 3e 88 94 b0 3e b1 5c e3 ba a9 a9 9e bd
       0.32430616 0.3448832 -0.001734635 -0.07747204
000020 72 d2 60 3d 12 f5 db bc 7c f7 17 bd 61 08 dd bc
       0.054888196 -0.026850257 -0.037101254 -0.026981534
000030 8e 25 18 bd 8b a8 39 3d 3a e0 96 3e 4a 16 43 3d
       -0.03714519 0.04532675 0.29467946 0.04762868
000040 00 fb 58 be 3a 81 61 3d 8f 96 8b be 4c 6d 4c 3e
       -0.21189499 0.05505488 -0.27263305 0.19963568
000050 09 4f 5c 3e 78 e0 68 be 7d 3f 0c bf 4b 78 76 3f
       0.21514525 -0.22741878 -0.54784375 0.962773
000060 37 84 64 bf f8 34 e0 bc 7c 71 be bf d0 86 bc bf
       -0.89264244 -0.027369007 -1.4878383 -1.4728642
000070 0d ac 03 3d 36 ab c8 bc 8c 35 cb bd 94 f3 3e bd
       0.032146502 -0.024495702 -0.09922323 -0.046619013
000080 ee 08 17 be 6a 3c 85 bb d4 31 05 c0 8a 07 87 bd
       -0.147495 -0.00406604 -2.0811663 -0.06593235
000090 c3 37 01 3d d0 95 9f bd a7 25 a5 bc b7 b3 bd bb
       0.03154732 -0.07792246 -0.020159556 -0.005789246
0000a0 b8 0d 8d bb 56 65 8f bb a9 a4 9b be 3a 63 07 be
       -0.004304614 -0.004376094 -0.30399063 -0.13221446
0000b0 68 f2 1c bd 2e c3 7b bf cb 96 f2 be 9b 8f ca 3e
       -0.038317114 -0.98344696 -0.4738067 0.39562687
0000c0 50 06 34 bc 0f c6 8d bf e5 ba e2 be 8e 12 93 bf
       -0.010987833 -1.1076068 -0.44283214 -1.1490037
0000d0 83 6c 77 be 89 b4 c2 3d db 79 54 3e 38 e6 61 be
       -0.24162488 0.095070906 0.20749609 -0.22060478
0000e0 f3 95 fd bd 6b 7a f3 3d 79 ea 3e bf 45 d1 2d 3e
       -0.12382116 0.11888584 -0.74576527 0.16974361
0000f0 57 74 a4 bc a0 a2 b3 3d 14 c1 c9 bd fd ee a1 3e
       -0.020075006 0.08771253 -0.0985128 0.31627646
000100 a7 84 fe bd 9a 83 6b be f2 a9 30 3f c2 a5 09 bf
       -0.12427645 -0.22999421 0.69009316 -0.5376855
000110 8d a4 58 bc 4c a3 b9 bc 64 fd d3 bc e1 f4 57 bd
       -0.013222826 -0.022660874 -0.025877662 -0.05272377
000120 49 cc 0e 3e 23 1e 6a 3e 1f c2 82 be d4 5e 30 be
       0.13945116 0.22863059 -0.25538728 -0.17223674
000130 69 7b e8 3e cc 4d ca 3d 3c 73 a3 3b 97 49 db 3d
       0.45406654 0.0987812 0.0049881022 0.107073955
000140 3f 1e 1b be 47 10 b4 bf 2f 6d 56 bf 62 a1 f9 be
       -0.15148257 -1.4067467 -0.8376035 -0.48755938
000150 52 cd 8c bd 4e 98 23 3f e9 d1 1f be 09 e6 c5 bf
       -0.06875099 0.63904274 -0.15607418 -1.5460826
000160 b3 d9 80 3e e4 19 91 3e 60 d4 3f bd 20 14 48 bf
       0.2516609 0.28340065 -0.046833396 -0.7815571
000170 3d 61 cf bf 45 c8 1b 3d 06 ef 90 3d 7f 84 17 be
       -1.620155 0.03803279 0.0707684 -0.14796637
000180 af 47 07 3d 06 1c 2b bc ef 30 a2 bb 05 ea c2 bb
       0.033027347 -0.010443693 -0.004949681 -0.0059483075
000190 ae 12 5f 3c cb 76 02 3e 3a a7 c5 3d 7c 35 bb bd
       0.013615293 0.12740628 0.096510366 -0.09141061
0001a0 c1 20 01 bd aa 15 83 be c9 72 51 be 4a 25 62 be
       -0.031525377 -0.25602466 -0.20453943 -0.22084537
0001b0 d8 8e 1e bd 49 a4 27 bf e2 95 17 bf a9 b2 b6 be
       -0.038710445 -0.65485054 -0.5921308 -0.35683182
0001c0 7e cd 19 bf 93 09 83 bd 51 3e 0b bf 4c d2 45 bd
       -0.6007918 -0.063983105 -0.5439196 -0.048296258
0001d0 9f ae 82 be ac 18 46 bc 98 f3 83 3e c3 33 43 3e
       -0.2552385 -0.012090843 0.25771785 0.19062714
0001e0 0d a1 29 bd 8d 61 f9 bf a5 c7 59 be bf 32 f2 3e
       -0.041413356 -1.9482895 -0.21267565 0.4730434
0001f0 06 3d 44 bf 44 6f 48 3d ac bb fe bc f4 2d f3 bc
       -0.76655614 0.048934236 -0.031095348 -0.029684998
000200 02 07 b3 bc 4f 88 81 be 4a 51 7a 3e e6 6e 8d bd
       -0.021853928 -0.25299308 0.24445072 -0.06905918
000210 b0 94 1b 3f 8d ac 26 bf da d8 a1 bd 51 98 81 be
       0.60773754 -0.6510704 -0.07902689 -0.2531152
000220 04 e9 2c 3f a1 da 0f bf c3 c6 3d bf 70 b2 f4 3e
       0.67543054 -0.56192976 -0.7413141 0.47792387
000230 df a9 67 bc 51 e9 d8 be 63 c7 12 be 98 01 96 bc
       -0.0141396215 -0.42365506 -0.14333872 -0.018311307
000240 33 54 03 bf 80 a9 ae 3d f1 81 61 3e c6 70 41 bd
       -0.5130035 0.08528423 0.22022225 -0.04722669
000250 b1 cb d4 3e 82 75 20 3d 12 67 19 3f 61 c7 5c bd
       0.41561654 0.039174564 0.599229 -0.05390108
000260 17 59 ba 3e 64 52 fa bd 13 e4 9d 3e 41 13 46 3d
       0.36396095 -0.12222746 0.3083807 0.048358206
000270 f7 0b 02 3d 46 ed 1d 3d ba ca 0f be 15 d0 87 3c
       0.03174969 0.03855636 -0.14042178 0.016578713
000280 c7 20 b9 be 0d 8b 40 3f b5 5d 12 bf de 89 a1 3d
       -0.3615782 0.75212175 -0.57174236 0.07887624
000290 74 af 76 bf 50 0b 10 be 26 d1 f6 be 9d 42 10 be
       -0.9636147 -0.14066815 -0.48206443 -0.14087911
0002a0 35 a5 8b be 59 7a 6e be 46 a7 5c 3d fd 9e 18 bf
       -0.2727448 -0.2328886 0.053870462 -0.59617597
0002b0 40 b3 7a bf 27 ba c5 bc 9e 6f 09 3f c6 7e a6 3e
       -0.97929764 -0.024136616 0.5368594 0.32518595
0002c0 ed af 17 bf 9c df 91 3e 08 e0 50 bf ea d7 91 c0
       -0.59252816 0.28490913 -0.81591845 -4.5576067
0002d0 8e 29 fd 3d 11 ab 80 3e b8 2f 4b bd a7 96 e4 be
       0.123614416 0.25130513 -0.049606055 -0.4464619
0002e0 90 e8 64 3b 11 47 3f 3b 06 b2 eb 3b 01 2a 44 be
       0.0034928657 0.0029186646 0.007192853 -0.19156648
0002f0 1d 05 25 be 00 fa 3f 3e 38 14 90 be b4 93 13 be
       -0.16115232 0.18747711 -0.28140426 -0.14411813
000300 2d 1b 2d 3e 0f 8f a6 bd 76 52 5b bf e5 f1 95 be
       0.16904898 -0.08132755 -0.856727 -0.29286113
000310 73 67 37 bf 41 b0 2b 3e 2e 2c cf bd 6a f7 08 bf
       -0.71642226 0.16766454 -0.101158485 -0.53502524
000320 39 1a db bc 63 bc 01 be 1a e1 e9 be 65 0f c3 be
       -0.026745902 -0.1266952 -0.4567955 -0.38097683
000330 f9 94 0f 3e 42 cf 30 bd c0 9e 03 3c c4 fb 9f bd
       0.14021672 -0.043166406 0.008033454 -0.07811692
000340 e7 e3 7e 3d d8 4f 38 be 2a 51 fa be 60 b4 8d be
       0.062229063 -0.17999208 -0.48890048 -0.27676678
000350 39 39 9e 3e d3 ae fc bb fe 56 88 3b 02 b5 a0 bc
       0.30903032 -0.0077112704 0.004160761 -0.019617561
000360 77 f3 68 be c5 e1 c0 bb c3 f1 ba 3e f9 d1 8d be
       -0.22749124 -0.005886289 0.36512575 -0.2769926
000370 8f 13 3a be 45 29 99 bd 75 14 43 bd 34 a7 90 be
       -0.18171524 -0.07478575 -0.04762693 -0.28252566
000380 8a a2 9e 3e c7 cc 03 bf 66 1a df be ef cb 8f 3e
       0.30983382 -0.5148434 -0.43574828 0.28085276
000390 f3 a4 07 3e fb c2 96 3e 28 e4 e9 be 56 97 e3 3e
       0.13246517 0.29445633 -0.45681882 0.44451398
0003a0 8b e5 db 3e 4a 45 ac bd dc 71 d2 3a f0 48 03 3e
       0.42948565 -0.08411653 0.0016055661 0.12820792
0003b0 73 65 30 3b 16 07 9e 3f b8 85 87 bc 7b 44 fa 3c
       0.0026915937 1.2345912 -0.016543254 0.030550232
0003c0 8c 60 b9 bc ae c3 b7 3c 14 ba da 3d 03 aa b3 3d
       -0.022629045 0.022432175 0.10680023 0.087726615
0003d0 0e 94 aa 3d 51 57 4e be 77 c3 85 3c 05 6b 44 3e
       0.083290204 -0.20150496 0.016328556 0.1918145
0003e0 5e d7 29 3f 46 8c f9 bd e4 d7 f1 bd 3a 90 f6 bd
       0.6634425 -0.12184958 -0.11808756 -0.12039228
0003f0 e1 99 cf bf 91 d4 fd 3d 9a 52 af 3f 09 53 77 be
       -1.6218835 0.123940594 1.3697083 -0.24152769

network.0.bias f4 [256]
000000 89 d1 c6 be 07 f4 73 be 74 43 c2 be 45 8d f0 be
       -0.38831738 -0.23823558 -0.37942088 -0.4698278
000010 ad 1c 80 be db 9a 33 bf 06 b0 fc be 00 54 9e be
       -0.25021878 -0.70158166 -0.49353045 -0.30923462
000020 9d 93 8d be 81 ce 45 bf 31 56 9f be 43 aa ff be
       -0.27651682 -0.77268225 -0.31120446 -0.49934587
000030 11 a6 1f bf 30 5c 06 bf c0 a4 1f bf 97 32 8f 3d
       -0.6236277 -0.52484417 -0.62360764 0.06992071
000040 84 6e 4f bf b6 de e1 be a8 ce 85 be a8 9f 85 bf
       -0.8102801 -0.44115227 -0.2613423 -1.0439348
000050 7c 8f ea be 1f 33 01 bf ea 9e 12 bf 15 00 a3 be
       -0.45812595 -0.5046863 -0.57273734 -0.31836
000060 80 10 4a 3c 8e e9 0d bf c0 7d 28 bf cd 4e ea be
       0.0123330355 -0.554345 -0.6581688 -0.45763245
000070 82 0c 98 bd cf b6 28 be 14 da bc be bf a6 78 be
       -0.07424261 -0.16475986 -0.3688513 -0.24282359
000080 41 de 0b bf e1 ff d1 be 99 c3 07 bf c3 7f ae bd
       -0.5463601 -0.41015533 -0.53032833 -0.08520462
000090 9c 37 fd be 96 dc 5f bf 9f 52 f3 be aa be c3 be
       -0.4945649 -0.8744596 -0.47523972 -0.38231403
0000a0 b1 4e ab be ba 10 7e be a9 8f 29 bf 87 41 3e bf
       -0.33458474 -0.24811068 -0.66234833 -0.74318737
0000b0 b6 7f c8 be 86 1c f7 be 21 8d 3b bf 1e bd 37 bf
       -0.39159936 -0.4826395 -0.7326222 -0.71772945
0000c0 df 80 83 be 1f 66 fa be e6 a8 8d be cb 80 89 be
       -0.25684258 -0.48906037 -0.27667922 -0.26856074
0000d0 22 5c c0 be c8 b6 34 be d5 b3 cd bd 9e 3a e0 be
       -0.37570292 -0.1764785 -0.10044066 -0.4379472
0000e0 22 f2 2b bf 2c b0 9e bd 1e 93 df be 78 12 b9 be
       -0.6716634 -0.07748446 -0.4366693 -0.36146903
0000f0 eb 5a e9 be d0 20 b0 be 85 4d 53 bf 48 dc 2e be
       -0.45577177 -0.34400034 -0.8254016 -0.17076218
000100 4f 39 f1 be f9 17 a7 be df 4b e8 be 23 da ec bd
       -0.47114035 -0.32635477 -0.45370385 -0.11565044
000110 67 16 06 bf 4a 96 e4 be f3 0c 59 be 9b 8f 82 be
       -0.52377933 -0.4464591 -0.21196346 -0.25500187
000120 50 65 43 bf 50 99 41 bf 4a bf f4 be ad f1 92 be
       -0.76326466 -0.7562456 -0.47802192 -0.2870001
000130 d5 b9 46 bf 41 d8 13 bf 64 c8 82 bd 55 3e b3 be
       -0.7762731 -0.5775185 -0.06385878 -0.35008493
000140 e2 6d 03 bf cc 95 82 bf 4f 78 46 bf c2 dc cc be
       -0.5133954 -1.0201964 -0.77527326 -0.40012175
000150 a3 12 5b be ac d3 d8 be d1 0f e8 be a3 8b 44 bf
       -0.21393828 -0.42348993 -0.45324567 -0.7677557
000160 65 9a ad be de 38 c4 be c6 07 0d bf 81 de b0 be
       -0.33906856 -0.38324636 -0.55089986 -0.34544757
000170 40 07 c6 bb a3 69 3b be 4e 6e d8 be f0 ba 80 be
       -0.0060433447 -0.18302016 -0.42271656 -0.25142622
000180 c9 0c 09 3f 4d 71 fc be 3d 5c ec be ef 20 21 bf
       0.53535134 -0.49305192 -0.46164122 -0.6294088
000190 41 c2 fd be a0 84 9b be d0 70 de be d3 ee 0d bf
       -0.49562266 -0.30374622 -0.43445444 -0.5544254
0001a0 7a c8 bb bc f4 5e 41 bf cc 95 5a bf 74 58 4e bf
       -0.022922743 -0.7553551 -0.8538482 -0.8060372
0001b0 ec 44 3f bf c2 39 c5 be fe ea 38 bf cb df 17 bf
       -0.7471454 -0.38520628 -0.7223357 -0.59325856
0001c0 5c e7 c8 be 1a 3f ec be 4f 7f 8b be 57 81 1a bf
       -0.39239013 -0.46141893 -0.27245566 -0.60353607
0001d0 52 25 9e bd 5c a5 f7 be 4a b5 22 bf 3b fc 38 be
       -0.07721962 -0.48368347 -0.63557875 -0.18064968
0001e0 16 f7 0b bf c1 3b 84 be 8b 40 73 be bc b6 ca 3e
       -0.546739 -0.2582684 -0.2375509 0.3959254
0001f0 e2 4e 5f bf 63 78 5e bf 18 46 30 bf b8 9f 1b bf
       -0.8722974 -0.86902446 -0.68856955 -0.60790586
000200 f4 2b c5 be 93 c2 d1 be 85 fe ad be 32 1c 9e be
       -0.38510096 -0.4096876 -0.33983245 -0.30880886
000210 21 5f 1b bf 52 6b f8 3e fd eb 76 bf 5d ed c4 be
       -0.6069203 0.4851938 -0.9645384 -0.38462344
000220 1a 25 2e be 9b 92 a4 be c6 40 10 3d 6f 53 2b bf
       -0.1700634 -0.321431 0.035218023 -0.66924185
000230 fd 4f d4 be ac e5 b5 be 8c ac ed be a6 44 79 be
       -0.41467276 -0.35526788 -0.46420705 -0.24342594
000240 25 75 e1 be 3a e8 79 be 1d 48 11 be 03 af ad be
       -0.44034687 -0.24404994 -0.14187665 -0.33922586
000250 95 cf 25 bf 81 eb f4 be c8 2f 6a bf 06 0e 94 be
       -0.6476987 -0.47835925 -0.9147916 -0.2891695
000260 61 9d 25 be da 2e 95 be 41 f0 ec be 12 32 09 be
       -0.16173317 -0.29137307 -0.4627705 -0.13398007
000270 1b 44 17 be ff 54 77 be dc 2b 76 be 56 ae b3 be
       -0.14772074 -0.24153517 -0.24040169 -0.35093945
000280 d9 f6 8a bd f0 a3 02 bf b2 d1 c2 be 41 e2 fe be
       -0.06785364 -0.510314 -0.3805061 -0.49781993
000290 f8 6f 9b be a2 5b 7a bf 23 52 0f bf 2c 11 43 bf
       -0.30358863 -0.9779607 -0.55984706 -0.7619808
0002a0 5b 23 2c bf e6 03 19 3e 68 4e 58 bf 0d aa 19 bf
       -0.6724145 0.14942893 -0.8449464 -0.600251
0002b0 6f e0 e7 be 88 d7 37 be fc 86 42 be 52 bb 0b bf
       -0.45288417 -0.17953312 -0.18996805 -0.54582703
0002c0 07 29 48 be c5 ae 20 3d d8 d4 69 be 09 01 e4 be
       -0.195469 0.039229173 -0.228351 -0.4453204
0002d0 79 28 1d bf 20 f1 01 be 91 99 3f bf a2 b2 be be
       -0.6138988 -0.12689638 -0.748437 -0.3724566
0002e0 f1 b7 4b bf e5 c5 2e bf cf f8 26 bf c8 4d b7 be
       -0.7957755 -0.68270713 -0.652234 -0.3580153
0002f0 4c 3b bf be 55 80 03 bf 60 29 da 3c 5d a7 43 bf
       -0.37349927 -0.51367694 0.026631057 -0.7642725
000300 92 71 36 bf 1a a9 1d be 98 00 99 be 41 e0 2c bf
       -0.71267045 -0.15396538 -0.29883265 -0.67529684
000310 39 3e b0 be df 6d 9a be d5 42 06 be 47 1c 4c bf
       -0.34422472 -0.3016195 -0.13111432 -0.7973065
000320 03 f5 b0 be f6 47 00 bf 76 0e d4 be 4e 94 28 be
       -0.3456193 -0.50109804 -0.41417283 -0.16462824
000330 50 83 b9 be 29 04 2e be df 42 3f bf 85 b4 7e be
       -0.36232996 -0.16993774 -0.7471141 -0.2487355
000340 d8 e9 da be fd d9 00 bd 69 c4 f3 be 55 ee 87 be
       -0.42756534 -0.03145789 -0.47610787 -0.2654902
000350 73 18 bb bd 32 7c 18 be 52 44 d1 be bf b5 15 bf
       -0.09135523 -0.14891127 -0.40872437 -0.5848045
000360 ce d7 3c bd 63 aa 29 3e 71 80 eb be 62 4d a8 be
       -0.046104245 0.16568904 -0.4599643 -0.32871538
000370 38 1d 74 bf d1 10 df bd 24 9e cd be 2d 87 0d bf
       -0.95357084 -0.10891879 -0.40159714 -0.55284387
000380 2f e3 7f be 9d c2 9d be 45 1b 4e be 4c dc 99 be
       -0.24989007 -0.3081254 -0.2012759 -0.30050886
000390 ed c9 86 be 5e 57 15 bf 96 6c ff be a4 72 14 bf
       -0.26325932 -0.58336437 -0.49887532 -0.5798743
0003a0 71 01 7d be af 66 30 bf c9 c3 1c bf 5c ed 35 bf
       -0.24707581 -0.6890668 -0.61236244 -0.71065307
0003b0 5b 6d de be 88 e2 9d be 40 66 0d bf 57 c4 63 be
       -0.43442807 -0.30836892 -0.55234146 -0.22242866
0003c0 e1 90 1d bf 99 b3 c5 be c0 6c fe be 30 a2 42 bf
       -0.6154919 -0.38613585 -0.49692345 -0.7602873
0003d0 6d a1 b7 be 94 0b a7 be ab 51 47 bf 87 e2 1d bf
       -0.35865346 -0.3262602 -0.7785899 -0.6167378
0003e0 19 fa d6 be a5 df 06 bf fd 16 5d bf a3 17 1a be
       -0.41987684 -0.52685004 -0.863632 -0.15048079
0003f0 bb 33 00 bf 9c 36 27 bf d1 b9 da bd a7 9b a1 be
       -0.50078934 -0.653177 -0.10679973 -0.31564066

network.3.weight f4 [64, 256]
000000 99 c1 0e 3e 10 72 82 bc f5 0d 3b bf 3e dd 64 3e
       0.13941039 -0.01592353 -0.7306817 0.22350022
000010 6f 65 d3 be a8 5f bd be 03 d4 cf bd 89 ef 13 3d
       -0.41288325 -0.36987042 -0.1014786 0.03611711
000020 37 98 3a 3d 69 f0 c7 be 37 c4 75 3e e0 80 96 3e
       0.04555532 -0.39050606 0.24000631 0.293952
000030 4e 04 88 3d 01 a3 0a be 76 36 bf bd a7 a9 c3 3d
       0.06641446 -0.13538744 -0.093365595 0.09553843
000040 7b 01 08 bf a4 1b 11 3e 20 8d da 3d b4 56 4e bc
       -0.5312726 0.141707 0.10671449 -0.012593914
000050 13 2a 83 be 88 16 32 3f 9c 5c 9a 3e 6e 2e 6c bf
       -0.25618038 0.6956563 0.3014878 -0.92258346
000060 6f 66 84 bd 42 47 03 3e e1 45 90 3d 78 a3 bd be
       -0.0646485 0.12820151 0.07044578 -0.3703878
000070 6c 97 6a 3e ef c7 34 bd 85 8b 54 bf d0 98 2b bd
       0.22909325 -0.044135984 -0.8302539 -0.04189378
000080 0a a0 80 c0 95 a5 d9 3e 03 d3 79 3d 50 cc a8 bb
       -4.019536 0.42509142 0.060992252 -0.005151309
000090 a9 f0 b7 be 53 a3 0b bf b2 e6 e8 3e 5f f3 06 be
       -0.35925797 -0.5454609 0.45488507 -0.13178776
0000a0 5c 31 80 3e 59 40 8d 3e 62 6d c9 3e b6 c0 1c be
       0.25037658 0.27588156 0.39341265 -0.15307888
0000b0 c3 c7 21 bd 62 8b 3b bd 4e 83 66 be 64 1b 61 c0
       -0.03949715 -0.045787223 -0.22511026 -3.5172968
0000c0 1e 90 90 be 5a 56 e4 bf 61 fc c1 3d cb f7 ae bd
       -0.28234953 -1.7838852 0.094719656 -0.085433565
0000d0 74 df d1 be 04 78 f5 3d 7a 34 00 bd 35 32 0b 3e
       -0.40990794 0.11985782 -0.031300046 0.13593371
0000e0 a4 b3 4d 3f b7 23 4a be bb b1 51 bf 99 7c b0 3d
       0.80352235 -0.19740187 -0.8191182 0.08617515
0000f0 48 c9 db 3d fb 7a 4b be d8 3e 06 3f 49 7e b0 bd
       0.10731751 -0.19871132 0.5243964 -0.08617837
000100 f7 9b ac bc 26 35 74 bd ff d9 1c bf 60 4e e5 3e
       -0.021070464 -0.059621 -0.61270136 0.44786358
000110 9e e2 7e bd 38 28 db 3c 5b 72 07 3e 3d de f9 bc
       -0.062227838 0.026752576 0.13227217 -0.03050148
000120 2c bb 74 3e 9a fd 55 bf 78 ad e3 3b 6d b4 d2 3e
       0.23899525 -0.8359009 0.0069481693 0.4115328
000130 85 85 f0 3d ec 79 ae 3e 8e 3a 80 3d 43 ed 70 bd
       0.11744217 0.34077394 0.062611684 -0.05882002
000140 30 27 28 be 27 c1 c0 be 5c 22 70 3e 50 b1 cb bd
       -0.16421199 -0.37647364 0.23450607 -0.09945929
000150 7e 33 4f 3e f6 ab 9d bd 58 30 9f be e9 35 18 bf
       0.20234486 -0.076988146 -0.3109157 -0.5945726
000160 02 97 cf 3d 0e be b9 3e fe e4 33 3e d5 0a 86 3d
       0.10136224 0.36277813 0.17567822 0.06545035
000170 5a 98 8d 3d ca 11 44 3d f7 f5 06 3c 16 30 c7 3d
       0.069138244 0.047868527 0.0082373535 0.097259685
000180 67 f4 36 3d dc 28 a4 bd 4d 6d 49 3e bc 95 b2 be
       0.044666674 -0.08015606 0.19670601 -0.34879863
000190 01 e7 03 bf f4 78 c3 3d 2c 54 51 3e e6 1a 83 bc
       -0.5152436 0.09544554 0.20442265 -0.016004037
0001a0 e5 42 90 3d 5e 9f 9f 3f 1c 3d bc 3d fb 45 3f be
       0.07044009 1.247051 0.09191343 -0.18679039
0001b0 e8 4c 8b 3e fd ed 1f be 4b 53 e0 bf 05 2f e3 be
       0.27207112 -0.15618129 -1.7525419 -0.4437181
0001c0 e7 af 41 3e 48 a7 f5 3d e9 e6 e5 bd 5b da 20 3e
       0.18914758 0.11994797 -0.11225683 0.15708296
0001d0 0c 4c 94 3e 6a 93 30 3e e7 3e 0f 3f 3f 45 3e 3d
       0.2896427 0.17243734 0.55955356 0.046452757
0001e0 62 c7 31 3e 5d 99 09 3e 38 42 cc bc e5 3f 06 3d
       0.17361215 0.1343741 -0.02493392 0.03277578
0001f0 6e ac 9c bf 89 a4 ac 3d fb 7f 0b be c5 0a c7 3d
       -1.2240121 0.0842982 -0.1362304 0.09718851
000200 48 fc 93 be e4 a7 0c 3e 92 37 bd bd b9 22 fb 3c
       -0.28903413 0.1373592 -0.09239115 0.030656205
000210 cf 79 c0 3e a4 18 3f 3c a2 cd 3d bf 6f 1b 1c bf
       0.37592933 0.01166359 -0.74141896 -0.6097936
000220 dc 08 e4 3d 8e 2f 70 be f6 93 f0 3c 5a 32 79 bd
       0.11134502 -0.2345564 0.029367428 -0.060839035
000230 b4 48 47 3e de 56 6d be f7 88 5b be bb 99 d9 3e
       0.19461328 -0.23177668 -0.21438967 0.425001
000240 64 7d 28 be 24 d4 c5 3d 87 40 bc 3c d1 dc c0 bd
       -0.16454083 0.09659603 0.022979988 -0.094171174
000250 ec 9a 13 bf a6 0c 1a c0 2b 7a cd bf 7c 13 57 3e
       -0.5765827 -2.407022 -1.6052908 0.21003526
000260 1f fc 57 3d c5 b5 9d bd 5a b2 12 3d 07 75 c6 bd
       0.052730676 -0.077006854 0.03581462 -0.0969029
000270 7b e2 02 3e c7 d9 85 bd db d2 80 be 4c 69 ff 3d
       0.12781708 -0.06535678 -0.2516087 0.12471256
000280 ac 90 ec bd 37 3d 7b 3e 34 d9 29 3e ea 09 19 3e
       -0.115510315 0.2453507 0.16586763 0.14945188
000290 b3 62 e4 3e a5 33 98 bf 8c 62 1b bf d7 33 fa 3e
       0.44606552 -1.1890761 -0.60697246 0.48867676
0002a0 ea c6 b1 be bb d3 89 3d e2 23 1c bf 29 a0 3a 3d
       -0.34722072 0.067298375 -0.6099225 0.045562897
0002b0 68 7d c2 be 2b c6 ff 3e 87 f3 2b be 9b c6 66 bd
       -0.37986302 0.49955878 -0.16792117 -0.05634175
0002c0 31 6b e0 bd 4d ec 1c 3e 58 e2 b4 bb 47 8f 9c bd
       -0.10957945 0.15324517 -0.0055201463 -0.076445155
0002d0 af 62 2e 3d 5f 9c 64 bd c9 cf 65 be 29 33 0a be
       0.04257458 -0.05581319 -0.22442545 -0.13496079
0002e0 59 7a 72 be 73 3e 83 be 56 2a 66 bf 47 79 14 bf
       -0.23679484 -0.25633582 -0.8990835 -0.57997555
0002f0 9b 3d 15 3e af 2a c5 3e 6e d9 a3 bc 35 e3 98 bf
       0.14574282 0.38509127 -0.02000114 -1.1944338
000300 85 18 94 bc 74 35 8d bd 5f 17 d8 bd 73 08 50 3e
       -0.018078098 -0.06894961 -0.10551333 0.20315723
000310 81 1a 56 be 31 23 0c be b7 b5 95 3e 17 39 8b bd
       -0.20908548 -0.136853 0.292402 -0.067979984
000320 33 5a 42 3f b9 2f dd bd d2 da 68 be 55 7d 8b bc
       0.75918883 -0.10800118 -0.22739723 -0.017027536
000330 45 60 9e 3e 2b 40 12 bc fc fb 9d 3e 4e 6d 94 3e
       0.30932823 -0.008926432 0.3085631 0.28989643
000340 47 4b b2 c0 7b d7 34 be eb 85 9c 3e 3e f3 c6 3c
       -5.571689 -0.17660324 0.3057092 0.024285909
000350 ce 37 3d 3e 13 db 9f 3d b1 63 0e 3e 18 90 2c be
       0.18478319 0.07805457 0.13905217 -0.16851842
000360 f4 da ae 3d 14 de 1a bd ec 22 18 3d b9 85 17 be
       0.08537856 -0.037809446 0.03714268 -0.14797105
000370 2e 8e 0d 3f ca 85 29 3e 6e e5 d4 bb 9c 63 44 bf
       0.55295074 0.16554943 -0.0064970767 -0.7671449
000380 dc 69 30 be 99 3e 5b be 7b 92 12 3c 1a 84 65 3c
       -0.17227882 -0.21410598 0.0089460565 0.014008546
000390 58 b2 8b bd 83 64 29 be ee 3e 61 bc cc 6b 0f 3e
       -0.06821126 -0.16542248 -0.013747914 0.14005965
0003a0 7b 9c 94 3e bd 9b f4 3e ff b3 40 bf 88 80 ca 3e
       0.29025635 0.4777507 -0.7527465 0.39551187
0003b0 40 4a c7 bd 34 24 dd 3d a5 3d c6 3d 06 c6 31 be
       -0.09730959 0.10797921 0.096797265 -0.17360696
0003c0 a7 a3 3e bf 2a 00 7d 3b e1 ee 51 3e c7 df bc bf
       -0.74468464 0.0038604834 0.20501281 -1.4755791
0003d0 7a 0c d2 bb 88 5b 72 3d 6c fb de bd d0 75 91 3e
       -0.0064101787 0.059169322 -0.10887799 0.28410196
0003e0 84 70 22 bf 0d 6b 2c be ce 8c d7 be 8d 60 fc bd
       -0.63452935 -0.16837712 -0.42099613 -0.12323103
0003f0 19 e3 8f be 27 ea 4b 3e bf 88 9e 3d 18 c5 45 3e
       -0.2810295 0.19913541 0.07740926 0.19313467

network.3.bias f4 [64]
000000 08 8e 14 3e 87 8b 58 3f fe fd 07 3e 8b be c1 3f
       0.14507306 0.845879 0.13280484 1.5136274
000010 36 79 35 3f 12 df 60 3f 50 cc c8 3e 44 f3 9b 3f
       0.7088808 0.8784038 0.39218378 1.2183614
000020 36 d7 a2 bc 52 ee 38 3f 45 d9 1a 3f 5f 67 05 3f
       -0.019878011 0.7223865 0.60487777 0.52110857
000030 54 16 68 3e 7a 92 12 3f 47 93 31 3f 29 eb f5 3e
       0.22664768 0.57254755 0.6936535 0.48030975
000040 e1 72 43 3f b2 9c fa 3e 25 78 45 3f 8e 5c d4 3e
       0.76347166 0.48947674 0.7713645 0.41476864
000050 3f d0 98 bf 96 c7 5e 3e f9 0b ff bd c2 03 b6 3e
       -1.1938552 0.21755823 -0.124534555 0.35549742
000060 b9 be 1f 3f a4 05 e8 3e d3 41 82 3e 29 c5 1c 3d
       0.62400395 0.45316803 0.25440845 0.038273964
000070 53 31 5a 3e 86 28 17 bf 61 19 89 3f 89 8d 31 3e
       0.21307878 -0.5904621 1.071087 0.17339148
000080 ea c6 25 3f c9 39 da 3f fd e5 34 3f e3 1c 26 3f
       0.64756644 1.7048885 0.70663434 0.6488783
000090 9e b0 53 bf f5 8c 5d bd ff 3f dd 3d c0 a9 00 be
       -0.8269137 -0.054089505 0.10803222 -0.12564754
0000a0 f8 e5 24 bd 8e 92 ec 3f da 81 36 3f 2e 58 a0 3f
       -0.040258378 1.8482225 0.7129189 1.252691
0000b0 21 71 11 bf ff 1f c4 be ea 90 90 3e 45 16 0e 3e
       -0.56813246 -0.3830566 0.2823556 0.13875683
0000c0 05 02 9f 3f f3 ed ca 3e 5e b1 9a 3e 0d 2f 1f bf
       1.2422491 0.39634666 0.30213445 -0.6218117
0000d0 0f 27 07 be 1f c4 80 3f 17 97 61 3f e0 a6 34 be
       -0.13198493 1.0059851 0.8812117 -0.17641783
0000e0 c9 53 0d c0 02 c7 4a 3f f7 bb be 3f 12 f2 e0 3d
       -2.2082388 0.7920991 1.4901112 0.10983671
0000f0 49 8d cc 3e 7c 4e b9 3e 85 08 63 3f 7d 8b ea 3e
       0.39951542 0.3619269 0.88684875 0.45809546

network.5.weight f4 [32, 64]
000000 d1 ea 9a bd 1c 6f 0d 3d 8e 2e 67 bd 35 83 ce be
       -0.07564319 0.03452979 -0.056440882 -0.40334478
000010 12 10 83 be ae ea 3a 3b a9 20 60 bd 45 36 8b 3e
       -0.25598198 0.0028521228 -0.054718647 0.27189842
000020 7e 8f a3 be 2c 38 dd 3d 39 f5 16 3f d5 49 37 bf
       -0.31945413 0.108017296 0.5896793 -0.71597034
000030 f6 bf c4 be e5 29 f6 bc 76 c3 ed bc 14 01 95 be
       -0.38427705 -0.030049274 -0.029023867 -0.29102385
000040 b3 d8 64 bf f4 47 8d 3d c6 79 ff 39 9c 88 1a 3f
       -0.89393157 0.068984896 0.00048728118 0.603647
000050 04 1d 41 3e c6 b0 c1 bc 19 33 85 bd e7 c6 d6 3d
       0.18858725 -0.023643862 -0.06503887 0.10487156
000060 9a c9 e8 bc 15 a0 05 3f b4 4a a3 3e d8 22 64 be
       -0.028416444 0.5219739 0.3189293 -0.22278917
000070 ce 5e 83 bb a1 c2 c3 3c ae f9 04 3d be 6d 57 be
       -0.0040091043 0.023896517 0.032464676 -0.21037957
000080 7d 8f 9c 3e 85 93 97 bd a5 84 99 bb 5c b0 d9 3d
       0.30578223 -0.07401184 -0.004685002 0.10629341
000090 96 cb 88 bf 2b 80 3a 3b 1a f8 0c 3f 93 81 e7 bc
       -1.068713 0.0028457742 0.5506607 -0.028260028
0000a0 db 3c 92 bd aa 0a 08 bd db 66 67 3e 12 51 a2 3e
       -0.071405135 -0.033213295 0.2259783 0.31702477
0000b0 b1 26 27 3e 09 8e f8 3d ad 58 07 3e e3 36 38 be
       0.16323353 0.12136466 0.13217421 -0.17989688
0000c0 c1 61 09 3e 77 9d 4e 3e 96 3d a1 3e 9b 1b e2 bc
       0.13416196 0.20177256 0.314923 -0.027601054
0000d0 e4 91 f0 bf 22 0f 12 be fb 31 9c be 9b 68 68 be
       -1.8794522 -0.14263585 -0.30506882 -0.22696154
0000e0 3b b2 03 3e b0 d5 2e 3d f5 82 42 be b2 52 98 be
       0.12860958 0.042684257 -0.18995269 -0.29750592
0000f0 2f 1c bc be dc 70 44 3d 72 3b 29 bd f6 61 0e be
       -0.36740252 0.047959194 -0.041316457 -0.13904557
000100 73 07 f9 bd 80 6d 0e 3e 8f cc 25 bc 6c 6f f4 3d
       -0.12159624 0.13908958 -0.010119571 0.119353145
000110 26 b3 d8 be 7a 70 fa 3d 3a 34 85 bd 8a c1 2b 3f
       -0.4232418 0.122284845 -0.06504102 0.6709219
000120 8e 39 67 3d f5 50 e2 bc e5 25 8f 3e 55 0b 94 bf
       0.056451373 -0.027626494 0.279586 -1.1565958
000130 7a af ab 3e 14 50 79 3e 6d 3e 5e 3e ac 85 44 be
       0.33532315 0.24346954 0.21703501 -0.19191617
000140 56 f1 35 be 2f 6d f8 3d a7 2b f6 3d b7 4a 40 3e
       -0.17767844 0.121302 0.12020045 0.18778501
000150 90 1f d7 bc 47 d1 a6 3d 58 74 aa bc 7f 92 01 3d
       -0.026260167 0.08145385 -0.02080743 0.03163385
000160 c9 e6 eb 3d 81 01 93 be ca f6 9b be 2c 4b a7 be
       0.11518628 -0.28712085 -0.30461723 -0.3267454
000170 cc 95 ac 3a 9e 17 3e be 47 9e 0f bd c1 d1 ec be
       0.0013167202 -0.18563697 -0.035063054 -0.4625378
000180 62 90 0c 3e 9f 22 e4 bd 8f 28 06 bf d1 8d b9 3d
       0.13726953 -0.11139416 -0.5240564 0.090602525
000190 41 5e a5 be b4 b3 97 bd 49 f1 99 bd 91 c5 8c bc
       -0.32298473 -0.074073225 -0.075167246 -0.01718405
0001a0 d5 30 03 3e c7 26 8d 3e 47 dd 87 be db 2b 7d bc
       0.12811597 0.27568647 -0.2653601 -0.0154523505
0001b0 8f c3 d6 be a8 1a a4 be 1f 96 23 3c 0a 5b c4 be
       -0.41946074 -0.32051587 0.009984522 -0.38350707
0001c0 1a 7a de bb 1a 3e b4 be 76 27 44 3e a2 b7 18 bf
       -0.006789458 -0.3520363 0.19155678 -0.596552
0001d0 0f a2 80 3f 43 a3 88 3e ee a7 fa 3d f8 58 ba 3d
       1.0049456 0.2668706 0.12239061 0.09099001
0001e0 9e c8 56 be b5 8c d5 bd f3 2b cd be 1e 1e 70 be
       -0.20974967 -0.10427228 -0.40072593 -0.23448989
0001f0 7c aa a1 be f2 3f 33 bd 8c 62 5b bc 6d 8b 28 bf
       -0.31575382 -0.043762155 -0.013390195 -0.65837747
000200 c1 b4 7c 3e bb 93 8d be 14 58 37 be 8e 7b d4 bd
       0.24678327 -0.27651772 -0.17904693 -0.10375129
000210 ba 5d d9 be 40 c8 26 be 55 ab 29 be 4b 76 b9 3e
       -0.4245432 -0.16287327 -0.16569264 0.36223063
000220 9a 1a e9 bd 33 cd b4 bd 61 66 75 be ec c3 df bc
       -0.11382027 -0.08828201 -0.23964836 -0.027315103
000230 26 f8 51 bb d4 f8 67 3e 35 d7 08 be ba ab 93 3d
       -0.0032038777 0.22653514 -0.13363345 0.072104886
000240 7c c1 b6 be 15 67 20 bf 36 a9 1f 3d b0 9c 44 be
       -0.35694492 -0.6265729 0.03897973 -0.19200397
000250 71 a8 83 be 0e b1 86 be 84 03 1b 3d 27 9c 77 bf
       -0.25714448 -0.26306957 0.03784515 -0.96722645
000260 85 32 19 3e 4b ec 08 3f 9e 20 13 3e b5 c0 98 3d
       0.14960678 0.53485554 0.14367911 0.07458631
000270 64 b0 cc be e0 f0 7f 3d 52 4f 42 3d 27 13 94 3e
       -0.39978325 0.062485576 0.047438927 0.28920862
000280 de 14 8a 3d 89 20 53 be b2 99 71 3b 7f a5 b1 3e
       0.06742261 -0.2061788 0.0036865291 0.34696576
000290 bd 0b 4a 3e a0 04 bf bd 5b db ac bf bc 90 c1 bd
       0.1973104 -0.09327054 -1.3504442 -0.09451434
0002a0 70 b0 a3 bd aa 3a 35 bf 8a ed e0 bc 3b 51 08 3d
       -0.07992637 -0.7079264 -0.027457017 0.033280592
0002b0 3b 7a f9 bd f1 86 07 bf 9d 81 80 be f8 4d e4 bd
       -0.12181517 -0.5294028 -0.25098887 -0.11147684
0002c0 bc 61 0d bd 79 8f 12 be f8 01 96 3e 0d 9f e2 3e
       -0.034517035 -0.14312543 0.29298377 0.4426197
0002d0 42 a1 87 3f 41 6a b3 bd 35 f2 84 3f df fe a2 3e
       1.0596087 -0.08760501 1.0386416 0.31835076
0002e0 c6 74 90 be 95 d5 b8 3e ae 53 89 bd 91 02 80 3f
       -0.2821409 0.3610045 -0.06705414 1.0000783
0002f0 71 20 33 3f 41 dd db 3e 85 b7 0f 3e 5d 60 a9 be
       0.69971377 0.4294224 0.14034851 -0.33081332
000300 92 d3 cb 3d 72 95 72 bd 6f 21 11 3e 13 fb 75 3d
       0.09952463 -0.059224553 0.1417291 0.060053896
000310 da a7 bf 3e b7 e3 26 3e b2 fc 9d 3e ca 81 2c bd
       0.37432748 0.16297804 0.30856854 -0.042115964
000320 c7 f1 82 be 8e 77 3b 3d c5 19 72 3e 76 2f a1 be
       -0.25575086 0.045768313 0.23642643 -0.31481522
000330 bd 50 44 3d f5 24 22 be cb a1 fe be f8 c8 aa 3e
       0.04792856 -0.1583441 -0.49732813 0.33356452
000340 60 2b 34 3d 9c 06 89 3e cd 0f 95 3d 7a ed b2 3e
       0.043986678 0.26762855 0.072784044 0.34946805
000350 45 83 b2 3d 2e 3e 2a 3e 67 0a df bd 82 4f 2f bf
       0.08716444 0.16625282 -0.10890656 -0.68480694
000360 f3 ff 63 be 66 d5 92 be a5 d9 33 be 6c b5 58 3e
       -0.22265606 -0.28678435 -0.17563494 0.21162957
000370 56 d1 3e 3e 12 f6 87 bd e8 01 97 3e 28 18 c2 bd
       0.18634543 -0.06638731 0.29493642 -0.09477264
000380 9f e0 a8 3e 86 08 2b 3e 9c a3 85 be 01 ee 8e bd
       0.32983872 0.1670247 -0.26101387 -0.069789894
000390 0c db cb 3d 02 79 bb bd 6d ef 15 3e 03 62 2c 3d
       0.09953889 -0.0915394 0.14642115 0.04208566
0003a0 98 af 22 bd 2d 33 29 3e 09 5c a8 3d af 93 80 3e
       -0.03971824 0.16523428 0.08220679 0.25112674
0003b0 32 91 94 bd 33 9d 1e 3f f7 56 90 3d 5c 52 d7 3d
       -0.07254256 0.61958617 0.07047837 0.10513756
0003c0 ec 1d 7d be fa 53 93 bd 70 d7 3b 3c a6 1f 24 bf
       -0.24718446 -0.07193752 0.0114649385 -0.6411079
0003d0 ad 38 33 40 33 fa 94 bd d0 16 eb bd 43 63 09 be
       2.8003342 -0.07274284 -0.114789605 -0.13416772
0003e0 d3 c4 18 be 01 05 71 be dd 53 31 3e 0e 1a 87 be
       -0.14918832 -0.23537065 0.17317148 -0.26387066
0003f0 8c cf 05 c0 c3 95 c0 3c e2 f1 b1 3e 3d 64 2d be
       -2.0907927 0.023508912 0.34754854 -0.16932769

network.5.bias f4 [32]
000000 7f ec 86 3f d7 ba 1b c0 8f 23 54 3e 79 81 76 3f
       1.0540923 -2.4332788 0.2071669 0.9629131
000010 71 f1 8b 3f 72 75 88 3f e9 62 e1 3f 71 79 db 3e
       1.0933057 1.0660841 1.760831 0.4286609
000020 96 03 24 3e 20 73 3d be 0e 18 05 3f bb dd c5 3e
       0.16016993 -0.18500948 0.5198983 0.3864573
000030 ff ff ce bd a4 54 31 3f 86 a4 9a 3f b7 58 5c be
       -0.10107421 0.69269776 1.2081459 -0.21518217
000040 13 c4 ba ba 11 d3 86 3f 18 35 c1 3f 6c 50 fb bd
       -0.0014249108 1.0533162 1.5094328 -0.12271199
000050 60 71 8b 3f c0 fe 7b 3f 27 bb 0b 3f 98 77 ca be
       1.0893974 0.9843559 0.54582447 -0.39544368
000060 b3 5f 1a 3f a9 da b2 3f 97 ab 2a 3f 3e 4e 0d 3f
       0.60302275 1.397298 0.66668075 0.55197513
000070 b2 b6 b7 3f f9 65 43 3e bf b8 b8 3f 5e 9e 2d bf
       1.4352629 0.19081868 1.443138 -0.67819774

network.7.weight f4 [1, 32]
000000 e7 ef 18 3d 9e dd 29 be f6 67 0f 3d 68 b6 11 3d
       0.037338164 -0.16588446 0.035011254 0.035574347
000010 3a b4 5e bd 26 43 07 3d 6b bc f1 bd 86 62 6b bd
       -0.054371096 0.033023022 -0.11803516 -0.057467006
000020 01 07 9f 3c 6c 4e 5e 3d 0f e5 28 3d b4 f1 1c bd
       0.01941252 0.054274008 0.041234072 -0.038316444
000030 2a f8 65 3d dd 90 0d bd 16 f1 ba 3d 52 2c e8 3d
       0.05614487 -0.03456198 0.09128015 0.113365784
000040 e3 d9 15 3d a6 d4 d0 3d 31 09 b8 3d f9 93 87 3f
       0.036584746 0.101968095 0.08986128 1.0592033
000050 1b 29 e9 3d 1d dc 66 bd 3c 58 5c bd 84 03 53 3e
       0.11384793 -0.05636226 -0.053795084 0.2060681
000060 ac 4b 3d 3d 64 5c b9 3d bd c4 e6 3c d3 d9 8b bd
       0.046214744 0.09050825 0.028169984 -0.06828656
000070 64 8c a5 bd a6 0a 00 3e 96 8f a6 3d 06 d0 57 3c
       -0.08083418 0.12504062 0.081328556 0.013172155
