models/price_predictor_nn_v6.pth (torch, 199505 bytes, 7 tensors)

network.0.weight f4 [256, 29]
0	0xbcba025d	-0.022706205
1	0x3e644561	0.22292091
2	0xbf810ef7	-1.0082692
3	0xbdbea42f	-0.09308659
4	0x3d686311	0.056735102
5	0x3e70da67	0.23520814
6	0x3e368cf7	0.17827211
7	0xbdc40957	-0.09572094
8	0xbe210cd5	-0.15727551
9	0x3e89deec	0.26927888
10	0x3dd1ef46	0.10250716
11	0x3f07bc59	0.5302177
12	0x3e7f8f81	0.24957086
13	0x3e12f312	0.14350536
14	0xbd921838	-0.071335256
15	0xbe989fdc	-0.29809463
16	0x3e2f0f1d	0.17095609
17	0x3ca68828	0.020328596
18	0xbe666c02	-0.22502139
19	0x3d215dce	0.0393961
20	0x3d7d6657	0.061865177
21	0x3c434284	0.011917714
22	0xbec8a789	-0.3919032
23	0x3e470736	0.19436345
24	0x3e58a674	0.21157247
25	0xbde01f04	-0.10943416
26	0x3d915a67	0.07097321
27	0xbd741ec8	-0.059599668
28	0xbeaca8a5	-0.33722416
29	0x3e89069e	0.2676286
30	0xbdd9588a	-0.106125906
31	0xbe9bf952	-0.30463654
32	0xbe80f1ca	-0.2518447
33	0xbd9f70fd	-0.07785223
34	0xbfff3f19	-1.9941131
35	0x3e303c65	0.17210539
36	0x3ea61b57	0.32442734
37	0xbe6d5b9f	-0.23179482
38	0xbe63040f	-0.22169517
39	0x3d9da3b5	0.0769724
40	0x3eaa74a2	0.3329211
41	0x3c82a264	0.015946575
42	0xbd3f9826	-0.04677596
43	0x3c635c23	0.013876948
44	0xbd0ea129	-0.034821663
45	0xbe1a2c89	-0.15056051
46	0x3dec6694	0.11543003
47	0xbca04189	-0.0195625
48	0xbd010827	-0.031501915
49	0x3e8b853d	0.2725009
50	0xbe11d720	-0.1424222
51	0x3d789a48	0.06069401
52	0xbe9b2433	-0.30301055
53	0xbf0918d8	-0.53553534
54	0xbf0a7658	-0.5408683
55	0xbd356319	-0.04428396
56	0x3e94f1c9	0.29090717
57	0xbdcc72c0	-0.09982824
58	0x3e582950	0.2110951
59	0xbef509fd	-0.47859183
60	0x3ee3a0b9	0.4445856
61	0xbe80f833	-0.2518936
62	0xbf001c82	-0.500435
63	0xbe022d34	-0.12712556
64	0x3ee21353	0.44155368
65	0x3e7e151e	0.24812743
66	0x3e0ad0cd	0.13556214
67	0xbe7a8143	-0.24463372
68	0xbe12f401	-0.14350893
69	0xbd93b348	-0.072119296
70	0x3e85f937	0.26166698
71	0x3ca62353	0.020280516
72	0xbe0509d4	-0.1299203
73	0x3e85d4bf	0.26138875
74	0x3e67d285	0.226389
75	0x3db25b3f	0.0870881
76	0xbef15986	-0.47138613
77	0xbe982a39	-0.29719713
78	0x3d340c4a	0.043957032
79	0xbd2601ff	-0.040529247
80	0x3f500834	0.81262517
81	0xbec4a21a	-0.38404924
82	0xbe8c17d6	-0.27361935
83	0xbed11c70	-0.4084201
84	0x3d138cb7	0.036022868
85	0xbf3191fa	-0.6936337
86	0xbe9b6904	-0.30353558
87	0xbcfa7084	-0.03057123
88	0xbaae4bf6	-0.0013297785
89	0x3ce34366	0.027742099
90	0x3d85fc00	0.06542206
91	0x3d946110	0.07245076
92	0x3e76d3de	0.24104258
93	0xbe20f185	-0.15717132
94	0x3e26c603	0.16286473
95	0x3ed20add	0.41023913
96	0xbd8aca8c	-0.06776914
97	0xbd636bb1	-0.055522624
98	0xbe8acb5f	-0.27108285
99	0xbe96db30	-0.29464102
100	0x3d08080e	0.033210807
101	0x3e1be897	0.15225445
102	0x3e1ebec7	0.15502463
103	0x3d026550	0.0318349
104	0xbe56578e	-0.20931837
105	0x3e6aa253	0.22913484
106	0xbc9c6815	-0.019092599
107	0xbef3dcf1	-0.47629502
108	0x3d84a1d1	0.064761765
109	0x3e2d23f9	0.16908254
110	0x3d736a2a	0.059427418
111	0xbaa2336a	-0.0012374942
112	0xbde80e77	-0.11330884
113	0xbe0fef24	-0.14056069
114	0x3e2f8a97	0.17142712
115	0x3eb0b3c2	0.34512144
116	0xbef109c2	-0.47077757
117	0xbeb40600	-0.35160828
118	0xbdbda788	-0.0926047
119	0xbeebc7c6	-0.46050853
120	0x3e9eab88	0.30990243
121	0xbdfa7454	-0.12229219
122	0xbd0ef11a	-0.0348979
123	0xbc8ea0a4	-0.017410584
124	0x3dc07f2a	0.093992546
125	0xbe1661fd	-0.14685817
126	0xbebab39b	-0.36465153
127	0x3e9335d7	0.28752014
128	0xbe1a144b	-0.15046804
129	0x3e0c0b8d	0.13676281
130	0x3e165c98	0.14683759
131	0x3e37fb75	0.17967017
132	0xbd36603a	-0.044525363
133	0x3e71c6a5	0.23610933
134	0xbe81204d	-0.25219956
135	0xbe9eda2d	-0.3102583
136	0x3e910412	0.28323418
137	0x3dc755ac	0.097331375
138	0xbe3abb59	-0.1823553
139	0xbea58618	-0.32328868
140	0xbdfbf5cb	-0.12302741
141	0xbe796072	-0.24353197
142	0xbe0bd7a1	-0.13656475
143	0xbd959766	-0.073042676
144	0x3ebe217b	0.3713492
145	0x3efd002c	0.49414194
146	0xbe4f5cbe	-0.20250222
147	0xbd8ed745	-0.06974653
148	0x3d9e2a62	0.07722928
149	0xbcc2f257	-0.023797197
150	0x3e79ea0f	0.24405693
151	0x3e64f2b8	0.22358215
152	0x3d98dd97	0.0746414
153	0xbed26f21	-0.4110041
154	0x3d2a5874	0.04158826
155	0x3dbe1b92	0.09282602
156	0xbd850776	-0.06495564
157	0xbf1d5fcf	-0.6147432
158	0xbe604724	-0.21902138
159	0x3ebb2165	0.36548916
160	0xbe8d842e	-0.27639908
161	0xbea1991c	-0.31562126
162	0xbe6db6cc	-0.23214263
163	0xbe74c264	-0.23902279
164	0xbe03bf86	-0.12866029
165	0x3dff6bd0	0.124717355
166	0xbf267509	-0.6502233
167	0x3e35f9aa	0.1777102
168	0xbd931182	-0.07181074
169	0x3db8caa1	0.090230234
170	0xbd7a9ea7	-0.06118646
171	0x3e5bdffe	0.21472165
172	0xbec8d571	-0.39225343
173	0x3e739b74	0.2378977
174	0x3d3b73b9	0.04576466
175	0xbea20cfd	-0.31650534
176	0x39ee2d9b	0.00045428876
177	0x3e4fbc42	0.20286658
178	0x3d84982d	0.06474338
179	0x3e3232f0	0.17402244
180	0xbe50bb3f	-0.20383929
181	0x3e06c564	0.13161236
182	0xbe09c47e	-0.13453862
183	0xbc204c4d	-0.0097838165
184	0x3ddee4c6	0.10883479
185	0xbea25738	-0.31707168
186	0xbef33f1a	-0.4750908
187	0xbdd4faad	-0.10399375
188	0x3e9c203d	0.30493346
189	0xbeae2f36	-0.34020394
190	0x3f042550	0.51619434
191	0xbf7e8587	-0.99422497
192	0x3e6f5c08	0.23374951
193	0x3e6749d7	0.22586761
194	0xbe9c75d5	-0.3055865
195	0xbf9c2395	-1.2198359
196	0x3f6ab680	0.9168472
197	0x3ee61a20	0.44941807
198	0xbd9c24dc	-0.07624218
199	0xbec60472	-0.38675267
200	0xbebd947f	-0.37027356
201	0x3cdc5eab	0.02690061
202	0xbf81f538	-1.015296
203	0x3f1d93ac	0.61553454
204	0xbe9c63ee	-0.3054499
205	0xbec9409f	-0.39307114
206	0x3e4a1290	0.19733644
207	0xbe8d8e54	-0.2764765
208	0xbf1664d8	-0.58747625
209	0x3e1494ea	0.14509931
210	0x3daaef4b	0.08346423
211	0xbd16f715	-0.03685673
212	0x3e39f1d3	0.18158655
213	0xbd8e362a	-0.06943925
214	0xbe58d23c	-0.21173948
215	0xbcbdd4e5	-0.023172805
216	0x3e6e5b86	0.23277101
217	0xbeb01439	-0.3439043
218	0x3f03bd64	0.5146086
219	0x3dc5c86f	0.0965737
220	0x3e4981ba	0.19678393
221	0x3f38e7dc	0.7222879
222	0xbea55eed	-0.32298985
223	0x3e55a82e	0.20864937
224	0x3ef59136	0.4796235
225	0x3ef14f1c	0.47130668
226	0xbf0896ec	-0.5335529
227	0xbe1940b8	-0.14966094
228	0xbeb0afd9	-0.3450916
229	0xbd99a0c4	-0.07501367
230	0xbf1a75f6	-0.60336244
231	0x3e7f2d22	0.2491956
232	0x3db7ed89	0.08980853
233	0x3d8b814a	0.06811769
234	0xbdb68297	-0.08911627
235	0xbe263b7f	-0.16233633
236	0xbe99b2e1	-0.30019286
237	0xbe2f39d4	-0.17111903
238	0xbe7ca1d0	-0.24671102
239	0xbe184de7	-0.14873467
240	0x3f3b7fa6	0.7324165
241	0xbed84cc8	-0.4224608
242	0x3e07aca1	0.13249446
243	0x3e433dde	0.19066569
244	0x3c9d19c7	0.01917733
245	0x3ed49126	0.4151699
246	0x3e1e79d5	0.15476163
247	0xbe8c418b	-0.27393755
248	0xbd331bb1	-0.04372758
249	0xbed9a7cc	-0.4251083
250	0x3f4e8802	0.8067628
251	0xbe4ae52a	-0.19813982
252	0xbf23d667	-0.63999027
253	0xbe972cae	-0.29526275
254	0xbf0ca1c6	-0.54934347
255	0x3efa0f58	0.4883983

network.0.bias f4 [256]
0	0xbeaf95c4	-0.3429395
1	0xbe491cae	-0.19639847
2	0xbea67ed4	-0.32518637
3	0xbe9bd662	-0.30437
4	0x3d7de7a6	0.061988495
5	0xbe873a59	-0.26411703
6	0xbec8141c	-0.39077842
7	0xbe3b3069	-0.18280186
8	0xbe5a4c0f	-0.21318077
9	0xbecd4989	-0.40095165
10	0xbf0546e7	-0.52061313
11	0xbec42bd8	-0.383147
12	0xbe430603	-0.19045262
13	0xbe858ef1	-0.26085618
14	0xbe028c2d	-0.12748785
15	0xbe4dac95	-0.20085366
16	0xbe9a278d	-0.301083
17	0xbed68f0d	-0.41906014
18	0xbe354bed	-0.17704745
19	0xbe7e5a17	-0.24839054
20	0xbe804d16	-0.25058812
21	0xbe9a5196	-0.3014037
22	0xbea355a5	-0.3190128
23	0xbe8b11c0	-0.2716198
24	0xbe6b20ef	-0.22961782
25	0xbe83fad5	-0.25777307
26	0xbe4c06db	-0.1992449
27	0xbebcf885	-0.36908355
28	0xbef4c2cf	-0.47804877
29	0xbe280a4d	-0.1641018
30	0xbeaa2ed3	-0.3323885
31	0xbe8babfb	-0.27279648
32	0xbe495693	-0.19661932
33	0xbe2b2b99	-0.1671585
34	0xbe76fd8f	-0.24120162
35	0xbe67f544	-0.22652155
36	0xbe48a3eb	-0.1959378
37	0xbe71301d	-0.2355351
38	0xbe51eb11	-0.20499827
39	0xbe82e497	-0.25565025
40	0xbe261678	-0.16219509
41	0xbcea5e13	-0.028609311
42	0xbea42419	-0.3205879
43	0xbe78f135	-0.24310763
44	0xbe9ed739	-0.31023577
45	0xbe84e6e9	-0.2595742
46	0xbe60fc99	-0.21971358
47	0xbdd9a883	-0.10627844
48	0xbf1360ad	-0.5756939
49	0xbd813a9e	-0.063100085
50	0xbead0d29	-0.33799103
51	0xbf1bf220	-0.6091633
52	0x3cbc8970	0.023014754
53	0xbe94e6c0	-0.29082298
54	0xbeac2512	-0.33622032
55	0xbe8aac2a	-0.27084476
56	0xbdfd13b7	-0.12357276
57	0xbeb7801a	-0.3583992
58	0xbe4f5998	-0.20249021
59	0xbea02bcc	-0.31283414
60	0x3d49179d	0.049094785
61	0xbe29c97a	-0.16580763
62	0xbdce8df9	-0.10085673
63	0xbdd0a6d1	-0.10188068
64	0xbe431a19	-0.19052924
65	0xbcb638bc	-0.02224385
66	0xbe581db4	-0.21105081
67	0xbe832118	-0.25611186
68	0xbe07a0c1	-0.13244916
69	0xbeac94e6	-0.3370735
70	0xbef82c8c	-0.48471487
71	0xbe7a2a97	-0.24430309
72	0xbf0f59ce	-0.55996406
73	0xbeb28341	-0.34865764
74	0xbed5653d	-0.416788
75	0xbe4f9971	-0.20273377
76	0xbe065038	-0.13116539
77	0xbda530d3	-0.08065953
78	0xbe6c6031	-0.23083569
79	0xbec1cff1	-0.3785396
80	0xbe40689a	-0.18789902
81	0xbed8d99c	-0.42353523
82	0xbe88b3d5	-0.266997
83	0xbe171f9b	-0.1475815
84	0xbe178a98	-0.14798963
85	0xbeebbbad	-0.46041623
86	0xbee15655	-0.4401118
87	0xbeb49fcb	-0.35278162
88	0x3e98789c	0.29779518
89	0xbec676a8	-0.38762403
90	0xbe1dc1f2	-0.15406016
91	0xbe6597bd	-0.22421165
92	0xbeaba525	-0.33524433
93	0xbdc08850	-0.094009995
94	0xbee958fa	-0.45575696
95	0xbe82e355	-0.25564066
96	0xbee71595	-0.45133653
97	0x3dbb0ec9	0.091336794
98	0xbf164849	-0.5870405
99	0xbeaba508	-0.33524346
100	0xbe367cb3	-0.17821006
101	0xbde0e763	-0.109816335
102	0xbe3e33f9	-0.18574513
103	0xbea3473a	-0.3189028
104	0xbecf473c	-0.40484035
105	0x3d605a13	0.0547734
106	0xbe4651e0	-0.1936717
107	0xbe799e7b	-0.24376862
108	0xbd259ef9	-0.04043481
109	0xbe634866	-0.22195587
110	0xbde56283	-0.1120043
111	0xbd9eb2e1	-0.07748962
112	0xbed36034	-0.41284335
113	0xbde81837	-0.113327436
114	0xbe50cfd7	-0.20391785
115	0xbebec5c3	-0.37260255
116	0xbe72f5ed	-0.23726626
117	0xbdce2425	-0.10065488
118	0xbdfbf9fc	-0.1230354
119	0xbf00d883	-0.5033037
120	0xbdfaa65c	-0.12238762
121	0xbeed61d1	-0.4636369
122	0xbe26fdd7	-0.1630777
123	0xbe686895	-0.22696145
124	0xbda7ca53	-0.08192887
125	0xbe12831e	-0.1430783
126	0xbf0efa8e	-0.55851066
127	0xbe4de0c2	-0.2010527
128	0xbe889691	-0.26677373
129	0xbe9cab0e	-0.30599254
130	0xbe801275	-0.25014082
131	0xbf05ee56	-0.52316797
132	0xbeee1b39	-0.46505144
133	0xbec0f91d	-0.37690058
134	0xbdbf8208	-0.09350973
135	0xbe107eb2	-0.1411083
136	0xbe8d8063	-0.27637014
137	0xbee010bb	-0.43762764
138	0xbf47d124	-0.780535
139	0xbf3b2be3	-0.7311384
140	0xbded3b69	-0.11583597
141	0xbde10310	-0.10986912
142	0xbe7d2679	-0.24721707
143	0xbe9281e1	-0.28614715
144	0xbdd9e689	-0.10639674
145	0xbe5ea482	-0.21742442
146	0xbe866606	-0.26249713
147	0xbea27285	-0.31727996
148	0xbeeb7dd7	-0.45994446
149	0xbe070972	-0.13187197
150	0xbf37b8d5	-0.71766406
151	0xbed867ef	-0.42266795
152	0xbd7e3389	-0.062060867
153	0xbe689ac5	-0.2271529
154	0xbe88dd9e	-0.2673158
155	0xbeee8c0d	-0.46591225
156	0xbf0a6fe9	-0.5407701
157	0xbe0aa6d2	-0.135402
158	0xbc887fcf	-0.016662506
159	0xbf38cf6c	-0.721915
160	0xbf33dd20	-0.70259285
161	0xbeacb5fe	-0.337326
162	0xbea7d047	-0.3277609
163	0xbe087f6d	-0.13329859
164	0xbe1bff7a	-0.15234175
165	0xbdc89ec9	-0.09795911
166	0xbe9bb1bb	-0.30409035
167	0xbed58149	-0.417002
168	0xbd854d3b	-0.06508871
169	0xbe2b0af5	-0.16703399
170	0xbdb996a2	-0.09061934
171	0xbcfe1d26	-0.031019758
172	0xbe528095	-0.20556863
173	0xbe4af3f6	-0.19819626
174	0xbdfacaec	-0.122457355
175	0xbe2627dc	-0.16226143
176	0xbe894c84	-0.2681619
177	0xbe409d61	-0.18810035
178	0xbd5dacba	-0.054119803
179	0xbd92430e	-0.07141696
180	0xbe4f816e	-0.20264217
181	0x3c9a270c	0.018817447
182	0xbe946ea9	-0.28990677
183	0xbede2a32	-0.43391567
184	0xbe3d9a5f	-0.18515919
185	0xbeca90f1	-0.39563707
186	0xbed29e72	-0.4113651
187	0xbe2d08d4	-0.16897899
188	0xbe983c34	-0.2973343
189	0xbe9469ce	-0.28986973
190	0xbea050c1	-0.3131161
191	0xbf14772b	-0.57994336
192	0xbe8c6bba	-0.2742594
193	0xbe81e89d	-0.25372782
194	0xbef0faaf	-0.47066256
195	0xbe169ae3	-0.14707522
196	0xbf136186	-0.57570684
197	0xbe6d0630	-0.23146892
198	0xbeeb62a0	-0.45973682
199	0xbd90b787	-0.07066255
200	0xbe4e8aca	-0.20170131
201	0xbe5cc1c2	-0.21558288
202	0xbe8b4bd0	-0.27206278
203	0xbe88f36f	-0.26748225
204	0xbe8d38f5	-0.27582517
205	0xbe73c2d5	-0.23804791
206	0xbd92e6ea	-0.071729496
207	0x3de649d1	0.11244548
208	0xbedbb1ce	-0.42909092
209	0xbe832c06	-0.25619525
210	0xbd9439e7	-0.072376065
211	0xbe6367ec	-0.22207612
212	0xbe3081f7	-0.17237078
213	0xbe09b0a1	-0.13446285
214	0xbe71275e	-0.23550174
215	0xbecf560e	-0.40495342
216	0xbe8fd7ec	-0.28094423
217	0xbea666b3	-0.32500228
218	0xbe6cef8e	-0.23138258
219	0xbd8bba1b	-0.06822606
220	0xbe87e0b8	-0.26538634
221	0xbf30345e	-0.68829906
222	0xbe4ca888	-0.19986165
223	0xbd9eb5b6	-0.07749502
224	0xbe314261	-0.17310478
225	0xbe94e423	-0.29080305
226	0xbe60c4ae	-0.21950027
227	0xbe7a6154	-0.2445119
228	0xbeb61ec7	-0.35570356
229	0xbeee571a	-0.46550828
230	0xbe1eb302	-0.15497974
231	0xbcd5282b	-0.02602013
232	0xbe6f8481	-0.2339039
233	0xbe832df0	-0.25620985
234	0xbea9524b	-0.33070597
235	0xbf694943	-0.91127414
236	0xbec13cbc	-0.3774165
237	0xbf044236	-0.5166353
238	0xbe977a71	-0.29585603
239	0xbe628175	-0.22119696
240	0xbe93bf65	-0.2885696
241	0xbdfa2680	-0.122143745
242	0xbebcef93	-0.3690153
243	0xbda4c6f4	-0.0804576
244	0xbe4c1da3	-0.1993318
245	0xbe795edc	-0.24352592
246	0xbe2b8129	-0.1674849
247	0xbe98112a	-0.29700595
248	0xbebd1785	-0.36932006
249	0xbe967c0d	-0.29391518
250	0xbeb4ddc3	-0.3532544
251	0xbf0f118e	-0.5588616
252	0xbea4f74c	-0.32219923
253	0xbec774f7	-0.38956425
254	0xbe48ca11	-0.19608332
255	0xbec8cafa	-0.3921736

network.3.weight f4 [128, 256]
0	0xbddb268a	-0.1070071
1	0xbe47cff3	-0.1951292
2	0x3d9b7a38	0.07591671
3	0xbe89b5dc	-0.2689656
4	0xbefe5e7a	-0.49681455
5	0xbe4528ce	-0.19253847
6	0xbe3afdd5	-0.18260892
7	0x3edfe592	0.43729836
8	0x3d0f398c	0.03496699
9	0x3e379d95	0.17931207
10	0xbe48c298	-0.19605482
11	0xbeedc368	-0.46438146
12	0xbe72b8d8	-0.23703325
13	0xbdd6a740	-0.10481119
14	0x3e0da4c2	0.13832381
15	0x3e3439fc	0.17600244
16	0xbd589e5d	-0.052885402
17	0x3e32e694	0.17470771
18	0x3e3cc66f	0.18435071
19	0x3d5c75d7	0.05382332
20	0x3c2109c4	0.009828988
21	0xbefe9739	-0.4972475
22	0xbe000d8d	-0.12505169
23	0xbe80da71	-0.25166658
24	0x3e468083	0.19384961
25	0xbeaf95e5	-0.34294048
26	0xbe5e8f2c	-0.21734303
27	0x3e68d698	0.22738111
28	0xbe75c521	-0.2400098
29	0x3dd92dba	0.10604425
30	0x3d7b0428	0.06128326
31	0xbe52defb	-0.20592873
32	0xbe5957da	-0.21224919
33	0x3d2f9010	0.042861998
34	0x3b175804	0.0023093233
35	0x3e1a2ec4	0.15056902
36	0xbe8d83e7	-0.27639696
37	0xbd279ec1	-0.040922884
38	0x3c8b0c59	0.016973661
39	0xbdbee6fd	-0.09321401
40	0x3d9d96af	0.07694756
41	0xbe120bcc	-0.14262313
42	0xbeb348e2	-0.35016543
43	0xbce75028	-0.028236464
44	0xbde95e41	-0.11394931
45	0xbd616ea4	-0.055037156
46	0x3ea31302	0.3185044
47	0x3e26da8b	0.16294305
48	0x3e6687b0	0.22512698
49	0xbe8abf2a	-0.27098972
50	0xbdb60723	-0.0888808
51	0x3bbb8ec1	0.0057238047
52	0x3e01f66f	0.12691663
53	0xbe2c2276	-0.16810021
54	0xbe046532	-0.12929228
55	0x3e26d177	0.16290842
56	0xbe86a85f	-0.26300332
57	0xbe1fb3f2	-0.15595987
58	0x3e988212	0.29786736
59	0xbde2feb5	-0.11083738
60	0x3deeb9b5	0.116565146
61	0xbe699e8b	-0.22814386
62	0x3dbe392f	0.09288251
63	0xbea5ff19	-0.32421187
64	0x3e99ee25	0.30064502
65	0xbee4cb2d	-0.4468626
66	0x3e8d6b5d	0.27620974
67	0xbe3a0bc6	-0.18168554
68	0xbdb18b14	-0.08669105
69	0x3e5a60e2	0.2132602
70	0x3c9b9caa	0.018995602
71	0xbe61b729	-0.22042526
72	0xbee22c0b	-0.44174227
73	0xbe92c672	-0.28667027
74	0xbe0c7256	-0.1371549
75	0x3b1911cc	0.0023356555
76	0xbc368098	-0.011139058
77	0xbe39a674	-0.18129903
78	0xbf06270c	-0.5240333
79	0xbc51b25e	-0.012798874
80	0x3cde48ed	0.027134383
81	0x3d88918d	0.066683866
82	0xbe0ea2fc	-0.13929361
83	0x3d33a06c	0.043854162
84	0x3e10dc12	0.1414645
85	0x3b9c785a	0.004775089
86	0x3dd85cea	0.10564597
87	0xbe0a3b56	-0.13499197
88	0xbedc86bf	-0.43071553
89	0xbcf1bac3	-0.029508
90	0xbd8d38b0	-0.06895578
91	0xbe94f1b0	-0.29090643
92	0xbec27bd1	-0.3798509
93	0xbeab217c	-0.33423984
94	0x3e7f7fd9	0.24951114
95	0x3d8c1d8b	0.068415724
96	0xbf07c8af	-0.53040594
97	0xbcf23a45	-0.0295688
98	0x3e12f700	0.14352036
99	0x3e9bb764	0.30413353
100	0xbef3e626	-0.47636527
101	0xbec4553a	-0.38346273
102	0xbeb77805	-0.35833755
103	0xbcb4d3d9	-0.022073673
104	0xbe974e0e	-0.29551739
105	0x3bc65eda	0.0060537877
106	0x3d40f4a5	0.04710831
107	0xbf17287e	-0.5904616
108	0x3b1baf82	0.0023755734
109	0xbd9c7d92	-0.07641138
110	0x3d8705f8	0.06592935
111	0xbe8374c7	-0.25675032
112	0xbda26783	-0.079298995
113	0xbdf0d118	-0.117586315
114	0xbea3374e	-0.31878132
115	0x3e460c48	0.19340622
116	0xbede0193	-0.43360576
117	0x3d60c8b6	0.054878913
118	0xbe70466b	-0.23464362
119	0xbec7030a	-0.38869506
120	0xbf0439b4	-0.5165055
121	0xbdfb0cb3	-0.122582816
122	0xbe818b4f	-0.25301597
123	0xbf47c081	-0.7802811
124	0xbda8990e	-0.08232318
125	0xbd9f86a6	-0.07789354
126	0x3e261086	0.1621724
127	0x3da68b33	0.08132019
128	0xbd01f83c	-0.031730875
129	0x3dc7b7d0	0.09751856
130	0xbe7bb4b5	-0.24580653
131	0x3e2e563d	0.17025085
132	0xbe57b295	-0.21064217
133	0x3d3f2f37	0.046675887
134	0x3df6fa08	0.120594084
135	0x3e74baac	0.23899335
136	0xbd383190	-0.04496914
137	0x3e6f0480	0.2334156
138	0x3dc63a7d	0.096791245
139	0xbbea1292	-0.007143327
140	0x3e515e89	0.20446219
141	0xbf7b8c6b	-0.98261136
142	0xbe8c2222	-0.2736979
143	0xbceae962	-0.028675739
144	0xbd04027d	-0.032228936
145	0x3dc6e29b	0.0971119
146	0xbbd84362	-0.0065998295
147	0xbf36a63b	-0.713474
148	0x3d8a9d2d	0.0676826
149	0xbebff85e	-0.37494177
150	0xbe8cec87	-0.27524206
151	0xbe148fbd	-0.14507957
152	0xbdbc896b	-0.09205898
153	0xbdc7c4be	-0.097543225
154	0xbe132dc0	-0.14372921
155	0xbea4f1c3	-0.322157
156	0xbdc90b37	-0.09816592
157	0xbe7a0c37	-0.24418722
158	0xbe456480	-0.19276619
159	0x3dae43e1	0.085090406
160	0x3d331e56	0.043730102
161	0x3ebfab26	0.37435263
162	0xbe36dad7	-0.17856918
163	0xbbc76907	-0.0060855183
164	0x3e423129	0.18964066
165	0x3e75d257	0.2400602
166	0x3e24d76e	0.16097805
167	0x3d4208d0	0.047371686
168	0x3d8db4ee	0.06919275
169	0xbdca7361	-0.09885288
170	0xbe104e26	-0.14092311
171	0x3da939ca	0.082629755
172	0xbdb077ac	-0.086165756
173	0xbe9f0eb6	-0.3106591
174	0xbf1301bd	-0.5742453
175	0x3e98390a	0.29731017
176	0xbe85ed56	-0.26157635
177	0xbed73483	-0.4203225
178	0xbf1e7b52	-0.6190692
179	0x3e25df2d	0.16198416
180	0xbefd827c	-0.49513614
181	0xbe364988	-0.17801487
182	0xbd462802	-0.048378
183	0xbd9686d3	-0.073499344
184	0xbd0a10ca	-0.033707418
185	0xbd69fab5	-0.05712386
186	0x3dbe027f	0.0927782
187	0xbeebd7bf	-0.4606304
188	0xbe3ec0f7	-0.18628298
189	0xbd860ff8	-0.065460145
190	0x3d78f7cc	0.060783193
191	0xbe171dd5	-0.14757474
192	0x3e9aa4c0	0.3020382
193	0x3e34b051	0.17645384
194	0x3d230751	0.0398019
195	0x3e414093	0.1887229
196	0x3dd67fbe	0.10473584
197	0xbafd6588	-0.0019332627
198	0xbeaa52d4	-0.33266318
199	0xbc0ebe35	-0.008712341
200	0xbd4f60e4	-0.05062951
201	0x3d430200	0.04760933
202	0xbe01c0b7	-0.12671171
203	0xbe395dc2	-0.18102172
204	0x3e01b880	0.12668037
205	0x3e0259ff	0.12729643
206	0x3db368dc	0.08760235
207	0xbd0e75d4	-0.03478034
208	0x3eb56a62	0.35432726
209	0xbe9365bb	-0.28788552
210	0xbe5e053e	-0.21681687
211	0xbe4ef976	-0.2021235
212	0x3e790e29	0.24321808
213	0xbdee01c6	-0.11621432
214	0xbed37b90	-0.41305208
215	0xbe1ad0b5	-0.15118678
216	0xbe0563eb	-0.13026397
217	0xbfa9060f	-1.3204974
218	0x3dbaafa7	0.09115534
219	0xbf298af5	-0.66227657
220	0xbe83e98b	-0.25764117
221	0xbc799c69	-0.015235045
222	0x3e032102	0.1280556
223	0x3c5371ac	0.012905519
224	0xbdeeb743	-0.11656048
225	0x3e9aa0ce	0.3020081
226	0xbe201266	-0.15632018
227	0x3e4b6f1e	0.19866607
228	0xbe631f49	-0.22179903
229	0xbea048ac	-0.31305444
230	0xbd450c83	-0.048107635
231	0x3e32a8fc	0.17447275
232	0x3d72da34	0.059290126
233	0xbf260e67	-0.64865726
234	0xbef543de	-0.4790334
235	0x3d15a5da	0.03653512
236	0xbeac457e	-0.33646768
237	0xbe5729d7	-0.21012054
238	0xbf74e00c	-0.9565437
239	0x3da89877	0.08232205
240	0xbee0afe9	-0.4388421
241	0x3dda1263	0.10648038
242	0xbe05ab94	-0.13053733
243	0x3e50d87e	0.20395085
244	0xbdcada0c	-0.099048704
245	0xbe77c0f7	-0.24194704
246	0xbe6d0675	-0.23146994
247	0xbe403318	-0.1876949
248	0xbe27edb1	-0.16399266
249	0xbda56cfa	-0.08077426
250	0x3e6486f8	0.22317111
251	0x3dde76c4	0.108624965
252	0xbdc3fafc	-0.09569356
253	0xbe91dcfc	-0.2848891
254	0xbf16c53d	-0.5889471
255	0x3e9f6f05	0.3113939

network.3.bias f4 [128]
0	0xbe8ecf35	-0.2789246
1	0xbe8e082e	-0.27740616
2	0xbdc671fd	-0.0968971
3	0xbe374d9c	-0.179007
4	0xbe4f0725	-0.20217569
5	0xbe975c18	-0.2956245
6	0xbec407c4	-0.38287175
7	0xbe61a99b	-0.22037356
8	0xbfce0dd9	-1.6097976
9	0x3e6d6a40	0.23185062
10	0xbf29d8d6	-0.6634649
11	0xbf10e190	-0.5659418
12	0xbdd6f263	-0.1049545
13	0xbd823f7c	-0.06359765
14	0xbe0d8acd	-0.1382248
15	0xbee5ff8b	-0.44921526
16	0xbde1b4b4	-0.110207945
17	0xbf157e9e	-0.5839633
18	0xbf7e6bcc	-0.99383235
19	0x3db8e557	0.09028118
20	0xbf0d4670	-0.55185604
21	0x3d907472	0.0705346
22	0x3f8f4156	1.1191814
23	0xbf00d0c8	-0.50318575
24	0xbe4c0624	-0.19924217
25	0xbe94b367	-0.29043123
26	0x3f08eeff	0.5348968
27	0xbf3a0965	-0.72670585
28	0xbe893386	-0.26797122
29	0xbf73bbfa	-0.95208704
30	0xbf928731	-1.1447507
31	0xbed01ae5	-0.4064552
32	0xbebb5b3f	-0.36593053
33	0xbbd883eb	-0.0066075227
34	0xbeaa6447	-0.3327963
35	0xbf0ced32	-0.5504943
36	0x3df6060b	0.12012871
37	0x3ef39ca1	0.47580436
38	0xbf2f856d	-0.68562967
39	0xbe3166db	-0.17324392
40	0xbe57b460	-0.21064901
41	0xbe92b61b	-0.2865456
42	0x3e878338	0.264673
43	0x3ec2b68b	0.38029894
44	0x3f60c61d	0.87802297
45	0x3e928ba1	0.28622153
46	0xbef29eda	-0.4738682
47	0xbd406570	-0.04697174
48	0x3e9047c2	0.28179747
49	0xbe91715d	-0.28406802
50	0xbd8f6927	-0.07002478
51	0xbf1b0235	-0.6055024
52	0xbe96e80f	-0.29473922
53	0xbf28e3a7	-0.6597237
54	0xbeb62096	-0.35571736
55	0xbdf3f519	-0.11911983
56	0xbf284d84	-0.6574328
57	0xbf1e2547	-0.6177563
58	0xbf0b0b5f	-0.54314226
59	0xbdd20c62	-0.10256268
60	0xbf9524e0	-1.1651878
61	0xbf94e80c	-1.1633315
62	0xbead4176	-0.33839005
63	0xbf979656	-1.1842754
64	0xbe29e382	-0.16590694
65	0xbef4496b	-0.47712263
66	0xbf34e89e	-0.70667446
67	0xbeff00b7	-0.49805233
68	0xbf2b9a7f	-0.6703262
69	0x3e6db5c1	0.23213865
70	0xbed2953a	-0.41129476
71	0xbf31424e	-0.692418
72	0x3e9b5213	0.30336055
73	0xbeafee8f	-0.34361693
74	0xbe4e008b	-0.20117395
75	0x3cb858ce	0.022503283
76	0x3df986d3	0.12183919
77	0xbf16d87e	-0.5892409
78	0x3e4f598d	0.20249005
79	0x3ec76dd3	0.38950977
80	0x3ec4b545	0.38419548
81	0xbf1428ba	-0.57874644
82	0x3d1a0c50	0.0376094
83	0x3e8d785a	0.27630883
84	0x3eb01733	0.343927
85	0xbf1c10b6	-0.60963
86	0xbe5219b0	-0.20517612
87	0xbfa399f5	-1.2781359
88	0x3bd420da	0.006473643
89	0xbdf5d411	-0.12003339
90	0xbcd5cce4	-0.026098676
91	0xbe86cd18	-0.2632835
92	0xbe3ff475	-0.18745597
93	0xbe2ed0cf	-0.17071842
94	0xbee29a10	-0.44258165
95	0xbdfd3a16	-0.12364595
96	0xbfcad226	-1.5845382
97	0xbea8b5b9	-0.32951143
98	0x3ed31f82	0.41234976
99	0x3e908ec7	0.2823393
100	0x3f3de522	0.74177754
101	0x3e28b320	0.16474581
102	0xbf105dd6	-0.5639318
103	0xbe13f30c	-0.14448184
104	0xbf15a4df	-0.584547
105	0x3ef97adb	0.48726544
106	0xbf7b89d7	-0.982572
107	0xbebd73a2	-0.37002283
108	0x3bf92352	0.0076030875
109	0xbe86f6b3	-0.26360092
110	0xbe95db46	-0.29268855
111	0x3e747e9d	0.23876424
112	0xbe9ea8d0	-0.3098817
113	0xbeeee609	-0.46659878
114	0xbf140a8b	-0.5782859
115	0xbe0a7b16	-0.13523516
116	0xbf49a40c	-0.7876594
117	0x3edd0109	0.43164852
118	0xbf3f1344	-0.7463877
119	0xbee3ec72	-0.4451633
120	0xbfc7e9bb	-1.5618204
121	0xbee7fb7f	-0.45309064
122	0x3e3d6ec9	0.18499292
123	0xbec7594c	-0.38935316
124	0xbf0d6e47	-0.55246395
125	0xbec88fe1	-0.3917227
126	0x3dcc9eb7	0.0999121
127	0xbe964aee	-0.29354042

network.5.weight f4 [64, 128]
0	0x3e86fec5	0.2636625
1	0xbe9ab19a	-0.30213624
2	0x3e9df87e	0.30853647
3	0xbce67b4f	-0.02813497
4	0xbe17e940	-0.14835072
5	0xbddc0a02	-0.10744096
6	0xbe94094a	-0.28913337
7	0x3c2f3566	0.0106938835
8	0xbdb67b59	-0.089102454
9	0x3dbfa7a6	0.09358148
10	0x3c8090a2	0.015693966
11	0x3dbbdf52	0.09173454
12	0xbe016de5	-0.12639578
13	0xbe8c5c1f	-0.27414033
14	0x3da127e7	0.07868939
15	0xbdaabd82	-0.08336927
16	0x3e0ba5e5	0.13637502
17	0xbda547b5	-0.08070318
18	0xbebe62b2	-0.37184674
19	0xbec12b64	-0.37728417
20	0xbe862ced	-0.2620615
21	0xbee4e485	-0.44705597
22	0xbe66cfac	-0.22540158
23	0x3d8ba9ff	0.068195336
24	0xbe0f8fb6	-0.14019665
25	0x3e08a7ea	0.13345304
26	0xbdb99ea3	-0.09063461
27	0x3d518aba	0.05115769
28	0xbd483e3c	-0.048887476
29	0x3d7d01d2	0.061769314
30	0xbe879cfa	-0.2648695
31	0xbc5a9734	-0.013341714
32	0xbed5cdd7	-0.41758606
33	0xbedafbbf	-0.42770192
34	0xbe64d94e	-0.2234852
35	0xbe199e7a	-0.1500186
36	0xbb8ca279	-0.004291829
37	0xbe2b5679	-0.16732205
38	0x3d9b37dd	0.075790145
39	0xbe20b7b4	-0.15695077
40	0xbea3b29c	-0.31972206
41	0x3ebbf4e1	0.36710265
42	0x3e15996c	0.14609307
43	0x3ed48254	0.41505682
44	0xbe56f05f	-0.20990132
45	0xbd453444	-0.048145548
46	0xbe2ef303	-0.17084889
47	0x3ebf0d4e	0.37314838
48	0x3e7cf473	0.24702625
49	0x3d7d8346	0.06189277
50	0xbc56f27e	-0.013119338
51	0xbe06e88c	-0.13174647
52	0xbe37937e	-0.17927358
53	0x3d9d8c1d	0.0769274
54	0x3eacd92a	0.33759433
55	0x3e8e00f6	0.27735108
56	0xbd3bc79d	-0.045844663
57	0x3e454560	0.19264746
58	0xbcdec32c	-0.027192675
59	0x3d1850ae	0.037186317
60	0xbe4318df	-0.19052456
61	0x3e21f906	0.15817651
62	0xbc85f77e	-0.016353365
63	0xbd96e6c4	-0.07368234
64	0xbecdde0e	-0.40208477
65	0x3d4cb064	0.049972907
66	0xbf031534	-0.5120423
67	0x3e2fc5ee	0.17165348
68	0x3e63598a	0.22202125
69	0xbe2ecd63	-0.17070536
70	0x3ec2c226	0.38038749
71	0x3eb461b2	0.35230786
72	0x3db7bad5	0.08971182
73	0xbe9719ff	-0.2951202
74	0xbe2814e7	-0.16414224
75	0xbe98e7e7	-0.29864427
76	0x3e846eb7	0.2586572
77	0x3f83e8ac	1.0305381
78	0x3b9b6bdf	0.004743084
79	0xbe8d0d16	-0.27549046
80	0xbdc7841d	-0.097419955
81	0x3d6c2cdf	0.05765998
82	0x3e98fb43	0.29879197
83	0xbdf3612c	-0.118837684
84	0xbe267c50	-0.16258359
85	0x3ecb89cb	0.39753565
86	0xbe9c1161	-0.3048201
87	0xbdacd547	-0.08439117
88	0x3e137bae	0.14402649
89	0xbe378c88	-0.17924702
90	0xbdb4df03	-0.088315986
91	0xbeb6b572	-0.35685307
92	0xbcee6695	-0.02910165
93	0xbe1a12da	-0.15046254
94	0xbe97251d	-0.29520503
95	0x3e926e40	0.2859974
96	0x3dac885d	0.08424447
97	0x3de70a20	0.11281228
98	0xbea8fe66	-0.3300659
99	0xbdd8583a	-0.10563703
100	0xbe533ff2	-0.20629862
101	0xbedca685	-0.43095794
102	0x3d13a894	0.03604944
103	0x3ee0b998	0.43891597
104	0x3e583acc	0.21116179
105	0xbd82c9b1	-0.06386126
106	0xbe257924	-0.16159493
107	0x3dc059f3	0.093921565
108	0x3dbdfba2	0.09276511
109	0xbe2aee6d	-0.16692515
110	0xbd701a7e	-0.058619015
111	0x3e413469	0.18867649
112	0xbe152abf	-0.14567088
113	0xbe232e0c	-0.15935534
114	0xbe7b4f75	-0.24542029
115	0x3e07e716	0.13271746
116	0xbee4c4fe	-0.44681543
117	0x3d07b3a7	0.033130314
118	0xbe4a31e4	-0.19745594
119	0xbbc9c405	-0.0061574006
120	0x3d0aa1c1	0.033845667
121	0xbe866b6a	-0.26253825
122	0xbddb9922	-0.10722567
123	0x3dfc1445	0.123085536
124	0xbe2d39ff	-0.16916655
125	0xbccc709b	-0.024956038
126	0xbdb0063f	-0.08594941
127	0x3e19550b	0.14973848
128	0x3c232ed7	0.009959898
129	0xbd1b08e4	-0.037850276
130	0xbe88f385	-0.2674829
131	0xbd6f5475	-0.058430154
132	0xbe5f44c8	-0.21803582
133	0xbddfcbcd	-0.10927544
134	0x3ddea974	0.10872164
135	0xbeab7a26	-0.3349163
136	0xbe86a15e	-0.26294988
137	0xbe5d695e	-0.21622226
138	0xbe52589b	-0.20541613
139	0x3ec7cd08	0.39023614
140	0xbecf66eb	-0.40508208
141	0xbdaa5353	-0.08316674
142	0x3e16dba0	0.14732218
143	0x3e2a5639	0.16634454
144	0xbddbd856	-0.10734622
145	0xbf177637	-0.59164757
146	0x3d9ca119	0.076479144
147	0x3e6801d8	0.22656953
148	0x3e5a1c12	0.2129977
149	0x3d8034be	0.0626006
150	0x3cf29091	0.02960995
151	0xbd9d1348	-0.07669693
152	0x3df40a5f	0.11916041
153	0xbde2c099	-0.11071891
154	0x3e927b8c	0.28609884
155	0xbe0f1c8b	-0.13975732
156	0xbe06ab9f	-0.13151406
157	0xbdc5b920	-0.096544504
158	0x3da3aa56	0.079914734
159	0x3d745907	0.059655216
160	0xbe147cc4	-0.1450072
161	0x3cb9fbfd	0.022703165
162	0xbf0eda5b	-0.55801934
163	0xbdd328fc	-0.103105515
164	0xbe71edd2	-0.23625877
165	0x3e062060	0.13098288
166	0x3b45c6e0	0.0030178353
167	0xbe484733	-0.1955841
168	0x3de23ff8	0.11047357
169	0x3e6d52fa	0.23176184
170	0xbd4a9e03	-0.049467098
171	0xbdc0dcf3	-0.09417143
172	0x3db32278	0.08746809
173	0xba2c719c	-0.00065782084
174	0xbd0b9c59	-0.03408465
175	0x3d96f89d	0.07371638
176	0xbe7c0a1a	-0.24613228
177	0xbd5fb131	-0.054612342
178	0x3d96952d	0.07352672
179	0x3dd95527	0.10611945
180	0x3e91ad35	0.2845246
181	0xbec7675a	-0.38946038
182	0x3d8d7adf	0.069082014
183	0x3ebad70b	0.3649219
184	0xbe992a22	-0.29914957
185	0x3f0466f3	0.5171959
186	0xbf270495	-0.65241367
187	0x3e20693f	0.15665148
188	0x3e6a81e4	0.22901112
189	0x3e1882c9	0.1489364
190	0x3e987b28	0.2978146
191	0x3da00c34	0.078148276
192	0xbe9753e9	-0.29556206
193	0x3ddc8554	0.10767618
194	0x3c50d416	0.012745878
195	0x3e871ee4	0.26390755
196	0xbe77c8fa	-0.2419776
197	0xbe9607cb	-0.2930282
198	0x3dc300d7	0.095216446
199	0x3e1b048a	0.1513845
200	0x3e5f51e4	0.21808583
201	0x3e02264f	0.12709926
202	0x3db72120	0.08941865
203	0xbaa6cf32	-0.0012726544
204	0xbde8d61b	-0.113689624
205	0x3c81b952	0.015835438
206	0x3d726420	0.059177518
207	0xbd4fbe4c	-0.05071859
208	0x3dde4623	0.10853221
209	0xbeecf921	-0.4628382
210	0x3d83d6de	0.06437467
211	0x3ed9f441	0.42569163
212	0x3c7436a7	0.014905608
213	0xbd6850a2	-0.056717522
214	0xbf100a5e	-0.5626582
215	0xbb9b9b90	-0.004748769
216	0xbe93f089	-0.2889445
217	0x3e8ff53c	0.28116786
218	0xbe89b8f5	-0.26898924
219	0x3d57a23b	0.05264495
220	0x3e2b017c	0.16699785
221	0x3d63fc25	0.055660386
222	0xbe817503	-0.25284585
223	0x3ebaecfe	0.36508936
224	0xbebb45f9	-0.36576822
225	0x3de14877	0.1100015
226	0x3e03a736	0.12856755
227	0x3ec2f35a	0.38076288
228	0xbc8bd96c	-0.017071448
229	0x3ba0604c	0.004894292
230	0xbf55840a	-0.834046
231	0x3e2fe838	0.17178428
232	0xbe580a52	-0.21097687
233	0xbe510528	-0.20412123
234	0xbe29d28d	-0.16584225
235	0xbbd73c0c	-0.0065684374
236	0x3ec6bbb2	0.38815075
237	0xbe86798f	-0.26264617
238	0x3dcd1e57	0.100155525
239	0xbe736f34	-0.2377289
240	0xbec7bcd2	-0.39011246
241	0x3e188366	0.14893875
242	0xbe66b233	-0.22528915
243	0x3db956be	0.09049748
244	0xbe0ccc2f	-0.13749765
245	0x3d867ba2	0.0656655
246	0x3ee71db5	0.45139852
247	0xbf1dbd93	-0.6161739
248	0xbebd8543	-0.37015733
249	0x3e4d7041	0.20062353
250	0xbee6c4da	-0.4507206
251	0x3c0cdf17	0.008598111
252	0xbf525b31	-0.821704
253	0xbeead159	-0.45862845
254	0x3e0ac365	0.135511
255	0xbdc64817	-0.09681719

network.5.bias f4 [64]
0	0xbedc8d9f	-0.43076798
1	0x3f0d68eb	0.5523822
2	0xbf58a4b1	-0.846263
3	0xbe3f9d23	-0.18712287
4	0xbf55c887	-0.83509105
5	0xbc767455	-0.015042384
6	0x3f3a2044	0.72705483
7	0xbf03488c	-0.5128257
8	0xbed41f7b	-0.41430268
9	0xbc857ccf	-0.016294865
10	0xbcd5a848	-0.02608122
11	0x3ea4c280	0.32179642
12	0x3f7ade07	0.97995037
13	0xbe9895df	-0.29801843
14	0x3e28df53	0.16491441
15	0xbb829748	-0.0039853193
16	0xbf2162c8	-0.63041353
17	0x3f303959	0.68837506
18	0x3f0e096e	0.5548314
19	0xbeb2f3ae	-0.34951538
20	0x3f0686e6	0.5254959
21	0x3c41d203	0.011829856
22	0xbd98a319	-0.074529834
23	0xbe0ac543	-0.13551812
24	0x3e1f8421	0.15577747
25	0x3db5fdda	0.08886309
26	0xbe69a411	-0.22816493
27	0x3f09d648	0.5384259
28	0x3e641faa	0.22277704
29	0x3f031aba	0.51212656
30	0x3ea3d456	0.31997937
31	0x3f1a1b5e	0.6019801
32	0xbe27118e	-0.1631529
33	0xbd41a7bd	-0.04727911
34	0xbf00a0cb	-0.5024535
35	0x3f359f17	0.70945877
36	0x3e7b8f41	0.24566366
37	0xbec8c0f3	-0.3920971
38	0xbf010100	-0.5039215
39	0xbf4d2db3	-0.80147856
40	0xbdc3b6e2	-0.095563665
41	0xbf1dfd43	-0.6171457
42	0xbe41227a	-0.18860808
43	0xbefa7cbe	-0.48923296
44	0x3f208c5d	0.6271418
45	0x3ed13472	0.40860325
46	0x3f283422	0.6570455
47	0x3eed1c4f	0.4631066
48	0x3ed91177	0.42396137
49	0xbee3a2a6	-0.44460028
50	0xbf1993d5	-0.599912
51	0x3f4ec8d8	0.80775213
52	0xbddfc5cf	-0.10926401
53	0x3e915a61	0.28389266
54	0x3f1c3390	0.6101618
55	0x3d6dd46e	0.058063917
56	0x3adb0154	0.001670877
57	0x3f16d4ac	0.5891826
58	0xbe73fa80	-0.23826027
59	0x3e5001f5	0.20313247
60	0x3f026d60	0.50948143
61	0x3e902dc3	0.28159913
62	0x3f5db930	0.866107
63	0x3f66299b	0.89907235

network.7.weight f4 [1, 64]
0	0x3da657c7	0.08122211
1	0x3d310918	0.043221563
2	0xbd8e0227	-0.06934004
3	0x3e2c1686	0.16805467
4	0x3e13931e	0.1441159
5	0x3db3f2e0	0.08786559
6	0x3d943612	0.072368756
7	0x3dbbfef1	0.091794856
8	0xbd9d09ff	-0.07667922
9	0xbd472a77	-0.048624482
10	0xbdea20c9	-0.114320345
11	0xbd83efed	-0.064422466
12	0x3d546de5	0.051862616
13	0x3d5da4b9	0.05411217
14	0xbef12315	-0.47097078
15	0x3d4107ed	0.0471267
16	0xbd693d5d	-0.056943286
17	0x3d29d667	0.041464236
18	0xbd3d51d0	-0.0462206
19	0xbd0d9580	-0.034566402
20	0x3d752660	0.05985105
21	0xbe0642cc	-0.13111418
22	0xbd1ca3bf	-0.038242098
23	0x3d998d47	0.0749765
24	0x3d63d22d	0.05562036
25	0x3d87e69a	0.06635781
26	0x3d2fe2b5	0.042940814
27	0xbd918584	-0.07105544
28	0x3dac06f5	0.083997644
29	0x3d10c64e	0.035345368
30	0xbe595aaa	-0.21225992
31	0x3d667c47	0.056270864
32	0x3d5c6448	0.053806573
33	0x3d587780	0.05284834
34	0xbd4c47a6	-0.049873017
35	0xbd8ce3b2	-0.06879367
36	0x3d675815	0.056480486
37	0xbddd3718	-0.10801524
38	0x3da4280d	0.080154516
39	0x3ee2482b	0.44195685
40	0xbd9ea5b6	-0.077464506
41	0xbd619011	-0.055069033
42	0x3edce648	0.4314444
43	0x3e014be9	0.12626614
44	0x3d63d472	0.055622526
45	0x3d50e049	0.050995145
46	0x3d28f6a0	0.041250825
47	0xbd8544c7	-0.06507259
48	0x3d4fdbd6	0.05074676
49	0x3db39bf7	0.08769982
50	0xbd19fd3c	-0.03759502
51	0x3d584c0a	0.05280689
52	0xbde492c3	-0.11160805
53	0xbd8998f8	-0.067186296
54	0xbd93e04e	-0.07220517
55	0xbdbc4a5a	-0.09193869
56	0x3d60b671	0.05486149
57	0xbd2f4e7e	-0.042799465
58	0x3d89c4a0	0.06726956
59	0xbdcdbfa6	-0.1004632
60	0x3d66e154	0.056367233
61	0x3d6121b9	0.0549638
62	0xbd46a2d6	-0.048495136
63	0x3d78c7d4	0.060737446
