models/price_predictor_nn_v10.pth (torch, 60831 bytes, 7 tensors)

network.0.weight f4 [128, 29]
0.22392173 -0.036752775 -0.007221154 -0.054582674 0.023298271 0.24538313 0.0430704 0.08042304
0.07737711 -0.0064826226 0.16825265 0.14204282 0.11394613 -0.09270536 -0.1312554 -0.0748825
0.014066149 -0.05156327 0.0013542216 0.06383602 0.05964673 0.056102533 -0.04023294 0.1721676
0.13564321 0.1879972 -0.15015005 -0.062510766 0.036416933 0.045370717 0.10208634 0.02191487
0.12869735 0.007791251 0.33308393 0.01161779 0.009038218 0.026795702 -0.017208334 0.112652205
0.11169924 0.061343487 0.118555576 -0.09730761 0.0024773402 0.058712814 0.15064868 0.15437113
-0.02775237 -0.12377042 0.05951565 -0.19656375 -0.13902543 -0.20160316 0.06013341 -0.29196438
-0.051890988 0.07248673 0.022618767 0.029053995 -0.03332919 0.32198453 -0.021976572 0.013360021
-0.0047931815 0.021905204 -0.0115252305 -0.0021608078 0.078128345 0.06270155 0.077031285 -0.14897369
0.07545628 -0.060696796 -0.03316122 -0.104293354 -0.080751054 -0.00184932 -0.03153375 -0.055828847
-0.10102003 -0.067875236 0.01647575 -0.10542257 -0.37598452 0.15178795 -0.02099893 -0.036244713
-0.02516879 0.08407664 0.052136123 -0.008166186 0.050972875 -0.0594761 -0.083187014 0.22057156
-0.005751481 0.023630194 -0.021743031 0.011593923 -0.19414361 -0.01581827 -0.2528407 0.20367718
0.06140359 -0.22761187 -0.2512279 0.5801838 0.03370955 -0.7040813 -0.2760615 -0.50420296
-0.026773369 -0.012121064 -0.02316331 -0.084215835 -0.05055393 0.047960877 0.012542389 -0.019442856
0.039233807 0.1034302 0.076622225 0.20410712 0.30523995 -0.2517285 -0.06788944 -0.057498045
-0.11457432 -0.031204898 -0.09835291 0.038553543 0.11077921 -0.0050645503 0.027804047 0.029714456
-0.19031224 0.038292337 -0.018101066 0.0787862 0.08914252 0.04591165 -0.011933145 0.044477448
0.033965994 -0.52566075 0.009865661 0.050683495 0.003455133 -0.12147738 -0.18252318 0.024797212
0.0059916414 -0.010596648 0.04093956 -0.047438424 -0.07114985 -0.14112541 0.0185054 0.001723416
0.04516772 -0.025157219 0.021197408 -0.017718334 0.0097633125 -0.010345506 0.0330632 -0.17820896
0.075552754 -0.20322195 -0.076808676 0.15129967 -0.18419012 -0.14265226 -0.41227493 0.018553697
0.083828196 0.08773122 -0.08530834 -0.7977447 0.006622851 -0.03795162 0.042200033 -0.043851394
-0.025446687 -0.041251026 -0.0054419674 -0.14655323 0.026437458 0.0027387934 -0.07930015 -0.049108054
-0.22464046 -0.07275852 0.02260296 -0.09143492 0.0069072926 -0.15871674 0.16624995 -0.15505226
0.10593383 0.08332966 -0.019447329 -0.0623948 0.052905027 0.05768427 -0.021832662 0.04432199
0.1081598 -0.16936423 0.0013261728 0.32380748 0.2559972 0.13059796 0.12176712 0.031740062
-0.007938491 -0.08492532 0.014646443 0.026814412 0.038584866 -0.049900126 -0.15251994 -0.24679896
0.0055807563 -0.26361048 -0.073193006 0.0065808594 -0.066343546 -0.029870098 -0.08230523 -0.099517256
0.057687152 -0.087069646 0.0642232 -0.0017716782 -0.082609534 0.44028205 -0.021105263 -0.029977212
0.09751722 -0.08492745 0.09418803 0.098833404 0.13521622 0.056604832 -0.03760882 0.072919816
0.2640474 -0.14853734 0.2511551 -0.07171518 0.18146765 -0.035402477 0.21120548 -0.22778964
00000000: bd4b 653e 148a 16bd 6e9f ecbb 1592 5fbd
00000010: 04dc be3c b745 7b3e 966a 303d d6b4 a43d
00000020: e477 9e3d 2e6c d4bb 6c4a 2c3e ac73 113e
00000030: 975c e93d 4fdc bdbd d167 06be ff5b 99bd
00000040: b475 663c 0234 53bd 2380 b13a 76bc 823d
00000050: 2150 743d c5cb 653d 4ccb 24bd b44c 303e
00000060: 0ee6 0a3e 5782 403e efc0 19be a505 80bd
00000070: ec29 153d a5d6 393d a512 d13d d086 b33c
00000080: 3dc9 033e c04d ff3b fa89 aa3e 8b58 3e3c
00000090: 0915 143c a982 db3c 7ef8 8cbc 33b6 e63d
000000a0: 92c2 e43d 4f43 7b3d 44cd f23d 3649 c7bd
000000b0: df5a 223b d97c 703d a643 1a3e 7713 1e3e
000000c0: f058 e3bc 597b fdbd afc6 733d 0248 49be
000000d0: af5c 0ebe 0f71 4ebe 734e 763d 5b7c 95be
000000e0: a58b 54bd ec73 943d fe4a b93c a502 ee3c
000000f0: 3084 08bd 28db a43e 3608 b4bc fde3 5a3c
00000100: 1f10 9dbb 8b72 b33c 52d4 3cbc 579c 0dbb
00000110: c101 a03d ac69 803d 94c2 9d3d 8f8c 18be
00000120: d288 9a3d 349d 78bd 0fd4 07bd c197 d5bd
00000130: cf60 a5bd e264 f2ba 8929 01bd caac 64bd
00000140: 97e3 cebd 2c02 8bbd 27f8 863c cae7 d7bd
00000150: 0b81 c0be 4d6e 1b3e f305 acbc 5675 14bd
00000160: c72e cebc 6030 ac3d b08c 553d 77cb 05bc
00000170: efc8 503d 369d 73bd f45d aabd 83dd 613e
00000180: eb76 bcbb 1c94 c13c 711e b2bc 70f4 3d3c
00000190: 95cd 46be 5195 81bc 5674 81be c090 503e
000001a0: 5582 7b3d 1613 69be f1a0 80be ed86 143f
000001b0: 0613 0a3d ac3e 34bf ef57 8dbe 7213 01bf
000001c0: d353 dbbc 6d97 46bc fbc0 bdbc 5a79 acbd
000001d0: a311 4fbd a072 443d 987e 4d3c a046 9fbc
000001e0: a1b3 203d 36d3 d33d 1dec 9c3d 7501 513e
000001f0: 6948 9c3e 8fe2 80be 9e09 8bbd 1283 6bbd
00000200: f1a5 eabd 6aa1 ffbc 406d c9bd 52ea 1d3d
00000210: 36e0 e23d 87f4 a5bb 50c5 e33c bb6b f33c
00000220: 36e1 42be 6dd8 1c3d b048 94bc a95a a13d
00000230: 5b90 b63d db0d 3c3d 3d83 43bc fc2d 363d
00000240: ed1f 0b3d b491 06bf 95a3 213c 7f99 4f3d
00000250: 836f 623b 22c9 f8bd 5be7 3abe 8623 cb3c
00000260: 8855 c43b 909d 2dbc 3db0 273d cb4e 42bd
00000270: 03b7 91bd 2e83 10be a398 973c 3fe4 e13a
00000280: ca01 393d 8316 cebc 30a6 ad3c 0a26 91bc
00000290: 4df6 1f3c 3280 29bc 476d 073d 697c 36be
000002a0: 67bb 9a3d 6a19 50be de4d 9dbd 4dee 1a3e
000002b0: 569c 3cbe 6f13 12be b315 d3be ecfd 973c
000002c0: 1eae ab3d 6dac b33d 24b6 aebd ff38 4cbf
000002d0: 8004 d93b 2873 1bbd f1d9 2c3d 859d 33bd
000002e0: 9275 d0bc d6f6 28bd 8852 b2bb 0d12 16be
000002f0: 5e93 d83c 547d 333b 1e68 a2bd 8725 49bd
00000300: 2608 66be 6b02 95bd d829 b93c 3b42 bbbd
00000310: 9256 e23b a486 22be 6d3d 2a3e 05c6 1ebe
00000320: d6f3 d83d bea8 aa3d 0150 9fbc b191 7fbd
00000330: f1b2 583d 5746 6c3d 69da b2bc fa8a 353d
00000340: e382 dd3d d16d 2dbe fad2 ad3a 18ca a53e
00000350: 1112 833e 79bb 053e 0a61 f93d de01 023d
00000360: 7210 02bc 54ed adbd a2f7 6f3c e6a9 db3c
00000370: 2a0b 1e3d 1364 4cbd 302e 1cbe deb8 7cbe
00000380: c7de b63b f4f7 86be 37e6 95bd 40a4 d73b
00000390: 20df 87bd 23b2 f4bc a58f a8bd b4cf cbbd
000003a0: 5d49 6c3d 9251 b2bd 7487 833d a837 e8ba
000003b0: 302f a9bd a66c e13e f2e4 acbc c592 f5bc
000003c0: 1cb7 c73d 71ee adbd a7e5 c03d 2b69 ca3d
000003d0: 1f76 0a3e 78da 673d b50b 1abd fc56 953d
000003e0: 3931 873e 2c1a 18be 6797 803e 69df 92bd
000003f0: a8d2 393e 3002 11bd 4046 583e b041 69be

network.0.bias f4 [128]
-0.07228205 0.0023887681 -0.14603017 -0.4052535 -0.059294913 -0.30774736 -0.056428425 -0.06525811
-0.020380836 0.036329165 -0.23817155 -0.34551853 -0.11017147 -0.06417702 -0.007146324 -0.15245748
-0.2090841 -0.0054404084 -0.25504422 0.082389675 -0.19935603 -0.19631173 -0.27453038 -0.07246894
-0.23615593 0.14838734 0.03879831 0.040763203 -0.18313734 -0.05255217 -0.09714494 -0.26986736
0.040373728 -0.21357317 -0.010417068 -0.10289012 -0.3180742 -0.25323632 -0.020979796 -0.26413134
-0.14249305 0.059128918 0.0045206654 -0.013808794 -0.027587522 -0.0049789357 -0.13954008 -0.2334238
0.12713282 -0.011555921 -0.28271618 0.037554532 -0.07670384 -0.13322502 -0.27527663 0.13695973
-0.06472446 -0.152315 -0.18290825 -0.23505381 0.04130475 -0.14886208 -0.15040396 -0.1602393
-0.07999643 0.12746762 0.034004614 -0.26069197 -0.1785424 0.13202399 -0.293766 -0.061522882
-0.2644117 -0.033729583 -0.09939811 0.17882517 -0.24526604 0.06473245 0.009434702 -0.3917089
-0.10781793 -0.16847292 0.05671756 -0.09314475 -0.113526 -0.01351546 -0.27804366 -0.14622174
-0.12327528 -0.045875624 -0.023720326 -0.006141599 -0.23341918 0.04983513 0.014240237 0.019103691
-0.11408568 -0.027335199 0.06254437 -0.15692541 -0.050201986 -0.33683118 0.032068286 -0.19488074
-0.17860515 -0.050691493 -0.12378977 -0.10813372 0.099318214 -0.023366995 -0.26288027 -0.02521269
-0.20089598 -0.21400306 -0.17322472 0.03804262 0.2365074 -0.009319969 -0.326293 -0.20973879
-0.0709001 -0.1696938 -0.13885057 -0.18623404 -0.2774017 0.02713625 -0.15473379 -0.12741727
00000000: 9d08 94bd e18c 1c3b ef88 15be 637d cfbe
00000010: 39df 72bd 1091 9dbe 7e21 67bd 0ba6 85bd
00000020: b6f5 a6bc e4cd 143d 3ee3 73be cee7 b0be
00000030: 94a1 e1bd 3e6f 83bd b62b eabb d01d 1cbe
00000040: 241a 56be 7445 b2bb 2895 82be ebbb a83d
00000050: fd23 4cbe f105 49be 3f8f 8cbe 986a 94bd
00000060: dcd2 71be daf2 173e faea 1e3d 51f7 263d
00000070: 5b88 3bbe f240 57bd edf3 c6bd 0e2c 8abe
00000080: ec5e 253d edb2 5abe 5aac 2abc 0eb8 d2bd
00000090: 9fda a2be 31a8 81be d2dd abbc 393c 87be
000000a0: b3e9 11be 2a31 723d 1722 943b 483e 62bc
000000b0: 3aff e1bc 5726 a3bb 98e3 0ebe a606 6fbe
000000c0: 1b2f 023e 0c55 3dbc 2dc0 90be c8d2 193d
000000d0: e716 9dbd 246c 08be 0ff1 8cbe 2c3f 0c3e
000000e0: 428e 84bd 77f8 1bbe 4d4c 3bbe f2b1 70be
000000f0: 2b2f 293d 4d6f 18be 7f03 1abe c515 24be
00000100: 2bd5 a3bd df86 023e 6c48 0b3d 6b79 85be
00000110: d2d3 36be 4c31 073e 7f68 96be 6bff 7bbd
00000120: f860 87be 0828 0abd 3c91 cbbd f21d 373e
00000130: 0527 7bbe 7292 843d 0294 1a3c 128e c8be
00000140: a6cf dcbd 2a84 2cbe ac50 683d adc2 bebd
00000150: 5280 e8bd f36f 5dbc bd5b 8ebe 27bb 15be
00000160: c077 fcbd 14e8 3bbd 2151 c2bc 773f c9bb
00000170: 7005 6fbe ec1f 4c3d e24f 693c 587f 9c3c
00000180: c1a5 e9bd 11ee dfbc 4317 803d 0eb1 20be
00000190: 99a0 4dbd 2375 acbe 095a 033d d18e 47be
000001a0: 45e4 36be e2a1 4fbd 7e85 fdbd 3675 ddbd
000001b0: 5967 cb3d 246c bfbc 3e98 86be d88a cebc
000001c0: adb7 4dbe 9e23 5bbe d261 31be 94d2 1b3d
000001d0: ff2e 723e c9b2 18bc e00f a7be c4c5 56be
000001e0: 1234 91bd 36c4 2dbe d82e 0ebe 23b4 3ebe
000001f0: 9807 8ebe d74c de3c 8972 1ebe ac79 02be

network.3.weight f4 [64, 128]
0.068847924 0.059954975 -0.034114618 0.08185578 0.013299885 0.1458541 0.065978594 -0.007211681
0.041854583 -0.006631113 -0.066423915 -0.027703559 0.09395321 0.009392482 0.06288175 -0.14304015
-0.17995532 0.06489188 0.019746464 0.062477004 0.014127796 0.12025182 -0.061634015 -0.0077984226
-0.06303919 -0.0014056619 0.05339901 0.10722089 -0.057220753 -0.020821547 -0.034795243 -0.04479367
-0.05910456 -0.07236475 -0.04274257 -0.055510208 0.10939367 0.102262914 0.050613567 0.13127685
-0.016103053 0.107948504 -0.056796357 0.008512802 -0.0011437854 0.05470821 0.003951866 0.010529973
0.007331738 0.10399797 0.16727649 0.05428551 -0.029578757 0.045151774 -0.029745536 0.06574518
0.15013869 -0.03345119 0.073564276 -0.03977441 -0.035435297 0.011027357 0.031119445 0.04767209
0.08382859 0.025889426 0.043436483 0.028673042 0.24228773 -0.013743861 -0.11317786 0.009156288
0.16533144 -0.010848944 -0.018902972 -0.06514873 0.14168392 0.0036645809 -0.07591441 0.046288084
0.105655864 0.09664967 0.037263464 0.03266248 0.0022605336 0.095294535 0.02063781 -0.032907274
-0.009678049 -0.1033504 -0.038238272 -0.0001378406 -0.095169015 0.066846244 -0.0015522533 -0.022726608
0.05544263 0.030965514 0.069589265 0.09784561 -0.077359036 0.11485736 0.16064286 0.011450833
-0.04893347 -0.047592875 -0.04871549 -0.018195376 0.03146445 -0.058231384 0.0047140685 0.03799577
-0.038241997 0.13255726 0.16328628 0.10123609 0.038340062 0.028436476 0.09157997 -0.021879053
-0.07390162 0.09733225 0.022594009 0.13915221 -0.024832286 0.013371045 0.11370752 -0.0427054
0.015378489 -0.013425782 0.032850135 0.040270798 0.0538956 -0.060988188 -0.07975684 0.081122145
0.12808745 0.117535435 0.02202628 0.062498055 0.041538283 0.020790145 0.007023724 0.051220566
0.052993715 0.08313562 0.09895527 0.08888414 -0.0125490585 0.039153352 0.1757361 0.025203347
0.02121868 -0.018961193 -0.049102355 0.033832647 0.03580942 0.032066446 0.07379214 -0.009441551
0.07786332 -0.0038986036 0.08896943 -0.012163118 0.0498421 -0.018703703 0.01596645 -0.06265202
0.04947251 -0.0038169536 -0.004695484 0.0033968568 -0.0116703315 0.080932334 -0.0058757225 0.009828007
0.055194274 0.013617682 0.08266303 0.011038342 -0.092061706 -0.023008062 -0.104761764 0.026430933
0.07435559 -0.0019504539 0.032983243 0.011739974 -0.029900778 -0.0024098377 0.12448486 -0.050920654
-0.020229582 -0.004840233 -0.039125036 -0.029841635 0.04895502 -0.034069818 -0.082108416 0.023274835
0.024993552 0.049642257 -0.016235162 0.00039969687 -0.026246259 0.040945496 -0.034042425 0.014066523
0.1219984 -0.022040194 0.035438936 0.074327245 -0.0718815 0.052582044 -0.006558776 -0.041685548
-0.051004287 -0.008542803 0.08650684 -0.03366228 0.14091264 0.08132502 -0.030910186 -0.04045115
0.002118086 0.02113747 -0.08185272 -0.024589395 -0.049418677 -0.0021961129 0.024595087 0.09219264
0.058483038 -0.0137591185 -0.001234998 0.004845228 -0.0092314035 -0.019466456 0.033508804 -0.03632921
-0.11440137 -0.0035126454 -0.08145156 0.03424463 0.007585137 -0.09860808 0.0144069735 -0.10807019
-0.06524958 0.11923072 -0.060295716 0.003683976 0.07944443 0.039153844 -0.037096214 -0.10567431
00000000: 2400 8d3d 5993 753d c5bb 0bbd 01a4 a73d
00000010: c3e7 593c c75a 153e c91f 873d f74f ecbb
00000020: b66f 2b3d cf49 d9bb 4309 88bd 93f2 e2bc
00000030: 8a6a c03d ede2 193c 26c8 803d 1e79 12be
00000040: 3546 38be 09e6 843d 56c3 a13c e3e7 7f3d
00000050: 4578 673c 9646 f63d f373 7cbd e989 ffbb
00000060: b11a 81bd 303e b8ba ecb8 5a3d a096 db3d
00000070: 4f60 6abd f391 aabc 7585 0ebd 9179 37bd
00000080: a017 72bd f833 94bd d512 2fbd ac5e 63bd
00000090: ca09 e03d 386f d13d 2c50 4f3d 706d 063e
000000a0: 8dea 83bc 1b14 dd3d 4ca3 68bd 4879 0b3c
000000b0: 12eb 95ba b715 603d a87e 813b e885 2c3c
000000c0: 133f f03b e3fc d43d 874a 2b3e 7c5a 5e3d
000000d0: 264f f2bc 11f1 383d e9ac f3bc 69a5 863d
000000e0: f5bd 193e 1d04 09bd dea8 963d 7eea 22bd
000000f0: 9a24 11bd 16ac 343c 35ee fe3c cf43 433d
00000100: 53ae ab3d 1016 d43c 74ea 313d bae3 ea3c
00000110: 461a 783e ee2d 61bc cbc9 e7bd 4104 163c
00000120: a54c 293e c5bf 31bc 68da 9abc b36c 85bd
00000130: 9715 113e 7729 703b 0479 9bbd 9398 3d3d
00000140: 1a62 d83d 43f0 c53d 93a1 183d 18c9 053d
00000150: 7625 143b c829 c33d a010 a93c c7c9 06bd
00000160: ae90 1ebc 60a9 d3bd bc9f 1cbd 4e89 10b9
00000170: f9e7 c2bd afe6 883d fa74 cbba 272d babc
00000180: d017 633d 64ab fd3c d184 8e3d 4763 c83d
00000190: 6a6e 9ebd 563a eb3d 907f 243e 469c 3b3c
000001a0: 766e 48bd bff0 42bd e589 47bd 780e 95bc
000001b0: dee0 003d 0884 6ebd 7978 9a3b 74a1 1b3d
000001c0: a4a3 1cbd 17bd 073e 8534 273e de54 cf3d
000001d0: 780a 1d3d 9df3 e83c 488e bb3d b33b b3bc
000001e0: bc59 97bd 2156 c73d 1217 b93c eb7d 0e3e
000001f0: 146d cbbc 3a12 5b3c 7ddf e83d dceb 2ebd
00000200: 0ff6 7b3c d0f7 5bbc dd8d 063d fef2 243d
00000210: a2c1 5c3d c0ce 79bd 8e57 a3bd 5e23 a63d
00000220: 5b29 033e 6bb6 f03d 7570 b43c f6fd 7f3d
00000230: 0c24 2a3d 1850 aa3c 4427 e63b a8cc 513d
00000240: f00f 593d 0243 aa3d 10a9 ca3d e308 b63d
00000250: 919a 4dbc 445f 203d 2af4 333e 4077 ce3c
00000260: ccd2 ad3c 8154 9bbc 8d1f 49bd 1a94 0a3d
00000270: e6ac 123d 1b58 033d 5520 973d bcb0 1abc
00000280: ce76 9f3d b77f 7fbb 9b35 b63d d147 47bc
00000290: 3b27 4c3d 8238 99bc 13cc 823c b44f 80bd
000002a0: b0a3 4a3d db25 7abb 93dc 99bb cd9d 5e3b
000002b0: eb34 3fbc dabf a53d 2289 c0bb a605 213c
000002c0: 6413 623d b31c 5f3c 3c4b a93d 29da 343c
000002d0: d98a bcbd 677b bcbc 568d d6bd af85 d83c
000002e0: be47 983d 5fa6 ffba 7019 073d 0559 403c
000002f0: 7af2 f4bc 5eee 1dbb ebf1 fe3d 2d92 50bd
00000300: 82b8 a5bc d19a 9ebb 9341 20bd 7276 f4bc
00000310: 0f85 483d cb8c 0bbd 7528 a8bd deaa be3c
00000320: 47bf cc3c ae55 4b3d 9aff 84bc 688e d139
00000330: 6502 d7bc 77b6 273d 1270 0bbd 4677 663c
00000340: 4cda f93d a38d b4bc 6b28 113d e238 983d
00000350: 9c36 93bd 4560 573d 00eb d6bb 77be 2abd
00000360: dfe9 50bd 1df7 0bbc 802a b13d 75e1 09bd
00000370: 674b 103e bb8d a63d 5c37 fdbc 1bb0 25bd
00000380: 96cf 0a3b 7d28 ad3c 66a2 a7bd b36f c9bc
00000390: 3d6b 4abd a9ec 0fbb a37b c93c 7fcf bc3d
000003a0: e98b 6f3d ed6d 61bc a8df a1ba b8c4 9e3b
000003b0: 503f 17bc 1e78 9fbc 8740 093d f0cd 14bd
000003c0: 444b eabd 6934 66bb 13d0 a6bd 1944 0c3d
000003d0: be8c f83b 08f3 c9bd 3a0b 6c3c e753 ddbd
000003e0: 92a1 85bd 3c2f f43d a4f8 76bd dc6e 713b
000003f0: c3b3 a23d c85f 203d 33f2 17bd c66b d8bd

network.3.bias f4 [64]
-0.0290187 0.1673407 0.12497387 0.12669492 -0.0010062131 0.06505191 0.03661751 0.03875966
0.44615927 -0.016421372 0.017108489 0.21777731 0.16819008 0.066280015 -0.16391142 0.018912544
0.08009939 0.04454703 0.16360033 0.01964729 -0.0019409674 -0.025253529 0.01716086 0.16028652
0.15304041 0.02886949 0.37998375 -0.07066998 0.06299716 0.09521889 0.2927658 0.19224085
-0.027919583 0.13053548 0.15442415 0.09103214 0.07121819 0.091489255 0.13370447 0.055428777
0.010502672 0.023188893 0.49163803 0.24429867 0.05375806 -0.036742132 0.14775349 0.08405853
0.10700488 0.52650815 -0.047647946 0.12635797 0.13522708 0.07617119 0.051547125 -0.013099525
-0.08205622 0.046607923 -0.01874082 0.03178591 -0.05199783 0.060251802 0.10762465 -0.12902912
00000000: a0b8 edbc 5c5b 2b3e 4df2 ff3d 50bc 013e
00000010: e9e2 83ba f039 853d 3efc 153d 73c2 1e3d
00000020: fd6e e43e 1d86 86bc 1a27 8c3c 0401 5f3e
00000030: 053a 2c3e d1bd 873d 65d8 27be 7bee 9a3c
00000040: 260b a43d f276 363d d886 273e 5bf3 a03c
00000050: 0f68 feba 7de0 cebc ef94 8c3c 2622 243e
00000060: a0b6 1c3e b57f ec3c 3b8d c23e 6cbb 90bd
00000070: a804 813d 1f02 c33d 66e5 953e c9da 443e
00000080: 9cb7 e4bc 18ab 053e 5d21 1e3e 0f6f ba3d
00000090: d8da 913d b85e bb3d d3e9 083e 4909 633d
000000a0: 6613 2c3c a2f6 bd3c fbb7 fb3e 6e29 7a3e
000000b0: 6931 5c3d eb7e 16bd b14c 173e e126 ac3d
000000c0: 6025 db3d 3dc9 063f 7e2a 43bd fc63 013e
000000d0: f878 0a3e a4ff 9b3d 1423 533d 649f 56bc
000000e0: 170d a8bd f3e7 3e3d 5986 99bc f131 023d
000000f0: adfb 54bd 98ca 763d 506a dc3d 3620 04be

network.5.weight f4 [32, 64]
0.00063714554 0.052189972 0.024646513 0.21432652 -0.09353797 0.06632878 -0.2738338 -0.1733117
0.19026595 -0.18092659 -0.11546779 -0.04820994 -0.1314596 0.043588202 -0.19557093 0.05627502
0.5441225 -0.014387357 0.08444028 0.1477566 -0.23945016 0.0254354 -0.07494746 -0.035576653
-0.030469423 0.16417094 -0.09147389 -0.049346957 0.29666233 0.011457301 0.14267917 0.08849051
0.049416494 -0.04046852 0.07591684 -0.01240162 0.18838009 -0.076601446 0.0014767107 -0.021917088
-0.08367511 -0.08985223 0.1894652 0.1069102 0.004092985 -0.046452295 -0.15683848 0.044239387
0.07600054 -0.027222501 -0.006972578 -0.021359729 0.026488021 0.11741136 -0.08205185 0.017886166
0.17351958 -0.041149586 0.069910176 -0.07985861 -0.038968198 -0.004285013 -0.04526435 -0.14207996
-0.07698155 -0.07030159 -0.074757814 0.04464526 0.08308165 0.024394289 0.1346475 -0.053837337
-0.0549016 -0.05160645 0.020654395 -0.09136712 0.14954329 -0.03460118 0.016456233 -0.040843584
-1.0645696 -0.03291174 0.050314076 -0.03183503 0.111639254 -0.17217945 0.13569246 0.01498492
-0.011090934 -0.1933831 0.029546335 -0.047004443 -0.08491623 0.04757492 0.011429096 0.048069555
-0.014565308 -0.0015517003 -0.0370085 0.011844404 -0.17423081 0.07351115 0.18412781 0.15370643
0.15713468 0.114848286 0.056103777 -0.036545593 0.02124077 0.091165155 0.28045338 0.0018840636
0.118349664 0.14224242 0.07480239 -0.105586916 0.13987991 0.024092115 0.10921976 -0.11185731
-0.15109842 0.035605997 -0.093825884 0.030784024 -0.25478944 0.036864664 0.053057987 0.104182884
-0.09351242 0.007327326 0.03414129 0.17393395 0.05951102 0.08142798 -0.031964686 -0.16319329
0.091336876 -0.062237553 0.1520024 0.15922886 -0.17155214 -0.08002451 0.1151985 -0.037106976
0.31057385 -0.13630104 -0.08138418 0.09649848 -0.19335824 -0.09927972 0.15732971 -0.015561205
0.030893669 0.045145746 0.08715981 -0.09616227 0.11915687 0.048962086 -0.050686773 0.12621666
-0.031937927 0.0074453456 0.19670103 -0.009145357 -0.04410385 -0.10870242 -0.024956282 -0.21014884
0.019111117 -0.038784653 0.00013047415 0.1121218 0.14025918 -0.14476767 -0.18065785 -0.03164976
0.18037294 0.20920378 0.034606498 0.09441875 -0.017750913 0.05034586 -0.21056853 -0.10394252
-0.033681825 -0.032985993 -0.027584359 -0.22336705 0.035546698 0.13301748 -0.07933686 0.139822
-0.100500524 -0.07959788 -0.047843367 0.14126508 -0.06321918 -0.016973844 0.005657766 -0.022634776
0.07616552 -0.011990923 0.10407064 0.16374363 -0.17784548 -0.059374794 0.021661835 -0.035913136
0.43493748 -0.09068209 0.08845377 0.106096946 -0.026724571 0.006225589 0.061810862 -0.041890442
0.10281084 0.13115405 0.11934052 -0.13540405 0.18420903 0.030182486 0.0031053836 0.091665
0.069254324 -0.09039933 0.23316672 -0.13350825 0.024710393 -0.119569 -0.01307215 -0.0040986515
-0.08120023 -0.0201025 0.051157996 -0.03441329 0.01877555 -0.15978177 -0.056513384 -0.04839723
0.15585013 0.22741073 0.0437109 0.13944758 -0.030118326 0.13080777 -0.09045843 -0.101092845
0.14913553 -0.018385699 0.09647882 -0.04814274 -0.007819977 0.18184535 -0.041788448 -0.061788455
00000000: 1d06 273a 27c5 553d 7ce7 c93c 6978 5b3e
00000010: d690 bfbd 62d7 873d f233 8cbe 9f78 31be
00000020: 14d5 423e d244 39be 607a ecbd c977 45bd
00000030: 589d 06be 8b89 323d bf43 48be a380 663d
00000040: 9d4b 0b3f f3b8 6bbc 07ef ac3d 824d 173e
00000050: 6c32 75be e65d d03c 0e7e 99bd d3b8 11bd
00000060: 039b f9bc 6d1c 283e aa56 bbbd 0920 4abd
00000070: 20e4 973e 67b7 3b3c 7d1a 123e 833a b53d
00000080: f368 4a3d 52c2 25bd 4a7a 9b3d 2a30 4bbc
00000090: b6e6 403e 38e1 9cbd 308e c13a 778b b3bc
000000a0: db5d abbd 7204 b8bd 2a03 423e bcf3 da3d
000000b0: 721e 863b c344 3ebd 449a 20be 5c34 353d
000000c0: 2ca6 9b3d b901 dfbc 397a e4bb 99fa aebc
000000d0: 68fd d83c 5e75 f03d cd0a a8bd 0286 923c
000000e0: 1eaf 313e 788c 28bd 112d 8f3d e98c a3bd
000000f0: 1e9d 1fbd 4b69 8cbb 1c67 39bd 697d 11be
00000100: 81a8 9dbd 48fa 8fbd a01a 99bd f3dd 363d
00000110: b626 aa3d 88d6 c73c 09e1 093e 8a84 5cbd
00000120: 80e0 60bd 4961 53bd 6833 a93c af1e bbbd
00000130: e021 193e f8b9 0dbd 39cf 863c 9a4b 27bd
00000140: d143 88bf 76ce 06bd 2216 4e3d 7365 02bd
00000150: 1fa3 e43d cf4f 30be f7f2 0a3e 4f83 753c
00000160: c0b6 35bc 3806 46be 280b f23c bb87 40bd
00000170: 8fe8 adbd ebdd 423d 1a41 3b3c 95e4 443d
00000180: 54a3 6ebc 6c62 cbba 3a96 17bd 080f 423c
00000190: 9069 32be 048d 963d 008c 3c3e 3865 1d3e
000001a0: eae7 203e 9435 eb3d 13cd 653d d5b0 15bd
000001b0: 2001 ae3c ccb4 ba3d 9697 8f3e aff2 f63a
000001c0: 4f61 f23d ffa7 113e ff31 993d f43d d8bd
000001d0: ae3c 0f3e d45c c53c 9cae df3d 7215 e5bd
000001e0: 8bb9 1abe 98d7 113d c927 c0bd c72e fc3c
000001f0: c373 82be 67ff 163d 5553 593d d65d d53d
00000200: 7183 bfbd 111a f03b bdd7 0b3d be1b 323e
00000210: d4c1 733d b6c3 a63d 67ed 02bd 241c 27be
00000220: d40e bb3d ceec 7ebd 84a6 1b3e e40c 233e
00000230: 5dab 2fbe e4e3 a3bd 31ed eb3d 7cfd 17bd
00000240: 8903 9f3e 8092 0bbe c0ac a6bd ffa0 c53d
00000250: b4ff 45be 2a53 cbbd 0a1b 213e 6df4 7ebc
00000260: b814 fd3c bfea 383d d880 b23d b9f0 c4bd
00000270: 8408 f43d 788c 483d ef9c 4fbd f13e 013e
00000280: 58d1 02bd 16f8 f33b ff6b 493e 68d6 15bc
00000290: 3da6 34bd 609f debd 1e71 ccbc 4231 57be
000002a0: eb8e 9c3c a8dc 1ebd e3cf 0839 1da0 e53d
000002b0: 1aa0 0f3e fa3d 14be 5ffe 38be 2ea3 01bd
000002c0: afb3 383e 8439 563e 8bbf 0d3d 9e5e c13d
000002d0: 5d6a 91bc 7637 4e3d 479f 57be d1df d4bd
000002e0: f4f5 09bd 521c 07bd 98f8 e1bc 55ba 64be
000002f0: 6a99 113d bc35 083e 5d7b a2bd 802d 0f3e
00000300: 38d3 cdbd 3704 a3bd 68f7 43bd cba7 103e
00000310: 0f79 81bd bb0c 8bbc c864 b93b 916c b9bc
00000320: abfc 9b3d 9475 44bc fd22 d53d 69ac 273e
00000330: 201d 36be fc32 73bd 2974 b13c a719 13bd
00000340: 20b0 de3e 88b7 b9bd 4027 b53d 5b49 d93d
00000350: 7ded dabc 0700 cc3b 632d 7d3d 5095 2bbd
00000360: 7d8e d23d 3f4d 063e cd68 f43d 5ca7 0abe
00000370: 4ba1 3c3e 4341 f73c b183 4b3b dcba bb3d
00000380: 36d5 8d3d 4923 b9bd 42c3 6e3e 63b6 08be
00000390: 736d ca3c 98e0 f4bd 922c 56bc fb4d 86bb
000003a0: 4e4c a6bd 00ae a4bc 0c8b 513d f3f4 0cbd
000003b0: 2fcf 993c d59d 23be 947a 67bd 2d3c 46bd
000003c0: 2d97 1f3e 5cde 683e 330a 333d 59cb 0e3e
000003d0: b5ba f6bc 79f2 053e 4542 b9bd c409 cfbd
000003e0: fcb6 183e 9b9d 96bc b096 c53d 5231 45bd
000003f0: 5c1f 00bc ab35 3a3e 5d2a 2bbd e415 7dbd

network.5.bias f4 [32]
0.21735004 0.10186264 0.09177782 0.15905629 0.13174428 0.20094681 -0.06769377 0.005910459
0.012493254 0.24938019 -0.04656172 0.09362171 0.20598505 -0.051528953 0.16919251 0.053198226
0.22283329 -0.039002772 -0.12735555 0.18778263 0.21980268 0.042888124 0.15901376 0.014143809
-0.018045759 -0.033300012 -0.090608604 0.17048535 0.23448323 0.16780715 0.20891644 0.19419634
00000000: 0291 5e3e 5c9d d03d 02f6 bb3d a7df 223e
00000010: f9e7 063e 00c5 4d3e 08a3 8abd 86ac c13b
00000020: 81b0 4c3c 855d 7f3e 81b7 3ebd bdbc bf3d
00000030: bfed 523e 0610 53bd cd40 2d3e 62e6 593d
00000040: 692e 643e 5fc1 1fbd 7e69 02be 174a 403e
00000050: f413 613e 75ab 2f3d 81d4 223e 6fbb 673c
00000060: b3d4 93bc 9865 08bd 0191 b9bd b693 2e3e
00000070: 5f1c 703e a3d5 2b3e 31ee 553e 68db 463e

network.7.weight f4 [1, 32]
-0.17905922 0.17590776 -0.21028015 -0.15139793 0.1425227 -0.21644378 0.22208655 0.67605543
0.25955838 -0.36348608 -0.17826544 -0.7555751 -0.2491003 0.24725768 0.3136709 0.24973169
-0.22855552 -0.11864959 -0.41819474 0.26987353 -0.12668951 0.445229 0.26670077 -0.26265368
0.30387962 0.23388615 -0.089045756 0.36843768 0.47382775 -0.31557226 -0.27167103 0.41596875
00000000: 4d5b 37be 2a21 343e ae53 57be 0f08 1bbe
00000010: 78f1 113e 70a3 5dbe a86a 633e f811 2d3f
00000020: d6e4 843e d91a babe 378b 36be 5f6d 41bf
00000030: 2614 7fbe 1e31 7d3e 7999 a03e aab9 7f3e
00000040: 750a 6abe 8efe f2bd 9f1d d6be dd2c 8a3e
00000050: e5ba 01be 0ef5 e33e 018d 883e 8b7a 86be
00000060: 1c96 9b3e da7f 6f3e 9f5d b6bd dda3 bc3e
00000070: 8d99 f23e b092 a1be 7718 8bbe dbf9 d43e
