models/price_predictor_nn_v13.pth (torch, 108959 bytes, 7 tensors)

network.0.weight f4 [256, 29]
0.3848393 -0.026814207 -0.14585884 -0.18113193 0.18984374 0.5244982 0.26991594 -0.11736348
0.11094312 0.29097286 0.015079269 0.026218245 0.017236143 -0.22087519 -0.3588011 -0.18730299
0.2723766 -0.30146623 0.14863949 0.0699074 -0.20344694 -0.11375823 0.15486754 0.43896937
0.046008855 0.102328606 -0.09432927 -0.36148402 0.027298702 0.17561427 -0.28933036 0.39130923
-0.24581538 -0.13291292 -0.30958736 -0.040682647 -0.08757164 0.65727246 -0.6544674 -0.016759394
-0.021363972 -0.018899659 -0.325184 -0.06768274 0.2377622 -0.051687162 0.08498494 -0.3709327
0.041267093 0.21903272 0.06614334 -0.38845086 -0.091373935 0.16253625 0.062695846 -0.0340412
-0.008230927 -0.2955766 0.52663535 -0.28858477 -0.36800534 0.45746285 0.067943394 -0.14480166
-0.31043872 0.037451893 0.72910434 -0.8210138 -0.0083669955 -0.000548792 -0.0047710887 0.2146854
-0.18114385 0.05422207 0.3168418 -0.25705466 0.17394045 -0.08137175 -0.589896 -0.19994742
-0.22826476 0.5997338 -2.105849 0.047742978 0.042795558 -0.39200988 -0.955396 0.66673154
-0.38933772 0.1913751 0.09254685 -0.9123819 0.08200994 -0.12190505 -0.0018782233 0.17416424
-0.14757045 0.0054049226 0.001720851 0.014896478 -0.1157016 -0.15440859 -0.60731 -0.06836932
0.33827254 -0.4149418 -2.856567 0.6130214 -1.1578231 0.510491 -0.5824564 -0.24852383
0.17570718 -0.50082266 -0.4558364 -0.996767 0.3661369 0.20599046 -0.18448196 -0.43465602
0.24709485 0.7018601 0.0016669044 -0.15559882 0.3115542 0.550197 0.0030961728 0.009283168
-0.0004274863 0.14525068 -0.09512564 -0.053677466 -0.28943783 0.2216173 0.18997207 0.04798206
-0.7305197 -1.499537 -0.69670606 0.368137 0.37961414 -0.23093764 -0.052405555 -0.2317153
-0.34479973 0.15274702 0.2167115 0.11730786 -0.3328333 -0.008075412 0.027367067 -0.18060626
0.29322892 0.29334745 -0.1581411 0.0021507926 -0.0048067956 0.0057504606 0.583564 -0.05235987
0.25065568 -0.19617514 6.936811e-05 1.2091366 -1.4533448 -1.5746189 -0.10653003 -0.5553801
0.42607015 -0.71772426 0.030006513 0.21123345 -2.0337164 -1.406701 0.039810583 -0.107628234
0.010958537 -1.059003 -0.15621072 -0.10649975 5.0822855e-06 -0.014612378 0.0061764102 -0.047515646
0.0035607025 0.0016402411 0.006388484 0.09123147 0.26117274 -0.0071619055 0.22484863 -0.0557401
0.50858516 -0.6369652 -1.1778685 -0.56916004 -0.27393425 -0.76505697 0.60154057 -0.16998908
0.6534907 -0.023200493 -0.17093053 0.15485924 0.21424003 -0.14754972 0.6098833 -0.06678226
0.48690474 0.18387869 0.029285917 -0.1437604 0.13589685 0.016761238 0.0071738646 0.01337016
-0.08477303 0.06573987 -0.4103951 0.49044704 -0.3272779 -0.29283008 -0.7024409 0.008392554
-0.4847162 0.6549011 -0.40093398 0.44662383 -0.40040308 0.00015096871 -0.22962698 -0.9898871
-0.59310305 0.30566052 -0.075196385 -0.18152772 0.09737631 -0.31158757 -0.08221215 0.029166102
0.031503435 -0.13976829 -0.0059462674 -0.0018720848 0.00035915748 0.036779348 -0.041030407 0.5170948
-0.42350423 0.47030827 0.80493116 -0.32983658 -0.20096326 0.5273412 -1.1822256 -0.05577555
00000000: a809 c53e 78a9 dbbc 055c 15be a67a 39be
00000010: 6666 423e 8445 063f 6c32 8a3e 445c f0bd
00000020: 2636 e33d 65fa 943e 0a0f 773c a5c7 d63c
00000030: d032 8d3c 1b2d 62be c7b4 b7be 5bcc 3fbe
00000040: f274 8b3e c859 9abe f334 183e 9c2b 8f3d
00000050: 6554 50be 13fa e8bd 9995 1e3e 98c0 e03e
00000060: c873 3c3d a991 d13d b42f c1bd 6f14 b9be
00000070: 87a1 df3c 3ad4 333e 1c23 94be af59 c83e
00000080: 07b7 7bbe 531a 08be 3c82 9ebe d9a2 26bd
00000090: c358 b3bd 0243 283f 2d8b 27bf ff4a 89bc
000000a0: 7f03 afbc 75d3 9abc 847e a6be 409d 8abd
000000b0: ef77 733e ebb5 53bd 960c ae3d e4ea bdbe
000000c0: af07 293d 1d4a 603e 2976 873d 08e3 c6be
000000d0: 4222 bbbd e76f 263e ae66 803d c96e 0bbd
000000e0: 03db 06bc d155 97be 93d1 063f 62c1 93be
000000f0: 326b bcbe 9238 ea3e e825 8b3d e346 14be
00000100: d3f1 9ebe 2867 193d 95a6 3a3f f62d 52bf
00000110: b915 09bc cfdc 0fba cb56 9cbb 7dd6 5b3e
00000120: c67d 39be f617 5e3d 1739 a23e ab9c 83be
00000130: 721d 323e 3ba6 a6bd 6d03 17bf 04bf 4cbe
00000140: 3dbe 69be 2888 193f 3bc6 06c0 248e 433d
00000150: 654a 2f3d 85b5 c8be d594 74bf ebae 2a3f
00000160: 4657 c7be d6f7 433e 3489 bd3d dc91 69bf
00000170: d4f4 a73d 5ba9 f9bd b72e f6ba 1c58 323e
00000180: b51c 17be c71b b13b 2e8e e13a 5b10 743c
00000190: f6f4 ecbd 491d 1ebe ab78 1bbf 3705 8cbd
000001a0: 0f32 ad3e 4073 d4be fed1 36c0 f8ee 1c3f
000001b0: 8c33 94bf 8aaf 023f dd1b 15bf 087d 7ebe
000001c0: 95ec 333e ea35 00bf 6363 e9be 1f2c 7fbf
000001d0: 4c76 bb3e 2aef 523e d7e8 3cbe 3c8b debe
000001e0: 6f06 7d3e 1aad 333f 087c da3a 4c55 1fbe
000001f0: 0884 9f3e b6d9 0c3f 29e9 4a3b 6e18 183c
00000200: 3d20 e0b9 98bc 143e 3bd1 c2bd e7dc 5bbd
00000210: 3231 94be a5ef 623e 0a88 423e d688 443d
00000220: 5703 3bbf d4f0 bfbf 545b 32bf 747c bc3e
00000230: c95c c23e eb7a 6cbe 35a7 56bd c746 6dbe
00000240: 9789 b0be b769 1c3e 9fe9 5d3e 1a3f f03d
00000250: 2069 aabe bc4e 04bc e630 e03c d9f0 38be
00000260: 1a22 963e a331 963e beef 21be 50f4 0c3b
00000270: 5382 9dbb 5c6e bc3b 7364 153f 4e77 56bd
00000280: f155 803e 23e2 48be b879 9138 fdc4 9a3f
00000290: 3407 babf 1d8d c9bf 6b2c dabd 642d 0ebf
000002a0: de25 da3e c7bc 37bf 38d0 f53c 954d 583e
000002b0: 6928 02c0 c70e b4bf 6c10 233d 316c dcbd
000002c0: 708b 333c 698d 87bf b4f5 1fbe 8a1c dabd
000002d0: 8088 aa36 c168 6fbc 7c63 ca3b c49f 42bd
000002e0: ad5a 693b 5cfd d63a 7d56 d13b 91d7 ba3d
000002f0: 6fb8 853e 6bae eabb b83e 663e bb4f 64bd
00000300: a332 023f 2710 23bf 65c4 96bf 79b4 11bf
00000310: 1c41 8cbe c6da 43bf 90fe 193f 9e11 2ebe
00000320: 2b4b 273f f60e bebc 6a08 2fbe 6c93 1e3e
00000330: bd61 5b3e 4617 17be 5021 1c3f 23c5 88bd
00000340: 944b f93e b24a 3c3e 05e9 ef3c ed35 13be
00000350: 8b28 0b3e dd4e 893c bd12 eb3b 840e 5b3c
00000360: 7b9d adbd a0a2 863d 4e1f d2be e01b fb3e
00000370: f890 a7be d3ed 95be 2bd3 33bf ec80 093c
00000380: b92c f8be 99a7 273f 3847 cdbe e1ab e43e
00000390: a201 cdbe 5b4d 1e39 5623 6bbe 3e69 7dbf
000003a0: 9ad5 17bf 897f 9c3e 9000 9abd 67e2 39be
000003b0: 3b6d c73d 6888 9fbe d85e a8bd c0ed ee3c
000003c0: bf09 013d 6b1f 0fbe e8d8 c2bb be60 f5ba
000003d0: 4d4d bc39 f1a5 163d 800f 28bd 5360 043f
000003e0: 8cd5 d8be 3fcc f03e f80f 4e3f 57e0 a8be
000003f0: 50c9 4dbe d5ff 063f 2b53 97bf e774 64bd

network.0.bias f4 [256]
-0.16573215 -0.031104164 -0.42981106 -0.36450583 -0.42599604 -0.6952404 -0.010981466 -0.46350196
-0.1008668 -0.14134356 -0.42635426 -0.31657204 -0.27626774 -0.074316315 -0.47008023 -0.2530969
-0.29771176 -0.40642524 -0.7249243 -0.29173318 -0.13651496 0.0582215 -0.19317314 -0.6215465
-0.33994606 0.052875694 -0.6024266 -0.36265832 -0.51973444 -0.290356 -0.36828694 -0.6938968
-0.4015137 -0.912061 -0.5817777 -0.37458017 -0.53865105 -0.3258235 -0.5276351 -0.373172
-0.25033808 -0.48114052 -0.46026772 -0.5301373 -0.12433272 -0.17250769 -0.606198 -0.3408737
-0.10491636 -0.47433767 -0.6768334 -0.5662462 -0.367647 -0.15764141 -0.83865064 -0.4823694
-0.7712793 -0.3497801 -0.6614316 -0.32153443 -0.34054846 -0.54407406 -0.25574857 -0.7018835
-0.43769678 -0.21395634 -0.94064254 -0.43422347 -0.56470275 -0.48628643 -0.2359631 -0.41583714
-0.89724654 -0.18508662 -0.3939716 -0.49302104 -0.25283757 -0.47623363 -0.6060643 -0.07571932
-0.40798718 -0.658169 -0.6529039 -0.14874047 -0.5229532 -0.2052807 -0.31001583 -0.5353739
-0.14895804 -0.08258171 -0.52209824 -0.21610919 -0.6807035 -0.48708373 -0.6328621 -0.298365
-0.32578483 -0.25270453 -0.5050517 -0.36113545 -0.18721914 -0.1667881 -0.574046 -0.4157032
-0.5306097 -0.5755329 -0.7318873 -0.17620525 -0.21679808 -0.40694425 -0.48265845 -0.32060078
-0.18031454 -0.65303564 -0.22483447 -0.2685694 -0.6138414 -0.5232586 -0.6950667 -0.5039502
-0.60110253 -0.47012088 -0.31244597 -0.65913415 -0.5282572 -0.851043 -0.4069555 -0.4707523
-0.6926677 -0.65103143 -0.031322412 -0.50989 -0.0666775 -0.23990493 -0.21576646 -0.29716
-0.47315082 -0.19229472 -0.5494265 -0.2212036 -0.3796008 -0.5411847 -0.6436946 -0.28724495
-0.8066076 -0.47470945 -1.0386944 -0.07116817 -0.20340073 -0.33328488 -0.5980695 -0.15096346
-0.40605056 -0.5597795 -0.4068016 -0.9401385 -0.4816855 -0.84234184 -0.31631237 -0.38564566
-0.16228862 -0.19502746 -0.09964299 -0.5772685 -0.40674108 -0.25494453 -0.2477415 -0.1678499
-0.517698 -0.6385239 -0.5198202 -0.69918096 -0.49333215 -0.38901547 -0.814553 -0.450015
-0.03155452 -0.62363106 -0.27389333 -0.59779024 -0.20215075 -0.4296033 -0.23742685 -0.37015665
-0.5076189 -0.2862894 -0.4485496 -0.51686144 -0.9055588 -0.54456276 -0.5926209 -0.54302007
-0.2681749 -0.16067366 0.014031346 -0.3065587 -0.5142812 -0.45583764 -0.35388443 -0.2826765
-0.8365782 -0.61349106 -0.38139653 -0.24880257 -0.028231967 -0.18967895 -0.20421602 -0.61952335
-0.54150224 -0.14689615 -0.7407706 -0.42012316 -0.5593881 -0.28846246 -0.6981478 -0.61659896
-0.43412948 -0.6484748 -0.2460886 -0.33746386 -0.07295059 -0.48442447 0.023660025 -0.8244434
-0.23912023 -0.5474645 -0.7445498 -0.3383248 -0.60822415 -0.79568636 -0.36211574 -0.036047284
-0.4749031 -0.21426259 -0.5799409 -0.45672008 -0.37723404 -0.81968766 -0.63533586 -0.13670541
-0.6225629 -0.1378403 -0.32241905 -0.52798027 -0.25687194 -0.38740325 -0.8363414 -0.4524756
-0.30084494 -0.33335054 -0.7913638 -0.34774545 -0.4707215 -0.14822899 -0.3814826 -0.7717602
00000000: b0b5 29be 29ce febc 3210 dcbe 82a0 babe
00000010: 271c dabe 46fb 31bf 9beb 33bc 2150 edbe
00000020: 4193 cebd 5ebc 10be 1b4b dabe bb15 a2be
00000030: f772 8dbe 2733 98bd 5bae f0be eb95 81be
00000040: ad6d 98be f816 d0be a494 39bf 0d5e 95be
00000050: 94ca 0bbe ab79 6e3d 2ecf 45be ac1d 1fbf
00000060: 690d aebe 2f94 583d a138 1abf 5aae b9be
00000070: 510d 05bf 8ba9 94be 1b90 bcbe 38a3 31bf
00000080: 3493 cdbe d47c 69bf 62ef 14bf f9c8 bfbe
00000090: 09e5 09bf 56d2 a6be 1813 07bf 6610 bfbe
000000a0: 502c 80be 0d58 f6be 36a8 ebbe 14b7 07bf
000000b0: 27a2 febd dba5 30be cb2f 1bbf ff86 aebe
000000c0: 63de d6bd 63dc f2be f444 2dbf 83f5 10bf
000000d0: 3a3c bcbe c06c 21be cfb1 56bf 1ff9 f6be
000000e0: 8f72 45bf 6116 b3be 9553 29bf 29a0 a4be
000000f0: 5e5c aebe 7048 0bbf 7af1 82be a3ae 33bf
00000100: cb19 e0be 5f17 5bbe f3cd 70bf 8a52 debe
00000110: 5c90 10bf 89fa f8be 50a0 71be 9be8 d4be
00000120: f3b1 65bf 5987 3dbe a5b6 c9be 416d fcbe
00000130: ed73 81be e5d4 f3be 0827 1bbf bb12 9bbd
00000140: b2e3 d0be c37d 28bf b624 27bf 6c4f 18be
00000150: 43e0 05bf 1b35 52be 65ba 9ebe 440e 09bf
00000160: 7588 18be 9920 a9bd 3ba8 05bf ba4b 5dbe
00000170: 9642 2ebf 0a63 f9be 4003 22bf 4cc3 98be
00000180: 45cd a6be 7d62 81be 114b 01bf bfe6 b8be
00000190: 60b6 3fbe 80ca 2abe aef4 12bf 0dd7 d4be
000001a0: 0ad6 07bf 2056 13bf f75c 3bbf 266f 34be
000001b0: 5100 5ebe ff5a d0be 021f f7be c925 a4be
000001c0: 60a4 38be 582d 27bf 023b 66be ee81 89be
000001d0: b624 1dbf 47f4 05bf e4ef 31bf e102 01bf
000001e0: dbe1 19bf afb3 f0be ebf8 9fbe 04bd 28bf
000001f0: dd3b 07bf f4dd 59bf 795c d0be 7206 f1be
00000200: ac52 31bf ffa9 26bf ee4b 00bd 2788 02bf
00000210: 378e 88bd a3a9 75be e2f1 5cbe 5b25 98be
00000220: d340 f2be e8e8 44be 37a7 0cbf 3283 62be
00000230: 095b c2be 158b 0abf 2bc9 24bf c511 93be
00000240: d67d 4ebf 1e0d f3be f0f3 84bf 9ec0 91bd
00000250: 4848 50be 51a4 aabe 151b 19bf 2a96 1abe
00000260: dce5 cfbe b64d 0fbf 4d48 d0be ebac 70bf
00000270: 7b9f f6be b7a3 57bf b2f3 a1be 5973 c5be
00000280: fd2e 26be 47b5 47be a011 ccbd dec7 13bf
00000290: 5e40 d0be 1788 82be f3af 7dbe d8e0 2bbe
000002a0: db87 04bf 4d76 23bf f012 05bf 86fd 32bf
000002b0: 0896 fcbe 092d c7be 8c86 50bf 5e68 e6be
000002c0: 503f 01bd 49a6 1fbf bf3b 8cbe c808 19bf
000002d0: 9b00 4fbe f7f4 dbbe 0620 73be 2c85 bdbe
000002e0: 50f3 01bf 8694 92be 4ba8 e5be 0851 04bf
000002f0: b4d2 67bf 7768 0bbf 01b6 17bf 5d03 0bbf
00000300: 384e 89be a387 24be bbe3 653c 43f5 9cbe
00000310: efa7 03bf 8d63 e9be 5730 b5be f9ba 90be
00000320: fd29 56bf c00d 1dbf 6846 c3be 1ac6 7ebe
00000330: ba46 e7bc 333b 42be 011e 51be 1599 1ebf
00000340: e49f 0abf f26b 16be 24a3 3dbf 621a d7be
00000350: 0f34 0fbf 5ab1 93be d0b9 32bf 6ed9 1dbf
00000360: 3846 debe 7202 26bf a6fe 7bbe 10c8 acbe
00000370: 1e67 95bd 7c06 f8be abd2 c13c b90e 53bf
00000380: efdb 74be a226 0cbf d19a 3ebf e838 adbe
00000390: 94b4 1bbf 1ab2 4bbf 3c67 b9be 51a6 13bd
000003a0: 8026 f3be a767 5bbe 0277 14bf 37d7 e9be
000003b0: d224 c1be 0dd7 51bf 5fa5 22bf 81fc 0bbe
000003c0: 4860 1fbf 0226 0dbe 1c14 a5be b729 07bf
000003d0: b884 83be b859 c6be 781a 56bf e2aa e7be
000003e0: 5908 9abe ecac aabe d196 4abf b10b b2be
000003f0: 6902 f1be 57c9 17be b051 c3be 1492 45bf

network.3.weight f4 [64, 256]
-0.021270594 0.35339603 -0.1897066 -1.3181481 -0.29349038 0.90907025 -0.008157346 -0.010454902
0.2297501 0.08186294 0.20282978 -0.25162047 -0.08816259 0.19113353 0.23470718 -0.15723455
-0.06763896 -0.09881632 -0.53924304 0.03556385 -0.21227658 0.06706496 0.0389878 0.30943623
0.00041393528 -0.14778885 0.64385056 -0.11005347 -0.4546435 -0.28004894 -1.0564381 0.49445662
0.119634844 -0.023835061 -0.37893274 -0.20098248 -0.061004173 0.062978946 -0.18230371 0.5713244
-0.6784564 -0.005452108 0.029307988 0.04222215 -0.049713172 0.08517117 -0.72494483 0.1139874
-0.07648946 0.4583289 -0.20552862 0.00082178164 0.17854048 0.46220568 0.0051782504 -0.22133887
-2.9997365 -1.119339 0.24505068 0.06596463 -0.05586116 -0.0045097144 -0.13645306 0.046747807
0.04620534 -0.024983644 -0.7370229 0.19112442 -0.2887045 -0.06842614 0.0081085125 0.36309105
0.036335163 -0.046186414 -0.21262878 -0.39738712 -0.026848948 -0.14844748 -0.006889685 0.09112772
0.25491437 0.23060532 0.7560224 -0.020260382 -0.99733734 0.15063848 -1.5771174 0.4358178
-0.046843525 -0.08003786 0.059914082 -0.6894182 0.043446936 -0.35816807 0.22301781 -1.2707169
0.19482112 0.5361476 -0.08914389 0.32216704 -0.28827134 0.13740197 0.01659484 -0.056176327
-0.9612029 -2.0710385 0.6928833 0.60942864 0.15087697 -0.0063471394 0.27266365 0.1626406
-0.17897967 -0.40910548 0.17755587 -0.3122453 -2.123306 -1.2250232 0.15607612 -0.004801048
0.12330194 0.24604954 0.2753374 0.7093741 0.14696819 -3.0891404 0.057527713 -1.0246053
0.3545788 -0.24289227 -0.01215563 0.18508294 0.011743995 0.18612167 -0.07656005 -0.0029070945
-0.027382735 -0.080322884 -0.38384727 -0.25054646 -0.44195983 -0.5118357 -0.17170462 -0.39953488
0.81450284 -0.23134635 -0.0788318 -0.00029818277 -0.20063253 0.11322329 -2.9004738 0.02957492
-0.017088596 -0.14607935 -0.0076196296 0.80674756 0.11097756 0.09220791 -0.28798884 -1.1194131
-0.07241552 -0.0088282805 0.04993245 0.072562814 0.2087736 0.29576352 -0.1658333 0.32550916
0.05603259 -0.4377798 -0.07328078 -1.0439484 0.05907515 0.25008374 0.07308913 -1.6451273
0.14306532 -3.8794127 -0.021562474 0.37938905 0.002545169 -0.5000898 -0.33283585 -0.16380134
-2.0809338 0.4714111 0.085417725 -0.2960458 1.3014078 -1.0969175 0.06243737 -2.7643027
0.055853225 0.16059966 -0.11535255 0.13061875 -0.20386766 -0.872423 -0.056204613 0.46123073
0.03684779 -2.4898934 0.5525418 0.1597316 0.12165849 -0.25939545 -0.16732368 0.571662
0.02277147 0.008155926 0.06720791 -0.064218946 1.0547372 -0.05547162 -4.6796765 -0.36929354
0.037386507 -1.2557948 0.32869872 0.72450393 0.09423808 0.031473722 0.5389631 0.019344496
0.09019762 0.17891333 -5.197129 -0.01700727 0.22978458 0.068071246 0.44586915 0.11432127
-0.031322088 0.101681076 0.16365805 0.06050506 -0.15929359 -0.20752153 0.30243 0.13938437
-0.49090874 -0.23565766 0.22801 -0.0054138224 0.41671482 -0.045419496 -1.1671641 0.044564467
-0.11038856 0.114212744 0.11258329 0.16521598 -0.15873216 -0.18063213 -0.17244487 -0.1978593
00000000: ab3f aebc 53f0 b43e 7242 42be 14b9 a8bf
00000010: 5f44 96be d4b8 683f 64a6 05bc 0a4b 2bbc
00000020: 9c43 6b3e c2a7 a73d 9cb2 4f3e 66d4 80be
00000030: 978e b4bd 82b8 433e 1457 703e 1802 21be
00000040: 4c86 8abd 3660 cabd d50b 0abf 66ab 113d
00000050: 085f 59be 5b59 893d acb1 1f3d 6d6e 9e3e
00000060: 7405 d939 f655 17be 64d3 243f b763 e1bd
00000070: 08c7 e8be 9362 8fbe 5d39 87bf 6b29 fd3e
00000080: 1d03 f53d bf41 c3bc 7903 c2be 5ace 4dbe
00000090: 83df 79bd 1bfb 803d d3ad 3abe 5142 123f
000000a0: 52af 2dbf 99a7 b2bb 4e17 f03c 22f1 2c3d
000000b0: 0aa0 4bbd 396e ae3d fc95 39bf 3a72 e93d
000000c0: 82a6 9cbd 16aa ea3e 1876 52be d56c 573a
000000d0: 51d3 363e 39a6 ec3e 50ae a93b a8a6 62be
000000e0: affb 3fc0 8046 8fbf 91ee 7a3e 7718 873d
000000f0: acce 64bd 3ac6 93bb 5aba 0bbe a17a 3f3d
00000100: d041 3d3d 80aa ccbc 88ad 3cbf 1fb6 433e
00000110: 14d1 93be 0123 8cbd 91d9 043c 12e7 b93e
00000120: 2ed4 143d f72d 3dbd 5cbb 59be 5376 cbbe
00000130: 53f2 dbbc 9e02 18be dec2 e1bb 2ca1 ba3d
00000140: 2384 823e cd23 6c3e af8a 413f 1af9 a5bc
00000150: 8051 7fbf f940 1a3e fcde c9bf 8323 df3e
00000160: ffde 3fbd e4ea a3bd 7868 753d b67d 30bf
00000170: 6af5 313d ce61 b7be c85e 643e daa6 a2bf
00000180: 307f 473e f840 093f 1291 b6bd 14f3 a43e
00000190: 4d98 93be 1ab3 0c3e e7f1 873c 2619 66bd
000001a0: 6511 76bf e58b 04c0 cd60 313f 8403 1c3f
000001b0: 7e7f 1a3e aafb cfbb 929a 8b3e 428b 263e
000001c0: 7246 37be 4676 d1be 35d1 353e 9ede 9fbe
000001d0: 3fe4 07c0 8fcd 9cbf 6bd2 1f3e 1c52 9dbb
000001e0: ba85 fc3d 69f4 7b3e 06f9 8c3e 8b99 353f
000001f0: d47e 163e 7ab4 45c0 2ea2 6b3d 4426 83bf
00000200: 5a8b b53e c0b8 78be 6828 47bc 6286 3d3e
00000210: e369 403c ae96 3e3e 84cb 9cbd f484 3ebb
00000220: c251 e0bc 5380 a4bd a187 c4be a047 80be
00000230: 8f48 e2be aa07 03bf 56d3 2fbe d68f ccbe
00000240: 4283 503f 0fe6 6cbe 9172 a1bd 6a55 9cb9
00000250: 9d72 4dbe 9de1 e73d 5da1 39c0 1a47 f23c
00000260: 62fd 8bbc d395 15be 16ae f9bb 0287 4e3f
00000270: 3448 e33d 80d7 bc3d 4673 93be ee48 8fbf
00000280: 974e 94bd 7ea4 10bc f885 4c3d d09b 943d
00000290: bfc8 553e 516e 973e 34d0 29be 23a9 a63e
000002a0: 6e82 653d ad24 e0be 3c14 96bd 1aa0 85bf
000002b0: c9f8 713d fa0a 803e c1af 953d 8893 d2bf
000002c0: b77f 123e 4c48 78c0 c9a3 b0bc 483f c23e
000002d0: dacc 263b e305 00bf 7669 aabe 8abb 27be
000002e0: 052e 05c0 cc5c f13e 7def ae3d 5193 97be
000002f0: 8894 a63f cb67 8cbf 54be 7f3d 56ea 30c0
00000300: 5ac6 643d 3d74 243e f53d ecbd ecc0 053e
00000310: afc2 50be 1d57 5fbf cf36 66bd 6f26 ec3e
00000320: b5ed 163d 6a5a 1fc0 6173 0d3f ae90 233e
00000330: 1628 f93d 7bcf 84be e656 2bbe 7158 123f
00000340: 3c8b ba3c 6fa0 053c 4da4 893d 3985 83bd
00000350: a101 873f 3636 63bd e9bf 95c0 0b14 bdbe
00000360: 9822 193d e2bd a0bf 334b a83e 1779 393f
00000370: e5ff c03d 97ea 003d 7cf9 093f 5978 9e3c
00000380: 88b9 b83d 0e35 373e e14e a6c0 d552 8bbc
00000390: a64c 6b3e f068 8b3d f648 e43e 4521 ea3d
000003a0: 974b 00bd 2b3e d03d fa95 273e 27d4 773d
000003b0: dc1d 23be 8680 54be 1bd8 9a3e c7ba 0e3e
000003c0: 6458 fbbe 3e50 71be 747b 693e 6f66 b1bb
000003d0: a55b d53e cb09 3abd a265 95bf 3b89 363d
000003e0: 6613 e2bd 5fe8 e93d 1192 e63d 612e 293e
000003f0: af8a 22be a1f7 38be 6395 30be a19b 4abe

network.3.bias f4 [64]
-0.16161282 0.526521 -0.36165285 0.8865412 1.4999516 -0.065958366 0.035840023 0.3658898
0.60056776 1.3948315 0.21171424 0.7945778 0.6688395 -0.152957 -0.1349799 0.48856428
0.3898138 0.12069647 0.50790435 0.20517878 1.0879629 -0.4507207 0.56559455 0.11643396
0.58469033 -0.1311643 0.3600147 0.90278673 1.1096016 1.4012648 0.49316812 1.5775881
0.480357 0.5016788 -0.26109397 0.39293033 1.2906982 0.22327517 0.2714776 1.0580645
0.6968472 0.37971538 0.45469418 0.6663267 -0.34666303 0.07297033 -0.27243683 0.6730889
1.2718805 1.1945535 0.5277471 -0.19855402 1.3727767 -0.12504384 -0.013481714 1.5496393
0.894188 0.5377918 1.867333 0.19324423 0.6988855 1.4801538 -0.7072355 -0.096219435
00000000: d57d 25be 15ca 063f 902a b9be 5df4 623f
00000010: 6afe bf3f 2e15 87bd fdcc 123d e855 bb3e
00000020: cfbe 193f d789 b23f 9ecb 583e 7369 4b3f
00000030: 1139 2b3f c3a0 1cbe 2c38 0abe 1925 fa3e
00000040: ad95 c73e b62f f73d 0506 023f 631a 523e
00000050: 5e42 8b3f ddc4 e6be ceca 103f ee74 ee3d
00000060: 44ae 153f ef4f 06be d953 b83e 081d 673f
00000070: 6d07 8e3f a55c b33f 8880 fc3e 68ee c93f
00000080: 5af1 f53e 066e 003f 1cae 85be 2a2e c93e
00000090: 9935 a53f 3fa2 643e 1dff 8a3e a86e 873f
000000a0: 9464 323f 0e6a c23e adcd e83e 6394 2a3f
000000b0: d17d b1be 7871 953d d77c 8bbe 8e4f 2c3f
000000c0: fbcc a23f 21e7 983f 6f1a 073f bf51 4bbe
000000d0: 26b7 af3f 7e0b 00be 68e2 5cbc 955a c63f
000000e0: 81e9 643f b9ac 093f c504 ef3f d1e1 453e
000000f0: 29ea 323f ae75 bd3f 630d 35bf b20e c5bd

network.5.weight f4 [32, 64]
-0.118527226 -0.038286082 0.017233888 0.029404039 0.40625888 0.21017358 0.05143038 0.05242678
0.025632314 -0.39716303 -0.27103552 -0.15633617 0.024807986 -0.43073753 -0.014249477 0.024802087
-0.19528382 0.034892112 0.05177772 0.057690363 0.6559551 0.14643541 -0.1290081 0.017850641
0.27320603 0.08120033 0.20754457 0.3420647 0.26388547 0.082419366 -0.06412064 0.13947599
-0.008892221 -0.047016736 0.26674682 0.3418384 0.25997978 0.07106658 0.07760034 -0.41310066
0.24560465 0.08430832 0.16455117 -0.09101307 -0.034206003 -0.36592472 0.02290285 -0.01921463
0.117343344 0.33562735 0.026059607 -0.39178565 0.032317594 0.11801781 -0.15118033 0.18628018
0.099203445 0.15752862 0.10607491 0.12816115 0.48667827 0.26501495 -0.32711837 -0.106402785
0.01372709 -0.017888317 0.062492818 -0.07027054 0.111293666 -0.7915019 -0.37392685 -0.13255021
-0.12521417 0.32067287 -0.3251513 0.26313424 0.030639818 -0.1259348 0.022017933 0.029218663
-0.050616685 0.17115444 -0.0025384405 0.008691743 -0.0064740283 -0.00649352 -0.40512118 -0.07684541
-0.25403073 -0.07740556 -0.19165353 -0.07328992 0.009816971 0.15629746 0.2500823 0.4109335
0.19616644 0.15839471 0.25351474 -0.32993788 0.28204468 -0.29397947 -0.018892666 -0.075163856
-0.27270135 -0.18130483 -0.06525969 -0.21665376 0.123390585 -0.0054585794 0.022342814 0.3873702
0.22105844 0.16449714 -0.016350916 0.16482344 0.13323496 -0.013645823 0.18521056 0.094402365
-0.039436482 0.13751362 -0.0280515 -0.16890427 0.051096085 -0.086837225 -0.08619259 0.027352322
-0.47831723 -0.12013432 -0.3258063 0.07310557 -0.13278255 -0.11630901 -0.43864998 -0.17430794
-0.5049958 0.23181415 -0.334266 -0.25894982 -0.65756154 -0.1167674 0.1411504 -0.49675503
-0.04320528 0.47646752 0.25779355 -0.29740587 -0.33896288 -0.092947416 -0.46227312 -0.42821598
-0.8368303 0.10230816 -0.74375856 -0.018915793 0.39603928 0.21224773 -0.4973451 -0.29615292
0.05268388 0.03802099 -1.871877 -3.1414115 0.15620938 -0.714588 -0.37327808 -0.23285581
-0.12504512 -0.115174 -0.43386093 -0.69657964 0.3766553 0.6194464 0.0050582853 0.2739559
0.02469457 -0.06254883 -0.433975 0.012695672 -0.056757074 -0.050999485 0.17364994 0.2132259
0.48417127 0.04623432 0.31656086 0.108616576 -1.4871721 -0.49700037 0.18676527 0.028959833
-0.06369059 -0.43218276 0.041340638 -0.3583286 0.06688394 -0.19514216 -1.2385172 -0.20083155
-0.23178478 -0.15373407 -0.34506786 -0.37529072 0.2691126 -0.1672628 0.07774605 0.16491956
-0.02303387 -0.61653715 -0.2457465 0.08415816 0.16020073 -0.18883087 0.07687585 -0.1542057
-0.1277513 0.023163255 0.17681006 0.046690546 0.13282312 0.044906102 -0.10097237 0.20774288
-0.016962156 0.017629886 0.13569747 -0.022114592 0.16484703 -0.038668238 -0.057452727 0.29929084
-0.17845654 -0.039970927 -0.08056422 -0.11574143 -0.2064725 0.23572662 0.0052385437 -0.019762104
0.012939905 -0.43084735 -0.064530484 0.044550393 -0.14837182 -0.061498646 0.0841038 -0.018508263
0.06580628 0.12311111 0.19773395 -0.10036306 -0.20267317 0.21758686 0.04361839 -0.089337386
00000000: 67be f2bd ded1 1cbd 152e 8d3c bde0 f03c
00000010: 2a01 d03e be37 573e aaa8 523d 77bd 563d
00000020: dcfa d13c f458 cbbe 2bc5 8abe 9716 20be
00000030: 1e3a cb3c a189 dcbe a376 69bc bf2d cb3c
00000040: 7bf8 47be 08eb 0e3d e014 543d bb4c 6c3d
00000050: acec 273f 2af3 153e b31a 04be 823b 923c
00000060: a9e1 8b3e 5c4c a63d 9086 543e 1b23 af3e
00000070: ff1b 873e 7ccb a83d af51 83bd cbd2 0e3e
00000080: aeb0 11bc 9f94 40bd 0a93 883e 7105 af3e
00000090: 121c 853e 5b8b 913d edec 9e3d ee81 d3be
000000a0: c97f 7b3e d7a9 ac3d 1a80 283e 0f65 babd
000000b0: 981b 0cbd 7c5a bbbe c29e bb3c 0068 9dbc
000000c0: b551 f03d 59d7 ab3e f57a d53c 2198 c8be
000000d0: 745f 043d 52b3 f13d 04cf 1abe 3bc0 3e3e
000000e0: 2d2b cb3d 2f4f 213e cd3d d93d ad3c 033e
000000f0: e52d f93e 0ab0 873e 0f7c a7be b4e9 d9bd
00000100: 97e7 603c 858a 92bc 78f8 7f3d 00ea 8fbd
00000110: efed e33d de9f 4abf 5773 bfbe 3ebb 07be
00000120: 2538 00be 3c2f a43e 3b7a a6be 88b9 863e
00000130: 5b00 fb3c 0df5 00be f45e b43c fa5b ef3c
00000140: 7153 4fbd 1c43 2f3e f75b 26bb d067 0e3c
00000150: 1624 d4bb 98c7 d4bb 0b6c cfbe 2061 9dbd
00000160: 5110 82be ce86 9ebd d340 44be 0719 96bd
00000170: 5cd7 203c 710c 203e ca0a 803e e065 d23e
00000180: dbdf 483e 3932 223e afcc 813e 9eed a8be
00000190: 2968 903e 7a84 96be cbc4 9abc 82ef 99bd
000001a0: 839f 8bbe f9a7 39be dfa6 85bd 7cda 5dbe
000001b0: 34b4 fc3d e2dd b2bb 4708 b73c 6355 c63e
000001c0: 255d 623e f071 283e 5bf2 85bc 7ac7 283e
000001d0: bf6e 083e bb92 5fbc d6a7 3d3e 0756 c13d
000001e0: 2688 21bd 5fd0 0c3e 42cc e5bc 3ef5 2cbe
000001f0: 214a 513d b7d7 b1bd be85 b0bd fa11 e03c
00000200: ffe5 f4be fb08 f6bd 15d0 a6be 60b8 953d
00000210: 26f8 07be 6b33 eebd bb96 e0be c87d 32be
00000220: 6847 01bf b060 6d3e ea24 abbe 1295 84be
00000230: f455 28bf bf23 efbd bb89 103e ad56 febe
00000240: 05f8 30bd 8df3 f33e 84fd 833e 9545 98be
00000250: 8b8c adbe 375b bebd 10af ecbe 203f dbbe
00000260: 833a 56bf f186 d13d f666 3ebf 4bf5 9abc
00000270: a9c5 ca3e 7857 593e 04a4 febe 5ba1 97be
00000280: 0dcb 573d e6bb 1b3d aa99 efbf e30c 49c0
00000290: 5af5 1f3e 3def 36bf 4e1e bfbe c171 6ebe
000002a0: d40b 00be 59e0 ebbd 0523 debe 0b53 32bf
000002b0: f7d8 c03e 0a94 1e3f f9bf a53b f343 8c3e
000002c0: 444c ca3c 9a19 80bd f931 debe 8201 503c
000002d0: 1b7a 68bd d6e4 50bd 4ad1 313e e457 5a3e
000002e0: 4ce5 f73e 3360 3d3d 4414 a23e 5e72 de3d
000002f0: a85b bebf d576 febe 653f 3f3e 2c3d ed3c
00000300: 3670 82bd 0f47 ddbe cd54 293d d976 b7be
00000310: 72fa 883d 59d3 47be bb87 9ebf c9a6 4dbe
00000320: fd58 6dbe 776c 1dbe bcac b0be 1b26 c0be
00000330: 20c9 893e f046 2bbe 5239 9f3d ace0 283e
00000340: 87b1 bcbc 61d5 1dbf f8a4 7bbe 1d5b ac3d
00000350: a90b 243e e15c 41be 1671 9d3d 19e8 1dbe
00000360: 3dd1 02be dec0 bd3c b20d 353e 963e 3f3d
00000370: c902 083e 76ef 373d 9aca cebd 8dba 543e
00000380: 38f4 8abc 8d6c 903c 47f4 0a3e a929 b5bc
00000390: a9cd 283e 9662 1ebd 8d53 6bbd a63c 993e
000003a0: 50bd 36be 8eb8 23bd dbfe a4bd d809 edbd
000003b0: 876d 53be 5262 713e 17a8 ab3b 23e4 a1bc
000003c0: e501 543c 0698 dcbe 8f28 84bd 797a 363d
000003d0: c8ee 17be 01e6 7bbd 9d3e ac3d a49e 97bc
000003e0: 71c5 863d ad21 fc3d c57a 4a3e 268b cdbd
000003f0: 8e89 4fbe 17cf 5e3e 32a9 323d 85f6 b6bd

network.5.bias f4 [32]
0.87492055 1.1830499 1.2509955 1.0036838 1.4624903 -1.1966298 1.0678606 -1.3182201
-0.9985386 -1.1751423 0.4728989 0.9086915 -0.5553269 -0.21824628 0.6356444 -0.22103207
1.2994608 0.32705697 0.43395528 0.88028127 0.8450872 0.7845864 -0.28637758 1.1818542
1.0966135 1.0993041 0.20105581 1.073619 1.0571581 1.1432796 -0.18256433 0.867691
00000000: cbfa 5f3f 2e6e 973f 9f20 a03f b678 803f
00000010: e232 bb3f 2a2b 99bf a8af 883f 70bb a8bf
00000020: 3aa0 7fbf 106b 96bf ce1f f23e 02a0 683f
00000030: e729 0ebf f47b 5fbe 97b9 223f 3b56 62be
00000040: bb54 a63f 0374 a73e 632f de3e 1d5a 613f
00000050: a257 583f a8da 483f 15a0 92be 0047 973f
00000060: d55d 8c3f ffb5 8c3f 93e1 4d3e 596c 893f
00000070: f550 873f fc56 923f 25f2 3abe ff20 5e3f

network.7.weight f4 [1, 32]
0.0652333 -0.090196885 -0.07106097 -0.03195461 0.10453193 -0.17352752 0.055628885 -0.09945949
0.448138 0.09131807 0.8991286 -0.03706762 0.045632 0.035546996 0.023822099 -0.062969655
0.10006035 -0.37449983 0.10014458 -0.035833236 0.046514157 0.0382527 0.004108405 -0.050681673
-0.041821092 0.046431147 0.07719826 0.0679244 -0.036413185 0.07964456 -0.116164185 0.043524545
00000000: 0999 853d 25b9 b8bd 6a88 91bd d6e2 02bd
00000010: d614 d63d 33b1 31be 1ddb 633d 6bb1 cbbd
00000020: 5872 e53e f804 bb3d 4b2d 663f 37d4 17bd
00000030: 9fe8 3a3d ba99 113d 9026 c33c 3cf6 80bd
00000040: 71ec cc3d 71be bfbe 9a18 cd3d dfc5 12bd
00000050: a185 3e3d ddae 1c3d cd9f 863b 9697 4fbd
00000060: 984c 2bbd 962e 3e3d 1f1a 9e3d f31b 8b3d
00000070: fe25 15bd b01c a33d 7de7 edbd cb46 323d
