models/price_predictor_nn_v6.pth (torch, 60753 bytes, 7 tensors)

network.0.weight f4 [128, 29]
-0.102890894 0.023410847 -0.035970796 -0.012835311 0.014103911 0.19992153 -0.26013228 -0.077221364
0.5626106 0.46767113 0.01717363 0.019583512 0.0044607893 -0.14291319 -0.17004202 0.06838568
0.027662937 -0.05691525 0.06110649 -0.028421769 -0.16215442 -0.036842518 -0.3061897 -0.039962288
0.015083846 -0.08501025 -0.03522679 0.042006746 -0.02998089 0.10302097 0.031035177 -0.06760095
0.54487437 0.05763623 0.66745967 0.0025897722 0.021860838 -0.031731736 0.0002814299 0.025547942
0.030965447 0.022697546 -0.11920227 -0.06712914 -0.025715418 0.010696078 0.03696976 0.07985446
-0.18764403 -0.10060014 0.12546006 -0.34337023 -0.14257918 -0.54945004 -0.10253728 -0.69185454
0.19813433 -0.11916732 -0.646412 -0.30226165 -0.15378246 0.059812568 0.23805362 -0.8129849
0.0059056045 0.07465021 -0.069238886 0.081929706 0.011941142 -0.018358054 -0.0044264365 0.05017503
0.08264522 -0.017981468 0.19521612 -0.17272484 -0.2263716 -0.36987242 0.21607642 -0.62575084
0.5419028 0.13581152 -0.00969705 0.031930212 -0.07360513 -0.32238564 0.023412429 -0.5889885
-0.38897032 -0.050662715 -0.04689486 -0.009054801 -0.28068015 -0.07527266 -0.040195506 0.11533895
-0.04832351 -0.082516454 -0.09205818 -0.08059797 0.058093715 -0.004068408 0.03669295 0.1740864
-0.17398494 -0.7056979 0.05667534 0.2087769 -0.12398252 -0.1497654 0.69846344 -0.15674819
-0.11795672 -0.3670446 -0.721803 0.25339147 0.02970147 -0.0016177272 -0.0037545627 0.92202526
0.0052707028 0.115658864 0.0083606085 -0.026078915 -0.2404297 -0.21601819 -0.008256813 -0.005797131
-0.012394709 -0.004534219 -0.018089568 0.028503098 0.027556248 -0.00908954 -0.24610429 -0.22218025
-0.13444948 -0.20950833 -0.23944208 -0.20634596 -0.25808808 -0.46915537 -0.5028519 -0.32063702
-0.81376517 -0.6878217 0.087184764 0.13371941 -0.06645358 0.09493178 -1.7532611 -0.015691806
-0.29573455 -0.2527666 0.18073435 -0.035079155 -0.04338937 -0.04785775 0.071321815 0.080268286
0.11307703 -0.41906187 0.22892366 0.05784869 0.07022226 -0.29988706 0.20776854 -0.4343657
-0.047990594 -0.11998518 -0.2120745 -0.014347877 -0.07515184 -0.056975357 -0.26497108 0.059906434
-0.01976112 -0.09699305 0.04799018 0.18398274 -0.16059627 -0.6489412 -0.3965918 0.24770485
-0.012659849 -0.013917848 -0.010245602 -0.013759763 0.011818122 0.32844576 -0.12749031 0.079316236
0.04981817 -0.16203249 -0.40767768 0.18713783 -0.72926146 -0.1209512 -0.048676815 -0.32789594
0.0047199363 -0.0991533 -0.06809847 0.39365318 0.051716786 0.043991137 -0.03454431 -0.024848104
0.567261 0.04921592 0.048947662 0.01919104 0.07177557 0.07875848 0.07490259 0.10734616
-0.17349552 -0.26970378 -0.17754054 -0.01702269 0.089394234 -0.1690339 -0.001587884 0.26590136
0.1751462 -0.057146024 0.07216491 0.5982891 0.23717451 -0.30781773 -0.25503325 -0.11708133
0.07579065 0.046134714 0.05687792 0.1178008 -0.13072994 0.09351973 0.20511992 0.16798785
0.16363764 -0.010692642 0.033207938 0.032890752 0.025319168 -0.19053939 0.011428386 -0.41211507
0.4182108 -0.24599615 0.016183797 -0.5729816 -0.015844205 -0.07276039 -1.2634468 -0.03905088
00000000: 76b8 d2bd 1bc8 bf3c 1d56 13bd 324b 52bc
00000010: 1714 673c 3bb8 4c3e 0f30 85be 3c26 9ebd
00000020: 4007 103f 9772 ef3e b6af 8c3c 9a6d a03c
00000030: d02b 923b d657 12be 7f1f 2ebe cb0d 8c3d
00000040: 629d e23c f71f 69bd cd4a 7a3d c5d4 e8bc
00000050: cf0b 26be 2ee8 16bd e5c4 9cbe 7faf 23bd
00000060: 3c22 773c db19 aebd f749 10bd 440f 2c3d
00000070: 7c9a f5bc a9fc d23d 7c3d fe3c 5e72 8abd
00000080: e37c 0b3f f813 6c3d a3de 2a3f 2bb9 293b
00000090: 8015 b33c 23f9 01bd e28c 9339 eb49 d13c
000000a0: 40ab fd3c 34f0 b93c 5220 f4bd 017b 89bd
000000b0: 24a9 d2bc 9a3e 2f3c 9a6d 173d bc8a a33d
000000c0: c225 40be 7207 cebd 9a78 003e 39ce afbe
000000d0: 4700 12be c2a8 0cbf 11ff d1bd 611d 31bf
000000e0: bae3 4a3e ff0d f4bd 427b 25bf 0ac2 9abe
000000f0: 2679 1dbe 06fe 743d 54c4 733e c71f 50bf
00000100: cd83 c13b 36e2 983d 1ecd 8dbd c3ca a73d
00000110: c8a4 433c a163 96bc a40b 91bb 5584 4d3d
00000120: e641 a93d df4d 93bc bce6 473e c8de 30be
00000130: f5cd 67be eb5f bdbe 2343 5d3e 3531 20bf
00000140: 24ba 0a3f 2d12 0b3e 60e0 1ebc 41c9 023d
00000150: 49be 96bd bb0f a5be 6ccb bf3c f3c7 16bf
00000160: 1e27 c7be b583 4fbd d314 40bd 975a 14bc
00000170: 4fb5 8fbe 8d28 9abd 0ba4 24bd d436 ec3d
00000180: dfee 45bd 63fe a8bd 0089 bcbd 8c10 a5bd
00000190: adf3 6d3d 4850 85bb 594b 163d b543 323e
000001a0: 1c29 32be 9ea8 34bf 6724 683d 9dc9 553e
000001b0: 8cea fdbd 1a5c 19be 80ce 323f 9982 20be
000001c0: 4b93 f1bd 45ed bbbe 15c8 38bf 87bc 813e
000001d0: 7f50 f33c eb09 d4ba 1c0f 76bb d909 6c3f
000001e0: dcb5 ac3b 8ede ec3d effa 083c 73a3 d5bc
000001f0: 3433 76be df33 5dbe 9547 07bc dcf5 bdbb
00000200: 2d13 4bbc c993 94bb 9330 94bc 547f e93c
00000210: a4bd e13c 4bec 14bc c302 7cbe 3883 63be
00000220: 20ad 09be 5a89 56be 4e30 75be 5b4c 53be
00000230: 1f24 84be 2235 f0be e7ba 00bf 892a a4be
00000240: ea52 50bf 1515 30bf ed8d b23d beed 083e
00000250: d118 88bd 986b c23d dc6a e0bf 1a8c 80bc
00000260: 856a 97be a06a 81be 6d12 393e 29af 0fbd
00000270: 0db9 31bd 7d06 44bd 2c11 923d b363 a43d
00000280: ee94 e73d 478f d6be f76a 6a3e bff2 6c3d
00000290: b0d0 8f3d cc8a 99be 47c1 543e 2e65 debe
000002a0: c991 44bd caba f5bd 0f2a 59be 5c13 6bbc
000002b0: 35e9 99bd fe5e 69bd 4aaa 87be 7360 753d
000002c0: 13e2 a1bc 4ba4 c6bd 5a91 443d f965 3c3e
000002d0: 5973 24be 0321 26bf 150e cbbe 57a6 7d3e
000002e0: 416b 4fbc af07 64bc 2bdd 27bc a170 61bc
000002f0: cca0 413c 0b2a a83e d28c 02be 8d70 a23d
00000300: 230e 4c3d d8eb 25be 21bb d0be 0fa1 3f3e
00000310: e1b0 3abf 43b5 f7bd 5761 47bd fae1 a7be
00000320: b2a9 9a3b e310 cbbd 3677 8bbd e98c c93e
00000330: fbd4 533d 0d30 343d 567e 0dbd 408e cbbc
00000340: 0438 113f a296 493d 587d 483d 8736 9d3c
00000350: 12ff 923d 204c a13d 8766 993d 4ed8 db3d
00000360: cfa8 31be 9d16 8abe 30cd 35be 2b73 8bbc
00000370: 5314 b73d 3917 2dbe 8c20 d0ba 3924 883e
00000380: 8759 333e f311 6abd 32cb 933d 7929 193f
00000390: e0dd 723e 499a 9dbe b893 82be 56c8 efbd
000003a0: 2138 9b3d c1f7 3c3d d2f8 683d 8c41 f13d
000003b0: 12de 05be 4687 bf3d f50a 523e 0205 2c3e
000003c0: a090 273e 3130 2fbc 0c05 083d 74b8 063d
000003d0: 256a cf3c c21c 43be 203e 3b3c bf00 d3be
000003e0: ba1f d63e 6ae6 7bbe e293 843c ecae 12bf
000003f0: b5cb 81bc 6603 95bd a0b8 a1bf d1f3 1fbd

network.0.bias f4 [128]
-0.3062193 -0.25533384 -0.1308497 -0.21032736 -0.7179565 -0.15119289 -0.11052042 -0.06704521
-0.48676342 -0.04043215 -0.40504315 -0.33762255 -0.34452996 -0.017058766 -0.20657529 0.14018035
-0.40192452 -0.02518252 -0.24982123 -0.32730788 -0.53582424 0.04534241 -0.3978852 -0.77223146
-0.16793084 -0.08255378 -0.37230885 -0.5584154 -0.15124102 -0.5074475 -0.08974354 -0.07408839
-0.835354 -0.27471977 -0.44731158 -0.31623295 -0.09949366 -0.2876622 -0.17344527 -0.285172
-0.2253496 -0.32883424 -0.2628146 -0.3824029 -0.48004764 -0.16215023 -0.50716144 -0.44897166
-0.24594212 -0.26015595 -0.57892275 -0.1555458 -0.30246368 -0.61655664 -0.13038115 -0.14319365
-0.40910172 -0.3981219 -0.31516516 -0.33548975 -0.21707769 -0.01089831 -0.18148209 -0.3132014
-0.31749463 -0.038564794 -0.15622057 -0.27560058 0.05948967 -0.12470313 -0.4904204 -0.4550268
-0.2545501 -0.1987429 -0.4225416 -0.23802204 -0.06278949 -0.30772474 0.04161762 -0.28551927
-0.53767586 -0.08982551 -0.35016766 -0.44897336 -0.47081637 -0.037534077 -0.49518284 -0.3422682
-0.34020382 -0.19696088 -0.148378 -0.18347931 -0.3389851 -0.28284317 -0.5587174 -0.07225361
-0.07279244 -0.44925028 -0.18128304 -0.05812728 -0.24357612 -0.6692716 -0.38269648 -0.5273141
-0.11707965 -0.51536 -0.09655633 -0.3294505 -0.10312244 -0.33064687 -0.41632316 -0.017527048
-0.36226383 -0.3207447 -0.19258378 -0.11234481 -0.28938413 -0.31219083 -0.0015867952 -0.56591374
-0.17015687 -0.18384643 -0.09829057 -0.45978442 -0.4050951 -0.23975846 0.17123437 -0.36207378
00000000: c7c8 9cbe 1ebb 82be 77fd 05be 0e60 57be
00000010: ffcb 37bf 4fd2 1abe 8858 e2bd 004f 89bd
00000020: 0e39 f9be 2f9c 25bd d161 cfbe dddc acbe
00000030: 3b66 b0be d3be 8bbc 7988 53be 708b 0f3e
00000040: 0dc9 cdbe 924b cebc 23d1 7fbe e694 a7be
00000050: c72b 09bf f7b8 393d 9cb7 cbbe f6b0 45bf
00000060: 10f6 2bbe f511 a9bd 449f bebe 50f4 0ebf
00000070: edde 1abe 14e8 01bf 76cb b7bd a7bb 97bd
00000080: c2d9 55bf 12a8 8cbe 0606 e5be 49e9 a1be
00000090: 55c3 cbbd 7648 93be a39b 31be 1002 92be
000000a0: 0cc2 66be f65c a8be a38f 86be 50ca c3be
000000b0: cec8 f5be b60a 26be 55d5 01bf 9ddf e5be
000000c0: 40d8 7bbe 2933 85be 4834 14bf 6647 1fbe
000000d0: 85dc 9abe a8d6 1dbf a382 05be 5ba1 12be
000000e0: c875 d1be a2d6 cbbe 545d a1be 50c5 abbe
000000f0: 9d49 5ebe d38e 32bc 71d6 39be ef5b a0be
00000100: a88e a2be 1ef6 1dbd 49f8 1fbe 851b 8dbe
00000110: 71ab 733d 5b64 ffbd 6218 fbbe 46f9 e8be
00000120: 6454 82be 4283 4bbe 5f57 d8be 0dbc 73be
00000130: c797 80bd 198e 9dbe 3d77 2a3d 952f 92be
00000140: 20a5 09bf 70f6 b7bd 2d49 b3be d6df e5be
00000150: d80e f1be 55bd 19bd 9b88 fdbe c73d afbe
00000160: 322f aebe 1db0 49be 67f0 17be 00e2 3bbe
00000170: 748f adbe d2d0 90be 1b08 0fbf b3f9 93bd
00000180: 3414 95bd 2204 e6be 43a2 39be df16 6ebd
00000190: 056c 79be 6255 2bbf cbf0 c3be 0ffe 06bf
000001a0: 75c7 efbd a2ee 03bf 53bf c5bd bcad a8be
000001b0: dc31 d3bd 8c4a a9be 4f28 d5be e294 8fbc
000001c0: a57a b9be a638 a4be af34 45be 0915 e6bd
000001d0: 282a 94be 7ad7 9fbe 03fc cfba b9df 10bf
000001e0: 9a3d 2ebe 3d42 3cbe 914c c9bd dd68 ebbe
000001f0: a068 cfbe 3e83 75be 1058 2f3e bc61 b9be

network.3.weight f4 [64, 128]
0.02495445 0.039593246 -0.022423208 -0.022883939 -1.218516 0.07591283 -0.17473125 0.23602058
-0.1993246 -0.08718781 -0.10729021 -0.120526664 0.17346261 0.1483676 0.07797801 0.007714898
0.20177162 -0.07041033 0.37757576 -0.27420458 -0.7158667 0.19985275 -0.7038786 -1.1713094
0.0052038496 -0.069072254 0.085728526 -0.03275491 -0.05944371 0.29089347 -0.12071809 0.008078481
0.3936497 0.07372529 -0.23304068 0.10812023 -0.044085577 -0.036300287 -0.055805363 0.019786708
-0.080761254 -0.074188866 0.1633785 0.05036786 0.028838621 0.18404084 -0.004714951 -0.33882076
0.020234285 -0.23156743 -1.5625397 0.029619077 -0.84846437 0.29376554 -0.08897378 0.13941163
-0.4818862 -1.5631347 0.15760848 0.25430536 0.36536592 0.06504772 0.1858335 0.07843915
0.03887716 0.099665634 -0.01709113 -0.004944853 0.001071816 0.019034857 0.093625076 -0.13491125
0.086714566 -0.20212206 0.026915431 -0.05407675 0.028948557 -0.24393442 0.04934537 -0.06326874
-0.0041569243 -0.016764151 0.09152499 0.1826929 -0.033245105 -0.015102504 0.1298357 -0.15175287
-0.023787478 -0.048281506 0.12226873 -0.09840105 -0.092606515 -0.010104359 -0.3656883 0.04020273
-0.060416963 -0.10792498 0.069733635 0.18689561 -0.097808346 -0.8045002 0.26496446 -0.9069727
0.15839994 -0.4288297 -0.07002921 -0.17078145 0.009141354 -0.21497382 0.086018406 -0.011958721
0.051363967 -0.22908255 0.14140294 0.020100873 -0.0808472 0.08136116 0.08781787 0.101238415
0.04759706 0.2460434 0.021317512 -0.0349371 -0.006423243 0.13261274 0.057699747 -0.015756212
-0.012724362 -0.015284404 0.0153911 -0.17356214 -0.8104737 0.13589172 0.15268876 -0.33822605
0.090527445 -0.16333462 0.2149284 -0.082560666 0.3004274 -0.27232382 0.12788089 -0.109765194
0.31247324 0.15104847 0.37396967 -0.021314468 -0.16985835 -0.34560484 -1.345312 0.15869905
0.052049328 0.171591 0.075816296 0.058022253 -1.0657291 -0.6490178 -0.6574449 0.3744408
-0.36068732 0.15603018 0.26549307 -0.20307785 0.05637416 0.14386976 0.089967094 0.22000949
-0.7084346 0.4049703 -0.017144462 -0.21395957 -0.06146622 -0.017936893 0.20212643 0.2844508
0.15728867 -0.030659212 -0.24165958 0.013290832 -0.5960094 -0.60655826 0.18762274 -0.45219588
-0.34504995 -0.49574262 0.0010936266 0.2522212 -0.6453493 -0.24048704 0.28717723 -0.32013083
-0.3754152 -0.19305058 -0.06678948 -0.06534108 -0.15883237 0.29293746 -0.13438654 -0.2160472
-0.035183705 0.0217606 -0.04594289 0.16365205 -0.3906836 0.20859344 -0.2686256 0.46969187
-0.17548399 0.11554327 -0.62690246 -0.02585469 0.2940565 -0.16996495 -0.19297163 -0.56313336
0.04967868 0.08489785 -0.2943829 0.00055466196 -0.060650863 0.0713703 -0.33242974 -0.07141811
0.11846196 0.3080718 -0.6138825 -0.10518555 0.29453212 -0.6320847 0.3709382 -0.58190525
-0.313113 -0.07026165 0.02772226 0.5802887 0.07570258 0.051930055 0.14321792 -0.014207176
-0.2530688 -0.1278759 -0.27363926 0.09885494 -0.009944417 0.12525533 -0.45727465 0.30909187
-0.80292606 0.04240996 0.13377357 -0.070931226 0.015501223 0.1743488 0.10068964 0.10841712
00000000: 466d cc3c 872c 223d e0b0 b7bc 1977 bbbc
00000010: 55f8 9bbf 3078 9b3d c0ec 32be 61af 713e
00000020: bf1b 4cbe 868f b2bd f8ba dbbd afd6 f6bd
00000030: 2fa0 313e aded 173e efb2 9f3d 41cd fc3b
00000040: 389d 4e3e 4b33 90bd 9c51 c13e 8b64 8cbe
00000050: 0a43 37bf 33a6 4c3e 6331 34bf 77ed 95bf
00000060: 0e85 aa3b c175 8dbd 7092 af3d 032a 06bd
00000070: 3f7b 73bd fdef 943e 0c3b f7bd 9b5b 043c
00000080: 748c c93e 49fd 963d 37a2 6ebe 246e dd3d
00000090: 1493 34bd 9caf 14bd 2a94 64bd bc17 a23c
000000a0: 2866 a5bd 55f0 97bd b24c 273e 874e 4e3d
000000b0: f93e ec3c 3475 3c3e e07f 9abb ea79 adbe
000000c0: 5fc2 a53c 0320 6dbe 4d01 c8bf b5a3 f23c
000000d0: f634 59bf 7068 963e e337 b6bd ecc1 0e3e
000000e0: cab9 f6be cc14 c8bf 1e64 213e 5034 823e
000000f0: 3e11 bb3e bd37 853d 234b 3e3e b4a4 a03d
00000100: a83d 1f3d 7f1d cc3d b302 8cbc 6f08 a2bb
00000110: 2d7c 8c3a fdee 9b3c 81be bf3d 2d26 0abe
00000120: 6897 b13d 16f9 4ebe c07d dc3c 957f 5dbd
00000130: 8625 ed3c f2c9 79be 5f1e 4a3d 0b93 81bd
00000140: cf36 88bb f954 89bc 7471 bb3d d913 3b3e
00000150: 052c 08bd 7e70 77bc a6f3 043e 1b65 1bbe
00000160: f5dd c2bc d4c2 45bd 0768 fa3d 7d86 c9bd
00000170: 7ca8 bdbd c18c 25bc 7f3b bbbe 9eab 243d
00000180: c777 77bd c607 ddbd 82d0 8e3d 9061 3f3e
00000190: be4f c8bd baf3 4dbf 6ca9 873e 5d2f 68bf
000001a0: 9833 223e 918f dbbe 796b 8fbd 55e1 2ebe
000001b0: 9ec5 153c 1922 5cbe 6b2a b03d 83ee 43bc
000001c0: 0663 523d 9e94 6abe efcb 103e 96aa a43c
000001d0: 3793 a5bd aea0 a63d dbd9 b33d 1656 cf3d
000001e0: 23f5 423d cdf2 7b3e 10a2 ae3c 341a 0fbd
000001f0: 117a d2bb a2cb 073e 9256 6c3d 2c13 81bc
00000200: d879 50bc 706b 7abc f42a 7c3c 46ba 31be
00000210: 347b 4fbf 3327 0b3e 715a 1c3e f72b adbe
00000220: 7466 b93d 3141 27be 3116 5c3e 9115 a9bd
00000230: 9fd1 993e 076e 8bbe 35f3 023e 93cc e0bd
00000240: 7efc 9f3e 73ac 1a3e f478 bf3e ae9b aebc
00000250: 59ef 2dbe 1ef3 b0be 2f33 acbf 0182 223e
00000260: ad31 553d 8db5 2f3e 9345 9b3d bea8 6d3d
00000270: d069 88bf 0826 26bf 4f4e 28bf b4b6 bf3e
00000280: 02ac b8be 60c6 1f3e b5ee 873e a4f3 4fbe
00000290: 97e8 663d 9852 133e ab40 b83d 2b4a 613e
000002a0: f85b 35bf 4458 cf3e 8b72 8cbc 3818 5bbe
000002b0: 01c4 7bbd 64f0 92bc 3bfa 4e3e 89a3 913e
000002c0: 4810 213e 0729 fbbc 9c75 77be cac1 593c
000002d0: 1294 18bf 6747 1bbf 2d20 403e 3886 e7be
000002e0: 63aa b0be fad1 fdbe 0558 8f3a 2323 813e
000002f0: 9d35 25bf 3c42 76be e508 933e 30e8 a3be
00000300: 6c36 c0be 0daf 45be ecc8 88bd 8bd1 85bd
00000310: f4a4 22be e6fb 953e a09c 09be 7a3b 5dbe
00000320: ca1c 10bd 4943 b23c 9d2e 3cbd 6794 273e
00000330: ae07 c8be 8599 553e 4b89 89be 747b f03e
00000340: 13b2 33be f3a1 ec3d ae7c 20bf 37cd d3bc
00000350: 938e 963e 4b0b 2ebe 5b9a 45be 8229 10bf
00000360: df7b 4b3d edde ad3d 5bb9 96be bc66 113a
00000370: 0a6d 78bd 982a 923d 3b34 aabe a843 92bd
00000380: 2f9c f23d 96bb 9d3e 6727 1dbf 866b d7bd
00000390: eacc 963e 4ed0 21bf 9deb bd3e bef7 14bf
000003a0: 5950 a0be 57e5 8fbd cb19 e33c cd8d 143f
000003b0: f409 9b3d 9cb4 543d b8a7 123e 37c5 68bc
000003c0: 3c92 81be e6f1 02be 721a 8cbe 7574 ca3d
000003d0: e8ed 22bc ef42 003e e71f eabe 4a41 9e3e
000003e0: 908c 4dbf 11b6 2d3d f0fb 083e 6444 91bd
000003f0: d7f8 7d3c 7e88 323e 5f36 ce3d cc09 de3d

network.3.bias f4 [64]
0.42146623 0.023047145 -0.8212958 0.45570126 0.7315772 0.4676027 -0.030255277 0.22357604
0.5315693 0.77517223 0.27974188 0.37802216 -0.17501171 0.30488372 -0.012750815 -0.16606615
0.20619015 0.40595263 0.99346894 0.2871832 0.4055794 0.48238757 0.29788426 0.19707255
0.10998116 0.12849969 0.53923273 0.8081936 0.33595678 0.114637345 0.020474821 0.4657554
0.0082311 0.57392526 0.07405299 0.44127116 0.3835092 0.29202783 0.2342672 0.11067849
0.054237172 0.42998147 0.3110731 0.26043063 -0.10135742 0.24056229 -0.26321763 0.21674013
0.5480289 -0.2531838 0.47993207 0.15431246 0.4143341 0.26171312 -0.37852788 0.2632884
-0.04962498 0.27022916 0.23648393 -0.27957404 0.19611521 -0.087680586 0.16385734 -0.06336119
00000000: 6cca d73e 5ecd bc3c 7140 52bf ad51 e93e
00000010: a548 3b3f 9f69 ef3e ead9 f7bc 1ef1 643e
00000020: ed14 083f b071 463f 543a 8f3e 1f8c c13e
00000030: 4536 33be b819 9c3e cbe8 50bc 3f0d 2abe
00000040: 8323 533e 06d9 cf3e fb53 7e3f ad09 933e
00000050: 1aa8 cf3e 81fb f63e 4984 983e 63cd 493e
00000060: cd3d e13d 6c95 033e 280b 0a3f c7e5 4e3f
00000070: 8702 ac3e fcc6 ea3d d0ba a73c 7e77 ee3e
00000080: bcdb 063c c4ec 123f 18a9 973d 4bee e13e
00000090: 515b c43e ac84 953e bee3 6f3e 67ab e23d
000000a0: cc27 5e3d 8826 dc3e f944 9f3e 2a57 853e
000000b0: 7b94 cfbd f655 763e 76c4 86be 20f1 5d3e
000000c0: 9f4b 0c3f 4fa1 81be a8b9 f53e 1604 1e3e
000000d0: 9923 d43e 43ff 853e 68ce c1be bdcd 863e
000000e0: 9043 4bbd 7a5b 8a3e d828 723e 5424 8fbe
000000f0: 6dd2 483e e191 b3bd 38ca 273e 83c3 81bd

network.5.weight f4 [32, 64]
0.1949884 -0.19989072 -0.34743476 -0.057336286 0.15077892 0.019502811 -0.28699103 -0.13099213
0.3303046 -0.17945163 -0.20992954 -0.015171359 0.023509122 -0.20879152 -0.2897268 -0.2594835
-0.2626006 -0.18995218 -0.17945912 0.014247778 -0.28695953 0.19036156 -0.4871371 0.12922913
0.15782546 0.024346717 0.15315315 -0.033160403 0.34689793 0.07249798 -0.58027834 -0.18525353
0.007858315 -0.24526757 0.21157536 -0.07451422 -0.3692765 -0.04435625 -0.06875778 0.27641836
0.14363596 -0.021095503 0.057029877 -0.31112736 -0.36915857 -0.26329404 0.048789028 -0.15531164
-0.6787232 -0.2565235 0.097082235 0.17792816 0.101897195 0.050794095 -0.12997305 -0.18596162
-0.72273004 0.12783264 0.29877487 -0.21312779 -0.108052075 0.013404516 0.40448678 -0.0028224203
-0.22257444 -0.07972684 -0.35897943 -0.102878295 -0.014445368 -0.19952704 -0.14864899 -0.048477687
0.14271581 -0.121295385 -0.052075922 -0.17151155 0.14800052 0.02104679 -0.057834826 -0.092541344
-0.026638784 -0.07033374 -0.100072294 -0.15420462 -0.02056134 -0.20065717 -0.056823898 -0.052815184
-0.25030416 -0.065422095 -0.06670536 -0.05003392 -0.07573111 -0.07854362 -0.029443251 0.045058493
-0.08915289 -0.12266887 0.094216555 -0.1892334 0.025593303 -0.21340208 -0.054357417 -0.17809653
-0.03716691 -0.16937049 0.02584994 -0.13477331 -0.065783195 -0.118183 0.055321496 -0.33590674
-0.030582245 -0.11344765 -0.086681336 -0.20286639 -0.1582251 -0.22927594 -0.062164266 -0.066520795
-0.32106835 0.011780773 -0.02889244 -0.08796816 0.03262855 -0.13374975 -0.1267919 -0.25754857
-0.785548 0.09017707 -0.09972205 -0.68652177 0.55646265 0.044711236 0.081275575 0.30376947
-0.1652046 0.23830828 0.05511435 0.07289687 -1.4167368 -0.5033794 0.48376247 -0.38450432
-0.031677805 0.23875153 -0.08258568 0.11736104 -0.15898979 -0.17648478 -0.21226902 -0.6818118
-0.08615203 -0.33143184 -0.130475 -0.16779141 -0.5259463 -0.18084253 -0.14240101 -0.17321438
0.071185336 -0.33592156 -0.5328295 -0.01285883 -0.1730131 0.09517825 -0.0063095344 0.091616735
-0.14814381 -0.44378707 0.14141342 0.12349396 -0.5701567 0.062320665 0.234378 -0.1854044
0.5391809 0.19162576 -0.43483818 0.005781013 -0.1345939 0.12665336 -0.10428794 0.020378375
-0.07616637 0.119951434 -0.57036644 -0.14164856 0.03217362 -0.22902784 -0.06773114 -0.069957875
-0.030915868 -0.16403349 0.113374665 0.2393508 -0.007707366 0.119198896 -0.7046653 -0.0430096
-0.008608554 -1.3450322 0.2695181 -0.28270048 0.71079445 -0.28145126 0.09970353 0.6292675
-0.3995962 0.7184599 -0.342971 0.3935435 -0.048518162 0.2403839 -0.13591978 0.2122201
0.24930067 -0.1439739 0.35308 0.18645163 0.10120557 -0.036719926 0.22992587 -0.11591355
-0.55306655 -0.42741513 -0.03433391 -0.18994336 0.10037145 -0.23954457 -0.61650985 0.25092635
-0.1450955 -0.38833448 -0.0366599 0.116734676 0.1291599 -0.08009786 -0.3843077 0.1600806
-0.2904531 0.5040427 0.5985674 -0.56145173 -0.513029 -0.7095307 -0.11049785 0.16320366
0.10307575 -0.54280907 -0.17469378 -0.022725282 -0.30442378 0.124428466 -0.025961583 0.030339396
00000000: 0aab 473e 27b0 4cbe f8e2 b1be 74d9 6abd
00000010: ca65 1a3e 5cc4 9f3c 7df0 92be cd22 06be
00000020: af1d a93e 2bc2 37be c5f7 56be 4b91 78bc
00000030: 3496 c03c 72cd 55be 1257 94be 05db 84be
00000040: 9673 86be d382 42be 22c4 37be 836f 693c
00000050: 5cec 92be 24ee 423e 096a f9be a454 043e
00000060: ff9c 213e c472 c73c 2ed4 1c3e 34d3 07bd
00000070: 9b9c b13e d279 943d 1f8d 14bf 1ab3 3dbe
00000080: 29c0 003c 6c27 7bbe 36a7 583e e99a 98bd
00000090: cf11 bdbe e6ae 35bd e1d0 8cbd b586 8d3e
000000a0: 4e15 133e 7ad0 acbc 2998 693d 164c 9fbe
000000b0: 5a02 bdbe 7ace 86be 01d7 473d 040a 1fbe
000000c0: cec0 2dbf 0c57 83be 0dd3 c63d cd32 363e
000000d0: 7aaf d03d 780d 503d a817 05be b96c 3ebe
000000e0: d604 39bf 8fe6 023e 05f9 983e 2c3e 5abe
000000f0: 684a ddbd 9d9e 5b3c e418 cf3e 5bf8 38bb
00000100: 8eea 63be d347 a3bd 27cc b7be dbb1 d2bd
00000110: 44ac 6cbc d150 4cbe 7137 18be 8a90 46bd
00000120: 1824 123e b769 f8bd 904d 55bd b9a0 2fbe
00000130: 738d 173e 516a ac3c 36e4 6cbd 5186 bdbd
00000140: 9439 dabc 230b 90bd b4f2 ccbd d1e7 1dbe
00000150: 4170 a8bc 1379 4dbe 2dc0 68bd bc54 58bd
00000160: de27 80be 05fc 85bd d29c 88bd 5ef0 4cbd
00000170: ea18 9bbd 7adb a0bd f932 f1bc 418f 383d
00000180: ca95 b6bd d139 fbbd 9cf4 c03d 67c6 41be
00000190: 0ca9 d13c 1386 5abe e2a5 5ebd f05e 36be
000001a0: 543c 18bd 756f 2dbe 41c3 d33c 0402 0abe
000001b0: 57b9 86bd ee09 f2bd cb98 623d f8fb abbe
000001c0: 9e87 fabc 3e57 e8bd fc85 b1bd 35bc 4fbe
000001d0: c305 22be 50c7 6abe f59f 7ebd 0e3c 88bd
000001e0: 1263 a4be 2504 413c d7af ecbc a728 b4bd
000001f0: 84a5 053d b2f5 08be bcd5 01be 68dd 83be
00000200: ac19 49bf c1ae b83d 133b ccbd e4bf 2fbf
00000210: 5674 0e3f 2123 373d cf73 a63d ac87 9b3e
00000220: 652b 29be 1607 743e 96bf 613d f44a 953d
00000230: a257 b5bf 79dd 00bf b7af f73e c0dd c4be
00000240: 96c0 01bd 487b 743e ae22 a9bd fc5a f03d
00000250: 38ce 22be 6db8 34be 0d5d 59be 388b 2ebf
00000260: 7a70 b0bd 6fb1 a9be 3d9b 05be 83d1 2bbe
00000270: 6ba4 06bf c92e 39be 92d1 11be 1c5f 31be
00000280: 9ec9 913d e9fd abbe 8467 08bf d8ad 52bc
00000290: 592a 31be d0ec c23d 36c0 cebb 8ea1 bb3d
000002a0: 03b3 17be 0f38 e3be aece 103e 67ea fc3d
000002b0: caf5 11bf f443 7f3d c900 703e a7da 3dbe
000002c0: c207 0a3f 8b39 443e 1ca3 debe a76e bd3b
000002d0: fcd2 09be 6bb1 013e ea94 d5bd 8df0 a63c
000002e0: 1dfd 9bbd 19a9 f53d 8903 12bf 520c 11be
000002f0: 7cc8 033d 4686 6abe a0b6 8abd 1346 8fbd
00000300: 4643 fdbc 65f8 27be fa30 e83d 6018 753e
00000310: 128e fcbb 8d1e f43d f264 34bf d62a 30bd
00000320: e40a 0dbc 042a acbf 47fe 893e 1ebe 90be
00000330: a0f6 353f 611a 90be 5d31 cc3d ad17 213f
00000340: e097 ccbe fdec 373f e599 afbe 897e c93e
00000350: fbba 46bd 3227 763e 8e2e 0bbe 3a50 593e
00000360: ad48 7f3e e56d 13be e7c6 b43e 2ded 3e3e
00000370: de44 cf3d a267 16bd b071 6b3e 1564 edbd
00000380: c595 0dbf 28d6 dabe b7a1 0cbd 8380 42be
00000390: 8c8f cd3d 2c4b 75be 97d3 1dbf 6b79 803e
000003a0: ea93 14be c7d3 c6be b128 16bd 9712 ef3d
000003b0: 7e42 043e 590a a4bd fbc3 c4be 2bec 233e
000003c0: 45b6 94be f108 013f b73b 193f 4dbb 0fbf
000003d0: de55 03bf cea3 35bf b24c e2bd dc1e 273e
000003e0: 6119 d33d 89f5 0abf ede2 32be 5f2a babc
000003f0: 6fdd 9bbe 5ad4 fe3d 63ad d4bc 538a f83c

network.5.bias f4 [32]
-0.18138869 -0.18250786 0.4459643 -0.017860506 0.052456185 -0.27377814 0.6255689 -0.25506338
0.47567564 -0.10475378 -0.34435672 0.4612845 0.3665171 0.5126696 -0.33244812 -0.66485643
0.39477247 -0.09686859 0.62613285 0.59158915 0.13368276 0.625382 0.07573488 0.3488718
0.4212034 0.5665645 0.2183296 0.51309216 0.12627415 0.39120072 0.62497187 0.6108222
00000000: f5bd 39be 57e3 3abe 6f55 e43e 3250 92bc
00000010: 4cdc 563d a62c 8cbe 4925 203f ab97 82be
00000020: c28b f33e 2689 d6bd 864f b0be 7b2d ec3e
00000030: 21a8 bb3e 513e 033f a436 aabe 0834 2abf
00000040: 9e1f ca3e 0a63 c6bd 3e4a 203f 6372 173f
00000050: 22e4 083e 0919 203f e41a 9b3d 539f b23e
00000060: f9a7 d73e 5f0a 113f cb91 5f3e 025a 033f
00000070: 034e 013e 764b c83e 28fe 1f3f d85e 1c3f

network.7.weight f4 [1, 32]
-0.08719536 -0.0111417435 -0.13902728 -0.50227547 -0.18820792 0.17839141 0.07597555 0.022825027
0.061469417 -0.019856643 -0.016736824 -0.080035575 -0.084926255 -0.123498246 1.215452 0.84943867
-0.047082268 0.027915029 0.20014234 0.16316767 0.055528637 -0.10891621 -0.121373594 -0.039367642
-0.13177411 -0.094810136 0.028882075 -0.050505478 -0.09539544 -0.038024217 0.17998196 0.1266842
00000000: 7b93 b2bd dc8b 36bc 2b5d 0ebe 2095 00bf
00000010: 94b9 40be 3dac 363e 1299 9b3d 8dfb ba3c
00000020: 5bc7 7b3d 66aa a2bc aa1b 89bc b1e9 a3bd
00000030: d1ed adbd a6ec fcbd ee93 9b3f d074 593f
00000040: 56d9 40bd 0fae e43c 1df2 4c3e 6d15 273e
00000050: ff71 633d 760f dfbd b892 f8bd f73f 21bd
00000060: cbef 06be d12b c2bd 1a9a ec3c d5de 4ebd
00000070: af5e c3bd 48bf 1bbd 314d 383e 81b9 013e
