models/price_predictor_nn_v7.pth (torch, 199505 bytes, 7 tensors)

network.0.weight f4 [256, 29]
00000000: 2d4d 51be 4e11 a03e 69b0 60be 33e1 ae3e
00000010: 9d27 053e 3240 a6be 7630 7cbc f7f0 3b3e
00000020: 1b33 9fbe 7e38 4cbc 8275 8abc 0fa2 a6bc
00000030: aeda b9bc ad24 6cbd d979 183e 0352 96be
00000040: 94f8 02be 235f 20bf b7d8 313d 46a3 99be
00000050: 8ebc 54bf 9528 aabf ee2f f4bc 09fe 2d3f
00000060: 0bf0 4cbd 6fbb 0ebf a9c4 35be 5e6f 153d
00000070: d3e0 51be 0864 26bf 10ba 39bd 38c6 f33e
00000080: b96e 2dbe 5775 503e 77c6 fcbe f095 b4be
00000090: d185 f7be 284e 8d3e 0501 0abe b7b3 4cbc
000000a0: 18d0 22bc 87e5 e9bb 8a6e 2dbd 606f d63d
000000b0: 76b0 ce3d d023 2f3d c86f 8ebb 67e9 89be
000000c0: 3e80 06bd d462 54bf aadd ae3d cc30 ad3e
000000d0: 716f c8bd f3a7 dcbd 67e4 26bd cd3b 243e
000000e0: 7f95 e9be 4bef b2bd 3cb9 953e 71b5 3a3e
000000f0: be7c a8bd a690 313e b8fe 97bd 7996 8d3d
00000100: b3d1 3fbc d8ab 1fbd 1e89 88bd 0889 483c
00000110: 108a 3a3c fcec 553c 1606 dd3b 6a45 75be
00000120: 44d7 8b3d 92e5 e2bd 49fa 253f 84ea f93d
00000130: 061f 4ebe b4ea 4dbf e84e e4be 4616 9d3e
00000140: ef38 aebf 6fad 5abf b61a 26be 3a84 97be
00000150: 9f96 1cbf f054 2dbe 39f7 7dbe e20b b83e
00000160: 8d10 45be c680 df3d 6e84 a0bc 6244 233e
00000170: 345d dd3e f1b6 363d dbdb 6fbd 4a9d 383d
00000180: 0b5f 213d dee6 0e3b e318 a4bb dca2 0cbb
00000190: 5b94 b0be 3cb4 2ebe 5aac 7dbe 02c5 8d3d
000001a0: ac37 953e bdb5 84be 81d1 86be 22be f1be
000001b0: cc2d 103f 39f2 2d3f 0191 b1be 6875 df3e
000001c0: 2774 d6bd ae6b 46be 47db b8be f738 c5bd
000001d0: 93ad ae3c ee60 a33a 966f 1d3c 0c0a 613f
000001e0: 0f77 723c 5f88 08bc 5718 133d f86d 00bd
000001f0: 56a7 75be 050a 43be 04b9 9dbb 3bf4 f8bb
00000200: 140b 3abb 5c26 87bb 87fe 3c3c bcc8 dc3c
00000210: 4d10 edba 4931 25bb dec0 66be d2f8 64be
00000220: a4a7 6dbe e0d8 6abe f26f 73be 5cbf 68be
00000230: 6d3e 81be 9d5e 01bf 4cba cbbe 7bd4 abbe
00000240: 6350 4bbf aac2 60bf 64a7 94be 4e26 8fbe
00000250: fdfb 273d 02f7 7a3e 1df2 693e 7244 0c3d
00000260: 4f82 553e 2a6d b1be ac43 31be ff81 0dbc
00000270: d7a8 ebbb fc6c 13bc b2af 263c be4f 33bd
00000280: e50c c0bb 5340 3c3d 418a 73bd 3eaf e3bd
00000290: 8687 7ebd 3df0 30be 5b2e 213e 646e 36be
000002a0: c666 56be f780 87be a62a 85be 5695 bb3d
000002b0: 3d48 59be 1a47 4abe b097 863e c70c ff3d
000002c0: f526 47be c4d5 b0be e9d9 6ebd 9813 94bf
000002d0: 831d a63c 3b7e 7a3d 30b3 84bc d8d2 8bbc
000002e0: 947d 37bd 0629 1bbd c033 0cbd 619a 70be
000002f0: 83a8 5b3e 8c80 723d 6108 ab3d 9148 ba3d
00000300: 7ce7 aebe 2e7a 563e 016a f7be fba0 b3bd
00000310: 22d1 813e 224d d7be d055 2b3e efa3 773e
00000320: 1f56 433e f46b 04bf eaa2 43bf fe30 5fbd
00000330: 4197 553e 0568 803d 2d17 f33e 97ce 1bbf
00000340: 275b 543e 0528 273d acc4 e13d d217 2a3e
00000350: cb0f 66be 2db5 003c 6595 b93b 3a89 b33b
00000360: 35f3 c03c de42 19bd 7b02 5cbe 8de5 003d
00000370: 4394 cfbc 2ff3 5d3d 5397 07be 1d90 a2be
00000380: b47b cdbe 56c8 92bc 409c 0ebf 8b21 9fbc
00000390: d6c4 2ebf b1c4 95bd 7f7c cc3c 9924 233d
000003a0: a152 46bf 32b1 8cbe cebe b53d 0195 56be
000003b0: a841 833d a455 1cc0 81fd 163b e1ca 4d3c
000003c0: 385b aebd 5894 1c3d 5058 dcbc 5d85 e6bc
000003d0: 5e8c 7ebc 2e7f 36be 7141 7a3d 0609 323e
000003e0: 50bf 83bd a3d3 19be 6d6e 2cbe 4d51 a73d
000003f0: 4f2a 913c 1415 44bd 9118 7dbe ce93 b4be
-0.20439596 0.31263202 -0.21942295 0.34156188 0.13003393 -0.32470852 -0.015392413 0.1835364
-0.31093678 -0.012464641 -0.016901735 -0.020340947 -0.022687282 -0.057652164 0.14890231 -0.29359445
-0.12790138 -0.6264517 0.043419566 -0.3000738 -0.8310021 -1.3293635 -0.02980801 0.6796575
-0.05003361 -0.5575475 -0.17750801 0.03648316 -0.2049592 -0.64996386 -0.04534346 0.47612166
-0.16936769 0.20357262 -0.49370167 -0.35270643 -0.4834428 0.2759869 -0.13476951 -0.012494019
-0.009937309 -0.0071379575 -0.042341746 0.10470462 0.10092251 0.042758763 -0.0043468215 -0.26935884
-0.032837145 -0.829633 0.08538373 0.33826292 -0.09786881 -0.10774221 -0.040745165 0.16038437
-0.4562187 -0.08737048 0.29242885 0.18233277 -0.08226918 0.17340335 -0.074216306 0.06913466
-0.011707711 -0.038982242 -0.06666778 0.012239702 0.011385456 0.01305699 0.0067451103 -0.2395226
0.06828168 -0.11078943 0.6483503 0.122029334 -0.20129022 -0.80436254 -0.4459145 0.30681056
-1.3611125 -0.8542089 -0.16221127 -0.29593068 -0.6116733 -0.16926932 -0.24801339 0.35946566
-0.19244595 0.109132335 -0.019594397 0.15944055 0.4323517 0.04460806 -0.05855928 0.045071878
0.03939728 0.0021805088 -0.0050078495 -0.0021459376 -0.34488186 -0.17060941 -0.24772778 0.06922342
0.29144037 -0.25919905 -0.26331714 -0.47215372 0.5631988 0.6794773 -0.34680942 0.4364426
-0.10471373 -0.19377014 -0.36104795 -0.09630006 0.021323001 0.00124648 0.009609124 0.87905955
0.014798894 -0.008333295 0.035911884 -0.031354874 -0.23989615 -0.19046791 -0.0048133153 -0.007597474
-0.002838795 -0.004124446 0.011535293 0.026951186 -0.0018086523 -0.0025206378 -0.2253451 -0.22360542
-0.23208481 -0.22934294 -0.23773172 -0.22729248 -0.2524294 -0.50534993 -0.3979057 -0.33560547
-0.79419535 -0.87797034 -0.2903396 -0.27958912 0.0410118 0.24508289 0.22846265 0.034244962
0.2085049 -0.34653598 -0.17310971 -0.0086369505 -0.007191758 -0.008998152 0.010173725 -0.04377722
-0.005860912 0.04595978 -0.05945802 -0.11117409 -0.062140964 -0.17279144 0.1574034 -0.17815548
-0.20937642 -0.2646558 -0.260091 0.09159343 -0.21218963 -0.19753686 0.26287603 0.12453609
-0.19448455 -0.3453809 -0.058313284 -1.156848 0.020277744 0.06115554 -0.016198725 -0.017068312
-0.044797495 -0.03788092 -0.03422904 -0.23496391 0.21451001 0.059204623 0.083512075 0.09095872
-0.34160984 0.20945045 -0.48323062 -0.08770939 0.25354868 -0.42051035 0.16731954 0.2418363
0.19075821 -0.51727223 -0.7642046 -0.054490082 0.2085848 0.0626984 0.4747862 -0.60862106
0.20737897 0.04080965 0.1102384 0.16610649 -0.22466962 0.007855696 0.005663561 0.005479005
0.02355347 -0.037417285 -0.21485321 0.031468917 -0.025339251 0.054186996 -0.1324132 -0.31750575
-0.4013344 -0.017917793 -0.5570717 -0.019425174 -0.682691 -0.073129065 0.024961708 0.039829824
-0.7746983 -0.2747894 0.08874284 -0.20955278 0.06409007 -2.442727 0.0023039284 0.012560577
-0.08513492 0.03822741 -0.02689758 -0.028139764 -0.015536396 -0.17821953 0.061097566 0.17386255
-0.06432974 -0.15022139 -0.16838999 0.08169804 0.01772037 -0.047871664 -0.24716403 -0.35269016

network.0.bias f4 [256]
00000000: a619 59be 7be1 2ebe fd81 b8be b4e9 9dbe
00000010: 6b26 2dbf 1107 0ebf b1c0 57be 2787 3dbe
00000020: ec90 94be 7400 27bf 03b8 0cbf e3a7 64be
00000030: c64a a6be 2540 41bf 1212 fcbe 7e42 2cbe
00000040: 47ba debd a041 31bd 95ce cbbe 03c3 77be
00000050: 279e 16bf a98e 1ebe 7fec 51be 33c0 90be
00000060: 613d 7ebe 67d7 21bf ca9d 01bf f326 b1be
00000070: b3e6 66be 0fbe ddbe 2fdb b7be 27c6 e7be
00000080: 538d 79be b54a 2ebe 683f e6be 2280 c4be
00000090: de93 babe a7b0 36be a9a6 bdbe f0b6 75bd
000000a0: 692c 87bd bc8c dfbc 757b debe 4513 80be
000000b0: 6e78 4dbe ea70 bebe 0ab7 05bd 3e9f d9bc
000000c0: a94b ecbd 5ac1 a5be 98c0 4abe 6249 59be
000000d0: 57b7 89be 6a25 c3be 1d17 e2bd ba39 63bd
000000e0: b26a 50bd 3685 96be 6fdc b3be 4e03 fdbd
000000f0: 1291 c7be 9769 72be 28f0 a2be eef0 d6be
00000100: c241 25bf b2be f2be 4d89 99be c0e0 33bd
00000110: a794 23bf a11a 37bf a245 8cbe 1055 88be
00000120: 1265 38be b22b 61be 3327 a03e c38f 76be
00000130: 2c26 4fbe 53f5 a7be ec75 19be 2169 d9be
00000140: fba4 a8be 5288 edbe 508f a7be a684 edbe
00000150: dba0 e9bd 6d55 ff3d 38c5 4abe 0303 c1be
00000160: cb61 d1be 3fb9 46be 8918 75be a43b 03bf
00000170: 3feb cdbe e468 2abe 66d0 94be 73a9 9f3e
00000180: 680b e0be 2be6 48bf c8b6 64be 33e8 20be
00000190: 52d0 6bbe c341 e6be 025e 9dbe aebf 32be
000001a0: 1493 13bf 2c79 18bf fa5c 86bd fac4 91be
000001b0: 5fb8 29be c237 96be 7951 36be b25a 98be
000001c0: 68a3 b7bd 844a 57be e74c 03be fe29 f0be
000001d0: c700 ddbe 48a9 22bf 980b 9bbd 7fd3 0abe
000001e0: 2e5a 0cbe e535 fabc afaf 73be f9e5 ecbe
000001f0: d43f 20be 9c0c 8dbe abe2 a6be 49e0 4dbd
00000200: f949 e0be 06ba 7dbe b08b 1abf f7b0 1fbf
00000210: ad9d 75be 1dc7 ecbd d6bc 20be 79d1 74be
00000220: 1c6b fdbd d0e9 c9be 8154 92be 7f73 16be
00000230: 9622 19be 49a6 c1bd 49cb 90be a319 05bf
00000240: c242 84be 1685 e4be 48b0 23bf 4f8c 1b3d
00000250: 8d65 9ebe 3aeb fbbd 09b4 91be 727a a73e
00000260: 7cf4 c3be c3fb d4be 3e7f d6be 5f2f 37be
00000270: 4eb1 a2be 04f4 b6be ef48 9dbe 6879 b1bb
00000280: 865a d5be 55ec 69be dd2b 96be cb4a 06bf
00000290: 1d31 a2bc f8ac cabd 3653 9bbe dbd9 bfbe
000002a0: d270 c4be c5bf 12be ff67 18bf 81e5 f2be
000002b0: 94ae dbbe 3016 b13c d0a7 e3bd 4e1d c3be
000002c0: 828b 39be 430c 05bf ae25 17bf 3453 56be
000002d0: 7a4c e1be 82c6 3bbe acb0 b8be b388 1cbe
000002e0: 0f3a 96be cc21 c4be b960 7fbe bb02 d7be
000002f0: 2165 82be 7cff 56be bffb b0be e2fa e53c
00000300: 439e e1be df90 e6bd a33e 4fbe 21fa 79be
00000310: 71a5 26bd a2e0 48be 9796 04bf 9d5f b3bd
00000320: 419a 3bbe 803e 14bf cc47 45be 29e1 95be
00000330: fed0 3cbd e08b 56be e73e f3bd 8737 d5be
00000340: 5591 24be 1c95 96be 200f 3ebe ddb7 f5be
00000350: aef9 11bf 7591 94bc c52a abbe 8785 8abe
00000360: ee62 02bf a0a2 bcbd d3da c0be 6215 4ebe
00000370: 3edd 28be 04d4 74bd 8a76 ffbe 0aa8 dbbe
00000380: 9d49 59be 3390 3cbd 280d a7be 2597 79be
00000390: ba40 d8be aea1 f3be 40cc 9bbe 8ca5 e1be
000003a0: 9399 8ebe 8309 41be d597 9fbe f0b6 3cbe
000003b0: 09b7 82be 3a8e 12be 821d 4dbe d554 cabe
000003c0: 84d0 1cbf 5a01 adbd 7c22 97be ee08 d7be
000003d0: 7fc7 22bf ce35 e0be c009 f8be 7f4e 25bf
000003e0: 74a2 cbbe af6c d4be 2036 81bd 28c6 0fbe
000003f0: 5fea e3bd 7755 75be f70b 45be bdc0 cc3d
-0.2120119 -0.17078201 -0.36036673 -0.30842364 -0.67636746 -0.5547953 -0.210696 -0.18508588
-0.29016817 -0.65235066 -0.5496828 -0.22329669 -0.32478923 -0.754885 -0.49232537 -0.1682224
-0.10875373 -0.043275476 -0.39806047 -0.24195485 -0.5883507 -0.15484108 -0.20500372 -0.28271636
-0.24828102 -0.632193 -0.5063139 -0.34600028 -0.22548942 -0.43309066 -0.3590941 -0.45268366
-0.24370317 -0.17020686 -0.4497025 -0.38379008 -0.3644094 -0.17840825 -0.37041214 -0.059988916
-0.066002674 -0.027288787 -0.43453565 -0.250147 -0.20065472 -0.37195522 -0.032645263 -0.02656519
-0.115378685 -0.32374078 -0.19800031 -0.212194 -0.2689769 -0.38114482 -0.11039565 -0.055474974
-0.050883003 -0.29398507 -0.35129115 -0.12354146 -0.38977867 -0.23673092 -0.3182385 -0.4198069
-0.64553463 -0.47411114 -0.29987565 -0.04391551 -0.638987 -0.7152501 -0.27396876 -0.26627398
-0.18007305 -0.21989325 0.31279907 -0.24078278 -0.20229405 -0.32804355 -0.1498639 -0.4246302
-0.3293837 -0.46393067 -0.32726526 -0.46390265 -0.11407634 0.124674655 -0.19801795 -0.3769761
-0.40894923 -0.19406603 -0.2393514 -0.5126288 -0.4021854 -0.16641575 -0.29065245 0.31183967
-0.43758702 -0.7847621 -0.2233535 -0.15713577 -0.23028687 -0.44972047 -0.30735785 -0.17455932
-0.576463 -0.59559894 -0.065607026 -0.28470594 -0.16574238 -0.29339415 -0.17804517 -0.29756695
-0.08966714 -0.21024519 -0.12822305 -0.46907037 -0.43164656 -0.6353955 -0.07570571 -0.13557242
-0.13706276 -0.030543277 -0.23797487 -0.46269205 -0.15649348 -0.27548683 -0.3259481 -0.050262723
-0.43806437 -0.24777994 -0.60369396 -0.623794 -0.2398593 -0.11561415 -0.15697035 -0.23908032
-0.12373945 -0.39436197 -0.28580096 -0.14692496 -0.149546 -0.094555445 -0.28280094 -0.51992244
-0.25832182 -0.44632787 -0.6394086 0.037975606 -0.30936852 -0.12300725 -0.28457668 0.32710606
-0.38272464 -0.4159833 -0.41893953 -0.17889164 -0.31775898 -0.35733044 -0.30719706 -0.005416084
-0.41670626 -0.2284406 -0.2933034 -0.52457875 -0.01979881 -0.098962724 -0.30336922 -0.37470898
-0.38367325 -0.14330967 -0.59533685 -0.47440723 -0.4290663 0.021617025 -0.11115992 -0.38108295
-0.18119624 -0.51971835 -0.5904187 -0.20930177 -0.4400366 -0.18337443 -0.3607229 -0.15286522
-0.2934117 -0.38307035 -0.2493924 -0.4199427 -0.2546778 -0.20995897 -0.34567067 0.028073732
-0.44066057 -0.11258101 -0.20238738 -0.24411823 -0.04068512 -0.1961694 -0.5179228 -0.08758471
-0.18320562 -0.5790787 -0.1926567 -0.29273346 -0.046097748 -0.20951796 -0.11877232 -0.41643927
-0.16071065 -0.29410636 -0.18560457 -0.4799184 -0.57021606 -0.018135766 -0.33431068 -0.27054998
-0.50932205 -0.09210706 -0.3766695 -0.20125344 -0.16490647 -0.059772506 -0.49895126 -0.4290164
-0.21219487 -0.046035957 -0.32627225 -0.24374063 -0.42236882 -0.4758429 -0.30429268 -0.44071615
-0.27851543 -0.18851285 -0.31170526 -0.1842916 -0.2553027 -0.14312068 -0.20030788 -0.39517847
-0.6125567 -0.084475234 -0.29518497 -0.41999 -0.63585657 -0.4379105 -0.4844494 -0.645729
-0.3977238 -0.4148917 -0.06309152 -0.14040434 -0.11128687 -0.23958384 -0.19242845 0.099976994

network.3.weight f4 [128, 256]
00000000: e1b3 8abe 4d3d cb3e a332 1abd 5cbc d0bd
00000010: 4eaf 50bf 06fa 053e 9e4c b4bd d39c 04be
00000020: 854b 7f3d 3d8e 92bf c494 04bf bf0c 86bd
00000030: e6ba 69bd 3ea1 19be dc0e 31bf 75e2 0abe
00000040: 89f7 c83d 653a 4fbe a381 ebbd a195 893d
00000050: c504 a0be a617 8a3d 16d4 73be a216 28bf
00000060: 079b 8d3d 6fee d9bc 6a28 33be e169 d4be
00000070: 3f96 f6bd 3df3 bdbd 8cec 24be 6e51 e93d
00000080: 8c84 69be bbb8 2ebd 6370 a63d 5425 96bd
00000090: 8d5c 5d3e c867 2d3d e760 0b3f 9fa3 393e
000000a0: 8fb1 f1be fcd9 43bf cdc4 7dbe 1c74 ffbe
000000b0: 3e47 913d b5a1 66bd a7f7 213e e89b 043c
000000c0: d1e4 a73d c9a7 dcbd 1041 273e 578e b9bd
000000d0: a342 b63e bc3b fcbd fe6d 4cbd 30df 91be
000000e0: 23fc bebd 6455 f53d a5dd 11be 39c3 52bd
000000f0: a0ae 58bd 2a79 24bb 115a 8b3d a86a 453e
00000100: 5b2c 82be 8892 9b3e 7293 7cbf 4002 bdbc
00000110: 3348 12bf 8790 243e 1cdf 3bbf 3246 86bb
00000120: 4a91 80be c8f8 b638 b7fe 143d 049f 383b
00000130: 2591 14bd 6691 b2bd 1f4b 99be 4407 74bc
00000140: f34c 6e3e 3eeb 7ebe 9769 c4bd b0bc 0ebf
00000150: 9bb6 5cbe c831 a7bb 74c3 583e 5fed 4f3c
00000160: 4918 90be 61b6 babe fcdd 933d 3cd0 2e3f
00000170: fda2 97bd f770 8b3e e072 e5be 8a92 033c
00000180: 4d35 afbe 62e3 aebe 2a5e cbbd c287 1abd
00000190: 64ce 91be 470f afbc 34f1 1bbe 3876 44bf
000001a0: 8be7 0f3e 0f31 6ebf cbb8 9e3d d11e 88be
000001b0: 4a93 acbc 6cfb f7bd 3593 1e3c c82c dd3c
000001c0: b880 83bf a826 d7bd 51f6 363e d7bb 1dbe
000001d0: b348 d5be 31be c7bb 61a8 023c db35 9f3d
000001e0: 24ad dfbe aaa1 9e3d 02cb d0be 8a9c 633d
000001f0: 1c23 1ebe 687d 4ebe 249c 923d 46a4 05bd
00000200: af3a cdbe c0be f23d 661a ddbd aef7 2abe
00000210: ad70 13bd feed b83d e9a2 913d df72 cabd
00000220: 6771 ddbe f9ba 97be 638e 153e 3057 25bc
00000230: a378 8d3d df9d 10be f04c ee3d bcba aa3e
00000240: 9ea0 90bd 70ba d73e 945f 89bd 6c64 28bf
00000250: 80f2 07bf 85c0 0f3e d6f4 9b3d 9c09 bf3a
00000260: 7017 e9bd 5e57 1c3e 8e32 adbd f608 c4be
00000270: 72d4 003f 0956 3cbc 665b 1a3e e5c3 9e3d
00000280: 7b7d 50ba 9e31 09bd f664 7bbe 2fa2 f3be
00000290: 2e88 cbbe fe60 883d f695 7d3e 6024 373d
000002a0: 0930 223e 8377 af3e ab2a b7bf 22ef 4abd
000002b0: 721a aabd e4a2 b4bd 69f4 67be 5ef2 343e
000002c0: d302 fd3d 9553 bb3d 504e 07be acaa f9bd
000002d0: 3b97 2fbf df8f 65bd fc82 06bc 1b24 483d
000002e0: d694 76be e153 8abd 0d32 9a3c 68c3 1dbe
000002f0: 2661 e53d 996d d6be d410 ad3d 40ba b73d
00000300: f890 923d 90a5 47bd 29c2 643d 6e0c 073e
00000310: c50f 9b3e 6e07 cb3d 32cd 5b3e 3125 f9bb
00000320: b2b0 c63c 0068 2abf 092e f63d b7a2 503d
00000330: aac6 86bd e6d0 113e 5562 923d 2de3 d83e
00000340: 319e 0b3e b3ec 083e bf92 d53e 980a 8abe
00000350: a532 f4be d669 df3c a652 0bbf 125c 1cbe
00000360: dcd7 343d f65d 9f3d c133 c53c 7d51 27bd
00000370: e1c7 a9bd fbd2 18bd 2b29 cabe a32c b13c
00000380: bb98 e33e 4c9a eabd e4ae dcbd 7043 53be
00000390: b5a0 f83a 780a 70bf 31f6 d6bd cd0a 19bf
000003a0: 6b62 d43c 1c81 793d 5a52 a03e 6ee1 623d
000003b0: 6e61 903c d9c3 29bf c395 8d3e befc f3be
000003c0: 99a5 813d b7a9 163e bbb1 afbe e65c b03e
000003d0: a62f ddbe be36 a43d 5699 3ebf e752 b1bf
000003e0: 1879 bebe b0f0 223e beee ba3d 64e5 dfbb
000003f0: e49d 593d 9c57 ff3d e605 9ebd 7175 b03d
-0.27090362 0.39695206 -0.037645947 -0.10192177 -0.81517494 0.13083658 -0.08803676 -0.12950449
0.06232788 -1.1449658 -0.517895 -0.065454 -0.057063006 -0.15002915 -0.691633 -0.13562949
0.098128386 -0.2023712 -0.114993356 0.067179926 -0.3125364 0.06742792 -0.23811373 -0.65659535
0.06914335 -0.026602952 -0.17495885 -0.4148703 -0.12040376 -0.0927491 -0.1610586 0.113924846
-0.22804469 -0.04265664 0.08126905 -0.073313385 0.21617337 0.0423353 0.54444736 0.18128823
-0.4720578 -0.7650449 -0.24782105 -0.49893272 0.070936665 -0.05630656 0.15817128 0.008093812
0.0819794 -0.1077419 0.16333413 -0.09060352 0.35597715 -0.12316081 -0.049909584 -0.2849059
-0.09325435 0.119791776 -0.14244707 -0.05145571 -0.05290091 -0.0025096633 0.06804288 0.19278967
-0.25424466 0.30385232 -0.98662484 -0.023072362 -0.5714142 0.16070758 -0.7338731 -0.0040977234
-0.25110847 8.7247754e-05 0.036375728 0.0028170953 -0.036271233 -0.08719139 -0.29940125 -0.01489431
0.23271541 -0.24894425 -0.09590452 -0.55756664 -0.21554033 -0.00510237 0.2116831 0.012690871
-0.28143528 -0.3646727 0.072200745 0.6828649 -0.074041344 0.27234623 -0.44814205 0.008030543
-0.34220353 -0.34157854 -0.0993007 -0.037727125 -0.28477776 -0.02136959 -0.1522873 -0.7674289
0.1405317 -0.9304361 0.0775009 -0.2658601 -0.021066327 -0.12108502 0.009678652 0.026998892
-1.0273657 -0.1050542 0.178674 -0.15403686 -0.41657028 -0.0060956706 0.007974715 0.07773944
-0.43686783 0.07745679 -0.40779883 0.05556921 -0.1544308 -0.20165026 0.07158688 -0.032627366
-0.40083835 0.11852789 -0.10796051 -0.16696045 -0.035996128 0.090297684 0.07111151 -0.09885191
-0.43250582 -0.29634836 0.14605097 -0.010091588 0.06907775 -0.14122723 0.116357684 0.33345592
-0.07061885 0.42134428 -0.06707683 -0.6577823 -0.531044 0.14038284 0.07615058 0.0014575007
-0.113814235 0.15267703 -0.08456908 -0.38288087 0.50324166 -0.011495122 0.15073928 0.07752208
-0.00079532684 -0.033494584 -0.24550232 -0.47584674 -0.39752334 0.06659125 0.24764237 0.044712424
0.15838636 0.34270868 -1.4309896 -0.04954446 -0.08305825 -0.088201314 -0.22651829 0.1767058
0.12354054 0.091468014 -0.13213468 -0.12190756 -0.68590134 -0.05604541 -0.00820994 0.048862558
-0.24080214 -0.0675428 0.018822694 -0.15406573 0.1120017 -0.4188049 0.08450475 0.08971071
0.07156557 -0.048741877 0.055849228 0.13188335 0.3028547 0.099135265 0.21464995 -0.0076033105
0.024254177 -0.6656494 0.12020499 0.050936427 -0.06580861 0.14239845 0.071476616 0.4236082
0.13634564 0.13371544 0.4171352 -0.26961207 -0.4769489 0.027272146 -0.54422987 -0.15269497
0.044151172 0.077815935 0.02407253 -0.040849198 -0.08290077 -0.03731058 -0.39484534 0.02162773
0.44452462 -0.11455211 -0.10775545 -0.20631194 0.0018968793 -0.93765974 -0.10496176 -0.59782106
0.025925836 0.060914144 0.3131283 0.055390768 0.017624583 -0.66314465 0.27653322 -0.47653764
0.06330413 0.14713179 -0.34315285 0.34445876 -0.43200415 0.08018254 -0.7445272 -1.3853425
-0.37201762 0.15912127 0.09127568 -0.0068327654 0.05312909 0.12467882 -0.07715969 0.0861615

network.3.bias f4 [128]
00000000: 2872 b43e d18e 89be 87e0 843e 01cd 4cbc
00000010: 9368 963d 1e77 063d 7c50 563e 79c3 103f
00000020: 2d54 d13e 3939 d2bd c7db 343f 99d3 e93e
00000030: f122 29bb 264a ba3d 40d0 e23d 5ed4 613e
00000040: 9969 8c3e c622 0d3e fddb aa3d a72d ae3c
00000050: 8399 08be b8a4 0e3f 9d83 9d3e f53e 87bf
00000060: 196b 243e 2052 443f 7359 083e a876 91bc
00000070: ec6b 823f a1e1 49bf f459 0e3f 9a05 bcbd
00000080: 071e ed3e b4c4 b73e 78fc ab3d 921e a23e
00000090: cba9 e03e d88d 813e f82b c5be b938 3fbe
000000a0: 5d24 443f ae2e 57be 5400 4f3d 1c6c bc3e
000000b0: 98cf 203e 7b48 8ebe 6178 0b3f 1a92 f23e
000000c0: df40 cd3e f81d c9be ec31 e13d 0f02 c03e
000000d0: 32e0 5e3c 2a44 a6be 6bbd 5bbd 4ce9 51be
000000e0: 8cae f03d 6ef6 a23e f8d7 0a3f 8f80 173f
000000f0: 93c3 cd3e c3cc fc3d e42b 12be f946 ab3e
00000100: 74e1 723e c9b6 cb3e 0d09 0c3f 5834 c13e
00000110: 2bf3 5f3e afb8 acbd d1dc 7b3e f25f 57be
00000120: 005c 7d3e 955e 35bd 78f5 b9be 2f2a 023f
00000130: 5186 1ebe 0c66 aabc 1287 8fbe 80cb 34be
00000140: 3df6 843e b64a 313e da49 b73d 46ec f8be
00000150: 3cae 91bd a70f bdbd c128 96bd 110d 99bc
00000160: 3017 9b3e 365d 973e 6b30 493e 43bc 1c3d
00000170: 6609 5e3e 90be 163e 70aa bcbd 6084 fb3e
00000180: 863a 10be 4bc6 f73e fc41 203e 9dad 953e
00000190: 57e3 143e fc42 b63d abe9 0bbe d0d1 50bb
000001a0: 62ef 463e 91d9 663e 66a7 9cbc 5c27 91be
000001b0: 6711 b83e 27d0 93bd d39e 08be 6358 103e
000001c0: 0cbc a93e 7b98 38bf 15e9 983e d941 b03e
000001d0: 5879 cd3d b0bd 8d3e 55e1 333f f118 8e3d
000001e0: e4a6 b83e c45a 113e b7db 7fbf 3b93 c93c
000001f0: c3b4 083f 5c56 373e 42fa b73e 3dee f3be
0.35243344 -0.26866773 0.2595255 -0.012500049 0.07344165 0.032828443 0.2092914 0.5654827
0.40884534 -0.102648206 0.70647854 0.4566925 -0.002580818 0.09096174 0.11074877 0.22053668
0.27424315 0.13782796 0.08342741 0.021262003 -0.1333981 0.5572009 0.30764475 -1.0566088
0.1605648 0.7668781 0.13315372 -0.017756775 1.0189185 -0.7885991 0.5560601 -0.09180756
0.46311972 0.3589226 0.08397764 0.31663948 0.43879542 0.2530353 -0.38510108 -0.18673982
0.76617986 -0.210139 0.050537422 0.3680123 0.1570419 -0.27789673 0.5448056 0.47377092
0.40088555 -0.39280677 0.1099585 0.3750157 0.013603257 -0.3247388 -0.05364744 -0.20499152
0.11752042 0.31828636 0.5423579 0.5918054 0.40188274 0.12343743 -0.14274555 0.33452585
0.23718816 0.39787892 0.5470131 0.37735248 0.21870105 -0.08433663 0.24595954 -0.21032694
0.24742126 -0.044279654 -0.3632009 0.5084562 -0.15480925 -0.020800613 -0.28032738 -0.17655754
0.25969115 0.17313656 0.08949633 -0.48617762 -0.07113311 -0.09231501 -0.07331992 -0.018682988
0.30291128 0.29563302 0.19647376 0.038265478 0.21683273 0.14721131 -0.09212196 0.49124432
-0.14084825 0.48393473 0.15650171 0.2923402 0.14539848 0.08899495 -0.13663356 -0.003186334
0.19427255 0.22543932 -0.01912279 -0.2835034 0.35950777 -0.07217436 -0.13341837 0.14096217
0.3315128 -0.72107667 0.29865327 0.34425238 0.1003291 0.27683783 0.70265704 0.06938351
0.36064827 0.1419478 -0.99944633 0.024606338 0.5340082 0.17904037 0.3593312 -0.476427

network.5.weight f4 [64, 128]
00000000: b63e 12be d6a3 b03e 7251 393d 693e 6a3d
00000010: acf3 43bf 1414 fc3d 082e 053f 5589 81bd
00000020: 10cd 303e 0f4d 7c3b 635f 423e 8cd6 e83d
00000030: 9f3b d53c 2621 293c e877 603e cf11 31ba
00000040: db2a e7be c67a 96bf fe25 a8bd 6c09 c2be
00000050: 13c6 32be d557 bfbd cde8 073e 781a 4cbd
00000060: 8498 64bd 057f ca3e e2bf ae3c 9755 d5be
00000070: 0f4a 7fbd 515b b43d 8cd9 843e 8833 4abe
00000080: 7b10 fd3d bae5 10bf c641 11bf 8a09 19be
00000090: a1be 1dbd 524f 9c3e bf91 cf3d d2fd 343e
000000a0: bc0d 95bd 75f6 283d 0d76 db3d cde3 45be
000000b0: c943 39be a2da fd3d 677d 68be 82f5 0b3d
000000c0: c182 d93d a324 153e d924 923d 289b 093f
000000d0: 284f 3ebe d9ed 68bf a4d9 103e c18e 82bd
000000e0: 6043 4cbe 45a0 4abc e79d 2b3e 4eaa 37be
000000f0: 6d82 07be ea7c 4c3f f558 bbbe 6912 05ba
00000100: bf55 a1bd edeb 45bd 665d 983d a8c7 2c3e
00000110: f407 9cbb 04c5 b63d 8c30 4dbd a448 69bd
00000120: c08c 693e 1362 643d b802 693d 1898 9c3e
00000130: 1765 f2be 0e89 88be 8b21 a43d e96d da3d
00000140: b8bf 12be 5a10 6fbe 40bc 63bf 861d 6e3e
00000150: f75a 13be e76d a43e 3507 cc3e afdb 333c
00000160: babd f0bc 05d7 51be 535a 823e cc79 8dbf
00000170: 7d9f 29bf 5877 d53e 187e 173e c2a8 8abd
00000180: 144a 8bbe 2a18 abbe 9282 03bc cafa c63d
00000190: 11c3 e6be d4fc 033e 6222 23bf beda 813d
000001a0: e6b7 253c 2c77 99be 9150 2cbd 4159 773e
000001b0: c06e d33d 7e6a abbd 3ae1 fbbd ee36 43bd
000001c0: 92eb abbd 646b 14bf 2cd0 d53c 481e b63e
000001d0: e4ce b33d fe36 c4be da7a f53d f946 73be
000001e0: 39e3 163e dcd5 2ebe 1360 36be 9d37 6d3c
000001f0: 53ee fb3d 6cd7 493c 4b1b b6be 8df4 acbe
00000200: a123 f33d 3cf8 70be 3435 513d 2cf0 df3d
00000210: 952a 153e 12ca 1dbf a32a 52be 3e62 c1bd
00000220: dad5 d73c a171 04bf 0d55 a23e 7932 8f3d
00000230: 2a49 f43d 549e e0be d39b 9dbe fd55 2dbe
00000240: 76c0 8e3e 736b dcbe cff7 08be 039a 8a3e
00000250: 07c6 623d b36b 7abf 362a 08be ea42 c3be
00000260: 088f a1be 0e1e 9b3c 3b63 923c 1ad8 9a3d
00000270: a601 bb3d c5fb ef3d 3683 a53d 9f76 75bc
00000280: 215c 923e 26ea 2abf ad97 47be d0d3 623d
00000290: 954e 91bd 0b80 da3e f20a 183e 48e1 6a3e
000002a0: d4fb ef3d 294f 113f 87d9 b43e e845 f23d
000002b0: fd44 60bd 1342 93be 24af 10bc e695 6b3e
000002c0: 1bfa a1bb dcab cbbd 9942 33be 9846 f13d
000002d0: bd3a a2be 6873 803e 30d0 adbe 1c1a 2e3d
000002e0: 54df a43d ec2b 353d f050 593e f918 7ebc
000002f0: 61a3 13bd dad0 cc3d 584b c43e 0e5f 5dbe
00000300: 16e3 5dbf 56a7 0fbd e133 a2be 12b5 43ba
00000310: 07b1 16be 0c4e bc3e 69e2 04bf 6e78 0f3e
00000320: 9bc8 28bc dbb1 d03c c5c8 723a 0a44 283e
00000330: cfd0 afbe f39d b1be 15c4 c5be e989 2fbd
00000340: bd4f 58bf e420 cc3d 1267 063e dc4d bfbd
00000350: 7f7d a33e 2de2 e6bd 5167 aa3b ea1d 18be
00000360: f673 f83d 3176 16bd ab8f 253d 91c5 fd3d
00000370: ec8f a6bd da72 a2bd 8063 09be a0a3 ea3c
00000380: 0093 77bc 22a3 f7be 406e 9d3e 117e a73b
00000390: bcfe 31be 9804 63bf c0fb 773c e32e 873e
000003a0: 501a db3e 2d13 373e e69e 143e 6ea6 103f
000003b0: bd36 8bb9 c9c0 cebe f939 fe3c bf6a a23d
000003c0: 2633 b0be 6cce 64be ebd4 123e f35a 04bf
000003d0: 3547 fe3d 0096 c1bd 12c2 9ebc f346 76be
000003e0: 7bb1 11be e37f cf3d 3f16 823c ba58 a2be
000003f0: c873 743d 8159 28be 313c 993d ebe4 3d3e
-0.14281735 0.34499997 0.045243688 0.057188425 -0.7654369 0.12308517 0.52023363 -0.06325022
0.17265725 0.003849808 0.189817 0.113690466 0.026029406 0.010322845 0.2192074 -0.0006754668
-0.45149884 -1.1756217 -0.082103714 -0.37897813 -0.17458372 -0.093429245 0.132724 -0.04982993
-0.055809513 0.39550033 0.021331731 -0.41666862 -0.062326487 0.0880648 0.25947225 -0.1974622
0.12356659 -0.56600535 -0.5674099 -0.14945045 -0.038511876 0.30529267 0.10135221 0.1767495
-0.0727801 0.041250665 0.10715876 -0.1932518 -0.18092264 0.123952165 -0.22704087 0.03416968
0.106206425 0.14564757 0.071359344 0.53752375 -0.18584883 -0.90987927 0.14145523 -0.063748844
-0.19947577 -0.012367313 0.16759454 -0.1793606 -0.13233347 0.79878104 -0.36591306 -0.00050762907
-0.07877683 -0.0483207 0.07439689 0.16873038 -0.0047616903 0.089242965 -0.050095126 -0.05695404
0.22807598 0.055757593 0.05688736 0.30584788 -0.4734275 -0.26667064 0.0801421 0.10665495
-0.14330947 -0.23346081 -0.8895912 0.2325345 -0.14390169 0.321151 0.3984925 0.01097767
-0.029387344 -0.2049218 0.25459537 -1.1052794 -0.66258985 0.41692615 0.14794195 -0.06770469
-0.27204955 -0.33416873 -0.008026736 0.09715803 -0.450707 0.12889415 -0.6372434 0.0634055
0.010114646 -0.29973733 -0.04206902 0.24155141 0.10323858 -0.08369921 -0.12298818 -0.047659807
-0.08394541 -0.57976365 0.02610024 0.35569978 0.08779696 -0.38323206 0.11986323 -0.23757543
0.14735116 -0.17073768 -0.17810087 0.014478591 0.12301316 0.012319427 -0.35567698 -0.33780327
0.1187203 -0.23532194 0.05107613 0.10934481 0.14567025 -0.6163646 -0.20524077 -0.09442566
0.02634709 -0.51735884 0.31705514 0.06992049 0.119280174 -0.43870795 -0.30782947 -0.16927333
0.2788121 -0.43050727 -0.13375781 0.27070627 0.055364635 -0.97820586 -0.13297352 -0.3813699
-0.31554437 0.01893523 0.017869582 0.07560749 0.09131174 0.11717943 0.08081667 -0.014981895
0.28585914 -0.6676353 -0.19491453 0.05537778 -0.070950665 0.42675814 0.14847925 0.229375
0.11717954 0.56761414 0.3532221 0.1182974 -0.054753292 -0.28761348 -0.008830819 0.230064
-0.004943145 -0.09944889 -0.17505874 0.11781043 -0.3168544 0.25088048 -0.33947897 0.04250537
0.08050409 0.04423134 0.21222281 -0.015508884 -0.036044482 0.10000773 0.38338733 -0.21618292
-0.8667463 -0.035071693 -0.31680205 -0.0007465641 -0.14715968 0.36778295 -0.51907974 0.14010784
-0.010301734 0.025475433 0.00092614844 0.16432205 -0.34338996 -0.34690818 -0.3862616 -0.04285613
-0.8449667 0.09967211 0.13125256 -0.09341022 0.31931683 -0.11273608 0.0052003046 -0.14855161
0.12131493 -0.03673381 0.040420216 0.123911984 -0.0813292 -0.079320624 -0.13416862 0.028642476
-0.015110731 -0.48366648 0.30748177 0.005111464 -0.1738233 -0.88678885 0.0151357055 0.2640296
0.42793512 0.17878409 0.1451374 0.5650395 -0.0002655293 -0.40381458 0.031033503 0.079305165
-0.34414023 -0.22344369 0.14339034 -0.5170128 0.124159254 -0.09452438 -0.01937965 -0.24050502
-0.1422786 0.10131814 0.015879748 -0.31708318 0.05968073 -0.16440393 0.07482184 0.18544357

network.5.bias f4 [64]
00000000: 2605 c63e d0d9 0d3f 4885 1d3e b8d1 fabe
00000010: 1593 ce3e 7af7 033f 5df2 2f3f 1097 24bf
00000020: 0c0d 2a3f dcdb 4bbe 9796 293e ee99 113f
00000030: 6802 10be 8210 d43e e87a 4e3f e56f 58bd
00000040: 2b77 5ebf 55de 303f d584 363f 97d6 babd
00000050: 64ac 363f 00dd 4a3f 301d 333f 321b 123f
00000060: fa9e 063f b55b 283f 3b10 0d3d 3d8b e9bc
00000070: 0946 00be a1af 203f 5cb1 113f 5cf0 053f
00000080: d19e a4bd f845 b7be 24bc 583f 933c 0abe
00000090: 6568 553e 9d43 fd3d 549a e63e 0c45 963e
000000a0: 697f 373f c11e d03e 3f9e f53e ff1c 20be
000000b0: b747 5b3c 9f16 fa3d 3626 52bf fe8d 343f
000000c0: e541 9f3e 79ea 0d3f a11f 3abe 771d 193f
000000d0: f9c3 083f 3c83 493f 8582 4ebe da4b 52bd
000000e0: f98e c13e 4f5d ad3e 2483 183f b5cc 17be
000000f0: d149 5b3f 066c 503f eff3 233f e78a af3c
0.38675803 0.5541048 0.15382874 -0.48988128 0.4034659 0.51549494 0.6872919 -0.64293003
0.6642616 -0.19908088 0.16561352 0.56875503 -0.14063418 0.41418844 0.8065629 -0.052841086
-0.86900586 0.6908925 0.71296436 -0.09122961 0.713568 0.7924347 0.6996641 0.57072747
0.5258633 0.65764934 0.034439307 -0.028508777 -0.12526716 0.6276799 0.56911254 0.52319884
-0.08038104 -0.3579557 0.8466208 -0.1349967 0.20840605 0.12366412 0.45039618 0.29349554
0.7167879 0.40648463 0.47972295 -0.15636061 0.013383797 0.12211346 -0.82089555 0.7052916
0.3110496 0.554359 -0.18176128 0.59810585 0.5342403 0.7871587 -0.20166977 -0.05134187
0.37804392 0.3386025 0.59575105 -0.14824183 0.8565951 0.8141483 0.6404409 0.021428538

network.7.weight f4 [1, 64]
00000000: a27c 82bd 6c54 1f3d 9586 6dbe b567 3dbe
00000010: dbf7 5d3d 587a 093d 1029 aa3d 970a ee3d
00000020: 1928 143e 105b 263a ab62 c9bd 9893 a5bd
00000030: ed7d 0a3c c386 483d 7b60 d83d d55e e3bd
00000040: 7c39 be3d fcec bb3d 2bf2 9fbd 54a5 723d
00000050: c71e 783d 8230 f73d 356f 61bd 211f 613d
00000060: 605c 343d 4d94 563d 4f65 70be fd1d 4c3e
00000070: 6df0 cfba eb98 3c3d f86e 493d e4e1 3abd
00000080: aa55 73b9 1098 f43d 7410 e53d 8f91 a03c
00000090: 5a4b c03e 2705 053e 06f1 ddbc b870 8abe
000000a0: 73be 42bd 91cb bdbc 928e 253d b41b e1bc
000000b0: a631 0c3e 5ec1 203e 14a7 553e 1044 aebd
000000c0: 3e0a 843c cec7 5bbd 958d aa3c 496a 81bd
000000d0: cfc6 d73c 1baa ce3d 5b2b 1c3e 1313 f93d
000000e0: e382 f2bc 810d a9bd 5f59 6dbd a633 4dbc
000000f0: 306a d6bd e131 9e3d cdfe 083d 4053 e63d
-0.06371428 0.03889887 -0.2319587 -0.18496592 0.05419145 0.03356394 0.08308613 0.116231136
0.14468421 0.0006345967 -0.098332725 -0.08084792 0.008452875 0.048956644 0.10565277 -0.11102072
0.09288308 0.091760606 -0.07809862 0.0592397 0.060576227 0.12069799 -0.055037696 0.054961327
0.04403341 0.052387524 -0.23476146 0.19933315 -0.0015864499 0.04604427 0.049178094 -0.045625582
-0.00023206198 0.11943066 0.11184779 0.019600658 0.3755749 0.12990247 -0.027092468 -0.27039123
-0.047544908 -0.023168357 0.04041917 -0.02747903 0.13690814 0.15698764 0.20864516 -0.08509076
0.016118165 -0.053657345 0.020819465 -0.063191004 0.026339917 0.10091039 0.15250914 0.12161841
-0.029603427 -0.08254529 -0.05794656 -0.012524521 -0.104694724 0.077243574 0.033446122 0.112463474
