models/price_predictor_nn_v10.pth (torch, 19529 bytes, 5 tensors)

network.0.weight f4 [64, 29]
-0.21313359 -0.2321687 -0.3203654 0.46470094 -0.8831687 0.07917424 -0.103298895 -0.13681352
0.42803195 -0.3824112 -0.042596173 -0.20282355 -0.3429347 0.42959315 0.03092672 -0.31378376
-0.14049923 0.18750195 0.3094733 0.2283109 -0.77030337 -0.00641285 -0.5148954 -0.83874595
-0.025940739 -1.028306 0.9300847 -0.06899998 -0.48340577 -0.23555326 0.30576956 -0.073775515
0.03851725 -0.12922141 0.0020942225 -0.471905 -0.2986021 -0.3747573 -0.4342288 -0.085625306
-0.150008 -0.07875539 0.08961971 -0.81066364 0.1287952 0.33779255 0.2848293 -0.25842857
0.024904868 -0.4964799 0.30280292 -0.7706265 -0.6141488 -0.057851665 -0.14048126 0.01985047
-0.05603023 -0.053483393 -0.6457316 0.27876016 -0.23392305 -0.5161903 0.18427193 0.21238634
0.09787149 0.14808999 -0.14505765 -0.17025003 -0.17043112 0.17596449 -0.25166097 0.18524
-0.15645753 -0.062670134 -0.059606664 -0.083753034 -0.022099873 0.25670126 -1.1524415 -0.078913234
-0.5146365 0.032791402 0.54768765 -0.024062049 -0.75439423 -0.049013767 -0.1815665 -0.9591614
0.3558875 -0.17369969 -0.13348082 -0.1618288 0.0152182765 0.026985923 -0.078250125 -0.010424868
0.0065208673 -0.4814399 -0.26986888 0.32689834 0.059265982 0.057750706 -0.091902636 -0.2471533
0.013838878 0.12305498 0.14385538 -0.34019098 -0.19746341 -0.7194955 0.08997044 0.24271786
-0.5445454 0.6467311 0.22350584 -0.47361857 0.095690206 -0.67007226 -0.31638527 -0.32451302
-0.54558754 -0.4561083 0.044748213 -0.20063764 0.043963283 -0.014494186 -0.06592909 0.09628921
-0.37323564 -0.04535147 0.005827507 0.250712 0.15086211 -0.081746556 -0.6672114 -0.28480104
0.015118339 -0.026047302 0.094704665 -0.2013134 -0.5439401 -0.27330124 0.13390888 -0.048273817
0.5350696 -0.37382886 0.28395817 0.2041497 -0.15902245 -0.115150414 -1.0245962 -0.26414737
-0.3601245 -0.63336366 0.15368721 -0.038084313 0.23387316 0.056899548 0.12249707 0.2311937
-0.045761004 0.1931168 -0.16698755 -0.34093872 -0.04511977 -0.045183383 -0.46361658 0.032173123
0.6286641 -0.42181185 -0.07393349 -0.3612806 -0.090582706 -0.13590114 -0.0022206863 -0.008215228
0.14665556 0.4341509 0.19697349 -0.107672974 -0.0442968 0.24533354 -0.16141817 -0.059721425
0.38131157 -0.045998793 0.01627511 0.06992823 -0.13635515 0.0760555 0.18575068 -0.124516934
-0.105423056 -0.11567744 -0.5024986 -0.14510445 -1.0255316 0.2566741 -0.23589134 -0.41539472
0.078921646 -0.06886467 -0.082430966 -0.8115861 -0.12682396 -0.10282192 -0.027560478 -0.004469057
-0.6393501 0.05308834 0.0013500848 -0.037509207 0.10782225 0.5091436 -0.04721821 -0.39103767
-0.13937996 -0.2748746 0.0453618 0.35470608 -0.26049823 -0.2907994 0.036923014 -0.43365642
-0.15040514 0.3726328 -0.06554208 -0.049387284 -0.7351577 0.5639726 -0.029480182 -0.56815284
-0.0109476615 0.011288998 0.03677976 0.0196426 0.040841296 0.09352337 0.036298465 0.23360485
0.71043175 -0.4442363 -0.061256237 0.13575673 -0.070076406 -0.14494203 0.38581297 0.088822275
-0.4414024 0.01923468 -0.038733248 0.06101844 -0.014813873 0.012399827 0.06927414 0.0019207766
00000000: b13f 5abe a2bd 6dbe ef06 a4be 48ed ed3e
00000010: 5817 62bf 1b26 a23d 5f8e d3bd d818 0cbe
00000020: 0127 db3e 67cb c3be 5379 2ebd fab0 4fbe
00000030: 2395 afbe a2f3 db3e 085a fd3c 44a8 a0be
00000040: 08df 0fbe 8300 403e 4973 9e3e 55ca 693e
00000050: 9a32 45bf e322 d2bb 2fd0 03bf 0eb8 56bf
00000060: ac81 d4bc 889f 83bf 081a 6e3f dd4f 8dbd
00000070: f680 f7be e034 71be d48d 9c3e 9e17 97bd
00000080: 44c4 1d3d 9e52 04be 393f 093b 889d f1be
00000090: 60e2 98be 30e0 bfbe 3d53 debe 525c afbd
000000a0: b29b 19be 824a a1bd 8a8a b73d a787 4fbf
000000b0: e4e2 033e 25f3 ac3e 25d5 913e c050 84be
000000c0: 4b05 cc3c 9d32 febe fc08 9b3e c747 45bf
000000d0: db38 1dbf def5 6cbd 52da 0fbe 749d a23c
000000e0: f47f 65bd 6711 5bbd ab4e 25bf a7b9 8e3e
000000f0: 8689 6fbe 0c25 04bf c8b1 3c3e ce7b 593e
00000100: d970 c83d e7a4 173e fe89 14be 0656 2ebe
00000110: 7f85 2ebe 0930 343e b5d9 80be 8eaf 3d3e
00000120: 6736 20be 3359 80bd 1e26 74bd b686 abbd
00000130: cb0a b5bc 596e 833e 3483 93bf 439d a1bd
00000140: 38bf 03bf 4750 063d 4235 0c3f c61d c5bc
00000150: fb1f 41bf a9c2 48bd 92ec 39be 9a8b 75bf
00000160: e336 b63e 55de 31be 32af 08be 73b6 25be
00000170: 1456 793c 9511 dd3c 9a41 a0bd 11cd 2abc
00000180: 00ad d53b 4a7f f6be 412c 8abe 385f a73e
00000190: e3c0 723d 018c 6c3d 7337 bcbd c115 7dbe
000001a0: 76bc 623c 4004 fc3d d34e 133e 832d aebe
000001b0: d933 4abe db30 38bf 6c42 b83d 088b 783e
000001c0: 5467 0bbf 2b90 253f b7de 643e 227e f2be
000001d0: 3af9 c33d db89 2bbf 40fd a1be 9226 a6be
000001e0: a0ab 0bbf 0787 e9be e749 373d f473 4dbe
000001f0: d812 343d 0679 6dbc d505 87bd 4733 c53d
00000200: be18 bfbe 77c2 39bd acf4 be3b 535d 803e
00000210: 997b 1a3e bd6a a7bd 5ece 2abf 71d1 91be
00000220: e9b2 773c 2761 d5bc 85f4 c13d 1a25 4ebe
00000230: a93f 0bbf 24ee 8bbe 691f 093e c4ba 45bd
00000240: 52fa 083f 7f66 bfbe f762 913e 9e0c 513e
00000250: c8d6 22be fbd3 ebbd f825 83bf 533e 87be
00000260: 3d62 b8be 1f24 22bf 2e60 1d3e 4cfe 1bbd
00000270: 727c 6f3e 800f 693d bedf fa3d 0bbe 6c3e
00000280: e46f 3bbd 69c0 453e c9fe 2abe 858f aebe
00000290: 82cf 38bd 3612 39bd 275f edbe f7c7 033d
000002a0: 21f0 203f b9f7 d7be 716a 97bd c5f9 b8be
000002b0: 6d83 b9bd ab29 0bbe ef88 11bb 2a99 06bc
000002c0: e02c 163e 0749 de3e 6bb3 493e a683 dcbd
000002d0: 9070 35bd b738 7b3e ce4a 25be 749e 74bd
000002e0: 453b c33e 3b69 3cbd 6153 853c 8836 8f3d
000002f0: afa0 0bbe fcc2 9b3d 6d35 3e3e bc02 ffbd
00000300: 0be8 d7bd 4be8 ecbd c0a3 00bf 4396 14be
00000310: 9f44 83bf ca6a 833e 808d 71be 9eae d4be
00000320: aca1 a13d ec08 8dbd 91d1 a8bd 1bc4 4fbf
00000330: 24de 01be 4c94 d2bd 83c6 e1bc 2b71 92bb
00000340: 73ac 23bf 2973 593d 54f5 b03a 41a3 19bd
00000350: e9d1 dc3d 3c57 023f e267 41bd 1736 c8be
00000360: 9fb9 0ebe 5dbc 8cbe 4bcd 393d 099c b53e
00000370: 0660 85be a9e3 94be 963c 173d 3708 debe
00000380: ce03 1abe bac9 be3e ed3a 86bd 524a 4abd
00000390: 4c33 3cbf 8260 103f 6c80 f1bc 7772 11bf
000003a0: d25d 33bc 7df5 383c 60a6 163d 85e9 a03c
000003b0: 3449 273d 2e89 bf3d b3ad 143d 1c36 6f3e
000003c0: dbde 353f f172 e3be d2e7 7abd d003 0b3e
000003d0: 3884 8fbd af6b 14be 4789 c53e 74e8 b53d
000003e0: 7fff e1be 0c92 9d3c c1a6 1ebd 79ee 793d
000003f0: e3b5 72bc a528 4b3c 9adf 8d3d 91c2 fb3a

network.0.bias f4 [64]
-0.33567303 -0.107142285 -0.4985524 -0.06467285 -0.17036821 -0.24892269 -0.2878656 0.06274816
0.06414228 -0.34517926 -1.0482963 -0.08827918 -0.77588403 -0.3141078 -0.28987247 -0.039826192
-0.19314264 -0.46533632 -0.2478153 -0.24407662 -0.3453866 -0.20430064 -0.16474213 -0.49678975
-0.3654788 -0.32281348 -0.14702326 -0.32571787 -0.3735204 -0.38480985 0.12343001 -0.18342845
-0.3222814 -0.4803026 -0.5020585 -0.17728768 -0.42747003 -0.30701333 -0.057821937 -0.16730799
-0.13145044 -0.20954813 -0.49272287 -0.23601201 -0.60262585 -1.2994262 -0.5409213 -0.029094165
-0.061290808 -0.46930403 -0.27398568 -0.79935014 -1.1011381 -0.3629979 -0.47555506 -0.17086644
-0.4432362 -1.3670071 -0.39677602 -0.24377856 -0.18551405 -0.44228473 -0.24560063 -0.44958043
00000000: 56dd abbe 6a6d dbbd 4342 ffbe 3373 84bd
00000010: 0175 2ebe 97e5 7ebe 1f63 93be 1b82 803d
00000020: 075d 833d 56bb b0be 932e 86bf b7cb b4bd
00000030: 56a0 46bf bdd2 a0be 2a6a 94be ca20 23bd
00000040: 2fc7 45be 9040 eebe 4bc3 7dbe 39ef 79be
00000050: 83d6 b0be 3034 51be 29b2 28be 3a5b febe
00000060: 0a20 bbbe cf47 a5be 448d 16be 7ec4 a6be
00000070: 113e bfbe cc05 c5be e0c8 fc3d abd4 3bbe
00000080: 1102 a5be 39ea f5be e886 00bf e78a 35be
00000090: 5add dabe da30 9dbe b2d6 6cbd c952 2bbe
000000a0: f29a 06be c993 56be 2c46 fcbe 22ad 71be
000000b0: b045 1abf 9953 a6bf d179 0abf e356 eebc
000000c0: 120c 7bbd 9e48 f0be da47 8cbe 36a2 4cbf
000000d0: 18f2 8cbf dcda b9be f47b f3be 9df7 2ebe
000000e0: dbef e2be 17fa aebf 3a26 cbbe 16a1 79be
000000f0: 65f7 3dbe 2573 e2be bb7e 7bbe 682f e6be

network.3.weight f4 [32, 64]
-0.0229786 0.025246218 -0.30699107 -0.50318635 -0.34172615 -0.26086393 0.0006933106 -0.25712898
-0.2128453 0.041251287 0.09329486 -0.19594727 -0.4832282 -0.060680836 -0.8123395 -0.41251993
-0.2921527 0.13001195 -0.023659507 -0.33174828 0.46088228 0.07120207 -0.15511873 0.91384506
-0.03043449 -0.29078194 0.35774687 -0.6219092 0.20411783 0.06504435 -0.45942515 0.00407941
-0.29242766 0.5530379 -0.3293332 -0.15964277 -0.14180872 0.05747641 -0.3285652 -0.068246275
-0.9802598 -0.32265833 -0.55893487 -0.8589834 0.14380947 0.07608951 -0.30676824 0.1344855
-0.14521675 0.1675876 -0.11165549 0.45738277 0.1063401 -0.20704062 0.38050798 -0.050869588
-0.09042689 0.065067604 0.14179106 -0.07631339 -0.030383537 0.3372741 -0.23911001 0.20782511
-0.1302731 0.45396245 -0.0013160985 -0.23353544 -0.11072648 0.36007276 -0.3238057 -0.063251294
-0.64010394 -0.070063874 0.16095538 0.03653346 -0.0023185713 0.23123549 0.025593884 -0.034829155
0.038331773 0.23283964 -0.21134308 -0.2718381 0.31540298 -1.3422183 -0.0070298263 -0.021428164
0.009788264 0.056529325 0.07214088 -0.067548744 0.028809477 0.022547193 -0.5892119 0.18746404
-0.15886934 0.17500938 -0.1292448 -0.27878377 -0.28905636 0.15093265 -0.02780303 -0.5587807
0.23650357 0.10207167 0.28810948 0.0026980168 0.23211242 0.11088702 -0.0068831826 0.024928976
0.16963157 -0.039921436 0.2389095 -0.023404226 0.050458662 -0.05452061 0.0059241652 0.19703692
0.040321052 0.12501349 0.4167146 0.35551497 0.5122598 0.067378126 0.03345943 -0.084358536
0.07730877 0.16565329 -0.19435184 -0.019328482 -0.041783914 -0.8256506 -0.39345378 0.0022998112
-0.10883239 0.15965441 -0.23780198 -0.3065673 -0.53569716 -0.043033194 0.4645321 -0.62507224
-0.53898317 -0.13777494 -0.26267102 0.12833703 0.5508302 0.35067376 -0.11126998 -0.35961115
0.002772986 0.13124251 -0.1774834 0.72128046 -0.44628546 0.10389074 -0.043738473 -0.32404998
-0.2551068 0.039455317 0.09275026 -0.20199648 -0.39442858 -0.32879782 -0.034243733 -0.09361329
-0.367292 -0.20548998 0.10365886 -0.16039678 0.39142147 -0.19503155 -0.4513738 -0.46667328
0.62405205 -0.62081724 -0.23902711 0.45675564 -0.13387688 0.0917009 0.44400766 0.5608602
0.09122831 -0.13345134 -0.7450436 -0.16152678 0.07372796 -0.21150856 0.40427923 0.042593908
-0.18556276 -0.8646308 -0.5954688 -0.6774766 0.17679378 -0.3707069 0.41393495 -0.51108027
-0.07129292 -0.15601946 -0.091844656 0.059663888 1.0913321 -0.64897174 0.11042867 -0.085966505
-0.4234237 0.18581504 -0.247122 -0.60306066 -0.26033694 -0.6260547 0.047927648 -0.965521
0.053268086 0.013416097 0.037658203 0.20761259 -0.23068371 0.210416 -0.017946273 -0.9322053
0.07469432 0.3472364 0.024509927 0.06473012 0.34917206 -0.2722067 -0.020556536 -0.06003715
-0.44360936 -0.21055916 -0.012546358 0.035616543 0.1602956 -0.0522585 -0.12262606 -0.17663226
0.0003745562 0.1350178 -0.24259733 0.3509975 -0.005029261 -0.073009625 0.17565307 -0.9239654
-0.005327578 -0.0630516 -0.16561493 -0.124906145 -0.03759027 0.07634895 -0.033651546 0.0026380215
00000000: 9e3d bcbc 28d1 ce3c ef2d 9dbe d2d0 00bf
00000010: bbf6 aebe f58f 85be 49bf 353a 69a6 83be
00000020: 1ef4 59be 1cf7 283d 6011 bf3d 67a6 48be
00000030: b069 f7be 788c 78bd 7bf5 4fbf d035 d3be
00000040: 0a95 95be da21 053e 95d1 c1bc e9da a9be
00000050: c3f8 eb3e 64d2 913d 72d7 1ebe c0f1 693f
00000060: c051 f9bc 5fe1 94be 992a b73e 7135 1fbf
00000070: 4404 513e f935 853d c639 ebbe 92ac 853b
00000080: 14b9 95be e493 0d3f 5c9e a8be 6579 23be
00000090: 4e36 11be 626c 6b3d b339 a8be b4c4 8bbd
000000a0: 4ef2 7abf 7933 a5be 5b16 0fbf 56e6 5bbf
000000b0: ca42 133e d1d4 9b3d ba10 9dbe 91b6 093e
000000c0: b3b3 14be 159c 2b3e a2ab e4bd 132e ea3e
000000d0: d7c8 d93d 7502 54be f1d1 c23e a15c 50bd
000000e0: bc31 b9bd 2a42 853d ad31 113e 324a 9cbd
000000f0: e5e6 f8bc 31af ac3e 41d9 74be 1bd0 543e
00000100: 5066 05be c46d e83e f080 acba ea23 6fbe
00000110: 91c4 e2bd 755b b83e dcc9 a5be e589 81bd
00000120: dadd 23bf a67d 8fbd 7dd1 243e 1ca4 153d
00000130: 2cf3 17bb ffc8 6c3e 44aa d13c 04a9 0ebd
00000140: c701 1d3d 846d 6e3e 526a 58be 5d2e 8bbe
00000150: 807c a13e cfcd abbf 755a e6bb 1e8a afbc
00000160: f45e 203c 4b8b 673d 99be 933d ff56 8abd
00000170: da01 ec3c e4b4 b83c 97d6 16bf 93f6 3f3e
00000180: a5ae 22be a935 333e c058 04be bfbc 8ebe
00000190: 32ff 93be 178e 1a3e 2ec3 e3bc 410c 0fbf
000001a0: fe2d 723e f40a d13d 1683 933e 36d1 303b
000001b0: e1ae 6d3e bc18 e33d 528c e1bb da37 cc3c
000001c0: e6b3 2d3e a984 23bd b1a4 743e 38ba bfbc
000001d0: bead 4e3d 0151 5fbd 801f c23b 0cc4 493e
000001e0: b027 253d 8903 003e 9e5b d53e 0f06 b63e
000001f0: 7523 033f 8bfd 893d c10c 093d 2bc4 acbd
00000200: 0f54 9e3d 04a1 293e 2b04 47be c456 9ebc
00000210: 9c25 2bbd d65d 53bf c672 c9be 6eb8 163b
00000220: 84e3 debd 727c 233e 5d82 73be 64f6 9cbe
00000230: 7323 09bf 9343 30bd 27d7 ed3e bc04 20bf
00000240: cdfa 09bf e014 0dbe d17c 86be c86a 033e
00000250: 3503 0d3f 838b b33e 84e1 e3bd f41e b8be
00000260: fcba 353b 7064 063e 35be 35be d6a5 383f
00000270: 877f e4be abc4 d43d 1d27 33bd e1e9 a5be
00000280: 5c9d 82be e69b 213d d9f3 bd3d 2ad8 4ebe
00000290: 8bf2 c9be 3058 a8be 2843 0cbd 53b8 bfbd
000002a0: b20d bcbe f76b 52be 194b d43d 0e3f 24be
000002b0: 6568 c83e 5ab6 47be 771a e7be cdef eebe
000002c0: e0c1 1f3f e1ed 1ebf 86c3 74be e0db e93e
000002d0: 0517 09be aecd bb3d f954 e33e 8994 0f3f
000002e0: e8d5 ba3d 78a7 08be 2dbb 3ebf 4767 25be
000002f0: affe 963d b395 58be b0fd ce3e f376 2e3d
00000300: 2a04 3ebe 7258 5dbf a570 18bf 1b6f 2dbf
00000310: 6e09 353e 4bcd bdbe 48ef d33e 28d6 02bf
00000320: 0602 92bd 91c3 1fbe 0d19 bcbd 1f62 743d
00000330: c5b0 8b3f 0323 26bf 6d28 e23d 350f b0bd
00000340: feca d8be 4c46 3e3e 8d0d 7dbe 2f62 1abf
00000350: e24a 85be 1f45 20bf c84f 443d 622c 77bf
00000360: a32f 5a3d 30cf 5b3c 7d3f 1a3d 6598 543e
00000370: 5a38 6cbe 4b77 573e 1004 93bc 02a5 6ebf
00000380: 56f9 983d f8c8 b13e 0bc9 c83c 3a91 843d
00000390: aec6 b23e ad5e 8bbe 2e66 a8bc 84e9 75bd
000003a0: c420 e3be d29c 57be 3d8f 4dbc a7e2 113d
000003b0: 8824 243e 020d 56bd 5f23 fbbd 16df 34be
000003c0: 1560 c439 1b42 0a3e 6f6b 78be f2b5 b33e
000003d0: 80cc a4bb 1286 95bd 66de 333e ff88 6cbf
000003e0: f792 aebb 3221 81bd f696 29be cbce ffbd
000003f0: 41f8 19bd d75c 9c3d 34d6 09bd a8e2 2c3b

network.3.bias f4 [32]
0.032217465 0.7999457 0.027855244 0.25446242 -0.4777166 0.2550887 0.13184588 -1.013747
-0.15295954 0.8565361 -0.09726719 0.47183383 -0.5337219 -0.97203606 0.018854503 -1.0311364
0.35427594 0.33141357 0.66928834 -0.60798067 -0.39430898 0.9857054 -0.7043939 0.17003915
0.41670492 0.48176333 0.37731537 0.4652281 0.037897408 0.34530482 -0.21051612 0.27584937
00000000: 76f6 033d 3ec9 4c3f ae30 e43c e648 823e
00000010: 4597 f4be fc9a 823e 9b02 073e 76c2 81bf
00000020: 6da1 1cbe f345 5b3f 0534 c7bd 3494 f13e
00000030: 00a2 08bf 5bd7 78bf c274 9a3c 47fc 83bf
00000040: a863 b53e 0aaf a93e 7b56 2b3f 9fa4 1bbf
00000050: dee2 c9be 3057 7c3f 2953 34bf be1e 2e3e
00000060: 595a d53e afa9 f63e 7b2f c13e 6132 ee3e
00000070: 503a 1b3d cbcb b03e 8a91 57be 213c 8d3e

network.5.weight f4 [1, 32]
0.18781836 -0.17235914 0.08698721 0.14347571 0.13831744 -0.15898162 -0.15865415 -0.15989023
-0.9562012 0.17073093 0.11902639 -0.09701324 0.12899604 -0.1558377 -0.17015873 1.9728651
0.13663575 -0.2582888 0.15370879 -1.085611 0.23352906 -0.17377058 0.26860332 -0.085410334
-0.1374919 0.10196853 0.14912872 0.14762062 0.18590848 -0.15170659 -0.15146123 -0.156917
00000000: 7553 403e ea7e 30be 5a26 b23d 4ceb 123e
00000010: 16a3 0d3e 14cc 22be 3c76 22be 44ba 23be
00000020: 9ac9 74bf 17d4 2e3e 1cc4 f33d e1ae c6bd
00000030: 8a17 043e eb93 1fbe 173e 2ebe d886 fc3f
00000040: 3eea 0b3e 6e3e 84be d665 1d3e 4df5 8abf
00000050: 3e22 6f3e eaf0 31be 6086 893e 9deb aebd
00000060: adca 0cbe e0d4 d03d 33b5 183e dc29 173e
00000070: cb5e 3e3e f958 1bbe a718 1bbe daae 20be
