models/price_predictor_nn.pth (torch, 57127 bytes, 7 tensors)

network.0.weight f4 [128, 22]
0	0x3d79b890	0.06096703
1	0x3d2d07fd	0.042243946
2	0xbab13c72	-0.0013522042
3	0xbd276b0c	-0.040873572
4	0xbd78b992	-0.06072385
5	0xbc1f25a9	-0.009713569
6	0xbd0763f6	-0.033054315
7	0x3e2fffa9	0.1718737
8	0xbd957d91	-0.072993405
9	0xbd1bba43	-0.03801943
10	0xbe08919a	-0.13336793
11	0xbe2099a8	-0.15683615
12	0xbe6c9b5b	-0.23106138
13	0x3d38ca66	0.045114897
14	0xbe05e089	-0.13073935
15	0xbe52992f	-0.20566247
16	0xbe23c90b	-0.1599466
17	0xbe092769	-0.1339394
18	0xbc683f44	-0.01417524
19	0xbd87322a	-0.06601365
20	0xbd93e831	-0.07222021
21	0x3d1e969b	0.038717847
22	0xbdc59df7	-0.0964927
23	0x3e1187a4	0.14211899
24	0x3d80d70a	0.062910154
25	0xbba53ad4	-0.0050424132
26	0xbe50505b	-0.20343153
27	0xbd2ec998	-0.042672724
28	0xbc9c527c	-0.0190823
29	0x3e1d8892	0.15384129
30	0x3d212f41	0.039351705
31	0x3e0c7ea1	0.1372018
32	0xbddab69b	-0.106793605
33	0xbe6b2d2f	-0.22966455
34	0xbd661b8e	-0.056178622
35	0xbea3e184	-0.32007992
36	0xbe4854fd	-0.1956367
37	0xbe998569	-0.29984596
38	0xbd0c0c0e	-0.034191184
39	0xbf194973	-0.598777
40	0xbef421cb	-0.47682032
41	0xbf207092	-0.6267177
42	0x3e42c82e	0.19021675
43	0xb9160f54	-0.00014310825
44	0xbec5ec49	-0.38656834
45	0x3d67b1af	0.056565937
46	0xbd3cc8b8	-0.046089858
47	0x3ec1b4ea	0.3783334
48	0x3e05efb0	0.13079715
49	0xbf4b3cdb	-0.79389733
50	0xbb83d616	-0.0040233238
51	0x3b865d9e	0.0041005155
52	0xbbe96afc	-0.0071233492
53	0x3e0811d3	0.1328805
54	0xbd34622b	-0.044038933
55	0x3c7cb74c	0.015424561
56	0x3d5769a6	0.05259099
57	0xbf024998	-0.50893545
58	0xbfa294de	-1.2701681
59	0xbfa897b4	-1.3171296
60	0xbebfed40	-0.37485695
61	0xbea830ca	-0.32849723
62	0x3d695338	0.05696413
63	0x3e29198a	0.16513649
64	0xbf9f3be8	-1.2440157
65	0xbec0f240	-0.37684822
66	0xbe1d2fe3	-0.15350299
67	0x3eae794c	0.34076917
68	0xbcafb24f	-0.021447329
69	0x3da0eb2f	0.07857358
70	0xbe270a1f	-0.16312455
71	0xbf1b218d	-0.6059807
72	0xbd9b41aa	-0.07580884
73	0x3e646223	0.22303061
74	0xbc97409c	-0.018463425
75	0x3c941c6c	0.018079959
76	0xbdea58e4	-0.11442736
77	0xbe08fd23	-0.13377814
78	0xbd9f6c31	-0.07784308
79	0x3d5fbca6	0.05462327
80	0x3d28ce95	0.041212637
81	0xbdd69630	-0.10477865
82	0xbca92bc2	-0.020650748
83	0xbf095ee6	-0.5366043
84	0xbef470e7	-0.47742388
85	0xbf17412e	-0.5908383
86	0xbcd06aea	-0.025441606
87	0x3e1e77a1	0.15475322
88	0x3c796504	0.015221838
89	0x3e71993a	0.23593608
90	0x3d00ca91	0.031443182
91	0x3dea83c2	0.11450912
92	0x3d315256	0.043291412
93	0x3d3e2c80	0.046429157
94	0xbc99acaf	-0.0187591
95	0x3ced30c7	0.028953923
96	0x3d4088dd	0.047005523
97	0x3d185caa	0.037197746
98	0xbe17d2f9	-0.14826573
99	0xbba36e18	-0.0049874894
100	0xbc8b7fff	-0.017028807
101	0x3d9dec11	0.07711042
102	0x3e0dae35	0.13835986
103	0xbc906f10	-0.017631084
104	0x3d8ab88b	0.0677348
105	0x3dd6efa2	0.10494925
106	0xbec8896a	-0.3916734
107	0x3db4c4ce	0.088266
108	0x3d2f7d19	0.04284391
109	0x3cd02e18	0.025412604
110	0x3b145939	0.0022636189
111	0x3d3e15ff	0.046407696
112	0x3cc2f890	0.023800164
113	0xbce0bd5e	-0.027434047
114	0xbdda2ed2	-0.106534615
115	0xbc1ad7fd	-0.00945091
116	0xbc5c0b15	-0.013430377
117	0x3e2e1141	0.1699877
118	0xbda38b0e	-0.07985507
119	0x3d027b8c	0.031856105
120	0xbe2e6b7b	-0.17033188
121	0xbdb8e50d	-0.09028063
122	0xbe2f0585	-0.1709195
123	0xbe00a359	-0.12562312
124	0xbd7f3dcb	-0.06231479
125	0xbe58fdaf	-0.21190523
126	0xbdb80c05	-0.089866675
127	0xbe3ebaff	-0.18626021
128	0xbe3e8bfd	-0.18608089
129	0xbeab3564	-0.3343917
130	0xbe6cf552	-0.23140457
131	0xbe5ac3c1	-0.21363737
132	0xbf475227	-0.7785973
133	0x3d357990	0.044305384
134	0xbe14ff8c	-0.14550608
135	0xbdd24877	-0.10267728
136	0x3e00bf04	0.12572867
137	0xbf69ef3a	-0.91380656
138	0x3cd7627f	0.026292084
139	0xbd5b79c8	-0.053582937
140	0x3d34bf9b	0.04412804
141	0x3d4aa0f8	0.049469918
142	0xbce79493	-0.028269088
143	0xbe877fc6	-0.2646467
144	0xbdd5b744	-0.10435346
145	0xbe9fcf9a	-0.31213075
146	0xbeb0ea05	-0.34553543
147	0xbe9e8350	-0.30959558
148	0xbe928e16	-0.28624028
149	0xbe906b0f	-0.2820668
150	0xbdfaeec3	-0.122525714
151	0xbcfc6975	-0.030812005
152	0xbe3e1bce	-0.18565294
153	0xbe6f9f89	-0.23400702
154	0x3dbe80d9	0.093019195
155	0x3d09721c	0.03355609
156	0xbd178536	-0.036992274
157	0x3d29c1e8	0.04144469
158	0x3b45eef7	0.0030202249
159	0xbc9cf125	-0.019157955
160	0xbc7d85f7	-0.015473834
161	0x3e9517af	0.29119632
162	0xbd2e6409	-0.04257587
163	0x3daaf831	0.0834812
164	0xbdde897c	-0.10866067
165	0x3e704b59	0.23466243
166	0xbdd658b0	-0.104661345
167	0xbf17bfb1	-0.5927687
168	0x3e3d901b	0.18512003
169	0xbefbb97b	-0.49164948
170	0x3e81034d	0.2519783
171	0x3b8f38f9	0.0043708053
172	0xbec3a9c3	-0.38215455
173	0xbf733fa9	-0.9501901
174	0x3b8a5db4	0.004222596
175	0xbd8fb686	-0.070172355
176	0xbed5d3e7	-0.4176323
177	0x3dec0b19	0.11525554
178	0x3ea4a54b	0.3215736
179	0x3c625af6	0.013815632
180	0xbe9e4592	-0.30912453
181	0xbfad5cff	-1.3544005
182	0xbb40a706	-0.0029396429
183	0xbe05daf4	-0.13071805
184	0x3d1c4bdb	0.03815828
185	0x3e47e78f	0.19521926
186	0xbe6d1a04	-0.23154455
187	0xbdffa46c	-0.12482533
188	0x3ddb6455	0.10712496
189	0xbde6551b	-0.11246701
190	0xbcbb7985	-0.022885093
191	0xbefc0596	-0.49223012
192	0x3a547d49	0.0008105827
193	0x3e03cc24	0.12870842
194	0x3dc5c20f	0.09656154
195	0xbe20577e	-0.15658376
196	0x3cc0248d	0.023454929
197	0x3e2ddaea	0.1697804
198	0x3e0e22ed	0.1388051
199	0xbc57fb38	-0.013182454
200	0x3d723c13	0.059139322
201	0xbd3663bd	-0.04452871
202	0xbd32d613	-0.04366119
203	0x3d4834c7	0.048878457
204	0xbcd13a8f	-0.025540618
205	0x3e3f4111	0.18677165
206	0xbe085c42	-0.13316444
207	0x3d944354	0.07239404
208	0x3e27f6d8	0.16402757
209	0x3d5fd034	0.054641917
210	0xbe14de8b	-0.14538018
211	0xbb820034	-0.0039673094
212	0x3d8bbf9f	0.06823658
213	0xbe217232	-0.15766218
214	0xbe878a29	-0.26472595
215	0xbcc124bc	-0.023577087
216	0xbdc2b931	-0.09507979
217	0xbe29e961	-0.16592933
218	0xbd500648	-0.05078724
219	0xbe11a347	-0.14222442
220	0x3e1ba7b4	0.15200692
221	0x3e9ddf0b	0.3083423
222	0xbdd6cced	-0.10488305
223	0x3df3e5f8	0.119090974
224	0xbe4451eb	-0.19171874
225	0x3d122efb	0.035689335
226	0xbbc19680	-0.0059078336
227	0x3ea16b28	0.31527066
228	0xbd00f640	-0.031484842
229	0x3d397083	0.045273315
230	0xbec8d1dc	-0.3922261
231	0xbf40f20d	-0.7536934
232	0xbbe2aa9a	-0.00691731
233	0xbd1b7958	-0.03795752
234	0xbf4da36f	-0.80327505
235	0x3e3cab0c	0.18424624
236	0xbe649528	-0.22322524
237	0xbef97bcc	-0.48727262
238	0xbc68caaa	-0.014208475
239	0x3da3e9dd	0.0800359
240	0xbe244951	-0.16043593
241	0xbdac8db0	-0.08425462
242	0x3ddc6ed5	0.10763327
243	0xbc8d9793	-0.01728419
244	0xbe3c1ef7	-0.18371187
245	0xbdfa0517	-0.12208002
246	0xbd3f5394	-0.046710566
247	0xbf003766	-0.5008453
248	0xba9d3a6e	-0.0011995563
249	0x3e70050e	0.23439428
250	0xbe8208ad	-0.25397244
251	0x3da23055	0.07919375
252	0x3e354745	0.17702968
253	0xbdeaf753	-0.114729546
254	0xbd1845f3	-0.037176084
255	0xbe92a093	-0.28638133

network.0.bias f4 [128]
0	0xbe51bf5e	-0.20483157
1	0xbeae0172	-0.33985478
2	0xbeb3cee4	-0.35118783
3	0xbf0c3604	-0.5476992
4	0xbebbe8a4	-0.36700928
5	0xbe1a16e8	-0.150478
6	0xbf03fadb	-0.5155465
7	0xbedfa58f	-0.43681
8	0xbed51ba4	-0.4162265
9	0xbd22a931	-0.039712135
10	0xbebf2e36	-0.37339944
11	0xbec9aee5	-0.39391246
12	0xbe964fbe	-0.29357713
13	0xbee49e55	-0.44652048
14	0xbee4cbbb	-0.44686684
15	0xbea63743	-0.32464036
16	0xbeb7d8e7	-0.3590767
17	0xbee90d54	-0.4551798
18	0xbf45284f	-0.7701463
19	0xbe741725	-0.23836954
20	0xbea95164	-0.3306991
21	0xbea858ca	-0.3288024
22	0xbf0a15ad	-0.53939325
23	0xbdac2dfc	-0.08407208
24	0xbeddbe04	-0.43309033
25	0xbe8b3d8e	-0.271954
26	0xbe252625	-0.16127832
27	0xbe91641c	-0.2839669
28	0xbec42f8a	-0.3831752
29	0xbe3a28d7	-0.18179642
30	0x3d257fc7	0.04040506
31	0xbd4283b2	-0.047488876
32	0xbe79e49b	-0.24403612
33	0xbe3d7051	-0.18499877
34	0xbef83837	-0.4848039
35	0xbec59f70	-0.38598204
36	0xbee198cb	-0.44061884
37	0xbe044884	-0.12918288
38	0xbf414adf	-0.7550487
39	0xbf07bfc4	-0.53026986
40	0xbf162d72	-0.58663094
41	0xbeae8e16	-0.34092778
42	0xbdd3ed15	-0.10347954
43	0xbe1fe347	-0.15614043
44	0xbd8fb86b	-0.07017597
45	0xbec9bac5	-0.39400306
46	0xbf06da9c	-0.5267732
47	0xbe6b1c0e	-0.22959921
48	0xbe9d68b2	-0.3074394
49	0xbe496753	-0.19668321
50	0xbe655d97	-0.22398983
51	0xbccd2a18	-0.025044486
52	0xbe137acf	-0.14402317
53	0xbe58b248	-0.21161759
54	0xbe7893e9	-0.24275173
55	0xbe936987	-0.28791448
56	0xbdcd202a	-0.100159004
57	0xbeec6cc1	-0.46176723
58	0xbe84b430	-0.25918722
59	0xbf16a071	-0.58838564
60	0xbd5404e1	-0.051762465
61	0xbeb03ec5	-0.3442289
62	0xbe981988	-0.2970698
63	0xbee8fb7f	-0.45504376
64	0xbf0e63f6	-0.5562128
65	0xbcb7336e	-0.02236339
66	0xbe736f54	-0.23772937
67	0xbeb8bad7	-0.36080047
68	0xbde7b47e	-0.11313723
69	0xbe7f6661	-0.24941398
70	0x3d215660	0.039389014
71	0xbe8c4ab8	-0.27400756
72	0xbe814f9c	-0.2525605
73	0xbe490cd7	-0.19633804
74	0xbe4890a9	-0.19586433
75	0xbe854a74	-0.26033366
76	0xbe88c7f3	-0.2671505
77	0xbe417d5f	-0.18895482
78	0xbe490e42	-0.19634345
79	0xbdbfeb6e	-0.093710765
80	0xbed2126b	-0.41029677
81	0xbebae72e	-0.365045
82	0xbec417cc	-0.38299406
83	0xbe7a06bf	-0.24416636
84	0xbf2356cc	-0.63804317
85	0xbd0703b1	-0.032962505
86	0xbd5b50d2	-0.053543873
87	0xbeb651da	-0.35609323
88	0xbefa88b0	-0.4893241
89	0xbf265908	-0.649796
90	0xbead2049	-0.33813694
91	0xbf075354	-0.52861524
92	0xbe37ce4f	-0.17949794
93	0xbe3dc14b	-0.18530767
94	0xbe8c49f4	-0.27400172
95	0xbeee9d33	-0.46604308
96	0xbeb1656a	-0.34647685
97	0xbee8b7b1	-0.45452645
98	0xbd95c515	-0.07312981
99	0xbeac37dc	-0.33636367
100	0xbef27c36	-0.4736039
101	0xbe1502bb	-0.14551823
102	0xbe784c53	-0.24247865
103	0xbd206bd0	-0.039165318
104	0xbe9ab1d9	-0.30213812
105	0xbf096a8b	-0.53678197
106	0xbed4423a	-0.41456777
107	0xbe183e49	-0.1486751
108	0xbe9973b3	-0.29971084
109	0xbeb57e95	-0.35448137
110	0xbe85b849	-0.2611716
111	0xbe109e10	-0.14122796
112	0xbe9c4d5e	-0.30527776
113	0xbe4e4c92	-0.20146397
114	0xbe620d0c	-0.2207529
115	0xbe066736	-0.1312531
116	0xbeb3bd3f	-0.3510532
117	0xbe9f2252	-0.31080872
118	0xbee5ad88	-0.44858956
119	0xbe3f12d5	-0.18659528
120	0xbf4cf782	-0.80065167
121	0xbe8cf6e3	-0.2753211
122	0xbe60756a	-0.2191979
123	0xbe24d62e	-0.16097328
124	0xbe38b5d8	-0.18038118
125	0xbe4b8577	-0.19875132
126	0xbeaac031	-0.33349755
127	0xbe718afd	-0.23588176

network.3.weight f4 [64, 128]
0	0xbd93c876	-0.07215969
1	0xbd954435	-0.072884
2	0xbd7cb59e	-0.06169664
3	0xbd97355f	-0.073832266
4	0xbd7b9758	-0.06142363
5	0xbe0b2bd5	-0.1359094
6	0x3d1b6859	0.03794131
7	0xbe5555de	-0.20833537
8	0xbdef9818	-0.116989315
9	0xbd5ffc89	-0.054684196
10	0xbcd7893a	-0.026310552
11	0xbca59f15	-0.020217458
12	0xbd975031	-0.07388342
13	0xbdc65637	-0.09684413
14	0xbddf09a2	-0.10890509
15	0xbcc1b43d	-0.023645515
16	0x3cef65f9	0.029223429
17	0xbd5e2642	-0.054235704
18	0x3d823bae	0.06359039
19	0xbd27e25f	-0.04098737
20	0x3cc9a479	0.02461456
21	0x3c45fba4	0.012083922
22	0xbce1f153	-0.027580893
23	0xbc2eb021	-0.01066211
24	0xbdeecbff	-0.11660003
25	0x3c5d7de7	0.013518787
26	0xbd2a6130	-0.04159659
27	0x3d19840c	0.037479445
28	0x3ca9045f	0.020631967
29	0xbc8b8161	-0.017029466
30	0x3c18ad13	0.009318608
31	0x3cb05c3d	0.021528358
32	0xbc5cbb86	-0.013472443
33	0x3cff6c40	0.031179547
34	0xbc9fc994	-0.0195053
35	0xbdc01b68	-0.09380227
36	0xbe0c8faa	-0.13726678
37	0xbcb0c973	-0.021580433
38	0xbd498324	-0.04919733
39	0xbcb440f3	-0.022003626
40	0xbd0d987e	-0.034569256
41	0x3d41a9eb	0.047281187
42	0xbd3363c6	-0.043796323
43	0x3d476423	0.048679482
44	0xbde5d165	-0.112215795
45	0x3cfbf98f	0.030758647
46	0xbd53aaaa	-0.05167643
47	0xbe2242b8	-0.15845764
48	0xbdbf5cea	-0.09343894
49	0xbda474ae	-0.080300674
50	0xbdadfdc1	-0.08495665
51	0xbd6ff005	-0.05857851
52	0xbc00d0aa	-0.007862249
53	0x3bb3c054	0.005485574
54	0xbca33d4d	-0.019926691
55	0x3d283fc6	0.041076444
56	0x3d243fd6	0.04009994
57	0xbd426d87	-0.047467735
58	0x3d2603fe	0.04053115
59	0x3d4e7567	0.050404932
60	0xbbaeb5f8	-0.005331751
61	0xbd6dcabc	-0.05805467
62	0xbd9890e7	-0.07449513
63	0xbd1dddf6	-0.038541757
64	0xbd1d5c26	-0.038417958
65	0xbde6c2b8	-0.112676084
66	0xbe16886e	-0.14700481
67	0x3b1f45b3	0.0024303019
68	0xbd998c88	-0.07497507
69	0xbdb4a397	-0.08820265
70	0x3ce59968	0.028027251
71	0xbd81e4d2	-0.06342472
72	0x3ca70d99	0.020392226
73	0xbcbf4fe0	-0.023353517
74	0xbda7d46b	-0.081948124
75	0xbdc2a047	-0.09503227
76	0xbd4b165b	-0.049581867
77	0xbcb0e746	-0.021594655
78	0xbdde3609	-0.1085015
79	0xbcc8b976	-0.024502497
80	0xbc68b796	-0.014203927
81	0xbcdea776	-0.027179461
82	0xbd3185e8	-0.043340594
83	0x3d849fe7	0.064758115
84	0x3c758de0	0.014987439
85	0xbe058dbd	-0.1304235
86	0xbddc7bc8	-0.10765797
87	0x3d63c76c	0.055610105
88	0x3d272a92	0.040812083
89	0x3da17098	0.07882804
90	0xbdbd5c92	-0.09246172
91	0xbdfbf744	-0.123030216
92	0x3c9332da	0.017968584
93	0xbe0fb3d4	-0.14033443
94	0xbdb83ee1	-0.08996368
95	0x3c7c468f	0.015397682
96	0xbd6621d0	-0.05618459
97	0xbc7fd069	-0.015613654
98	0xbe0f7f8a	-0.14013496
99	0x3bcba75a	0.006215018
100	0x3da0a156	0.078432724
101	0x3cf3259a	0.029681016
102	0xbccd97f6	-0.025096875
103	0xbd63f648	-0.055654794
104	0x3ca7e5d9	0.020495342
105	0x3cafcb23	0.021459168
106	0xbcc83ee4	-0.024444051
107	0xbdf9a61a	-0.121898845
108	0x3b6ae039	0.0035839214
109	0xbd7c5fc6	-0.061614774
110	0x3d43e6a7	0.04782739
111	0xbda61042	-0.0810857
112	0xbd8dfd51	-0.06933082
113	0xbe2215af	-0.15828584
114	0xbdb3719b	-0.08761903
115	0xbc9ed7bb	-0.019389978
116	0xbe0dfd96	-0.13866267
117	0xbd2096ac	-0.039206192
118	0xbde321b8	-0.11090416
119	0x3d553725	0.052054543
120	0xbd97da46	-0.07414679
121	0xbe1c0ef4	-0.15240079
122	0x3d2b53db	0.041828018
123	0xbc87ec7d	-0.016592259
124	0xbd75a041	-0.059967283
125	0xbddf905e	-0.10916208
126	0x3d1ab65f	0.03777158
127	0x3b6a95cb	0.003579485
128	0xbd47a913	-0.048745226
129	0xbd8a27dc	-0.06745884
130	0x3e01035e	0.1259894
131	0x3d5f48ae	0.054512672
132	0x3d45532b	0.04817502
133	0xbcd3c8e5	-0.02585263
134	0x3d0b77a9	0.034049664
135	0x3d970a6f	0.07375037
136	0xbf0da9a4	-0.55336976
137	0xbd44f32f	-0.04808348
138	0x3e13d17f	0.14435385
139	0xbd2e5916	-0.042565428
140	0x3d1a1249	0.037615094
141	0x3e737016	0.23773226
142	0xbd4b151b	-0.049580675
143	0xb8e0230e	-0.00010687682
144	0x3dda3b3d	0.1065583
145	0x3ee118f4	0.4396435
146	0x3ce2a942	0.027668599
147	0xbed8aeff	-0.4232101
148	0x3d9468c0	0.07246542
149	0x3c34518a	0.011005769
150	0xbe8391b8	-0.25697112
151	0x3cb76eb5	0.022391656
152	0xbe603728	-0.2189604
153	0xbec9975e	-0.39373296
154	0x3d9f16d5	0.07768027
155	0x3cdcc91a	0.026951361
156	0xbbd82120	-0.0065957457
157	0xbcff92ff	-0.031198023
158	0xbbdf9c78	-0.0068240725
159	0x3d79e8b5	0.061012942
160	0x3e48dfbc	0.19616598
161	0xbd2a3d62	-0.041562445
162	0x3defdeee	0.11712442
163	0x3d4a641c	0.049411878
164	0xbeec9cb2	-0.462133
165	0xbeea7fe7	-0.45800707
166	0xbd03c925	-0.03217425
167	0xbe29f65f	-0.1659789
168	0x3e6ea971	0.23306824
169	0xbe96e124	-0.29468644
170	0x39ef79b4	0.00045676308
171	0xbd37a0d3	-0.04483111
172	0xbc81018b	-0.015747806
173	0xbf02abda	-0.51043475
174	0xbdb91377	-0.09036916
175	0xbe9e8772	-0.30962712
176	0xbe48c274	-0.19605428
177	0x3e216293	0.1576026
178	0xbc52da97	-0.012869499
179	0x3dd241fc	0.10266492
180	0x3dbedcad	0.09319434
181	0x3dee74ab	0.116433464
182	0xbcdb4dfd	-0.026770586
183	0x3dea3e30	0.114376426
184	0xbe27c930	-0.1638534
185	0xbd24839d	-0.04016458
186	0xbd79f60e	-0.06102567
187	0xbebea13b	-0.37232384
188	0xbc7bb601	-0.015363217
189	0x3d7f2c82	0.062298305
190	0x3c96acbd	0.018392915
191	0xbe0601af	-0.1308658
192	0xbdbe1789	-0.09281833
193	0x3cd07e3e	0.025450822
194	0xbeb7c99d	-0.35896006
195	0xbee223e4	-0.44168007
196	0xbd16284c	-0.036659524
197	0x3d103715	0.03520878
198	0xbdf1b355	-0.11801783
199	0x3e2b142f	0.16706918
200	0xbea90a2f	-0.33015582
201	0xbdc65514	-0.09684196
202	0xbe740a16	-0.23831972
203	0x3c982ae7	0.018575145
204	0xbc7564d7	-0.014977655
205	0xbf254c83	-0.6456987
206	0xbd672ea2	-0.056440957
207	0x3e36cde0	0.17851973
208	0x3e02c3ed	0.12770052
209	0x3d78d1be	0.0607469
210	0x3db8e640	0.09028292
211	0x3b8fc4aa	0.004387458
212	0x3d7c483c	0.061592326
213	0xbd9ad6db	-0.07560512
214	0x3d35e9c0	0.044412374
215	0x3d3c8583	0.046025764
216	0xbde1fb27	-0.11034232
217	0x3c981ddb	0.018568924
218	0xbcb3f109	-0.02196552
219	0xbec54f9d	-0.38537303
220	0xbd73794b	-0.059441846
221	0x3d13d6a0	0.036093354
222	0xbe2b2452	-0.16713074
223	0xbda9e997	-0.08296507
224	0x3d7251fd	0.05916022
225	0xbd956764	-0.07295111
226	0xbed8bd17	-0.42331764
227	0x3e705fb2	0.23474005
228	0xbe2c068d	-0.16799374
229	0x3da49631	0.08036459
230	0xbe9a9a9d	-0.30196086
231	0xbdcbf929	-0.09959633
232	0xbf5dff8f	-0.86718076
233	0xbe9c8498	-0.3056991
234	0xbd1dc6ff	-0.038519856
235	0xbe8c1f09	-0.27367428
236	0x3dad3b75	0.08458606
237	0xbc55b4db	-0.013043608
238	0x3de0e9eb	0.10982116
239	0xbd6d9319	-0.05800161
240	0xbd8c3afd	-0.068471886
241	0x3c577dec	0.013152581
242	0xbd897695	-0.06712071
243	0xbc3fec7d	-0.011714098
244	0x3d37a4e2	0.04483498
245	0x3a9e6a21	0.0012086072
246	0xbe709390	-0.2349379
247	0x3e1e8704	0.15481192
248	0xbe04d71c	-0.12972683
249	0xbe0313de	-0.12800547
250	0x3d129aa0	0.035791993
251	0x3e302a3b	0.1720361
252	0x3e0ae450	0.13563657
253	0xbdc63d7c	-0.09679696
254	0x3de0b331	0.10971678
255	0xbd5d16ef	-0.05397695

network.3.bias f4 [64]
0	0xbe136a18	-0.1439594
1	0x3ee0c415	0.438996
2	0x3efe0dc6	0.49619883
3	0x3d8b5b49	0.06804521
4	0xbc2e6c0b	-0.010645877
5	0x3eae0ab3	0.33992538
6	0x3f3f0b58	0.74626684
7	0x3e05773f	0.1303377
8	0x3f6ae6e5	0.9175857
9	0x3e9bc8a0	0.30426502
10	0x3eb8226c	0.35963762
11	0x3f3acdcc	0.7297027
12	0x3f493979	0.7860332
13	0x3ec6f653	0.38859805
14	0x3e02b4dd	0.12764306
15	0x3e336f32	0.17522886
16	0xbf188bc5	-0.5958827
17	0x3f312443	0.69195956
18	0x3daed8a1	0.085374124
19	0x3f409adf	0.75236315
20	0x3ddb66eb	0.107129894
21	0x3e25dc33	0.1619728
22	0x3ea76c92	0.3270002
23	0x3f05b135	0.5222352
24	0x3f0912aa	0.53544104
25	0x3f2070c3	0.6267206
26	0x3f20dc74	0.62836385
27	0x3ecf5773	0.40496406
28	0xbe1f1cf3	-0.15538387
29	0xbf282d7c	-0.65694404
30	0xbe11ce3e	-0.14238831
31	0x3f2f4716	0.68467844
32	0x3e0ddbc7	0.1385337
33	0x3f31c2e5	0.6943801
34	0x3e8609f2	0.26179463
35	0x3f2cf5a0	0.67562294
36	0x3f0bca2e	0.54605377
37	0x3f63202f	0.88720983
38	0x3d9373f0	0.07199848
39	0x3d7696db	0.06020246
40	0x3f233682	0.6375505
41	0xbf1473ae	-0.57989013
42	0xbdf13670	-0.11777961
43	0x3f55d292	0.8352443
44	0x3f412ddc	0.754606
45	0x3f25dc30	0.64789104
46	0xbea52425	-0.3225414
47	0x3e2f4e3d	0.1711969
48	0x3e7aacc5	0.24479969
49	0x3f42e3bc	0.76128745
50	0x3f424496	0.75885904
51	0x3e65bd37	0.22435461
52	0x3f406bd7	0.7516455
53	0x3e31451c	0.1731152
54	0x3f2a17aa	0.6644236
55	0x3ed1a54a	0.40946418
56	0xbdf3558d	-0.11881552
57	0x3f3e195e	0.7425746
58	0xbd9ff6b1	-0.078107245
59	0x3f0f63a7	0.5601143
60	0x3e004aa3	0.12528472
61	0x3e891ebe	0.26781267
62	0x3f3abdf2	0.72946084
63	0x3e039193	0.12848501

network.5.weight f4 [32, 64]
0	0xbc056dde	-0.00814387
1	0xbd9eb474	-0.077492625
2	0x3ce2c85c	0.02768343
3	0xbb17630b	-0.0023099806
4	0x3d23b9f2	0.039972253
5	0x3cfadfde	0.030624326
6	0x3d61df8d	0.055144835
7	0x3d2f1f49	0.042754445
8	0x3c068cda	0.008212293
9	0x3dbdd0c7	0.09268337
10	0xbc969fc7	-0.018386735
11	0x3d3333d2	0.04375059
12	0xbcaf781e	-0.021419581
13	0xbd373eff	-0.044737812
14	0x3d61eb5c	0.055156097
15	0xbdeb718f	-0.11496269
16	0xbdb0cb9f	-0.08632588
17	0xbe0b0a79	-0.13578214
18	0x3cd3758a	0.025812883
19	0xbd30cbb7	-0.043163028
20	0xbd977236	-0.07394831
21	0x3d883a24	0.066517144
22	0x3ddbc473	0.10730829
23	0x3d3c9d77	0.046048608
24	0x3baf1b05	0.005343797
25	0xbcabf300	-0.020989895
26	0xbda33df5	-0.07970802
27	0x3da7c2e5	0.0819147
28	0xbdf4a04f	-0.11944639
29	0x3d95df7c	0.07318017
30	0xbc1a5104	-0.00941873
31	0xbd6c4d96	-0.05769118
32	0x3ba7ab77	0.0051168757
33	0x3d3b71bf	0.045762774
34	0xbe016780	-0.12637138
35	0x3dc4c982	0.09608747
36	0x3de46441	0.111519344
37	0xbd887518	-0.06662959
38	0x3c819de3	0.015822357
39	0xbccfeb5a	-0.025380779
40	0xbc5f9106	-0.013645416
41	0xbdebe58c	-0.11518392
42	0x3b935b6c	0.0044969823
43	0xbd095319	-0.033526514
44	0xbe12d3e6	-0.14338645
45	0xbddd7c20	-0.108146906
46	0xbd59dc6b	-0.053188723
47	0x3d5e6b82	0.054301746
48	0xbd2d7695	-0.042349417
49	0xbd402d79	-0.046918366
50	0xbd853f46	-0.06506209
51	0xbd60570f	-0.054770526
52	0xbdcbda3e	-0.09953736
53	0x3d0362ad	0.032076526
54	0xbdb6432a	-0.08899529
55	0xbd856e18	-0.06515139
56	0xbd6cee9f	-0.057844754
57	0x3dc01517	0.093790226
58	0xbdcc6272	-0.099797145
59	0x3ce95c00	0.028486252
60	0xbe0000f5	-0.12500365
61	0xbdd65df2	-0.104671374
62	0x3ded3684	0.11582664
63	0xbe09aa9f	-0.13443993
64	0x3e00cd96	0.12578425
65	0xbd161e55	-0.03665002
66	0xbe612535	-0.2198685
67	0xbd639ae5	-0.05556764
68	0xbd9994c4	-0.07499078
69	0xbe332969	-0.17496265
70	0x3d2d3617	0.042287912
71	0xbe64a6a7	-0.22329198
72	0xbdfc5d49	-0.1232248
73	0xbe2dbc75	-0.16966422
74	0x3d88adea	0.066737965
75	0xbdbc1b0d	-0.09184847
76	0xbe0eed5c	-0.13957733
77	0xbce0a049	-0.02742018
78	0xbda8a934	-0.08235398
79	0xbdef920f	-0.1169778
80	0x3df7ba5f	0.12096094
81	0xbe33d61d	-0.17562146
82	0x3cc40cbd	0.023931855
83	0xbe28a692	-0.16469792
84	0xbd2b7b62	-0.041865714
85	0xbdfe61e1	-0.12421013
86	0xbdaf43ab	-0.085578285
87	0x3cfe3b81	0.031034233
88	0x3c983455	0.018579641
89	0xbdf66314	-0.120306164
90	0xbcd8a246	-0.026444566
91	0xbe386993	-0.18009023
92	0x3d5eee03	0.054426204
93	0xbded6e91	-0.115933545
94	0x3ddd933a	0.10819097
95	0x3d362a7e	0.044474117
96	0xbaeb64f8	-0.0017959168
97	0xbe2bf814	-0.16793853
98	0xbdb772b9	-0.089574285
99	0xbdfdd4b0	-0.123940825
100	0x3d8264be	0.06366871
101	0xbe055c97	-0.13023601
102	0x3dfd47fe	0.12367247
103	0x3de7184b	0.112839304
104	0xbe805dff	-0.25071713
105	0x3d8780a8	0.06616336
106	0xbdfb4add	-0.122701384
107	0xbe7424d7	-0.23842178
108	0xbe19d078	-0.15020931
109	0xbcb87629	-0.02251728
110	0x3ce04f82	0.027381662
111	0xbe3e1cd8	-0.1856569
112	0x3cf31303	0.029672151
113	0xbe27fcfd	-0.16405101
114	0xbd49811e	-0.0491954
115	0xbdfee0f9	-0.12445254
116	0xbe4756d9	-0.19466724
117	0xbd2d5a36	-0.04232236
118	0xbe6acdf3	-0.22930126
119	0xbd8c21a8	-0.06842357
120	0xbdab115a	-0.08352919
121	0xbe6df5ae	-0.2323825
122	0xbd84639a	-0.0646431
123	0xbe0a8495	-0.13527139
124	0x3dd699ee	0.104785785
125	0xbcab640d	-0.020921731
126	0xbe5b535d	-0.2141852
127	0xbe4c14ba	-0.19929782
128	0xbd81d46e	-0.06339346
129	0xbbe64b4f	-0.0070280205
130	0x3e5457e4	0.20736653
131	0xbd0d4cb6	-0.034496985
132	0xbe62182a	-0.2207953
133	0x3d41eb1c	0.04734336
134	0x3eaf3740	0.3422184
135	0xbc821b2f	-0.015882103
136	0x3efa5d3e	0.48899263
137	0x3dd1aa41	0.102375515
138	0x3e2516fd	0.1612205
139	0x3de0b613	0.10972228
140	0x3de611ea	0.112338856
141	0x3e702449	0.23451342
142	0xbc79700e	-0.01522447
143	0x3d996eab	0.07491811
144	0x3b99437d	0.0046772347
145	0x3caff376	0.021478396
146	0xbdbaf72a	-0.09129174
147	0x3e36da96	0.17856821
148	0x3e3630f9	0.17792119
149	0xbd8bb097	-0.06820791
150	0xbd964880	-0.07338047
151	0x3d4b2001	0.04959107
152	0x3d47aadb	0.048746925
153	0x3e079050	0.13238645
154	0x3e3d382a	0.18478456
155	0x3e357d0e	0.17723486
156	0x3ced0fcd	0.028938198
157	0xbe4a7fc3	-0.197753
158	0xbcd8da3c	-0.02647125
159	0x3e1e4bdb	0.15458624
160	0xbc116135	-0.008873274
161	0x3e80e2f1	0.25173143
162	0x3e368083	0.17822461
163	0x3e0be2d9	0.13660754
164	0x3d93e546	0.07221465
165	0x3ea128ef	0.31476542
166	0xbe6f378a	-0.2336103
167	0x3c2511a8	0.01007501
168	0x3df1f970	0.118151546
169	0xbd2e0812	-0.042488165
170	0x3d89d6fc	0.06730458
171	0x3e0b2b3a	0.13590708
172	0x3dccf819	0.100082584
173	0x3d8fa51c	0.07013914
174	0x3e8895bd	0.2667674
175	0x3c73659b	0.014855768
176	0x3e726c23	0.23674063
177	0x3e475cd6	0.19469008
178	0x3ccbf03a	0.024894822
179	0xbe2486fd	-0.16067119
180	0x3c897cfa	0.016783226
181	0x3e0f4ec7	0.13994895
182	0x3d70c24a	0.05877904
183	0x3e2e2267	0.17005311
184	0xbde7b2ab	-0.11313375
185	0x3d69df71	0.057097856
186	0x3df09518	0.117471874
187	0xbceaca31	-0.028660866
188	0xbd807de3	-0.06274011
189	0xbd20d450	-0.039264977
190	0x3e43be1d	0.19115491
191	0x3c46f688	0.012143739
192	0xbd400359	-0.046878193
193	0x3d46969a	0.04848347
194	0x3e781228	0.24225676
195	0xbe67628e	-0.2259619
196	0xbe67465d	-0.22585435
197	0xbd62840e	-0.05530172
198	0x3e67ae11	0.22624995
199	0xbddba34f	-0.10724508
200	0x3eda54b6	0.42642754
201	0xbdb466cd	-0.0880867
202	0x3e563f54	0.20922595
203	0x3c7959bb	0.015219147
204	0x3e62cffe	0.22149655
205	0x3dee50f8	0.11636537
206	0xbe359047	-0.17730819
207	0x3e20b26d	0.15693064
208	0xbc56b551	-0.013104753
209	0x3de124e0	0.109933615
210	0x3cf37a62	0.029721443
211	0x3dc5af48	0.09652573
212	0x3e17541a	0.14778176
213	0xbd38b82f	-0.045097526
214	0xbd9e54d2	-0.07731022
215	0xbd2d78cb	-0.042351525
216	0x3d56ff2f	0.052489456
217	0x3de335b8	0.110942304
218	0x3ec771a7	0.38953897
219	0x3e443bc6	0.19163427
220	0x3e3fafe3	0.18719439
221	0xbe140b34	-0.14457399
222	0xbd535c15	-0.05160149
223	0x3ca9f9ef	0.02074906
224	0x3dcdc707	0.10047727
225	0x3e5eccca	0.21757808
226	0x3d1845a3	0.037175786
227	0xbb6f3597	-0.0036500448
228	0x3de24806	0.11048894
229	0x3e67ff1d	0.22655912
230	0xbe18dbcf	-0.149276
231	0xbd0b2c6b	-0.033977907
232	0x3e007a81	0.12546732
233	0xbe7ba2cb	-0.2457382
234	0x3e1a22e7	0.15052377
235	0x3e4e7fff	0.20166014
236	0x3dbe1c3d	0.0928273
237	0x3c9bd0ec	0.01902052
238	0x3e48257b	0.19545548
239	0xbca8db98	-0.020612523
240	0x3ca206b8	0.019778594
241	0x3e1533c8	0.14570534
242	0x3d87f6b7	0.06638854
243	0xbe674c01	-0.22587587
244	0x3d0d2a53	0.03446419
245	0xbb97bfc8	-0.0046310164
246	0x3d8718db	0.06596538
247	0x3d578771	0.0526194
248	0xbdb10d86	-0.086451575
249	0x3e68f2b3	0.22748832
250	0x3dba1f53	0.09088006
251	0x3e0b6560	0.1361289
252	0x3d816403	0.06317904
253	0xbe31313e	-0.1730394
254	0x3d882d9b	0.066493236
255	0xbe40ec2c	-0.18840092

network.5.bias f4 [32]
0	0x3d850367	0.064947896
1	0xbe76afd7	-0.24090515
2	0x3f290d46	0.6603588
3	0x3f38dbfc	0.7221067
4	0x3d3d2e5d	0.046186794
5	0x3f3c2e94	0.7350857
6	0x3f263e04	0.6493838
7	0x3f295478	0.66144514
8	0x3f39105f	0.72290605
9	0x3d1d86ab	0.038458508
10	0x3f246c7c	0.64228034
11	0x3f1d0838	0.61340666
12	0x3c921f81	0.017837288
13	0x3f213071	0.6296454
14	0x3f5b4c3f	0.8566322
15	0xbd049f3a	-0.032378413
16	0x3f494291	0.786172
17	0x3f5fffe6	0.87499845
18	0xbe0c8113	-0.13721113
19	0xbdb568e0	-0.08857894
20	0x3f4a4005	0.79003936
21	0x3f40c8a5	0.7530616
22	0xbe297b1b	-0.16550867
23	0xbd174a90	-0.036936343
24	0xbdcac28e	-0.099003896
25	0x3f220d5d	0.6330164
26	0xbd95a5da	-0.07307024
27	0x3f5b9a15	0.85781986
28	0x3f368af6	0.7130579
29	0x3f2317c7	0.63708156
30	0x3f505ada	0.8138863
31	0x3f32903f	0.6975135

network.7.weight f4 [1, 32]
0	0xbe06b2e8	-0.13154185
1	0xbd67f992	-0.056634493
2	0x3e8271ad	0.25477353
3	0x3e374ca3	0.17900328
4	0xbde85011	-0.113433965
5	0x3e12a81c	0.14321941
6	0x3e1a2f60	0.15057135
7	0x3e019eb0	0.1265819
8	0x3e37df12	0.17956188
9	0xbd4f9d4e	-0.050687127
10	0x3dc82fd4	0.097747475
11	0x3e45ac3f	0.19303988
12	0xbd1a189d	-0.03762113
13	0x3e354083	0.1770039
14	0x3e96c638	0.29448104
15	0xbcfa62fe	-0.030564781
16	0x3e929f4a	0.28637153
17	0x3e37d86f	0.17953657
18	0xbd197df2	-0.037473626
19	0xbdbe32c6	-0.09287028
20	0x3e799e0d	0.24376698
21	0x3e8dc1c8	0.27686906
22	0xbd423e86	-0.04742291
23	0x3c8d8142	0.017273549
24	0x3c32859e	0.010896115
25	0x3e7ef76e	0.24899074
26	0xbc252150	-0.010078743
27	0x3e26efea	0.16302457
28	0x3e0be8ea	0.13663068
29	0x3dcc8b44	0.099875
30	0x3e871bea	0.26388484
31	0x3e04ccc1	0.12968732
