models/price_predictor_nn_v8.pth (torch, 19453 bytes, 5 tensors)

network.0.weight f4 [64, 29]
-0.7422684 0.07963831 0.035103627 0.057193626 0.22423577 -1.7009836 0.018178957 -0.075233884
0.18628569 -0.06500963 -0.08599794 -0.095599644 -0.09563682 0.2529787 0.03068895 -0.0078087715
-0.0069646006 0.29565844 -0.09457128 -0.056253787 0.09489502 0.14574759 0.20729613 -0.29839587
-1.0845071 -0.017648434 -0.053787503 0.21550561 -0.580193 0.027093858 0.009784447 0.048124894
-0.20738167 0.07634101 0.44943723 0.10372985 0.060822666 0.11378308 0.12720436 -0.013487036
0.009751459 0.01562675 -0.014839778 0.02316431 -0.044946373 0.6988993 -0.4721234 0.22689469
-0.21538228 -1.1393263 -0.59009016 1.3223641 -0.5927 -0.752234 -0.38227224 -0.6441754
0.19728051 0.073512726 0.20919168 0.19465828 0.019599846 -0.597345 -0.08375357 -3.580555
0.051278673 0.086755544 -0.04576924 0.03835731 -0.0036341036 -0.03459431 -0.0015681265 -0.02451558
0.12107165 0.10797079 -0.26725158 0.073638834 0.09702129 0.0505241 -1.795465 0.20002411
-0.50743604 0.19903536 0.14633945 0.01508618 -0.27526355 -0.12381756 -0.14165835 0.3934716
-0.00029650787 0.09541955 0.031515546 0.09318123 0.5132712 -0.20752749 -0.1512167 1.1750787
0.3522922 0.23478843 0.24763261 0.25391126 -0.0833145 -0.0419204 -0.025450876 -0.08126197
0.023334472 0.09362703 -0.03468563 -0.16022073 0.14480332 -0.17863296 0.045474675 0.093078084
0.10580454 0.03572325 0.09633036 0.06387717 0.083615646 -0.03664366 0.05033721 -0.02844966
0.027898319 0.78136533 0.22665729 0.12074888 0.4407028 -0.053630695 0.19598852 0.15366647
0.17234653 -0.07291726 0.008002505 0.058800045 0.0829448 -0.069624044 0.1492591 0.12242869
0.14008258 0.17674878 0.25826958 0.04851164 0.13014343 0.024829382 0.045034852 0.04589851
0.008996793 -1.1080952 -0.040526107 0.1262644 0.027888443 0.28868818 -1.4599645 0.0075247795
0.06528011 -0.101991124 0.07244532 -0.042655718 -0.03860737 -0.036390938 0.11032962 0.52454853
0.054501176 -0.53691465 0.20997167 -0.03646733 -0.09726373 -0.06664903 0.042834166 -0.40562972
-0.2701165 -0.5036685 -0.040326968 0.14903995 -0.8213425 -0.53085226 0.22054261 -0.06099421
0.1702494 0.17645587 0.034840323 0.25603968 -0.1118721 0.09825102 0.023085477 -0.23802589
0.119095124 0.109256625 0.083157524 0.3275308 0.08049092 0.22344786 -0.17920916 -0.15268998
0.9546203 -0.2733946 -0.60317737 -0.13133533 -0.30660117 1.0344882 -0.14563985 0.11062746
-0.3823082 -0.28536746 -0.13064551 -1.1617984 -0.0624499 -0.1306446 -0.13719536 -0.2917228
0.10906151 -0.11213566 -0.36633748 0.07563017 -0.10849873 -0.07022263 -0.07515633 -0.032353476
0.050207775 0.26511145 0.043388028 -0.32400578 -0.01765141 -0.3270249 -0.0646972 -0.41301358
-0.2585606 -0.40081024 -0.19752069 -0.08789929 -0.3740999 -0.06128066 -1.0257907 -1.0915631
-0.054346323 0.05282177 0.0005157613 -0.037077326 0.06396729 -2.120617 0.2882247 0.7445752
-0.6030847 -0.57817215 -0.08643134 -0.089069575 -0.09356667 -0.03420001 0.00052782695 0.21146618
0.0109844515 -0.005003701 -0.056863684 -0.19637996 -0.3920152 -0.059082713 -0.9400701 -0.33011317
00000000: 4d05 3ebf 6919 a33d d2c8 0f3d dd43 6a3d
00000010: 109e 653e d5b9 d9bf 09ec 943c 3914 9abd
00000020: adc1 3e3e c523 85bd b01f b0bd bfc9 c3bd
00000030: 3ddd c3bd 6d86 813e 6567 fb3c b9e0 ffbb
00000040: 4e37 e4bb 8b60 973e 96ae c1bd 5f6a 66bd
00000050: 5258 c23d db3e 153e 7045 543e 58c7 98be
00000060: 21d1 8abf 7393 90bc 4950 5cbd 81ad 5c3e
00000070: 8787 14bf f0f3 dd3c f24e 203c 9c1e 453d
00000080: dc5b 54be ad58 9c3d a31c e63e 5170 d43d
00000090: 3021 793d 1a07 e93d dc41 023e bbf8 5cbc
000000a0: 95c4 1f3c ac03 803c 8a22 73bc 14c3 bd3c
000000b0: b019 38bd 11eb 323f 29ba f1be 1557 683e
000000c0: 2c8d 5cbe 72d5 91bf 2610 17bf 3a43 a93f
000000d0: 30bb 17bf 6892 40bf 30b9 c3be aee8 24bf
000000e0: e703 4a3e d78d 963d 5836 563e 8054 473e
000000f0: db8f a03c 9aeb 18bf fe86 abbd d027 65c0
00000100: 9609 523d e4ac b13d 8778 3bbd 8e1c 1d3d
00000110: 242a 6ebb c3b2 0dbd 9889 cdba e6d4 c8bc
00000120: 6af4 f73d ca1f dd3d 33d5 88be f5cf 963d
00000130: 19b3 c63d 5cf2 4e3d ccd1 e5bf 1fd3 4c3e
00000140: 54e7 01bf edcf 4b3e 02da 153e 062c 773c
00000150: 58ef 8cbe 1094 fdbd e30e 11be 1c75 c93e
00000160: 9d74 9bb9 536b c33d 7216 013d cdd5 be3d
00000170: be65 033f 1682 54be 8dd8 1abe fb68 963f
00000180: a55f b43e 616c 703e 6793 7d3e a800 823e
00000190: cba0 aabd bab4 2bbd 5b7e d0bc ad6c a6bd
000001a0: ef27 bf3c 87bf bf3d 8512 0ebd e710 24be
000001b0: 5247 143e 8feb 36be a743 3a3d b99f be3d
000001c0: 0db0 d83d 8b52 123d da48 c53d 09d2 823d
000001d0: ae3e ab3d aa17 16bd 642e 4e3d 430f e9bc
000001e0: 048b e43c 8f07 483f d918 683e 304b f73d
000001f0: cca3 e13e dcab 5bbd 37b1 483e be5a 1d3e
00000200: 9c7b 303e a555 95bd f01c 033c 51d8 703d
00000210: f7de a93d 0d97 8ebd 61d7 183e e5bb fa3d
00000220: cf71 0f3e a2fd 343e e93b 843e 24b4 463d
00000230: 5244 053e fd66 cb3c 7776 383d 1300 3c3d
00000240: 4967 133c 10d6 8dbf b4fe 25bd 744b 013e
00000250: 4e76 e43c f0ce 933e 1ee0 babf 6d92 f63b
00000260: 94b1 853d b9e0 d0bd 365e 943d c3b7 2ebd
00000270: c322 1ebd aa0e 15bd 7ff4 e13d d048 063f
00000280: a03c 5f3d 3d73 09bf d002 573e c45e 15bd
00000290: 3532 c7bd 497f 88bd e172 2f3d b3ae cfbe
000002a0: b64c 8abe 6bf0 00bf e42d 25bd ee9d 183e
000002b0: 8143 52bf efe5 07bf ecd5 613e 11d5 79bd
000002c0: dc55 2e3e d9b0 343e bab4 0e3d a217 833e
000002d0: 331d e5bd d537 c93d c11d bd3c 0fbd 73be
000002e0: 25e8 f33d f0c1 df3d 7e4e aa3d 1eb2 a73e
000002f0: 6cd8 a43d 84cf 643e 9b82 37be c35a 1cbe
00000300: ff61 743f 61fa 8bbe d569 1abf c57c 06be
00000310: d4fa 9cbe 1c6a 843f 9d22 15be a690 e23d
00000320: e6bd c3be af1b 92be f0c7 05be cfb5 94bf
00000330: 77cb 7fbd b3c7 05be f17c 0cbe b15c 95be
00000340: a45b df3d 62a7 e5bd 9690 bbbe fee3 9a3d
00000350: 9534 debd e2d0 8fbd 90eb 99bd 1485 04bd
00000360: aba6 4d3d b0bc 873e a5b7 313d 16e4 a5be
00000370: b199 90bc cf6f a7be f77f 84bd 8476 d3be
00000380: 0e62 84be 0037 cdbe dd42 4abe 8b04 b4bd
00000390: 068a bfbe 6e01 7bbd 1c4d 83bf 57b8 8bbf
000003a0: 409a 5ebd a45b 583d 2834 073a 65de 17bd
000003b0: 4801 833d 30b8 07c0 3092 933e 7b9c 3e3f
000003c0: c263 1abf 1703 14bf ea02 b1bd 1c6a b6bd
000003d0: e29f bfbd 4f15 0cbd de5d 0a3a 978a 583e
000003e0: 21f8 333c 16f6 a3bb e5e9 68bd d417 49be
000003f0: 37b6 c8be b700 72bd 6fa8 70bf 9804 a9be

network.0.bias f4 [64]
-0.13438177 -0.287189 -0.279639 -0.15455662 0.08441791 -0.23780875 -0.4223896 -0.7293966
-0.37019995 -0.43158007 -0.3035018 -0.4614968 -0.38416234 -0.14210492 -0.4556888 -0.79922926
-0.55450094 -0.33712795 -0.1535428 -0.2843328 -0.10665798 -0.15461423 -0.28286955 -0.93415755
-0.563607 -0.31469396 -0.4175171 -0.6072872 -0.5932481 -0.3865874 -0.7865075 -0.08078977
-0.10904023 -0.008533004 -0.24096668 -0.080132686 -0.9114085 -0.015383244 -0.23332036 -0.09789954
-0.45407557 -0.36447835 -0.3698962 -0.147271 -0.14960589 -0.03709706 -0.17867891 -0.513868
-0.3641174 -0.46377224 -0.28515762 -0.27813408 -0.60743403 -0.45060536 -0.04022388 -0.24229656
-0.1740261 -0.89952546 -0.3595787 -0.019739306 -0.013878283 -0.17550553 0.10889842 -0.27779368
00000000: 609b 09be 700a 93be d82c 8fbe 1744 1ebe
00000010: 4ce3 ac3d 2384 73be 7343 d8be bcb9 3abf
00000020: d98a bdbe 10f8 dcbe 9764 9bbe 4f49 ecbe
00000030: edb0 c4be f483 11be 0b50 e9be 4a9a 4cbf
00000040: c6f3 0dbf 099c acbe 533a 1dbe 1294 91be
00000050: 806f dabd 3153 1ebe 47d4 90be f324 6fbf
00000060: 8c48 10bf 911f a1be cdc4 d5be 2d77 1bbf
00000070: 1cdf 17bf c9ee c5be 8e58 49bf 1b75 a5bd
00000080: 7c50 dfbd 03ce 0bbc f8bf 76be 9b1c a4bd
00000090: 1152 69bf 000a 7cbc 88eb 6ebe 8e7f c8bd
000000a0: 987c e8be e89c babe 0963 bdbe 36ce 16be
000000b0: 4932 19be 16f3 17bd 9bf7 36be da8c 03bf
000000c0: 996d babe 8e73 edbe 2e00 92be 9767 8ebe
000000d0: cc80 1bbf bfb5 e6be ccc1 24bd 971c 78be
000000e0: e633 32be 4d47 66bf b31a b8be 53b4 a1bc
000000f0: bd61 63bc b9b7 33be 2306 df3d f93a 8ebe

network.3.weight f4 [32, 64]
-0.16542904 0.086864136 -0.028410194 -0.118756615 0.14844657 -0.51366174 -0.10157259 -1.4140377
-0.082381286 -0.71581334 0.25384778 -0.16237904 0.010907849 -0.07577973 -0.024151573 0.310895
-1.427103 -0.05808103 -1.3407786 0.1114289 -0.07563366 0.005751481 0.09398114 -1.6422143
-0.079187945 0.013055159 0.12659387 -0.1511164 -1.795793 -0.30965656 0.73896855 0.064475395
0.061600976 -0.007401935 0.13312878 0.009568991 -1.223322 -0.12973717 -0.014722322 -0.13864948
-0.021308174 -2.020925 0.19147277 0.1976761 0.20309746 -0.013846088 0.10623283 -2.2205312
0.2273735 -0.28558776 0.29781026 -0.16098863 -0.08034315 0.28348926 0.18254703 -0.2777809
0.16060947 -1.6832143 0.36846113 0.11474732 0.16055995 0.045038193 0.12291769 -0.13425837
-0.025484102 -0.42775363 -0.39346522 0.042382326 0.0073732105 -0.5735891 -0.01725533 -0.072315775
-0.0688779 -0.16035801 0.10832435 -0.07157754 -0.21774077 0.07132022 0.014885327 -0.8559938
0.59337485 -0.2723663 -0.079491876 0.0862982 -0.1073241 -0.14952831 0.005922616 -1.9652113
-0.93857723 0.83799297 -0.015495846 -1.0814689 0.23068266 0.28288856 -0.43822116 0.20117316
-0.2775013 -0.043092035 0.10431263 0.0673656 -2.026251 -0.017430963 -0.05651313 0.38908657
-0.10965534 -0.09026412 -0.18048377 0.012969412 0.013084482 0.007451328 -0.11027245 0.010156146
-0.28081718 0.8244737 -0.8561088 0.111286774 0.6043956 -0.19241053 -0.0500166 0.09266318
-0.0442561 -2.0964248 -0.038736135 0.0037581169 0.014865261 -0.2176107 0.015152351 0.08431168
0.025564482 0.0500731 0.11377828 -0.017066544 0.03466376 0.07185054 -0.1681892 -0.55880904
-0.20725688 0.02242567 0.0770335 -0.20246638 -0.08817692 -0.20144653 0.09370905 0.19217417
0.21425189 0.5446986 0.011820444 -0.4290057 -0.4745243 0.37461188 -0.33649862 -3.0836034
-0.275629 0.05380201 -0.8420927 0.37098888 -1.4568065 -0.04301319 -0.62790245 -0.066559814
0.009688813 -0.47585392 -0.37878588 -0.051547762 -2.0488641 -0.080475084 -0.35125515 0.011213372
0.179523 -0.09309054 0.046522617 0.11204824 0.16303574 -0.04148128 0.031864405 0.5845101
0.18708351 0.071029335 0.38085565 -0.9468075 0.17369662 -0.095432386 0.05596555 0.07203494
0.13713089 -3.4180813 -0.022764582 -0.07871938 0.056995396 -0.07265391 0.11662977 1.2082807
0.53887576 -0.0021803542 -0.01570869 -0.027283316 -0.01120801 0.08955341 -0.26456368 0.21764345
0.4828708 0.11087267 0.0745229 -0.20094755 0.17199732 -0.026213033 0.1628912 0.50212836
-1.5263442 0.15467936 -0.011377614 -0.03668098 -0.09709123 0.2767244 -0.050141737 -1.5177163
0.6191674 0.631689 -0.27960512 -0.16995668 -0.4075882 -0.19221626 -1.2040943 0.35054022
-0.0032351715 -0.15818238 -0.22450162 -0.09272697 -1.3860314 -0.038886573 0.5367134 0.027864037
-0.4405117 -0.0960534 -0.37957397 0.0453662 0.04883566 0.071945794 0.00033831468 -0.24612175
-0.082198694 -0.23243776 -0.11920786 -0.02117172 -0.31418213 0.058393333 -0.070810646 -0.25925297
-0.41686693 -1.5711285 -0.06238721 -0.060903896 -0.00045136423 -0.14375508 0.01338724 -0.068464294
00000000: 3b66 29be d3e5 b13d 7fbc e8bc ab36 f3bd
00000010: 6102 183e 567f 03bf 4a05 d0bd 30ff b4bf
00000020: 85b7 a8bd 8b3f 37bf 56f8 813e b146 26be
00000030: d6b6 323c 6732 9bbd 85d9 c5bc a12d 9f3e
00000040: 50ab b6bf 60e6 6dbd a29e abbf d634 e43d
00000050: d2e5 9abd eb76 bc3b 2f79 c03d 1434 d2bf
00000060: 4a2d a2bd 4ee5 553c d3a1 013e 42be 1abe
00000070: 8cdc e5bf 4e8b 9ebe 0b2d 3d3f ad0b 843d
00000080: 4e51 7c3d ee8b f2bb e952 083e 42c7 1c3c
00000090: d195 9cbf d2d9 04be e535 71bc 21fa 0dbe
000000a0: 7b8e aebc d656 01c0 7011 443e 9b6b 4a3e
000000b0: c8f8 4f3e b4da 62bc 9990 d93d 2f1d 0ec0
000000c0: 99d4 683e 8f38 92be 967a 983e 34da 24be
000000d0: f38a a4bd 8125 913e 9ced 3a3e 4c39 8ebe
000000e0: cf76 243e 9173 d7bf f0a6 bc3e a500 eb3d
000000f0: d469 243e f879 383d 45bc fb3d 077b 09be
00000100: 09c4 d0bc 8602 dbbe 4674 c9be 1799 2d3d
00000110: f99a f13b bcd6 12bf 0d5b 8dbc 4b1a 94bd
00000120: db0f 8dbd e434 24be 28d9 dd3d 3f97 92bd
00000130: 70f7 5ebe 5610 923d 96e1 733c 6922 5bbf
00000140: 6ae7 173f 9873 8bbe a3cc a2bd 1cbd b03d
00000150: bdcc dbbd f31d 19be 8112 c23b 0b8c fbbf
00000160: 9946 70bf b586 563f 4ae2 7dbc 936d 8abf
00000170: 1338 6c3e c5d6 903e 865e e0be 5600 4e3e
00000180: a714 8ebe 4681 30bd dca1 d53d faf6 893d
00000190: 19ae 01c0 61cb 8ebc 507a 67bd 5b36 c73e
000001a0: fb92 e0bd 65dc b8bd bdd0 38be a87d 543c
000001b0: 4c60 563c 452a f43b 86d6 e1bd f765 263c
000001c0: 45c7 8fbe b510 533f f229 5bbf 52ea e33d
000001d0: acb9 1a3f 4407 45be 35de 4cbd 31c6 bd3d
000001e0: e245 35bd d32b 06c0 c8a9 1ebd bd4a 763b
000001f0: 6c8d 733c 57d5 5ebe 9141 783c 9aab ac3d
00000200: 9b6c d13c 7319 4d3d 9604 e93d 23cf 8bbc
00000210: 96fb 0d3d 6026 933d ca39 2cbe 1c0e 0fbf
00000220: 263b 54be 0ab6 b73c bdc3 9d3d 5953 4fbe
00000230: 1a96 b4bd 0048 4ebe 88ea bf3d 4ec9 443e
00000240: d964 5b3e 5e71 0b3f 89aa 413c a3a6 dbbe
00000250: d9f4 f2be 21cd bf3e 8c49 acbe c259 45c0
00000260: 3f1f 8dbe 7f5f 5c3d 6393 57bf 41f2 bd3e
00000270: a378 babf 992e 30bd 37be 20bf 8350 88bd
00000280: d4bd 1e3c 20a3 f3be 39f0 c1be bf23 53bd
00000290: 9720 03c0 1fd0 a4bd b7d7 b3be 4bb8 373c
000002a0: e1d4 373e 41a6 bebd 808e 3e3d 8c79 e53d
000002b0: d7f2 263e 46e8 29bd 4084 023d 74a2 153f
000002c0: d292 3f3e d477 913d 83ff c23e fa61 72bf
000002d0: 87dd 313e 0e72 c3bd 223c 653d 0e87 933d
000002e0: 0a6c 0c3e d8c1 5ac0 ca7c babc a037 a1bd
000002f0: 0174 693d 93cb 94bd 97db ee3d f1a8 9a3f
00000300: c3f3 093f 46e4 0ebb 83af 80bc 4381 dfbc
00000310: cda1 37bc c767 b73d e474 87be eddd 5e3e
00000320: d73a f73e 3611 e33d 769f 983d 32c5 4dbe
00000330: 1120 303e b7bc d6bc f3cc 263e 7c8b 003f
00000340: 3f5f c3bf 4464 1e3e 2c69 3abc cc3e 16bd
00000350: c4d7 c6bd d2ae 8d3e 6c61 4dbd 8744 c2bf
00000360: c181 1e3f 5fb6 213f 6728 8fbe 2009 2ebe
00000370: 67af d0be 57d4 44be c31f 9abf 027a b33e
00000380: 2c05 54bb 90fa 21be c1e3 65be a3e7 bdbd
00000390: 7a69 b1bf 8747 1fbd 0d66 093f 1f43 e43c
000003a0: c08a e1be a5b7 c4bd 8557 c2be e9d1 393d
000003b0: e707 483d 5158 933d d45f b139 5707 7cbe
000003c0: ca57 a8bd 2a04 6ebe 4023 f4bd 5170 adbc
000003d0: 7bdc a0be d92d 6f3d 2c05 91bd cebc 84be
000003e0: 956f d5be bd1a c9bf bb89 7fbd 5d76 79bd
000003f0: 15a5 ecb9 8834 13be 2756 5b3c 0237 8cbd

network.3.bias f4 [32]
0.2873281 -0.024420716 -0.2512873 0.0051027974 0.7906797 0.89133215 0.10170337 -0.4079282
0.57601875 0.5032221 0.29981896 0.28965026 0.5690024 0.688889 0.08434238 0.48446444
0.71613836 0.2545071 0.34677792 0.64865553 0.32154748 0.89550924 0.2596815 -0.42613253
0.45538425 0.6299422 0.87593156 0.30780867 0.3949915 0.36302748 0.6809787 0.16046494
00000000: ab1c 933e f40d c8bc bba8 80be 5e35 a73b
00000010: fc69 4a3f 582e 643f db49 d03d f7db d0be
00000020: f775 133f 2ad3 003f df81 993e 0a4d 943e
00000030: 24aa 113f 085b 303f b3bb ac3d b90b f83e
00000040: d854 373f c14e 823e e08c b13e 4a0e 263f
00000050: dfa1 a43e 1840 653f f9f4 843e 0b2e dabe
00000060: 2028 e93e e443 213f 0d3d 603f 1999 9d3e
00000070: 533c ca3e bdde b93e 9f54 2e3f ec50 243e

network.5.weight f4 [1, 32]
0.18616529 0.14005405 -0.18768807 0.12733674 -0.24540916 -0.283585 0.20603798 0.36793265
-0.259877 0.1285406 0.16215268 -0.33923954 0.21140853 0.13969673 -0.38002485 0.148337
0.1221825 0.059270788 0.10830579 0.2380864 0.30689943 -0.2762384 -0.27079833 -0.16894555
0.14209406 0.26137525 0.34704542 -0.21548374 -0.22807756 -0.20525515 0.19535021 0.1034947
00000000: 1da2 3e3e 546a 0f3e 4d31 40be 9064 023e
00000010: 8a4c 7bbe 0e32 91be 9ffb 523e ab61 bc3e
00000020: 990e 85be 26a0 033e 5a0b 263e ceb0 adbe
00000030: 7a7b 583e a90c 0f3e 9e92 c2be a8e5 173e
00000040: d23a fa3d edc5 723d 6dcf dd3d eccc 733e
00000050: ec21 9d3e 1f6f 8dbe 14a6 8abe 1000 2dbe
00000060: 1b81 113e fad2 853e f0af b13e c5a7 5cbe
00000070: 2a8d 69be 682e 52be e309 483e 07f5 d33d
