models/price_predictor_nn_v11.pth (torch, 108959 bytes, 7 tensors)

network.0.weight f4 [256, 29]
0	0xbed4209c	-0.4143113
1	0x3f2b7a95	0.6698392
2	0xbe84327f	-0.25819775
3	0x3e590e76	0.21196923
4	0x3ea4c142	0.32178694
5	0x3efea37f	0.49734113
6	0x3d8fcc6e	0.07021414
7	0x3e07a91c	0.13248104
8	0xbe526c56	-0.2054914
9	0x3e3c787b	0.18405335
10	0x3bbf22aa	0.0058329897
11	0x3c5ca589	0.013467201
12	0x3b5a8acd	0.0033346892
13	0x3eaf5cb0	0.34250402
14	0x3c08736f	0.008328303
15	0xbe620492	-0.22072056
16	0x3e84e530	0.25956106
17	0xbd8f1777	-0.069868974
18	0x3dedecf7	0.11617463
19	0xbe81e5ae	-0.25370544
20	0xbf56a42e	-0.8384427
21	0xbf32740b	-0.6970832
22	0x3f5b3d04	0.8563998
23	0xbf07e444	-0.5308268
24	0xbe59b548	-0.2126056
25	0x3d959566	0.07303886
26	0xbf3f5e0d	-0.74752885
27	0x3e4fb1c1	0.20282651
28	0x3cf58acb	0.029973408
29	0xbdcb99da	-0.09941454
30	0xbee439b5	-0.44575277
31	0x3e5b789b	0.21432726
32	0xbebcb485	-0.36856475
33	0x3efa357c	0.4886893
34	0xc015b629	-2.3392432
35	0x3dac42ae	0.08411156
36	0x3cb09c39	0.021558868
37	0x3d93ebfc	0.07222745
38	0xbe5d89e1	-0.21634628
39	0xbcaa64af	-0.020799963
40	0xbcaa9753	-0.02082411
41	0xbce4e45b	-0.02794092
42	0x3e999247	0.29994413
43	0x3e53ee66	0.2069641
44	0x3eae75cc	0.34074247
45	0x3e7f2395	0.24915917
46	0x3cd3e9dc	0.025868349
47	0x3ecdd21c	0.40199363
48	0xbd99358f	-0.074809186
49	0xbed3184e	-0.4122948
50	0x3e4f958f	0.20271896
51	0xbeec0dcf	-0.46104285
52	0xbf43bd96	-0.7646116
53	0xbf53ee57	-0.8278555
54	0x3e8d532a	0.27602512
55	0x3df73515	0.120706715
56	0xbf2b5576	-0.6692728
57	0xbef03b8d	-0.46920434
58	0xbecbee44	-0.3983022
59	0xbd8ec3a4	-0.06970909
60	0x3e875852	0.2643457
61	0xbecc3042	-0.39880568
62	0xbeb2ab40	-0.34896278
63	0x3e6947b0	0.22781253
64	0x3dcd5b78	0.10027212
65	0xbeccb222	-0.39979655
66	0xbeb88b6a	-0.36043864
67	0x3ea39342	0.31948286
68	0x39fbab93	0.00048002283
69	0x3c4ee2de	0.012627332
70	0xba9a507e	-0.0011773256
71	0x3e0d3c0a	0.13792434
72	0x3ecd4075	0.4008824
73	0x3de3003e	0.110840306
74	0xbed3d498	-0.41373134
75	0x3ef506f6	0.47856873
76	0xbe055969	-0.13022389
77	0xbed46cb5	-0.41489187
78	0xbe467650	-0.1938107
79	0x3f5846bf	0.8448295
80	0xbf14f5e0	-0.58187675
81	0xbeedf7bf	-0.46478078
82	0xbe3c0e8a	-0.18364921
83	0xbd7a54b1	-0.061115924
84	0xbf16a0be	-0.58839023
85	0xbea268d3	-0.317206
86	0xbe83003a	-0.2558611
87	0x3ec2c390	0.38039827
88	0xbc822019	-0.015884446
89	0xbe0b0fec	-0.13580292
90	0xbea96c5f	-0.33090493
91	0x3f0523b8	0.5200763
92	0x3f288ea9	0.6584268
93	0xbdd9b755	-0.10630671
94	0x3d7b42b2	0.061342902
95	0xbf051e54	-0.519994
96	0x3e54f077	0.20794855
97	0x3c9cc90f	0.019138841
98	0x3c8f0620	0.017458975
99	0x3c9e833a	0.019349683
100	0x3da39d9a	0.079890445
101	0xbe51ed36	-0.20500645
102	0x3c9fa6b9	0.01948868
103	0xbe6b802b	-0.22998111
104	0x3f02898b	0.50991124
105	0xbdc47b38	-0.095938146
106	0x3e2182b8	0.15772521
107	0xbf1cf6d7	-0.6131415
108	0x3de43246	0.111424014
109	0xbf24f2bd	-0.6443289
110	0xbf92eaa0	-1.1477852
111	0x3f240cd4	0.64082074
112	0x3e21b28a	0.15790763
113	0x3e9c993b	0.30585656
114	0xbfa0d24f	-1.2564181
115	0x3e1b23ea	0.15150419
116	0xbf48c754	-0.7842915
117	0x3e61fc02	0.2206879
118	0x3db82aa2	0.089925066
119	0xbe31913a	-0.17340556
120	0x3eae616a	0.34058696
121	0xbd39c90a	-0.04535774
122	0xbec97f28	-0.39354825
123	0xbe25b388	-0.16181767
124	0xbeeb7d0f	-0.4599385
125	0xbdeeda2c	-0.11662707
126	0xbb8b355a	-0.0042483034
127	0x3bf778d0	0.007552244
128	0x3bb5d5f6	0.005549188
129	0xbdbe24ed	-0.09284387
130	0xbe045b32	-0.12925413
131	0xbe2ec03c	-0.17065519
132	0xbe49c1a2	-0.19702771
133	0xbe0f21e2	-0.13977769
134	0x3db9bfd5	0.09069792
135	0xbd9435bd	-0.07236812
136	0xbe26708e	-0.16253874
137	0xbe959b6d	-0.29220143
138	0xbcabf933	-0.02099285
139	0x3f2e444d	0.6807297
140	0xbe2876e0	-0.16451597
141	0x3d933542	0.071878925
142	0x3e99ec95	0.3006331
143	0xbeef8c0d	-0.46786538
144	0xbc973130	-0.018456072
145	0xbeaea89e	-0.3411302
146	0xbd9ac436	-0.075569555
147	0x3eb3621e	0.35035795
148	0xbed8cb34	-0.42342532
149	0x3dec0615	0.115245976
150	0xc09407e2	-4.6259623
151	0xbedc98fb	-0.43085465
152	0xbe93f28f	-0.28895995
153	0xbe39ce4d	-0.18145104
154	0xbf05a1bb	-0.52199906
155	0xbd53ff19	-0.051756952
156	0xbd524673	-0.051336717
157	0xbd589344	-0.05287482
158	0xbd851778	-0.06498617
159	0x3d867543	0.06565335
160	0x3e39e15d	0.18152376
161	0xbca2f34f	-0.01989141
162	0xbdb1a125	-0.08673314
163	0xbf31ea8b	-0.6949851
164	0x3dcf1b0f	0.10112583
165	0x3ec01a3f	0.37520024
166	0x3dc0328e	0.093846425
167	0xbf52ee58	-0.82394934
168	0x3e78b892	0.24289158
169	0xbd25c913	-0.040474962
170	0xbe8965e1	-0.2683554
171	0xbf43d09e	-0.764902
172	0x3dc72d0b	0.09725388
173	0xbee83997	-0.45356438
174	0xbe9311ec	-0.2872461
175	0x3d0f1780	0.03493452
176	0x3e006f1c	0.12542385
177	0xbf211561	-0.62923247
178	0x3ca4c814	0.020114936
179	0xc00816a2	-2.1263814
180	0x3eb4ba9d	0.35298625
181	0xbee089d0	-0.43855143
182	0xbe80e07e	-0.25171274
183	0x3f1f295b	0.6217248
184	0xbcbc768f	-0.023005752
185	0xbcde1981	-0.02711177
186	0xbce45f9e	-0.027877625
187	0xbd891424	-0.06693295
188	0xbc9a0e97	-0.018805785
189	0x3d2f56af	0.042807277
190	0xbe00b657	-0.12569557
191	0x3dbace4c	0.09121379
192	0xbf1873d8	-0.59551764
193	0x3e1e9fa0	0.1549058
194	0xbfee6cba	-1.8626931
195	0xbe5f3d65	-0.21800764
196	0xbe581190	-0.2110045
197	0xbf19c518	-0.60066366
198	0x3eee0361	0.46486953
199	0xbe0d5ed0	-0.138057
200	0xbee2c65f	-0.4429197
201	0xbd927f6b	-0.07153209
202	0xbe1b0503	-0.1513863
203	0x3d33131a	0.04371939
204	0x3b139151	0.0022517035
205	0xbce2f6c5	-0.02770556
206	0xbd2e5410	-0.042560637
207	0xbd5a9ca5	-0.053372044
208	0x3f899dae	1.0751245
209	0x3e33e64c	0.1756832
210	0xbecbf054	-0.39831793
211	0x3f11d1b6	0.5696062
212	0xbb99ddea	-0.0046956437
213	0x3c8363fb	0.016038885
214	0x3b980920	0.0046397597
215	0x3ca7b3c0	0.020471454
216	0xbee87924	-0.45404923
217	0xbe1c1aba	-0.1524457
218	0x3dc16ff0	0.094451785
219	0xbf17e853	-0.59338874
220	0x3eab780c	0.33490026
221	0xbdbeb2c6	-0.09311442
222	0xbcba6363	-0.02275247
223	0xbf81332c	-1.0093741
224	0x3f4ac24a	0.7920271
225	0xbf8fc48e	-1.1231859
226	0x3efb6230	0.4909835
227	0x3f0dd4e3	0.55402964
228	0x3db18321	0.08667589
229	0x3ca32943	0.019917136
230	0x3d962921	0.073320635
231	0xbeb3f307	-0.35146353
232	0x3ebfd790	0.3746915
233	0xbe2602a2	-0.16211942
234	0x3a9810ed	0.0011601724
235	0xbeaa302f	-0.33239886
236	0xbe3028c3	-0.1720305
237	0x3e59b7de	0.21261546
238	0x3b85c03d	0.0040817545
239	0x3e97a53d	0.29618254
240	0x3eb4ccd8	0.35312533
241	0xbe9a66ee	-0.30156654
242	0x3c403dda	0.011733497
243	0xbb360f78	-0.0027780216
244	0x3c28e62f	0.010308786
245	0xbf036b0b	-0.5133521
246	0xbed78f5e	-0.42101568
247	0x3ca8e293	0.020615852
248	0xbf03577f	-0.51305383
249	0x3eb48b5a	0.35262567
250	0xbc7585a4	-0.014985476
251	0xbf467471	-0.77521425
252	0x3e347c78	0.17625606
253	0x3ecc66a4	0.3992206
254	0xbef298ad	-0.47382107
255	0x3db057ae	0.086104736

network.0.bias f4 [256]
0	0xbe3c7c80	-0.18406868
1	0xbe1ea470	-0.15492415
2	0xbe72490e	-0.2366068
3	0xbe942829	-0.2893689
4	0xbe8eaee5	-0.2786781
5	0xbea34f15	-0.31896272
6	0xbdb78177	-0.0896024
7	0xbe3e817f	-0.18604086
8	0xbe817e28	-0.25291562
9	0xbf162392	-0.58648026
10	0xbddd133d	-0.10794685
11	0xbd01cedf	-0.03169143
12	0xbf03b3d5	-0.51446277
13	0xbe8ebaea	-0.2787698
14	0xbf05c200	-0.52249146
15	0x3f047381	0.51738745
16	0xbe3a334f	-0.18183635
17	0xbf28bb7c	-0.6591108
18	0xbeee57a9	-0.46551254
19	0xbe5c6a28	-0.2152487
20	0xbef7d516	-0.4840476
21	0xbea5203b	-0.32251152
22	0xbee1b583	-0.44083795
23	0xbe9d7c49	-0.30758885
24	0xbf041490	-0.51593876
25	0xbe43eccb	-0.19133298
26	0xbea22c49	-0.31674412
27	0xbf22ca13	-0.6358959
28	0xbf4bd1c4	-0.7961695
29	0xbea6f691	-0.3260999
30	0xbed48810	-0.41510057
31	0xbef16652	-0.47148377
32	0xbe8c7a25	-0.2743694
33	0xbe9e556d	-0.3092455
34	0xbf06825d	-0.5254267
35	0x3f08c02a	0.5341822
36	0xbda1f8f1	-0.0790881
37	0xbebb3bd1	-0.36569074
38	0xbf202751	-0.6255999
39	0xbf3823f5	-0.71929866
40	0x3e4bd9be	0.19907281
41	0xbda5ebe7	-0.081016354
42	0xbef4c7f4	-0.47808802
43	0xbe72133d	-0.23640151
44	0x3cb91c2b	0.02259644
45	0xbeed731e	-0.4637689
46	0xbee90768	-0.45513463
47	0xbf089444	-0.53351235
48	0xbf040f3d	-0.5158575
49	0xbed569ad	-0.41682187
50	0xbe842997	-0.2581298
51	0xbee6188b	-0.449406
52	0xbf244723	-0.64171046
53	0xbeb86be9	-0.3601983
54	0xbec8856e	-0.391643
55	0xbe76d540	-0.24104786
56	0xbe9d30bd	-0.30701247
57	0xbebca5cf	-0.36845252
58	0xbf42e873	-0.7613594
59	0xbe72a0db	-0.23694174
60	0xbf21f9c2	-0.63271725
61	0xbef2d6f8	-0.47429633
62	0xbec19d93	-0.37815532
63	0xbf61caa7	-0.8819985
64	0xbe3cf21e	-0.18451735
65	0xbf638961	-0.888815
66	0x3e5bfedf	0.21483944
67	0xbf19c368	-0.6006379
68	0xbf522021	-0.82080275
69	0xbe725ebd	-0.23668952
70	0xbf1a633a	-0.6030766
71	0xbd3dc739	-0.04633257
72	0xbf498b80	-0.78728485
73	0xbf7c910b	-0.9865882
74	0xbf1da187	-0.61574596
75	0xbee546d0	-0.44780588
76	0xbf1c2717	-0.60997146
77	0xbeeb0b3c	-0.4590701
78	0xbed7d4f0	-0.42154646
79	0xbedee81e	-0.43536466
80	0xbee2aa0f	-0.4427037
81	0xbeb2dfb5	-0.349363
82	0xbf1da8c9	-0.6158567
83	0xbefa7b52	-0.4892221
84	0xbe696f63	-0.22796397
85	0xbecf7fae	-0.405271
86	0xbeffddf9	-0.4997404
87	0xbe98ce54	-0.29844916
88	0xbf863c75	-1.04872
89	0xbf12c6bf	-0.5733451
90	0xbef853d1	-0.48501447
91	0xbf5b4288	-0.85648394
92	0xbf605ca2	-0.87641346
93	0xbe0f4e83	-0.13994794
94	0xbec4c841	-0.38434032
95	0x39b0357a	0.0003360918
96	0xbe63df45	-0.2225314
97	0xbf03fff0	-0.51562405
98	0xbd9ef9f3	-0.07762518
99	0xbea1ef47	-0.31627867
100	0xbe10b6af	-0.14132188
101	0xbeeff2fe	-0.46865076
102	0xbe81c159	-0.25342825
103	0xbd8ff9f6	-0.07030098
104	0xbf42bca5	-0.760691
105	0xbf3aa3d5	-0.7290624
106	0xbee2e7c3	-0.44317445
107	0xbf78654e	-0.9702958
108	0xbf1676fc	-0.58775306
109	0x3d8bea55	0.06831805
110	0xbf0af2d9	-0.54276806
111	0xbd779aee	-0.060450487
112	0xbebb1679	-0.36540583
113	0xbdb16a44	-0.08662847
114	0xbec82f0a	-0.39098388
115	0xbf2f13de	-0.6838969
116	0xbf06775d	-0.52525884
117	0xbe8fa4f8	-0.2805555
118	0xbf42af9e	-0.7604922
119	0xbecc09af	-0.39851138
120	0xbf121197	-0.5705809
121	0xbf2592c1	-0.64677054
122	0xbed498b0	-0.4152274
123	0xbe9cdd46	-0.30637568
124	0xbf098749	-0.53722054
125	0xbf1ab927	-0.6043877
126	0xbea71975	-0.3263661
127	0xbe863071	-0.26208833
128	0xbe961ed3	-0.29320392
129	0xbf56a4b2	-0.83845055
130	0xbee2e84b	-0.4431785
131	0xbf0b346d	-0.5437687
132	0x3dba23db	0.0908887
133	0xbebe93aa	-0.37222034
134	0xbed3a00f	-0.41333053
135	0xbf143ed4	-0.5790837
136	0xbe4019bc	-0.18759817
137	0xbe90ea34	-0.28303683
138	0xbf22e3ed	-0.6362904
139	0xbec609a9	-0.38679245
140	0xbea8055c	-0.3281659
141	0xbf00234b	-0.5005385
142	0xbec39205	-0.38197342
143	0xbe3d410f	-0.18481849
144	0xbf72c707	-0.9483494
145	0xbee8a09e	-0.4543504
146	0xbf387a88	-0.7206197
147	0xbee8365d	-0.45353976
148	0xbeab63bf	-0.33474538
149	0xbf492a9f	-0.7858066
150	0x3ec9ed20	0.39438725
151	0xbee3dc71	-0.4450412
152	0xbf01f57f	-0.5076522
153	0xbee355e3	-0.44401464
154	0xbef0ca4c	-0.4702934
155	0xbe9aa161	-0.30201247
156	0xbe7d2add	-0.24723382
157	0xbf87c959	-1.0608321
158	0xbe997792	-0.29974037
159	0xbebc2b9d	-0.36752024
160	0xbea56db1	-0.3231025
161	0xbf1cc06f	-0.6123113
162	0xbf80820e	-1.003969
163	0xbebd2775	-0.36944166
164	0xbf294221	-0.6611653
165	0xbf178b90	-0.5919733
166	0xbf169248	-0.5881696
167	0xbefcffe7	-0.49413988
168	0xbeae28e7	-0.3401558
169	0xbe3a0403	-0.18165593
170	0xbf0469b1	-0.5172377
171	0xbf101142	-0.56276333
172	0xbeb86589	-0.36014965
173	0xbec5f384	-0.3866235
174	0xbde37408	-0.111061156
175	0xbeb9942c	-0.3624586
176	0xbec36d9f	-0.38169572
177	0xbee259c4	-0.4420911
178	0xbef9c39e	-0.48782057
179	0xbe0b3386	-0.13593873
180	0xbf56df92	-0.8393489
181	0xbeaed2e4	-0.34145272
182	0xbf2c5521	-0.67317396
183	0xbed248af	-0.41071078
184	0xbf5f81bb	-0.8730733
185	0xbeaf027c	-0.34181583
186	0xbe793247	-0.24335586
187	0xbeb52754	-0.35381567
188	0xbedd2a17	-0.43196175
189	0xbddbfecc	-0.10741958
190	0xbee9a490	-0.45633364
191	0xbf78d7b6	-0.9720415
192	0xbf58ca24	-0.8468344
193	0xbd4024e7	-0.046910193
194	0xbe9b472f	-0.30327746
195	0xbef918a8	-0.48651624
196	0xbd956633	-0.072948836
197	0xbf13b033	-0.57690734
198	0xbe1371b2	-0.1439884
199	0xbedd7174	-0.4325062
200	0xbecdeb73	-0.40218696
201	0xbec94989	-0.39313915
202	0xbf8a8613	-1.0822166
203	0xbe2600e1	-0.16211273
204	0xbf308b91	-0.6896296
205	0xbf1d3e43	-0.6142313
206	0xbeb52955	-0.35383096
207	0xbf5d530e	-0.86454856
208	0xbf36a1b3	-0.71340483
209	0xbeac599e	-0.33662122
210	0xbee6fdb6	-0.4511544
211	0xbeaa00e5	-0.33203807
212	0xbd5d00f0	-0.053955972
213	0xbec24617	-0.379441
214	0xbf14119a	-0.5783936
215	0xbefe1486	-0.49625033
216	0xbf403008	-0.7507329
217	0x3e8f6adb	0.28011212
218	0xbe963709	-0.29338863
219	0x3f0862b9	0.5327564
220	0xbef7bbfe	-0.48385614
221	0xbf3990aa	-0.72486365
222	0xbf748385	-0.9551318
223	0xbe471b88	-0.19444096
224	0xbf40c3db	-0.7529885
225	0xbf1ab934	-0.6043885
226	0xbe7db68a	-0.24776664
227	0xbe8942b3	-0.268087
228	0xbec3cf70	-0.382442
229	0xbeea9cc2	-0.45822722
230	0xbe56d920	-0.20981264
231	0xbe42fb38	-0.19041145
232	0xbeb13797	-0.34612724
233	0xbe9e54ed	-0.30924168
234	0xbe62a5af	-0.22133516
235	0xbef3f2f4	-0.47646296
236	0xbe1f1e9b	-0.15539019
237	0xbf036e64	-0.5134032
238	0xbe9d9609	-0.3077853
239	0xbedce17f	-0.4314079
240	0xbf4b0739	-0.79307896
241	0xbf133e8c	-0.57517314
242	0xbf1dfd81	-0.6171494
243	0xbea02030	-0.31274557
244	0xbddac180	-0.106814384
245	0xbeba5b74	-0.36397898
246	0xbea3d8a0	-0.3200121
247	0xbe86f118	-0.26355815
248	0xbf76704c	-0.962651
249	0xbf1a733a	-0.6033207
250	0xbe15188d	-0.14560147
251	0xbebb4c74	-0.36581767
252	0xbe81784f	-0.252871
253	0xbf4371ad	-0.7634533
254	0xbeb0c085	-0.3452188
255	0xbf1ad7d5	-0.60485584

network.3.weight f4 [64, 256]
0	0x3e32df51	0.17468001
1	0x3e51dfa6	0.20495471
2	0x3ead72be	0.33876604
3	0x3ee26c3f	0.4422321
4	0x3ded7414	0.11594406
5	0x3b6b6a9c	0.0035921698
6	0x3d8b519d	0.06802676
7	0xbec18098	-0.37793422
8	0x3eebb780	0.46038437
9	0x3da64cd5	0.08120123
10	0xbd02d5ea	-0.031942286
11	0xbee68036	-0.45019692
12	0x3e8a11bd	0.26966658
13	0xbf7f3ab7	-0.99698967
14	0x3f25352a	0.64534247
15	0x3d98e807	0.07466131
16	0xbd3b6104	-0.04574682
17	0x3d366afd	0.044535626
18	0x3eba1aba	0.36348516
19	0xbe2dd873	-0.169771
20	0xbf556b59	-0.83366925
21	0xbd95e001	-0.07318116
22	0x3e2322cb	0.15931241
23	0x3eaac89b	0.33356175
24	0xbe0d3a8b	-0.13791864
25	0x3e0af5a9	0.13570274
26	0x3d036684	0.03208019
27	0x3dd58cbf	0.10427236
28	0x3eef82e5	0.46779552
29	0xbdc1b4ff	-0.094583504
30	0x3eedebac	0.46468866
31	0x3e9f9562	0.31168658
32	0x3d6586d6	0.056036793
33	0xbf0426a8	-0.51621485
34	0xbe6ef124	-0.23334175
35	0x3c693a1d	0.014235047
36	0x3db48f8e	0.088164434
37	0x3c9c273c	0.019061677
38	0xbd34431d	-0.044009317
39	0x3e248485	0.16066177
40	0x3d83a2cc	0.064275354
41	0xbe018d38	-0.12651527
42	0x3d486b99	0.048930738
43	0x3ea73b52	0.32662445
44	0xbdc0833a	-0.094000295
45	0xbe5ffc98	-0.218737
46	0x3c9f9072	0.019478057
47	0x3f28ebce	0.6598481
48	0x3cebe547	0.028795851
49	0x3e63f371	0.22260834
50	0xbdb654d0	-0.089028955
51	0xbcdd24ac	-0.026995026
52	0xbe18f5e3	-0.14937548
53	0x3d91461c	0.070934504
54	0xbe2985ac	-0.16554898
55	0x3e8b2dcb	0.27183375
56	0x3eed6648	0.46367097
57	0x3e93aed5	0.28844324
58	0xbcd51b79	-0.026014077
59	0xbf259a1c	-0.6468828
60	0xbc9ea75b	-0.01936691
61	0x3f07af02	0.53001416
62	0x3c8bf0e7	0.017082645
63	0x3dfc05a6	0.12305765
64	0x3cac3749	0.021022456
65	0x3ed94c11	0.42440847
66	0xbcaa04cb	-0.020754239
67	0xbea58cab	-0.32333884
68	0x3f1a5655	0.6028798
69	0x3e41b126	0.18915233
70	0xbf935189	-1.1509258
71	0x3e786dd0	0.2426064
72	0xbea56d74	-0.3231007
73	0x3ddb73a2	0.107154146
74	0xbe62e89e	-0.22159049
75	0x3f09c620	0.5381794
76	0xbd36e22d	-0.04464929
77	0xbe33dd12	-0.175648
78	0x3ea88b0b	0.3291858
79	0x3edb37b9	0.4281595
80	0xbe5dee60	-0.21672964
81	0x3ea451db	0.320937
82	0x3efa138b	0.48843035
83	0xbe828592	-0.2549253
84	0x3e51e9e0	0.20499372
85	0xbe1f248e	-0.15541288
86	0xbefb6c40	-0.49106026
87	0xbeaace04	-0.33360302
88	0xbf4b65ff	-0.7945251
89	0x3f3bd5cc	0.73373103
90	0x3c7fcb67	0.01561246
91	0xbd4301d1	-0.047609154
92	0xbe2f1fab	-0.17101924
93	0xbcb0a323	-0.021562165
94	0x3d7258ae	0.059166603
95	0xbf549699	-0.83042294
96	0xbfb26d82	-1.3939669
97	0xbc9ab374	-0.018884398
98	0xbd1875d9	-0.037221763
99	0x3d81698c	0.063189596
100	0x3ec22f3a	0.37926656
101	0xbf1bdb0c	-0.60881114
102	0x3e4637e0	0.19357252
103	0xbf1697c0	-0.588253
104	0x3e2c01e5	0.16797598
105	0xbf0bb487	-0.5457234
106	0x3d7dcec2	0.061964758
107	0xbf5d6e0f	-0.8649606
108	0x3eae7063	0.3407012
109	0x3d91b439	0.07114453
110	0xbda1c641	-0.07899142
111	0xbf001e6b	-0.50046414
112	0x3f6eff1f	0.93358034
113	0x3d9839b0	0.07432878
114	0x3ecb3469	0.39688423
115	0x3f0b87ee	0.5450429
116	0x3ebf7dff	0.37400815
117	0xbd4ee2ad	-0.050509144
118	0x3da5e4b7	0.081002645
119	0x3ebe3d05	0.3715593
120	0x3ebc0cbf	0.36728474
121	0x3d9c6895	0.07637135
122	0xbd047162	-0.032334693
123	0xbe9bd4ff	-0.3043594
124	0x3e810d17	0.252053
125	0xbdfaf127	-0.122530274
126	0x3d17b527	0.037037995
127	0x3d04bc83	0.03240634
128	0xbe42709d	-0.18988271
129	0xbe308e86	-0.17241868
130	0xbe00a769	-0.12563862
131	0x3e9a97e9	0.30194023
132	0xbd85b661	-0.06528927
133	0x3d9ea51d	0.077463366
134	0xbf4aa3f6	-0.79156435
135	0x3caf7929	0.021420078
136	0x3e259aba	0.16172305
137	0x3e865351	0.2623544
138	0x3eaae8c5	0.33380714
139	0x3e060bc2	0.13090423
140	0x3d37c01e	0.04486095
141	0x3e65c955	0.22440083
142	0x3e95f258	0.29286456
143	0xbe0df4d7	-0.1386293
144	0xbf01cb84	-0.50701165
145	0x3ea5a6af	0.32353732
146	0x3ef78d45	0.48349968
147	0xbe387db6	-0.18016705
148	0x3e0c2973	0.13687687
149	0x3f4857df	0.7825908
150	0x3d55ba1b	0.052179437
151	0x3d958364	0.073004514
152	0xbd07ed97	-0.033185568
153	0xbe42218d	-0.18958111
154	0xbe2772b0	-0.16352344
155	0x3e44780a	0.19186416
156	0x3e80d268	0.25160527
157	0x3dcef34a	0.101049975
158	0x3e8eeeac	0.27916467
159	0x3ce871d6	0.028374594
160	0xbc571be1	-0.013129205
161	0x3e940f08	0.28917718
162	0x3e9c9018	0.30578685
163	0x3d8a90a9	0.06765873
164	0xbd17d49e	-0.037068002
165	0xbf0fba02	-0.561432
166	0x3cca913f	0.024727462
167	0x3d643fcb	0.0557249
168	0x3dd5f8a8	0.10447818
169	0xbd8f534f	-0.06998312
170	0xbeb077af	-0.3446631
171	0xbd9e8fe7	-0.07742291
172	0x3e45e38e	0.19325086
173	0x3ca731d9	0.020409511
174	0x3d9b058a	0.07569416
175	0x3e2b6be8	0.16740382
176	0x3eaa9660	0.33317852
177	0x3d1a9406	0.037738822
178	0x3e0c7dab	0.13719814
179	0xbe1d109c	-0.15338367
180	0xbc613a06	-0.013746744
181	0x3e8cea37	0.27522442
182	0xc018df74	-2.3886385
183	0xbce782a8	-0.028260544
184	0x3d75006b	0.05981485
185	0xbee8e78d	-0.4548916
186	0xbe733111	-0.23749186
187	0x3de93401	0.11386872
188	0x3c7f29af	0.015573903
189	0x3e697c05	0.22801216
190	0x3e152982	0.14566615
191	0xbf0e939a	-0.5569397
192	0xbe713b24	-0.23557717
193	0x3dc3ad08	0.095544875
194	0x3e5d0987	0.21585666
195	0xbe547dcb	-0.20751111
196	0xbe5e01d1	-0.2168038
197	0xbf00adf3	-0.50265425
198	0x3e419f85	0.18908508
199	0xbef8b579	-0.48575953
200	0xbe7bb4af	-0.24580644
201	0xbdd27a1d	-0.102771975
202	0xbee19df3	-0.44065818
203	0xbd9536f6	-0.072858736
204	0x3e100ebc	0.1406812
205	0x3e0be089	0.13659872
206	0x3e976932	0.29572445
207	0x3d7059fc	0.058679566
208	0xbdc80b28	-0.09767753
209	0xbecd3c77	-0.40085194
210	0xbaa7af5e	-0.0012793352
211	0xbe277a0b	-0.1635515
212	0x3e1b7b52	0.15183762
213	0x3e9397e4	0.2882682
214	0x3e7d523a	0.24738398
215	0x3e89dc52	0.26925904
216	0xbdbac0d4	-0.0911881
217	0x3d15c0d5	0.036560852
218	0x3dfebb60	0.12438083
219	0x3d0b2504	0.033970848
220	0x3da10eec	0.07864174
221	0xbd6cb398	-0.05778846
222	0xbd2f14da	-0.042744495
223	0xbdd514f8	-0.1040439
224	0xbe437d0d	-0.19090672
225	0xbf1cbe70	-0.61228085
226	0x3e279bbc	0.16368002
227	0x3e89452d	0.2681059
228	0xbf9a5096	-1.2055843
229	0xbf770106	-0.96485937
230	0x3ece0292	0.40236336
231	0xbaa273a8	-0.0012394087
232	0x3c886230	0.016648382
233	0x3e4b0469	0.19825901
234	0x3d3a7f87	0.045531776
235	0xbea66d25	-0.32505146
236	0x3ccf1d31	0.025282474
237	0x3e111d07	0.1417123
238	0xbedc9fd9	-0.43090704
239	0x3dd72d83	0.105067275
240	0xbd0be141	-0.034150366
241	0x3a6a6e48	0.0008942825
242	0x3e750080	0.23925972
243	0xbd351281	-0.0442071
244	0x3d862e62	0.065518156
245	0x3e3d2151	0.1846974
246	0x3e2d8c55	0.16948064
247	0x3ed12f50	0.4085641
248	0xbd59a379	-0.053134415
249	0xbe0e7768	-0.13912737
250	0x3d9a8bc1	0.07546187
251	0x3e84891e	0.25885862
252	0xbe161bc1	-0.14659025
253	0xbe3d3077	-0.18475519
254	0xbde833ca	-0.11338003
255	0xbfdd895c	-1.7307544

network.3.bias f4 [64]
0	0xbd337314	-0.04381092
1	0x3f9a6c37	1.2064275
2	0xbe90b25b	-0.28261074
3	0x3ea9be7a	0.33153135
4	0x3f1870a1	0.5954686
5	0x3dc7b7f0	0.0975188
6	0x3f2e23d0	0.68023396
7	0x3f523233	0.8210785
8	0x3aeb51cf	0.0017953458
9	0xc03b05a5	-2.9222195
10	0x3eaeb8c4	0.3412534
11	0x3f624b94	0.88396573
12	0x3df25a34	0.11833611
13	0x3f85a2d6	1.0440319
14	0x3f61efb6	0.88256395
15	0xbe3ac283	-0.18238263
16	0x3f532727	0.82481617
17	0x3ede327b	0.4339789
18	0x3f148a7f	0.5802383
19	0x3fb7d654	1.4362283
20	0x3f50d521	0.8157521
21	0xbdf2a665	-0.118481435
22	0xbf11335e	-0.56719005
23	0x3f350779	0.7071453
24	0x3f6e5a58	0.93106604
25	0x3f525eb3	0.8217575
26	0x3eec7c81	0.4618874
27	0x3e1627fa	0.14663687
28	0x3ef18e6c	0.47178972
29	0x3ead84f0	0.33890486
30	0xbe57ae6c	-0.2106263
31	0xbfc687c7	-1.5510186
32	0x3f98d65b	1.1940416
33	0x3e2d53c5	0.16926487
34	0x3eaaa064	0.33325493
35	0x3c63e0b0	0.01390855
36	0x3fb7d912	1.436312
37	0xbe60e20e	-0.21961233
38	0xbec9fdb0	-0.3945136
39	0x3f50181f	0.81286806
40	0xbdb7ee2d	-0.08980975
41	0x3f016c40	0.505558
42	0x3e31675c	0.17324585
43	0x3dfaf1eb	0.122531734
44	0xbd7fc7e8	-0.062446505
45	0xbe8c129d	-0.2735795
46	0x3f0d4a8e	0.55191886
47	0x3f0424b3	0.516185
48	0x3f7bf9df	0.9842815
49	0x3f6cd9ab	0.92519635
50	0x3f99deba	1.2021096
51	0x3d27f7ca	0.041007794
52	0x3f1ee432	0.6206695
53	0x3f68899d	0.9083498
54	0x3e9148c2	0.28375822
55	0x3e3a547f	0.18196295
56	0x3ebc4e89	0.36778668
57	0x3f295b5b	0.6615502
58	0xbed42f49	-0.41442326
59	0x3f55323a	0.83279765
60	0x3f7158e5	0.9427627
61	0x3f4257c4	0.7591517
62	0xbea768c7	-0.32697126
63	0x3daa0a29	0.08302719

network.5.weight f4 [32, 64]
0	0xbe1f6622	-0.15566304
1	0x3e35c203	0.17749791
2	0x3bdac314	0.006676087
3	0xbdb10a3c	-0.0864453
4	0xbd2fa1b8	-0.042878836
5	0x3e3afa9a	0.1825966
6	0xbef68fba	-0.4815653
7	0x3e2922eb	0.16517226
8	0xbd0caaaa	-0.034342445
9	0xbeb3650c	-0.3503803
10	0x3d2053cb	0.03914241
11	0x3eebd340	0.46059608
12	0x3f0d4576	0.55184114
13	0x3e858532	0.26078182
14	0xbe04c4b8	-0.12965667
15	0xbd5f1cd0	-0.054470837
16	0x3de1ca1a	0.11024876
17	0x3e888434	0.26663363
18	0xbe1b79ee	-0.15183231
19	0x3d8ce564	0.0687969
20	0x3e8183c6	0.25295848
21	0xbc3795fc	-0.011205193
22	0xbfc28c04	-1.5198979
23	0xbefa3c90	-0.4887433
24	0x3e6ad145	0.22931392
25	0x3c84f34b	0.016229292
26	0xbf6b48e6	-0.9190811
27	0xbf185f4e	-0.59520423
28	0xbe852cb6	-0.26010674
29	0xbea60b8f	-0.32430694
30	0xbd8721cf	-0.06598245
31	0xbe0e8257	-0.13916908
32	0xbce3c602	-0.027804378
33	0xbdf31c0a	-0.118705824
34	0x3ca6360b	0.020289442
35	0x3d605500	0.054768562
36	0xbe32ff56	-0.17480215
37	0xbeccc7f2	-0.39996296
38	0x3eafd4d3	0.3434206
39	0xbd3f6ae6	-0.046732806
40	0x3d534b8a	0.05158571
41	0xbd19eeb4	-0.03758116
42	0xbe8cd1e3	-0.2750388
43	0x3e87c079	0.26514032
44	0xbefae5f1	-0.49003556
45	0xbe4f06e8	-0.20217478
46	0xbef22236	-0.47291726
47	0xbf3b8261	-0.7324582
48	0x3d8dfe6d	0.069332935
49	0x3e986f93	0.29772624
50	0xbe2c7863	-0.16842799
51	0xbe49c3a7	-0.19703542
52	0xbf42fada	-0.7616402
53	0xbe1409c9	-0.14456858
54	0xbde472e9	-0.1115473
55	0xbe30b3e0	-0.17256117
56	0x3e2d1cba	0.1690549
57	0xbefbaea4	-0.49156678
58	0xbd023605	-0.0317898
59	0x3dc0a5f7	0.09406655
60	0x3ea58f34	0.32335818
61	0xbeb72f6a	-0.35778362
62	0xbbe2d884	-0.0069227833
63	0x3ea7251c	0.326455
64	0x3d8501a8	0.064944565
65	0x3e0607a8	0.13088858
66	0xbd9bc0fa	-0.07605167
67	0x3cd503d9	0.026002811
68	0xbe2a6c68	-0.16642916
69	0x3eb2d89c	0.34930885
70	0x3d364b64	0.04450549
71	0x3eb529ea	0.3538354
72	0xbe7a118a	-0.24420753
73	0xbed5efbe	-0.4178447
74	0xbe820e92	-0.2540174
75	0xbd500683	-0.05078746
76	0xbda53fd3	-0.08068814
77	0xbe865cd8	-0.2624271
78	0xbea3acc8	-0.3196776
79	0xbece8336	-0.4033448
80	0x3f087b3d	0.53313047
81	0xbe6c10c0	-0.23053265
82	0x3d1dd6e7	0.038535025
83	0x3eba9e55	0.36448923
84	0x3d2fa1cb	0.042878907
85	0xbdfd6ce0	-0.12374282
86	0xbe85f506	-0.261635
87	0xbda225f0	-0.07917392
88	0x3ebe0708	0.3711474
89	0x3e89be0c	0.26902807
90	0x3e3a1d10	0.18175149
91	0xbcf72c83	-0.030172592
92	0x3db36e63	0.08761289
93	0xbc1c793b	-0.009550388
94	0xbdad5551	-0.084635384
95	0xbd4cf073	-0.050033998
96	0x3ed25752	0.41082245
97	0xbc864c6c	-0.016393863
98	0x3def31d8	0.11679429
99	0xbebb8577	-0.36625263
100	0xbd9a1a53	-0.07524552
101	0xbf110eb3	-0.56663054
102	0x3d8a1fc3	0.06744339
103	0xbd9aab48	-0.075522006
104	0x3d393a6c	0.04522173
105	0x3eb4e5a1	0.35331443
106	0x3d06a638	0.032873362
107	0x3e0e5b3f	0.13901995
108	0x3c19347d	0.009350893
109	0xbed59bd2	-0.41720444
110	0x3d938acb	0.07204207
111	0xbf849e98	-1.0360899
112	0xbe446f6f	-0.19183134
113	0x3f25c806	0.64758337
114	0x3d4aa2d3	0.049471688
115	0xbd834c12	-0.06410994
116	0x3dc6ab88	0.09700686
117	0x3cf22968	0.02956076
118	0x3e56f2d2	0.20991066
119	0x3c9e8adc	0.019353323
120	0xbeb20180	-0.3476677
121	0xbd203993	-0.039117407
122	0x3e25eefe	0.1620445
123	0xbb6e9dba	-0.003640993
124	0x3e98f3fb	0.29873642
125	0x3e749dd2	0.23888329
126	0xbd9a451b	-0.07532712
127	0xbf09b350	-0.53789234
128	0xbe0925fe	-0.13393399
129	0x3e0f30de	0.13983485
130	0xbda4e0b7	-0.080506735
131	0x3a235030	0.00062299054
132	0xbe9f72f2	-0.31142384
133	0xbd838b09	-0.06423003
134	0x3e8a9c62	0.27072436
135	0xbe1baf69	-0.15203632
136	0x3d1ec849	0.038765226
137	0xbda1c5b4	-0.07899037
138	0x3e058b46	0.1304141
139	0x3e57b78e	0.21066114
140	0xbecf75a2	-0.40519434
141	0xbe387c05	-0.1801606
142	0x3ab5e997	0.0013878819
143	0x3eabc729	0.33550385
144	0x3ed3e920	0.41388798
145	0x3d57658f	0.05258709
146	0xbdcde454	-0.10053316
147	0xbdbeb597	-0.09311979
148	0x3d4a5c00	0.049404144
149	0x3d8107a5	0.06300286
150	0xbd05cfd1	-0.032668892
151	0xbeefa6e4	-0.46807015
152	0x3d5b81cd	0.053590585
153	0x3eceb387	0.40371343
154	0xbe834bc3	-0.2564374
155	0x3d712960	0.05887735
156	0xbe8cd1d6	-0.27503842
157	0xbdc584c4	-0.09644464
158	0x3e195863	0.14975123
159	0xbe7ef10d	-0.24896641
160	0x3e166ba6	0.14689502
161	0x3a43dee8	0.0007471875
162	0xbc4129e7	-0.011789775
163	0xbe82ccbe	-0.2554683
164	0x3e9a3b6d	0.30123463
165	0x3ec100a4	0.376958
166	0xbeeb204f	-0.45923087
167	0xbd813ba9	-0.063102074
168	0x3dcc8bc5	0.099875964
169	0xbc8b5be2	-0.017011587
170	0x3e9d2607	0.30693075
171	0xbe9b26e9	-0.30303124
172	0xbd71d488	-0.059040576
173	0x3ea5bcc5	0.32370582
174	0x3de167db	0.11006137
175	0xc03a6fd0	-2.9130745
176	0x3dc1c163	0.09460714
177	0xbc1b3574	-0.009473193
178	0xbe715e8c	-0.23571223
179	0xbfa01ccd	-1.2508789
180	0x3d150b04	0.03638746
181	0x3d892515	0.06696526
182	0x3e6141ae	0.21997711
183	0xbbcb7cd1	-0.0062099476
184	0x3e0ca6fd	0.13735576
185	0x3eb58e8b	0.35460314
186	0xbe865562	-0.26237017
187	0x3e59e99b	0.2128052
188	0xbdde2706	-0.10847287
189	0x3dbffc49	0.093742914
190	0x3d2c4be1	0.04206455
191	0xbedcc542	-0.43119246
192	0x3e1075ac	0.14107388
193	0xbfdf0047	-1.742196
194	0x3e79fc6a	0.24412695
195	0xbee9fbab	-0.4569982
196	0xbf03b405	-0.51446563
197	0xbec7e0a1	-0.39038566
198	0x3acff562	0.0015865976
199	0x3d87850e	0.06617175
200	0xbf02c237	-0.510776
201	0x3d027d1f	0.031857606
202	0xbf36936a	-0.71318686
203	0xbf08df90	-0.5346613
204	0xbd18dfb3	-0.03732271
205	0xbe60329e	-0.21894309
206	0x3f0f1549	0.55891854
207	0xbeb0d3e2	-0.34536654
208	0x3eb03b03	0.34420022
209	0xbecb4769	-0.3970292
210	0xbe074756	-0.13210806
211	0xbd9bb69d	-0.0760319
212	0xbbc79900	-0.006091237
213	0x3d68639c	0.05673562
214	0xbdaf6ac1	-0.085652836
215	0x3da83a95	0.08214299
216	0xbee430dd	-0.4456853
217	0xbf9ee8fb	-1.241485
218	0xbebe22a7	-0.37135813
219	0xbe033e37	-0.12816702
220	0x3eb04aaa	0.34431964
221	0x3d061f5a	0.032744743
222	0xbf867f7c	-1.0507655
223	0x3db5d9e1	0.08879448
224	0x3e1fd808	0.15609753
225	0xbc504ce0	-0.012713641
226	0xbf03a068	-0.51416636
227	0xbe43b0d7	-0.19110428
228	0x3e7c85eb	0.2466046
229	0xbe1a6fab	-0.1508166
230	0xbefa5c92	-0.4889875
231	0xbf43754c	-0.76350856
232	0x3d6386f4	0.055548623
233	0xbf9628f3	-1.1731247
234	0x3d04ec07	0.032451656
235	0xbe10bf01	-0.14135362
236	0xbfb87f58	-1.4413862
237	0xb9eedaa9	-0.00045557812
238	0x3f217874	0.6307442
239	0xbc68c8cc	-0.01420803
240	0xbe866417	-0.26248237
241	0xbdba5a56	-0.090992615
242	0xbf1d55f1	-0.6145926
243	0x3c151350	0.009098843
244	0x3e437583	0.19087796
245	0xbea8cd72	-0.32969242
246	0xbd570809	-0.052497897
247	0x3d03ae43	0.03214861
248	0xbec02deb	-0.37535033
249	0x3e87cc3a	0.26523
250	0x3c7c2e06	0.015391832
251	0x3cd461dc	0.02592557
252	0xbe091c32	-0.13389662
253	0xbe618a2a	-0.22025362
254	0xc013bd51	-2.30843
255	0xbdfdb90f	-0.12388813

network.5.bias f4 [32]
0	0x3fa5cf94	1.2953973
1	0x3f6edb28	0.93303156
2	0x3fa5af94	1.2944207
3	0xbf1475cd	-0.5799225
4	0xbe967dba	-0.29392797
5	0x3f8c5941	1.0964738
6	0x3f83eb6e	1.0306222
7	0x3f72448c	0.94635844
8	0x3f775e09	0.9662786
9	0xbf328627	-0.6973595
10	0x3fa5ae78	1.2943869
11	0x3f9f3433	1.2437805
12	0xbed9cd55	-0.42539468
13	0x3e38af9f	0.18035744
14	0xbec646df	-0.38725945
15	0x3f9da9fa	1.2317498
16	0x3f674e44	0.903538
17	0x3f937249	1.1519252
18	0x3f941378	1.1568441
19	0x3f95183e	1.1648023
20	0x3f375566	0.7161468
21	0xbe027f6c	-0.1274392
22	0x3f92aea1	1.1459543
23	0xbd15ee06	-0.03660395
24	0xbe9a3479	-0.30118158
25	0x3fcaa869	1.5832645
26	0x3f680031	0.9062529
27	0x3e9b0f51	0.30285123
28	0x3f67f40e	0.9060677
29	0x3ddb7ce3	0.107171796
30	0x3f44f76c	0.76940036
31	0x3e86e808	0.263489

network.7.weight f4 [1, 32]
0	0x3dedb9d3	0.11607709
1	0xbd8e411c	-0.069460124
2	0x3d5f9962	0.054589637
3	0xbe4b0d75	-0.19829352
4	0x3dade69f	0.08491253
5	0x3d3a6089	0.04550222
6	0x3d2c36e1	0.042044524
7	0xbd48805f	-0.04895055
8	0xbd765132	-0.060136028
9	0xbd77d1bd	-0.060502756
10	0x3e08aea7	0.13347875
11	0x3d4114cc	0.047138974
12	0xbdf2fb24	-0.118643075
13	0x3d2b9785	0.041892547
14	0xbe02244b	-0.12709157
15	0xbd86c8e4	-0.065812856
16	0x3cd93b0f	0.02651742
17	0xbd500ef6	-0.050795518
18	0x3dab6c85	0.08370308
19	0x3dba024d	0.0908247
20	0x3d04ecff	0.03245258
21	0x3d9cb0fe	0.07650946
22	0x3d13a89a	0.036049463
23	0xbcc422c5	-0.02394236
24	0x3f245bea	0.6420275
25	0x3da26c65	0.07930831
26	0x3d55e261	0.052217845
27	0xbd046330	-0.032321155
28	0xbd3f7773	-0.046744775
29	0x3d0c94c2	0.034321554
30	0xbd9e42ce	-0.07727586
31	0xbd46b086	-0.04850819
