models/price_predictor_nn_v8.pth (torch, 19453 bytes, 5 tensors)

network.0.weight f4 [64, 29]
00000000: 71c5 f0be 94b2 433e 7e59 1b3e 41fd 04be
00000010: 1c94 443d 7902 5f3d 10c9 35be ddc4 87be
00000020: fc78 a63e 0407 4e3f 1376 5f3e b85e 60be
00000030: 1508 333e c2b2 63be 5326 c9be 98ea 613e
00000040: aa87 4e3e 652d aa3c 351a 0d3d 27d2 e5bd
00000050: 14df 993e 1613 ef3e bc2e 6e3e 4f03 d2be
00000060: 1cd9 c23e 4782 f7be 3789 34bd f510 6a3b
00000070: 8713 7bbe 856d 21bd 464f 0a3e c2ba 95bc
00000080: 1084 d6bd df3a 94bd 3c9d 6fc0 cf7f 9cbe
00000090: fd5c 73be 1c4e c4be 3e7d dcbd e800 273e
000000a0: ee8c 63be 33f9 183c 188c 443e 1709 01bf
000000b0: 756c c43d ba18 a03e 072e 3c3e bb56 a4bd
000000c0: 973a e53d 9507 f8be 6eae 8c3e df33 6dbf
000000d0: e799 5c3e d2ea 30bd 3ced 25bd fc0b 853d
000000e0: fcff d53d 7d31 943d 4316 2f3d 7b81 d3bd
000000f0: 50d3 ff3d b9ba 203e 5366 d4bd 1df2 3d3d
00000100: db49 073f 392a 02bf b2a2 083f de4d 423e
00000110: 30c7 04be 92cd f93e b787 fc3d cb04 c7be
00000120: 5364 45bd 43ac 5cbe b777 753e 4dcc 81bd
00000130: 44aa 44bd 1f03 eebe b225 553f 2e0d dfbe
00000140: 53c0 6f3e fc87 dfbf 6eae 823e 0937 0cbe
00000150: ad73 19be 1152 99bd 2a06 89be dcd9 afbf
00000160: 1039 2c3d 839a 873b a495 6fbd ef9a f43e
00000170: 3fec febe 1b7b d1bd e92b 03be a3f3 9dbe
00000180: aac6 163e a395 bebe bddf b1bd d513 b53e
00000190: fd97 503c 095d 623e 4882 f5bc 4efd 97be
000001a0: 0793 4d3d 7d74 a5be f27b 5fbe 4acd 21be
000001b0: 997a 44be eb0d cbbe b3d3 01bf c0dc cabe
000001c0: b3c4 07be 277a 2e3e 37a5 86bf 4225 10be
000001d0: 65be a3bf 13b8 3d3e 623a 983d 308a f3bd
000001e0: fd7d 0cbe 2aff 9dbf 0e33 6bbd 44dd 23be
000001f0: f703 e5bd 554d b33c d328 6dbe 4436 9a3e
00000200: 222b fc3d 01d2 0b3d fbe8 1c3c 1e89 88be
00000210: 5584 a9bc 8119 c9be 64a6 493e 9c62 1fbe
00000220: 595a 15bf 5ab8 4ebe 2cf5 a7be b8e2 943e
00000230: b126 853e fc17 e0be 0102 00be f9e4 073e
00000240: dc97 11bf 6ad1 68bc 7ed7 65be c31c 763d
00000250: 729d 33be a9f9 14be ce1a 4c3e 38b5 c9bc
00000260: 3eae be3c b3fe f73d 3940 373d 9ce6 e73e
00000270: fd2a 38be f598 b7be 886c 783e 91a2 de3d
00000280: f5fe d5bd 432e 623e 55ad b6be 9816 383f
00000290: 8463 70be 79ba 2fbf 7d29 9dbc 5336 023f
000002a0: 8689 0b3f cdf0 79bd 39ae 57bf ab31 cfbe
000002b0: 1ef3 033f 9398 afbd a1c1 38bf 53c7 28bf
000002c0: a5db aa3d 00d9 533e 1271 63be f2db b2bf
000002d0: ef80 e1bc e076 1cbc 8008 e03d b44e 6fbd
000002e0: 4c2d cbbd 4151 543e 4737 0bbe 6aab a1bb
000002f0: 3acb 9fbe a4d7 c03d bac2 9e3e 096a 893d
00000300: d793 bfbe 8ef5 a03d 2f3c 33be fc57 6dbc
00000310: 3849 95be fa30 8bbf 5258 79be ca0b e1be
00000320: 2fa0 0f3f 9e5e 0abf ad4b d5be 4285 f5bc
00000330: 0a7b 013d c3dc abbd 6581 b4bd e884 0e3d
00000340: cf72 1b3d 0ba9 2f3c 8d77 dabd 7702 7d3e
00000350: 7804 4c3d 180f 703d 59ad f33e d4e0 21bd
00000360: eb89 aabe 3efa 0c3f fb79 e0be 9ebc 893e
00000370: f904 3abf 9209 a23e ad83 a9be bcad 02bf
00000380: 908e 0fbf cfbc d73e 37a3 cb3d ddb1 90be
00000390: 3216 54be c9f3 85bd 89a7 93bd ec64 1dbe
000003a0: fe15 f83d 5d96 043d 1cf1 d73d 5f53 4f3f
000003b0: dbca 1fbe 4103 31bc 323a e0bc ff03 323c
000003c0: fbda cc3c 13e8 28be 15b5 fc3d c8bc ffbd
000003d0: 0565 73be f3e8 bb3d cc61 923d 71ba aebe
000003e0: 9a4d cebd 60cd 8b3e da6f c7bd 6c01 28bf
000003f0: 6ef0 01be 6f5e 53be 0567 04bf 7aeb 2dbf
-0.47025636 0.19111091 0.15170857 -0.12987234 0.04799281 0.054445717 -0.1775248 -0.26517382
0.3251418 0.80479455 0.21822385 -0.21911132 0.17483552 -0.2223616 -0.39287052 0.22062147
0.20168939 0.020773599 0.03444882 -0.11221724 0.30053008 0.4669425 0.23260015 -0.4101815
0.38056266 -0.4834158 -0.04407617 0.0035715674 -0.24519168 -0.039411087 0.13506803 -0.01827753
-0.10474408 -0.07237791 -3.7439718 -0.3056626 -0.23765941 -0.38340843 -0.107660756 0.1630894
-0.22221729 0.0093367575 0.19194067 -0.50404495 0.09590999 0.31268865 0.18376933 -0.08024355
0.11192816 -0.48443285 0.2747683 -0.92657274 0.21543084 -0.043192692 -0.040509447 0.064964265
0.10449216 0.07236002 0.04274584 -0.10327431 0.124914765 0.15696229 -0.10371079 0.046373475
0.5284707 -0.50845677 0.53373253 0.18975016 -0.12966609 0.4878965 0.12330573 -0.38870844
-0.04819138 -0.21550088 0.23971449 -0.063377954 -0.04801394 -0.46486756 0.83260643 -0.43564743
0.2341321 -1.7463374 0.25523704 -0.13692869 -0.14985533 -0.07486356 -0.26762515 -1.373836
0.042046607 0.0041382923 -0.058492318 0.47774455 -0.49789616 -0.10228559 -0.12809719 -0.30849943
0.14724222 -0.3722354 -0.08685253 0.35366693 0.012731549 0.22105803 -0.02996935 -0.29685444
0.050189044 -0.32315436 -0.21824625 -0.15800968 -0.19187392 -0.39659056 -0.5071365 -0.39621544
-0.13258629 0.17038785 -1.051917 -0.14076713 -1.2792479 0.1852725 0.07433011 -0.118915915
-0.13719936 -1.2343495 -0.057421736 -0.16002375 -0.11182397 0.02188746 -0.23160104 0.30119526
0.123129144 0.034135822 0.009577031 -0.26667112 -0.020692984 -0.3927727 0.19692379 -0.1556496
-0.58340985 -0.20187512 -0.3280424 0.29079223 0.26006082 -0.437683 -0.12500764 0.1327094
-0.56872344 -0.014210084 -0.22445485 0.060086023 -0.1754053 -0.14548363 0.199321 -0.024622545
0.023276445 0.12109127 0.044738982 0.45293128 -0.17985149 -0.35858884 0.24260151 0.10870851
-0.1044902 0.2208796 -0.35679117 0.71909475 -0.23475462 -0.6864391 -0.019184822 0.5086414
0.5450672 -0.06102066 -0.8425022 -0.4046758 0.5154284 -0.08574023 -0.72170454 -0.65929145
0.08342675 0.20688248 -0.22211102 -1.3973372 -0.0275273 -0.009549826 0.10939121 -0.058424667
-0.09920749 0.20734121 -0.13595305 -0.004933764 -0.31209737 0.0941613 0.3100794 0.06709678
-0.3741748 0.07859336 -0.17503427 -0.014486309 -0.29157424 -1.0874321 -0.24350098 -0.43954307
0.56103796 -0.54050624 -0.416593 -0.029970769 0.03161148 -0.08391716 -0.088137425 0.034794718
0.037951287 0.010721455 -0.10667334 0.24707972 0.04980895 0.058608145 0.4759319 -0.039521053
-0.33308348 0.5506934 -0.43843064 0.26901716 -0.7266384 0.31647927 -0.33108273 -0.5104635
-0.5607691 0.42136237 0.0994324 -0.282607 -0.20711592 -0.06540639 -0.07209689 -0.1537053
0.1211357 0.03236996 0.10544035 0.8098659 -0.15604727 -0.010803998 -0.0273715 0.010865211
0.025006762 -0.1649478 0.12339226 -0.12487179 -0.23769005 0.09175291 0.071475595 -0.34126619
-0.10073395 0.27305126 -0.09738131 -0.6562717 -0.12689373 -0.20641492 -0.51719695 -0.67937434

network.0.bias f4 [64]
00000000: 297a debe cc5e 9bbe de69 9dbe 7f04 01bf
00000010: 1515 e6be 3167 f5bd f7a2 24bf 24da 78bd
00000020: cab3 6cbe 5f28 eebd cb32 12bf 7906 0ebf
00000030: 65a5 e4be c62a b6be c7e7 61be c817 0bbf
00000040: 3b57 c2be cb66 e1bd 81e0 91bf 08d2 32bf
00000050: 4292 28bf 4f6a e9bd c2df a5be 181e fdbe
00000060: 7c95 59be a23d c0be 168b 51be 806c f8be
00000070: 6b5c 69bf 57e6 44be 4ce1 90be 707b 88bf
00000080: 2da8 0ebf 9079 dd3e 4087 71be 7d85 74bd
00000090: 8d9d eabc fed6 b0bf c127 86bc 86f3 1dbb
000000a0: 1932 a2bf d06b a6be cd20 babe 84f6 d3be
000000b0: e3cd b0bc b130 0dbe d423 95be 8df9 a3be
000000c0: 4373 a1be 533b 2bbf 5b38 88be 5730 72be
000000d0: 219e 9bbe 82fe 4ebd 2eae 22bf 3c89 67be
000000e0: 15af 123e ee49 15bf 45b7 38bf 7829 b0be
000000f0: 452d 613e b76b adbf 4cea e6be 4ab1 8fbe
-0.43452576 -0.30345762 -0.30744833 -0.50397485 -0.4493796 -0.11982573 -0.64311165 -0.06075491
-0.23115459 -0.11628794 -0.57108754 -0.55478626 -0.44657436 -0.3557951 -0.22061072 -0.5433316
-0.37957177 -0.11005934 -1.1396638 -0.6985173 -0.6584817 -0.1139723 -0.32397276 -0.49437022
-0.2124843 -0.37547022 -0.20463213 -0.4852028 -0.91156644 -0.19228493 -0.28296888 -1.066267
-0.55725366 0.43256807 -0.2358675 -0.059697617 -0.02863958 -1.381561 -0.016376378 -0.002410145
-1.2671539 -0.3250413 -0.3635315 -0.41399014 -0.02158255 -0.13788106 -0.29128897 -0.3202633
-0.3153325 -0.66887397 -0.26605496 -0.23651253 -0.3039408 -0.050535686 -0.6354703 -0.22610945
0.14324601 -0.5831593 -0.7215465 -0.34406638 0.21989925 -1.3548497 -0.4510063 -0.28064948

network.3.weight f4 [32, 64]
00000000: 2596 f0bc 4729 a3bd 5825 d33e 7b49 f13e
00000010: f4e9 203f 90e5 173e 1e66 b3bd 9039 d739
00000020: cdca aabe 92be bc3c c1a9 9ebe 3dbc 583d
00000030: d909 4a3e ef6c 633e 485d a9be 5767 db3e
00000040: d8b8 463d a7fd 123d dca4 8ebd 1884 043e
00000050: 9d90 653e ee34 8a3c 5cb0 8bbe 262d 5a3e
00000060: f487 07bf 1918 ee3e 2052 bf3c c43a 28be
00000070: 0290 1b3e a13f 38bf 56b5 a7bd 19da 6abd
00000080: 24f9 1bbf d249 87bb f90c 8e3d ae98 7dbd
00000090: 4878 d6bd 5b5f 20bd d97e 9cbf 123f 49bd
000000a0: 1029 68bd a8ed c9be 0f5d ad3e a25e c03d
000000b0: 69f8 133d f709 a2be b394 9dbe 0602 e23e
000000c0: 3755 33bf b8d3 633e f4b2 49bd aa95 86be
000000d0: 6314 a7be 78bb 0abe a786 9d3d 8f18 1c3e
000000e0: 84d1 0cbd 2691 853e aa01 713e a2b6 28be
000000f0: 8ba9 e7be 3e04 983c b332 5dbf 94c2 813d
00000100: e7d5 b33d e1d4 373d 008a 0f3f 67b8 23be
00000110: 898f 55bf 8673 0f3f 7f40 0b3f a6f5 0fbe
00000120: 196c 363c f0e4 1fbd 0735 043f df7d 67bb
00000130: 2499 acbe 6901 c13c 9f54 6f3d 515d d53d
00000140: fd5b 94bc b9fc 0a3c 6a1c 8fbd 3810 b5be
00000150: 7e78 29be b426 3c3e 3baa cb3e 5960 01be
00000160: 2a6f 8c3e baa9 62bf f8e8 87bf 97c7 c9bd
00000170: 3a3b 903d 1453 c1bc b2fb 16bd 4806 d0b9
00000180: 1f74 ee3d 6c0c dbbc 4230 3abe e7f1 243d
00000190: 2d33 16bf 6ea0 13bd f003 09bd 019c f93c
000001a0: 5777 773c 94ed 133e a8ef 82be ef5f 263c
000001b0: c84a b93c 4f0f 4abf 693e ac3c 2bbf 2f3d
000001c0: 3a2c a2bd 207f 3cbf 3555 14bf 2f6f f9be
000001d0: a6a5 18bd 7675 983d 5fbd 6f3d c4b2 0e3f
000001e0: cee8 79bc dd41 893e c456 2c3d afe2 d13e
000001f0: cb40 28bf cf02 c8bc 6b01 3e3e 6164 a83c
00000200: 807f 373c 811b b0bf c95d d63d 4078 1dbe
00000210: ea2c 7c3e 6c43 aebe 9868 adbd fb2d e33d
00000220: 466e 013d ea70 4dbe 3efe cbbc ace5 7dbe
00000230: 0099 54be dac2 0c3d 1899 b5bd f09b d43d
00000240: 8484 803d f4cd 2bbf c0e0 ae3d 7388 06bc
00000250: a29b 31be 242b 01bd 1b15 34bf 4692 10be
00000260: 910c 08bf c61b 5e3e 1d9c 57be 7ce9 b8be
00000270: 05b5 12be 2779 b6bd b0b4 c5bd 6003 8b3e
00000280: d925 293f 5a04 8fbe 2659 f9be af9b d6bd
00000290: cb6e c5bf f540 803e 3e3a a7be d85b f6bd
000002a0: 7881 cb3e 4778 383e 6df6 8abe 7e76 ffbe
000002b0: 756b 92bf efcd edbe 1a71 003d a0bf e037
000002c0: c047 4e3d 8ee7 233f 963d 0cbf 44a1 09bf
000002d0: 627e ccbe 6f26 dcbd 641d b9bd 75f6 b1be
000002e0: cddc f1bc 393e 113e e9ff 8a3c ad8c 97be
000002f0: b523 2e3d a1c8 943e 9027 103e 9fd0 98bd
00000300: 8c43 0b3e 52ea 6e3d f70f 103e 7623 afbd
00000310: 370f 053e a524 ec3c 4dc1 8abe a1ba 85bd
00000320: 679f 99be 9e58 a23d 4837 363d 64d9 ed3e
00000330: dd83 3cbc 7935 14bf 3eb4 643e 722d a2be
00000340: 7d0b 25bf 8aa7 453c 30e2 1ebf 505b 1dbd
00000350: 67b9 9fbe 33f7 6bbd 71f5 bfbe e3f6 82be
00000360: d71a 2dbf 58b0 d0bd 55e7 68bc 6df4 7d3d
00000370: f2a3 3abf c40d 513e 0d5d 36be b5e5 fdbe
00000380: 4caa 09bf 5102 ab3d 29e8 83bc a93e 573b
00000390: f290 11be 726c 17bf da81 4fbd be9a ef3c
000003a0: fe9f 04bf 1553 36bc 49d6 b2be bac8 46bd
000003b0: dd64 c6bd e06b 94be 7ada 7c3d b940 863c
000003c0: 87ab 25bd f33b e4bc a0e4 e43e 1b32 01bf
000003d0: 2f96 62be e697 983e 61dc 1ebe 193e d0bd
000003e0: 6218 413d ecf7 92be 2e1b 143e 4735 ecbe
000003f0: 99f7 a1bd b5ea 20bf ded1 09bd 2b71 933e
-0.02936847 -0.079668574 0.4123943 0.47126374 0.62856984 0.14833665 -0.08759712 0.00041050883
-0.3335785 0.02304009 -0.30988887 0.052913893 0.19730319 0.22209524 -0.3307898 0.4285228
0.048516124 0.035886433 -0.06965038 0.12941015 0.22418447 0.016870942 -0.2728299 0.21306285
-0.52941823 0.4650276 0.02335459 -0.16428667 0.15191653 -0.7197209 -0.08188884 -0.0573369
-0.60927033 -0.004128673 0.06936068 -0.061913185 -0.104721606 -0.039153438 -1.2226211 -0.049132414
-0.056679785 -0.3943913 0.3386006 0.0939305 0.036125574 -0.31648228 -0.3077751 0.4414217
-0.700519 0.22248733 -0.04924293 -0.2628606 -0.3263274 -0.13548076 0.076916985 0.15243743
-0.034379497 0.26087302 0.23535791 -0.16475919 -0.4524654 0.01855671 -0.86405486 0.06335941
0.08781033 0.04488075 0.56069946 -0.15988313 -0.8342214 0.5603565 0.5439529 -0.14058551
0.011134171 -0.03903669 0.51643413 -0.0035322828 -0.33710587 0.023560243 0.05843031 0.10418189
-0.01811027 0.008483105 -0.069878414 -0.35363936 -0.1654987 0.18374139 0.39778313 -0.1263441
0.2742856 -0.8854023 -1.0617971 -0.09852522 0.070425466 -0.023599185 -0.03686113 -0.00039677531
0.11643242 -0.026739322 -0.18182471 0.04026976 -0.5867184 -0.03604167 -0.03345102 0.030469896
0.015104136 0.14446098 -0.25573468 0.010154708 0.022618666 -0.7892961 0.021025853 0.04290692
-0.07918592 -0.7363148 -0.57942516 -0.4871764 -0.03726735 0.07444279 0.058530208 0.55741525
-0.015253259 0.26808062 0.042074934 0.40993258 -0.65723866 -0.024415402 0.18555228 0.020555677
0.011199832 -1.3758394 0.10467107 -0.15377903 0.24626508 -0.34035814 -0.08467215 0.110927545
0.031599306 -0.20062605 -0.024901506 -0.24794644 -0.2076149 0.034365512 -0.08867091 0.10381305
0.06275275 -0.67111135 0.085389614 -0.008211243 -0.17344525 -0.031535283 -0.70344704 -0.14118299
-0.53144175 0.21690282 -0.21055646 -0.36115634 -0.14326866 -0.08909827 -0.09653604 0.27151012
0.66073376 -0.27933007 -0.48700827 -0.10478913 -1.5424436 0.25049558 -0.32661623 -0.120292366
0.39747214 0.18014632 -0.27141133 -0.4989509 -1.1439043 -0.46446177 0.031357862 2.6792113e-05
0.050361395 0.640252 -0.5478147 -0.53761697 -0.39940172 -0.10749518 -0.09038809 -0.34758344
-0.029524231 0.14183892 0.01696773 -0.29599515 0.04251452 0.29059318 0.14077592 -0.07461666
0.13599986 0.058328934 0.1406859 -0.085516855 0.12994085 0.028826067 -0.27100602 -0.06529737
-0.30004427 0.07927059 0.044486314 0.46454918 -0.011506048 -0.5789409 0.22334382 -0.31675297
-0.64470655 0.01206387 -0.62063885 -0.03841716 -0.31196138 -0.057608794 -0.37491944 -0.25578985
-0.6761908 -0.10189885 -0.01421531 0.06200068 -0.7290641 0.20415407 -0.17808934 -0.49589315
-0.5377548 0.08350051 -0.016101914 0.0032843745 -0.14215448 -0.5914985 -0.050660945 0.029248592
-0.5180663 -0.011128207 -0.34929112 -0.04853127 -0.09687207 -0.28988552 0.061731793 0.016388284
-0.040446784 -0.027860617 0.44705677 -0.5046708 -0.22127603 0.2980339 -0.15513755 -0.10168094
0.047142394 -0.28704774 0.14463493 -0.46134397 -0.07908554 -0.62858135 -0.03364741 0.28797278

network.3.bias f4 [32]
00000000: 25fb 493f f1e3 803e af80 c5bd 29bd 133f
00000010: e364 54be c775 58be a0ad 8c3e a9cd 433e
00000020: 6c5a 0dbf eb3b 09bf 55e2 adbf d84a 40bf
00000030: 4f4e 063f 51e5 c33e 3368 4e3e b8fc aa3e
00000040: 227b 50bf 582b 8f3d 6df1 8d3e ec83 303f
00000050: cdea ddbd 93fa c93e cdbf 3b3e cda2 ba3e
00000060: fc7d 703f bc6e c23c 79c0 0cbf 2198 d03d
00000070: 7d6a b3be 4f28 4e3e 9cf4 8ebf c8c4 88bd
0.7889884 0.25173905 -0.09643685 0.5771051 -0.2074161 -0.21138678 0.27476215 0.19121422
-0.552161 -0.5360705 -1.3584696 -0.751142 0.5246324 0.38260892 0.20156936 0.33395934
-0.81437886 0.06990689 0.27723256 0.68951297 -0.108358 0.39448985 0.18334885 0.36452332
0.93942237 0.023734443 -0.5498119 0.10185266 -0.35042182 0.20132564 -1.1168399 -0.06678158

network.5.weight f4 [1, 32]
00000000: 2f42 40be f923 db3d 12f3 483e 206c 0c3e
00000010: a350 24be 13db f6be e7a9 ab3d f765 06be
00000020: 2334 9fbf f532 473e 3954 dc3f ca52 5f3e
00000030: f916 fa3d 9433 20be 554b 9f3d a549 143e
00000040: b73e 353e 3ffb 0abe 55fe 32be 4b9e 183e
00000050: 9c76 273e 018d a83d d427 2cbe f670 06be
00000060: 2121 42be e5c7 d23d 8d0a 07be a48b 80be
00000070: a1f5 79be e9e3 15be 3336 963e ee56 243e
-0.18775247 0.107002206 0.19623974 0.13713121 -0.16046385 -0.48214015 0.08382016 -0.13124834
-1.2437786 0.19453032 1.7213203 0.21808925 0.12211413 -0.15644675 0.0777804 0.14481218
0.17699705 -0.13572405 -0.17479832 0.14904134 0.1635384 0.08230019 -0.16812068 -0.13129029
-0.1895795 0.10292033 -0.13187619 -0.25106537 -0.24410106 -0.14637722 0.29338226 0.16048786
