models/price_predictor_nn.pth (torch, 61223 bytes, 7 tensors)

network.0.weight f4 [128, 30]
-0.3297113 -0.09958338 -0.012867084 -0.09082743 -0.12604062 -0.04738479 0.020535203 -0.03428361
0.111432336 0.031590804 -0.06854787 0.023957457 -0.24121693 -0.09427644 0.17932974 -0.062070146
-0.022892512 0.16314436 -0.14134315 0.054169692 0.017865574 -0.37945712 -0.086976625 0.00977826
-0.14286909 0.1577226 -0.006715651 0.3333781 -0.1958167 -0.18128993 -0.21964884 -0.09188666
-0.10568364 -0.079558596 -0.11345913 0.12697783 0.052831467 0.007544708 -0.048200905 0.07089237
0.044901453 0.008181001 0.02407469 0.053992588 -0.08781733 0.03639042 0.012812656 -0.1427485
0.013153085 -0.09630921 0.14531776 -0.22086394 0.020148586 -0.05987136 -0.17206104 -0.007022558
0.049655974 -0.21777998 -0.52588594 0.22756563 0.108067796 -0.010115675 0.026735988 -0.22933137
0.027606212 0.1442186 0.019613897 0.008513038 0.10224819 0.18634547 0.12693617 -0.038584024
0.067974456 -0.07971078 0.030717148 -0.033935316 0.14716002 0.12333808 0.14178377 -0.03828867
-0.090438984 -0.20917284 -0.08837107 0.03958475 -0.15001835 0.17043492 -0.010459988 -0.056589413
0.10199868 0.108253874 0.0775453 0.05546552 -0.10119069 -0.29343438 0.069733866 0.08538685
-0.09276171 0.058767624 0.22385696 0.033656895 -0.03112463 0.050816145 0.046063688 0.053883158
0.09638856 0.021277864 -0.058292177 -0.020911282 0.040113024 -0.036478892 -0.09293272 -0.17216618
-0.044888373 0.21405065 0.087006256 -0.033966795 -0.31507048 -0.19393358 0.19814366 0.14908966
-0.14165626 0.05457802 -0.049474172 0.26893944 0.009259635 0.05715107 -0.014144232 0.0360745
-0.08426652 -0.1347484 -0.22556429 -0.15651192 -0.13927568 -0.025285196 -0.080506995 0.012579958
0.042971864 -0.09654976 -0.115640014 -0.12980036 -0.07311655 -0.29008752 -0.21910171 -0.23842718
0.10303589 -0.1278071 -0.22986111 -0.00081212906 0.1299522 -0.09363786 -0.01717758 0.080406204
-0.062357236 0.12861387 -0.13326517 0.15267734 -0.11314565 0.14819579 -0.022784228 0.031416986
0.09249321 0.091731414 0.14980839 -0.04461062 -0.040573355 0.050897438 0.17319363 0.057440057
-0.05638549 0.022894708 -0.41300425 -0.017041273 0.056034617 -0.096502036 -0.01955769 0.15267225
0.12187071 0.06275071 -0.21252577 0.08451844 0.16149397 -0.08564174 -0.00082707655 -0.2944336
0.015394667 -0.0022204379 -0.075859986 -0.089541465 0.17897867 -0.07132238 0.12545195 0.04517431
0.04191071 0.14695728 -0.12746352 0.022007728 0.0145781925 -0.091107175 0.009673797 -0.016432347
0.08497581 0.06254823 0.03034129 0.0897482 0.08737696 -0.11021229 -0.28295413 0.39906317
0.21551915 -0.05903363 0.23561724 0.048216853 -0.008014879 0.0066425162 0.09716146 0.020310612
0.015221473 -0.01976651 0.0007404156 0.122769676 0.1695212 0.06306943 0.17390543 -0.09893045
-0.13790019 -0.14975858 -0.14986446 -0.060547493 -0.06681508 -0.22114168 -0.006913197 0.04095324
0.13046585 -0.037913393 -0.02313364 -0.25595665 0.1211394 -0.16798738 -0.26360393 0.031039152
0.09485251 -0.044613637 -0.07239997 0.12863995 0.13803092 0.2170955 -0.015937 -0.08673873
0.100579426 -0.035958357 0.06362183 0.0705223 0.040620513 0.060819298 -0.037891187 -0.16245063
00000000: ebcf a8be 5ff2 cbbd 76d0 52bc bb03 babd
00000010: cb10 01be 8e16 42bd 7139 a83c f86c 0cbd
00000020: a336 e43d 5c65 013d d362 8cbd 6e42 c43c
00000030: 9201 77be 0214 c1bd 37a2 373e 443d 7ebd
00000040: 1489 bbbc 510f 273e 42bc 10be 0ae1 5d3d
00000050: d35a 923c 3448 c2be cd20 b2bd ff34 203c
00000060: 464c 12be 0982 213e f70e dcbb 89b0 aa3e
00000070: 2c84 48be 11a4 39be a0eb 60be 132f bcbd
00000080: aa70 d8bd 9eef a2bd 435d e8bd 7a06 023e
00000090: cf65 583d 9939 f73b 506e 45bd 0530 913d
000000a0: 96ea 373d 9b09 063c 4938 c53c 5527 5d3d
000000b0: 93d9 b3bd 1f0e 153d 2dec 513c aa2c 12be
000000c0: 0980 573c c33d c5bd 2ece 143e 282a 62be
000000d0: a60e a53c ac3b 75bd c530 30be 7c1d e6bb
000000e0: 1064 4b3d b701 5fbe 76a0 06bf f706 693e
000000f0: a652 dd3d 37bc 25bc 6e05 db3c d8d5 6abe
00000100: 6c26 e23c 0aae 133e 53ad a03c 457a 0b3c
00000110: 8067 d13d 59d1 3e3e 8efb 013e 480a 1ebd
00000120: 3136 8b3d 683f a3bd 87a2 fb3c c2ff 0abd
00000130: 1eb1 163e ad98 fc3d c42f 113e 95d4 1cbd
00000140: 1338 b9bd 6831 56be e4fb b4bd 9e23 223d
00000150: 699e 19be 7e86 2e3e 5f60 2bbc 4dca 67bd
00000160: afe4 d03d 35b4 dd3d 12d0 9e3d d02f 633d
00000170: 113d cfbd 083d 96be a1d0 8e3d 4ddf ae3d
00000180: daf9 bdbd 52b6 703d c23a 653e d0db 093d
00000190: 14f9 febc 9724 503d 47ad 3c3d 96b4 5c3d
000001a0: 5e67 c53d ea4e ae3c c7c3 6ebd 234e abbc
000001b0: 8e4d 243d e46a 15bd 8353 bebd 554c 30be
000001c0: dfdc 37bd 1830 5b3e 5630 b23d c420 0bbd
000001d0: eb50 a1be 8696 46be 2ce6 4a3e f6aa 183e
000001e0: 570e 11be 348d 5f3d 6ea5 4abd 6eb2 893e
000001f0: b9b5 173c 3e17 6a3d 35bd 67bc dbc2 133d
00000200: ed93 acbd 7cfb 09be 53fa 66be a944 20be
00000210: 499e 0ebe e622 cfbc dae0 a4bd 2b1c 4e3c
00000220: 4403 303d e1bb c5bd acd4 ecbd 63ea 04be
00000230: 21be 95bd 5a86 94be 335c 60be 4126 74be
00000240: 7b04 d33d dddf 02be b660 6bbe 0fe5 54ba
00000250: 3112 053e 35c5 bfbd ffb7 8cbc 02ac a43d
00000260: 4d6a 7fbd 5bb3 033e aa76 08be 7357 1c3e
00000270: e8b8 e7bd a3c0 173e fda5 babc 19af 003d
00000280: 156d bd3d aedd bb3d 5f67 193e a0b9 36bd
00000290: 3f30 26bd d579 503d ac59 313e 4446 6b3d
000002a0: 79f4 66bd af8d bb3c 4b75 d3be 249a 8bbc
000002b0: 8e84 653d dca2 c5bd 7337 a0bc 1d56 1c3e
000002c0: 5a97 f93d 7283 803d 5ba0 59be 0118 ad3d
000002d0: ad5e 253e f064 afbd 2bd0 58ba 00c0 96be
000002e0: ea39 7c3c c484 11bb 7b5c 9bbd 8461 b7bd
000002f0: 2f46 373e 7811 92bd 7a76 003e b308 393d
00000300: 91aa 2b3d f87b 163e cc85 02be 8d49 b43c
00000310: 5fd9 6e3c 6696 babd d87e 1e3c 219d 86bc
00000320: cc07 ae3d 4919 803d 4c8e f83c e7cd b73d
00000330: b1f2 b23d fbb6 e1bd 5ddf 90be 0252 cc3e
00000340: 0db1 5c3e 3fcd 71bd a545 713e 097f 453d
00000350: d750 03bc 77a9 d93b 96fc c63d 7162 a63c
00000360: 7c63 793c 60ed a1bc 7318 423a ab6e fb3d
00000370: f796 2d3e 8c2a 813d 4414 323e 0c9c cabd
00000380: b535 0dbe 505a 19be 1276 19be a600 78bd
00000390: 58d6 88bd f772 62be 1a88 e2bb 96be 273d
000003a0: d798 053e 134b 1bbd c282 bdbc c00c 83be
000003b0: ef17 f83d e204 2cbe 18f7 86be d245 fe3c
000003c0: 0842 c23d cabc 36bd 6f46 94bd 31ba 033e
000003d0: fa57 0d3e 484e 5e3e 508e 82bc 13a4 b1bd
000003e0: 96fc cd3d 1249 13bd 294c 823d ff6d 903d
000003f0: b261 263d a81d 793d ca33 1bbd 7559 26be

network.0.bias f4 [128]
-0.28003952 -0.23113242 0.01793448 -0.025129333 -0.02781886 -0.05055785 -0.055246085 0.044814277
0.045055483 -0.36817762 0.2234415 -0.054311253 -0.18776792 0.0021361017 -0.31152278 -0.12934604
-0.17584267 0.029745204 -0.04325276 -0.03852271 -0.14487907 -0.13059717 -0.114370815 0.045157
-0.22528194 -0.003113096 0.06824371 -0.10760603 0.01185297 -0.17736793 -0.13218041 -0.14011872
0.16973786 -0.22157313 0.0042939996 -0.121715605 0.00853052 -0.20915136 -0.034095574 -0.15347491
0.089817345 -0.08860552 -0.022252025 -0.31125048 -0.016850214 -0.16667496 -0.09537127 0.023940453
-0.099919185 0.14760353 -0.0105642 -0.0527397 0.21662927 -0.0066636438 -0.1079051 -0.047964953
0.21465787 -0.039400067 -0.1882568 -0.008755945 0.048505414 -0.076232076 -0.20520416 -0.10717586
-0.20275457 -0.16980591 -0.13497756 0.039513923 -0.20857298 -0.21159889 0.20153819 -0.17647792
-0.1027883 0.052279748 0.059958264 0.053365093 -0.03200847 0.007873537 -0.15390787 -0.10294163
-0.3130449 0.0782904 -0.18586695 0.03399383 -0.041788816 0.011024407 0.13485198 -0.17302574
-0.09968285 -0.031504307 0.12894745 -0.14064711 0.06837878 0.12097344 0.08322387 -0.10215927
-0.097432934 -0.12964574 -0.022883486 -0.21347348 -0.016533133 -0.013966315 -0.08540825 -0.17392457
-0.09204182 -0.27923858 -0.08708707 -0.20821694 0.051694736 0.06707327 0.08222761 0.01601782
-0.13921437 -0.13733771 0.14048178 -0.066111654 -0.016372561 -0.16138865 -0.13924146 -0.23578992
-0.03022631 -0.15354171 -0.0032741085 0.16449682 -0.18059035 -0.029471714 -0.23746361 -0.1269283
00000000: 5761 8fbe faad 6cbe 55eb 923c 08dc cdbc
00000010: 61e4 e3bc c015 4fbd b849 62bd 2d8f 373d
00000020: 198c 383d c781 bcbe d9cd 643e 7a75 5ebd
00000030: 3c46 40be d7fd 0b3b ea7f 9fbe 4a73 04be
00000040: 1a10 34be 37ac f33c ce29 31bd fdc9 1dbd
00000050: 2e5b 14be 44bb 05be 3f3b eabd 8cf6 383d
00000060: 4fb0 66be 1605 4cbb 5cc3 8b3d 8d60 dcbd
00000070: f632 423c f09f 35be 4d5a 07be 487b 0fbe
00000080: c3cf 2d3e 11e4 62be aeb4 8c3b 0846 f9bd
00000090: 98c3 0b3c c62b 56be cda7 0bbd 8728 1dbe
000000a0: 28f2 b73d d076 b5bd e149 b6bc 395c 9fbe
000000b0: 7609 8abc d7ac 2abe 0352 c3bd c51e c43c
000000c0: 6ea2 ccbd 6125 173e 7715 2dbc 9505 58bd
000000d0: 10d4 5d3e b25a dabb 59fd dcbd e676 44bd
000000e0: 46cf 5b3e f761 21bd 64c6 40be 1875 0fbc
000000f0: 9dad 463d 901f 9cbd 0a21 52be 047f dbbd
00000100: e59e 4fbe 9ae1 2dbe 8f37 0abe 5ad9 213d
00000110: 2894 55be 61ad 58be 0760 4e3e a1b6 34be
00000120: ac82 d2bd 4a23 563d cc96 753d 5b95 5a3d
00000130: 501b 03bd 0200 013c 069a 1dbe 10d3 d2bd
00000140: 6c47 a0be b856 a03d e853 3ebe 1d3d 0b3d
00000150: c02a 2bbd b79f 343c a316 0a3e a92d 31be
00000160: 8626 ccbd a90a 01bd cd0a 043e cc05 10be
00000170: 2c0a 8c3d ecc0 f73d 4771 aa3d e138 d1bd
00000180: eb8a c7bd dac1 04be 2676 bbbc cb98 5abe
00000190: 7e70 87bc f9d2 64bc 85ea aebd 4819 32be
000001a0: 6c80 bcbd 5cf8 8ebe b55a b2bd d236 55be
000001b0: dcbd 533d b65d 893d f366 a83d ce37 833c
000001c0: 368e 0ebe 42a2 0cbe 75da 0f3e 8c65 87bd
000001d0: c01f 86bc 1143 25be 5095 0ebe ea72 71be
000001e0: 2b9d f7bc 0a3a 1dbe 6d92 56bb db71 283e
000001f0: adec 38be aa6e f1bc a929 73be 7ef9 01be

network.3.weight f4 [64, 128]
-0.027082173 0.0050585074 -0.046768084 -0.106165625 0.053242635 -0.22161046 0.027112693 -0.15045284
-0.06079577 -0.32474974 0.0029312659 -0.05298482 0.016405115 -0.03616541 0.06547853 0.12835084
-0.26219752 -0.0008925061 -0.00039994175 0.0075917267 -0.017130611 -0.29989916 0.037720155 -0.011026887
-0.3534275 -0.08757579 0.039256033 0.024035098 0.05091695 -0.44234282 -0.14446801 0.07312526
0.0035437034 0.012376434 -0.051509444 0.17056787 -0.019594632 0.06786965 -0.11400873 -0.46975774
-0.08073219 -0.042736627 0.02684309 -0.008337829 0.050098352 -0.08789411 0.022317518 0.029319078
-0.052200504 -0.010547375 0.04199829 -0.041666146 -0.0017742434 -0.039520647 -0.30719396 0.0019972192
-0.03573653 -0.3962 -0.030853443 -0.031017486 0.017686792 -0.22046201 0.0031443415 -0.020977419
0.069802634 -0.009230989 -0.058613997 -0.02387793 -0.46555197 0.035137806 0.020638928 0.13580665
0.04322912 -0.04857504 -0.0009743186 0.017929055 0.026130443 0.013791899 -0.049230885 -0.0015760832
-0.15799344 0.027649418 -0.2541109 -0.21605451 -0.022590257 -0.005115697 -0.049494322 -0.20440055
-0.24277219 0.0026611467 -0.031011438 0.06096353 -0.0020188256 -0.042993575 0.0020045103 -0.036248293
-0.21870895 0.013438436 -0.0558228 0.053281162 0.018554157 -0.0724971 0.016347036 -0.0024356479
0.13858889 -0.09130417 -0.055463545 -0.03201317 -0.3926481 -0.0030093251 -0.20677803 0.005811008
0.028428502 0.003882508 0.0062392186 -0.012497849 -0.038297094 -0.017613849 0.046088 0.026765987
0.004154465 -0.103163056 -0.26408947 -0.029757919 -0.0077718166 -0.30678597 -0.32632205 0.047868203
-0.14549188 -0.061449807 0.07709155 -0.019317638 -0.026593864 -0.015715389 0.028842513 0.009744186
-0.0008884966 -0.034044094 0.022782031 0.05606975 -0.05246321 -0.041684464 -0.05960288 0.041203815
0.062139515 -0.17614572 -0.15679245 0.053136274 -0.09754553 0.042388722 -0.024717437 -0.24738458
0.02985219 0.03436869 -0.15472266 0.0191418 -0.01686295 -0.059181884 -0.042620894 0.0699716
0.1329986 0.047877938 0.0012372701 -0.0041470695 0.02612405 -0.22484528 0.08761303 -0.08169864
-0.048885718 -0.15003327 0.007179611 -0.03414353 -0.013591544 -0.028339183 -0.048845045 -0.18185915
0.013488986 -0.015872652 0.09385033 -0.019939808 0.02116503 0.04599967 -0.042039208 0.018430492
0.06506827 -0.0045048916 0.011182385 0.025389293 0.09057483 0.047674485 -0.024903357 0.015543639
-0.055684883 0.01499706 0.045456786 0.04978691 -0.085412696 0.0016805996 -0.0028241363 -0.07192351
-0.31167075 0.07220096 -0.046449635 0.0063427114 -0.083287925 0.07699105 0.067166574 0.06594295
0.092126854 -0.03699562 -0.0070992913 -0.057051722 -0.018970605 0.05990675 -0.03874399 -0.2385202
-0.18550076 -0.020030329 0.02612087 -0.17349175 -0.16490096 0.022169443 0.026424022 0.007226648
-0.022303749 0.041105624 0.0069616316 0.081829205 -0.046635833 0.031094514 0.07228059 0.059164785
-0.1465059 0.23330915 -0.15227571 0.0011487056 -0.018168004 -0.03329435 0.041946325 0.025272703
0.035073627 -0.01316483 0.011366551 -0.054778405 0.05846462 -0.012990198 -0.14672719 -0.066938505
0.033092134 0.06632386 0.0565491 0.0512881 -0.076671615 -0.0038737475 0.021074219 -0.004177675
00000000: 6fdb ddbc d6c1 a53b e48f 3fbd 5d6d d9bd
00000010: f314 5a3d daed 62be 701b de3c 4f10 1abe
00000020: fc04 79bd 9945 a6be 7b1a 403b 9c06 59bd
00000030: 0564 863c 2e22 14bd 9c19 863d 676e 033e
00000040: c13e 86be 12f7 69ba 46af d1b9 05c4 f83b
00000050: 7f55 8cbc 628c 99be 7380 1a3d 1eaa 34bc
00000060: 73f4 b4be f05a b3bd efca 203d 41e5 c43c
00000070: 4b8e 503d c27a e2be 6cef 13be b2c2 953d
00000080: 7a3d 683b 87c6 4a3c 91fb 52bd 58a9 2e3e
00000090: ec84 a0bc 3eff 8a3d 697d e9bd 1684 f0be
000000a0: eb56 a5bd 9a0c 2fbd 0ae6 db3c 649b 08bc
000000b0: ee33 4d3d d401 b4bd 3ad3 b63c 902e f03c
000000c0: 32d0 55bd e6ce 2cbc 6606 2c3d 1faa 2abd
000000d0: bb8d e8ba 67e0 21bd 8748 9dbe c7e3 023b
000000e0: 7860 12bd bada cabe 5cc0 fcbc 6218 febc
000000f0: e4e3 903c cbc0 61be 4c11 4e3b d6d8 abbc
00000100: aff4 8e3d 933d 17bc 3b15 70bd a69b c3bc
00000110: d45c eebe a9ec 0f3d f812 a93c e610 0b3e
00000120: 0511 313d 9ff6 46bd 6a69 7fba f4df 923c
00000130: 830f d63c 6bf7 613c 53a6 49bd 9494 ceba
00000140: 08c9 21be 0881 e23c d31a 82be 653d 5dbe
00000150: 340f b9bc 94a1 a7bb 8fba 4abd 614e 51be
00000160: 4699 78be a266 2e3b b30b febc e5b4 793d
00000170: 464e 04bb 081a 30bd 1a5e 033b 1779 14bd
00000180: 3df5 5fbe e32c 5c3c 73a6 64bd 593d 5a3d
00000190: e3fe 973c 5c79 94bd 38ea 853c 649f 1fbb
000001a0: 3fea 0d3e aefd babd be2d 63bd 3e20 03bd
000001b0: 2c09 c9be 1938 45bb 9fbd 53be 456a be3b
000001c0: e4e2 e83c ad71 7e3b 5c72 cc3b c7c3 4cbc
000001d0: 6add 1cbd eb4a 90bc c5c6 3c3d 5844 db3c
000001e0: 2e22 883b 2747 d3bd bc36 87be e1c6 f3bc
000001f0: b9aa febb 0d13 9dbe af13 a7be 7311 443d
00000200: d3fb 14be cbb2 7bbd 2de2 9d3d 0640 9ebc
00000210: 60db d9bc 8fbd 80bc 2247 ec3c 14a6 1f3c
00000220: ffe9 68ba d271 0bbd 62a1 ba3c 65a9 653d
00000230: aae3 56bd 54bd 2abd 2622 74bd 55c5 283d
00000240: 0186 7e3d 8b5f 34be 338e 20be 6ca5 593d
00000250: f3c5 c7bd cc9f 2d3d 397c cabc 6252 7dbe
00000260: 948c f43c 2fc6 0c3d 9e6f 1ebe 44cf 9c3c
00000270: 2b24 8abc b468 72bd 3f93 2ebd 454d 8f3d
00000280: c930 083e a81b 443d e52b a23a 24e4 87bb
00000290: 1b02 d63c d73d 66be 766e b33d 9e51 a7bd
000002a0: 643c 48bd 52a2 19be f142 eb3b 16da 0bbd
000002b0: 11af 5ebc 9327 e8bc be11 48bd 4939 3abe
000002c0: e800 5d3c 5d07 82bc 9a34 c03d cf58 a3bc
000002d0: 4962 ad3c 266a 3c3d 4e31 2cbd 8bfb 963c
000002e0: 8342 853d c59d 93bb 5236 373c 35fd cf3c
000002f0: 4c7f b93d 5246 433d 2002 ccbc bfaa 7e3c
00000300: d515 64bd 3bb6 753c e530 3a3d 5ced 4b3d
00000310: daec aebd 9147 dc3a 2515 39bb a24c 93bd
00000320: 4f93 9fbe 19de 933d f941 3ebd 85d6 cf3b
00000330: dc92 aabd 7cad 9d3d a18e 893d 190d 873d
00000340: 01ad bc3d b888 17bd 2ca1 e8bb 11af 69bd
00000350: 3e68 9bbc c860 753d 05b2 1ebd a43e 74be
00000360: e9f3 3dbe a516 a4bc 6ffb d53c d2a7 31be
00000370: ccdb 28be b19c b53c 3177 d83c 84cd ec3b
00000380: 5ab6 b6bc 5f5e 283d 661e e43b 1296 a73d
00000390: 3705 3fbd ecb9 fe3c d907 943d c656 723d
000003a0: a505 16be 98e8 6e3e 2aee 1bbe 2a90 963a
000003b0: 11d5 94bc a85f 08bd e9cf 2b3d b308 cf3c
000003c0: 5da9 0f3d 4db1 57bc c53a 3a3c 525f 60bd
000003d0: 9978 6f3d d7d4 54bc a73f 16be 0e17 89bd
000003e0: 9e8b 073d ced4 873d 07a0 673d 7913 523d
000003f0: 0206 9dbd b3de 7dbb d7a3 ac3c e1e4 88bb

network.3.bias f4 [64]
0.14849125 0.10055569 0.22005777 0.111912645 -0.01931492 0.10110939 0.169645 0.004648854
0.17855787 -0.109797895 0.072158284 0.035921436 -0.010416107 0.10290421 0.038160156 -0.15629633
0.11012919 0.02068296 0.14878157 0.16298056 0.121045925 -0.034746837 0.19817461 0.06711285
0.15922543 -0.04888712 0.14777982 0.095974185 0.08132512 -0.014362296 0.16813013 0.06318802
0.12685521 0.02140489 0.35511565 -0.001498247 -0.049250435 0.022780603 -0.0012585922 -0.07117386
0.015009395 0.043945473 -0.018352073 0.401088 0.08522431 0.13996716 -0.02947686 0.108991936
0.21143962 0.21983264 0.16582981 0.050009876 -0.02590395 0.10514946 -0.103289425 0.029910188
0.10480839 -0.091330476 0.0139347445 0.28115788 0.08060102 0.16500176 0.02774852 0.059489895
00000000: 170e 183e 24f0 cd3d d356 613e 7532 e53d
00000010: 533a 9ebc 7112 cf3d 6bb7 2d3e 6a55 983b
00000020: e0d7 363e b8dd e0bd b9c7 933d 5b22 133d
00000030: 52a8 2abc 71bf d23d d34d 1c3d 250c 20be
00000040: 6a8b e13d 506f a93c 325a 183e 60e4 263e
00000050: ede6 f73d b352 0ebd 49ee 4a3e 7672 893d
00000060: fe0b 233e dc3d 48bd 9853 173e 1d8e c43d
00000070: c98d a63d d64f 6bbc 4e2a 2c3e b868 813d
00000080: 55e6 013e 4f59 af3c b8d1 b53e d460 c4ba
00000090: d3ba 49bd 639e ba3c 59f7 a4ba 9ac3 91bd
000000a0: f7e9 753c 2b00 343d 1657 96bc 685b cd3e
000000b0: 158a ae3d 8d53 0f3e 7579 f1bc 2a37 df3d
000000c0: a183 583e cf1b 613e 4acf 293e 28d7 4c3d
000000d0: 8534 d4bc 9a58 d73d 6889 d3bd 3606 f53c
000000e0: c8a5 d63d 790b bbbd 8e4e 643c edf3 8f3e
000000f0: 2612 a53d 39f6 283e dd50 e33c adab 733d

network.5.weight f4 [32, 64]
-0.10550843 -0.19211274 -0.1567549 -0.010041099 0.05754047 -0.18092169 -0.00639681 -0.095578566
-0.007898653 0.47571665 0.17397021 -0.13947304 -0.057854213 0.10308103 -0.08026222 0.4374623
0.18352368 -0.07160346 -0.09806751 0.081845924 0.07098829 0.046152446 -0.08638575 0.17677465
0.037006103 0.015008049 0.10593434 0.12783103 0.06908833 -0.010869562 -0.02953673 0.04922191
0.02965823 0.1020113 -0.07701308 -0.110634685 -0.12004495 0.07568087 -0.026370224 -0.08255636
-0.015306357 0.06511912 0.11353796 -0.05471737 -0.05693986 -0.12614004 0.19166741 -0.0054017734
0.13138011 0.04536437 -0.08309741 -0.15191701 -0.020199463 -0.100076206 0.0768434 0.07954221
0.054505013 0.0063595073 -0.06543145 0.06560294 0.05542067 0.008727269 -0.082559 0.031102568
0.11271889 0.045522742 0.03815303 0.16822721 0.07719562 0.04931801 0.068841904 -0.27361384
0.12522906 0.060248066 0.10370337 -0.109906726 0.172149 0.012982722 0.079737544 0.018767562
0.098311186 0.08527643 0.15498586 -0.03875257 -0.113450155 -0.056737054 0.1447142 0.084995985
-0.15415922 0.11583442 0.06817843 -0.076583 -0.023969695 -0.014065006 -0.08218343 -0.015487844
0.08041646 0.14761302 0.030827632 -0.009800699 -0.047483835 0.14796379 -0.071399234 0.11482989
-0.08016235 0.022323603 0.04909972 0.04672253 0.049484186 -0.071539395 -0.24722935 0.177935
0.060748365 0.092357725 0.14812505 0.04345676 -0.04310133 0.13560541 0.051110372 0.14500801
0.020870207 -0.034875102 0.055617686 -0.02980512 -0.062235303 -0.023790084 -0.037463352 -0.064477354
0.17863606 -0.10583736 0.06713352 -0.033779275 0.0052891644 0.022847064 0.20281872 -0.10104245
-0.07223367 0.1665368 0.114348814 0.085458376 -0.0346287 -0.12731169 0.05861389 0.16359332
0.038616303 0.06866465 -0.036410436 0.08329357 -0.122943066 0.02600429 -0.004257271 -0.09122137
-0.0058851885 0.06867845 0.11596221 0.0064820694 0.0010886483 -0.016135003 -0.017665286 0.04249938
0.288416 0.09710965 0.12555544 -0.09902828 0.11097961 0.193728 0.2863093 0.09675713
-0.07509302 0.0327485 -0.07472792 0.099567026 -0.033830587 0.022327438 -0.17891231 -0.032417104
-0.005525793 0.01750087 0.04006076 -0.25004378 0.036789905 0.17605108 0.082041256 0.12394057
-0.014873028 -0.091278635 0.021523759 0.01667183 0.026045127 -0.11527047 -0.04074883 -0.11627426
0.0570728 0.004274467 0.04002676 -0.09914806 -0.0027316469 0.1202567 -0.103369676 -0.015124299
-0.19625221 -0.45218647 0.04854732 0.063135095 -0.048603583 -0.069400445 0.065887906 -0.2982746
-0.09107927 0.14136887 -0.06186249 0.1576315 0.117606096 -0.032750744 0.015044662 0.1026948
-0.0027125976 -0.0682382 0.06730484 0.16795428 0.13576259 -0.022060772 -0.0045586363 -0.0082732355
-0.28931585 -0.11071486 0.09013954 0.07788902 -0.106266364 0.0040923604 0.063338555 -0.00049407594
0.034692448 0.09994297 -0.109017335 0.0820241 0.05638149 0.1543414 0.14119446 0.040557887
-0.06602825 0.08897214 0.057572503 0.028458761 -0.018294001 0.017627943 -0.084521234 -0.10075257
0.0882715 -0.1250396 0.071392536 0.14014745 0.00903054 -0.106440276 -0.007345338 0.08284003
00000000: ce14 d8bd 34b9 44be 5b84 20be 6c83 24bc
00000010: 8eaf 6b3d 8943 39be 559c d1bb b2be c3bd
00000020: 5a69 01bc 2291 f33e 3f25 323e 05d2 0ebe
00000030: 8af8 6cbd 261c d33d 8560 a4bd 0ffb df3e
00000040: a2ed 3b3e d6a4 92bd 9ed7 c8bd d69e a73d
00000050: 4f62 913d 590a 3d3d 03eb b0bd 6a04 353e
00000060: b693 173d 52e4 753c 1af4 d83d 23e6 023e
00000070: 2f7e 8d3d 3f16 32bc 03f7 f1bc ea9c 493d
00000080: d1f5 f23c 4deb d03d 09b9 9dbd 7094 e2bd
00000090: 20da f5bd 92fe 9a3d 5e06 d8bc 4f13 a9bd
000000a0: 84c7 7abc 2c5d 853d 9786 e83d 521f 60bd
000000b0: c539 69bd db2a 01be 7644 443e 5c01 b1bb
000000c0: 8288 063e fdcf 393d fa2e aabd 2290 1bbe
000000d0: 5879 a5bc c1f4 ccbd 1360 9d3d 07e7 a23d
000000e0: a640 5f3d 6a63 d03b ed00 86bd d65a 863d
000000f0: c900 633d d2fc 0e3c b114 a9bd d0ca fe3c
00000100: 29d9 e63d 0e76 3a3d 5a46 1c3d c143 2c3e
00000110: bd18 9e3d af01 4a3d fcfc 8c3d 1d17 8cbe
00000120: 0c3c 003e adc6 763d 6f62 d43d c716 e1bd
00000130: d447 303e 7cb5 543c 704d a33d 6ebe 993c
00000140: 6057 c93d 69a5 ae3d 9db4 1e3e 04bb 1ebd
00000150: 8e58 e8bd 1d65 68bd f62f 143e 6012 ae3d
00000160: eadb 1dbe 993a ed3d 22a1 8b3d 8cd7 9cbd
00000170: 185c c4bc e970 66bc c94f a8bd bac0 7dbc
00000180: 63b1 a43d de27 173e 3b8a fc3c 1c93 20bc
00000190: 697e 42bd d283 173e c339 92bd ef2b eb3d
000001a0: 282c a4bd fddf b63c ca1c 493d 2060 3f3d
000001b0: eeaf 4a3d 3f83 92bd b129 7dbe 9834 363e
000001c0: 47d3 783d 0c26 bd3d 18ae 173e b7ff 313d
000001d0: 058b 30bd 25dc 0a3e 1c59 513d fb7c 143e
000001e0: fff7 aa3c 32d9 0ebd 5fcf 633d de29 f4bc
000001f0: 72ea 7ebd 6ce3 c2bc 2c73 19bd b40c 84bd
00000200: 5fec 363e 42c1 d8bd 4d7d 893d 235c 0abd
00000210: ba50 ad3b c429 bb3c b6af 4f3e 58ef cebd
00000220: 3fef 93bd 9f88 2a3e b62f ea3d cd04 af3d
00000230: d3d6 0dbd ff5d 02be 1e15 703d 0285 273e
00000240: 212c 1e3d 0da0 8c3d 1c23 15bd d295 aa3d
00000250: 93c9 fbbd f306 d53c 9480 8bbb 45d2 babd
00000260: 8ad8 c0bb 4aa7 8c3d 987d ed3d 8a67 d43b
00000270: fab0 8e3a 8e2d 84bc cab6 90bc d413 2e3d
00000280: 43ab 933e 6de1 c63d 9b91 003e 57cf cabd
00000290: 4749 e33d a260 463e 2297 923e 9a28 c63d
000002a0: 5fca 99bd 4b23 063d f40a 99bd cce9 cb3d
000002b0: f191 0abd 08e8 b63c ca34 37be ccc7 04bd
000002c0: b611 b5bb fc5d 8f3c c016 243d bd05 80be
000002d0: 03b1 163d bc46 343e 3f05 a83d 8ed4 fd3d
000002e0: 00ae 73bc 4bf0 babd 9852 b03c 5d93 883c
000002f0: 975c d53c ed12 ecbd 3fe8 26bd 3321 eebd
00000300: 2bc5 693d d410 8c3b 1af3 233d 230e cbbd
00000310: 6e05 33bb 2549 f63d 7bb3 d3bd e8cb 77bc
00000320: 57f6 48be fc84 e7be 8ed9 463d f94c 813d
00000330: 8d14 47bd d221 8ebd 3df0 863d 73b7 98be
00000340: c587 babd 00c3 103e 8663 7dbd 276a 213e
00000350: 77db f03d a525 06bd e37d 763c a751 d23d
00000360: d6c5 31bb 78c0 8bbd 1fd7 893d 35fc 2b3e
00000370: 5905 0b3e cbb8 b4bc 9d60 95bb 778c 07bc
00000380: 3521 94be 79be e2bd 149b b83d 4784 9f3d
00000390: 2ea2 d9bd 3519 863b a5b7 813d e084 01ba
000003a0: ab19 0e3d e6ae cc3d 7b44 dfbd 40fc a73d
000003b0: 47f0 663d ac0b 1e3e 4895 103e 0720 263d
000003c0: d239 87bd 0637 b63d 25d1 6b3d 5922 e93c
000003d0: 4ddd 95bc 7a68 903c 7819 adbd 5d57 cebd
000003e0: b0c7 b43d 620a 00be 4036 923d d082 0f3e
000003f0: d4f4 133c 5cfd d9bd 29b1 f0bb 09a8 a93d

network.5.bias f4 [32]
-0.1032691 0.012195621 0.0311666 0.077190705 0.14912084 0.06473309 0.061880525 0.04793721
-0.035297457 0.19882478 -0.09931757 0.20571394 0.05129576 0.04440165 0.086678244 0.12879926
0.06410422 0.16333653 0.12165416 0.104864515 0.14082211 0.11725155 0.16082154 0.13702384
0.103387 0.0694431 -0.030611059 0.09260271 0.22188571 0.10627076 -0.09267845 0.1981795
00000000: c07e d3bd 24d0 473c 1951 ff3c 2916 9e3d
00000010: 22b3 183e c892 843d 6f76 7d3d cf59 443d
00000020: 1194 10bd b998 4b3e 0367 cbbd ada6 523e
00000030: 811b 523d 81de 353d 5d84 b13d f4e3 033e
00000040: 1349 833d b141 273e d125 f93d 35c3 d63d
00000050: ac33 103e 9521 f03d 67ae 243e fa4f 0c3e
00000060: 90bc d33d 2f38 8e3d 0bc4 fabc 7da6 bd3d
00000070: 0236 633e 7ca4 d93d 33ce bdbd 91ef 4a3e

network.7.weight f4 [1, 32]
0.35831428 -0.20903073 -0.2276128 0.20794548 0.2549632 -0.2549113 0.14349787 0.2011498
0.16950147 0.25743255 -0.3212176 0.6071453 0.2504134 -0.20348725 0.29936084 0.23974562
0.29009575 -0.15747084 -0.14282407 0.2933754 -0.15831321 -0.16792677 -0.12909578 0.29094267
0.53903294 -0.23989223 -0.10008329 -0.18521824 -0.15238705 -0.2412943 -0.31917313 -0.120982714
00000000: f874 b73e 270c 56be 5413 69be a9ef 543e
00000010: 898a 823e bc83 82be 1bf1 123e 37fa 4d3e
00000020: cb91 2d3e 33ce 833e a276 a4be e06d 1b3f
00000030: 2f36 803e f65e 50be d345 993e e07f 753e
00000040: 6e87 943e 0940 21be 7940 12be 4d35 963e
00000050: dc1c 22be fff4 2bbe af31 04be 70f6 943e
00000060: 10fe 093f 4fa6 75be 78f8 ccbd daa9 3dbe
00000070: 5a0b 1cbe da15 77be a96a a3be c9c5 f7bd
