models/price_predictor_nn_v16.pth (torch, 108959 bytes, 7 tensors)

network.0.weight f4 [256, 29]
0	0x3e4f24f4	0.2022894
1	0xbdadaad2	-0.08479847
2	0x3d7d2f3b	0.06181262
3	0x3d8ca179	0.06866736
4	0xbe5f7b70	-0.21824431
5	0xbf80d607	-1.0065316
6	0x3bc1a20b	0.0059092096
7	0xbc4f58f4	-0.012655485
8	0xbd09e5bb	-0.033666354
9	0x3c688401	0.014191628
10	0xbd99e164	-0.07513693
11	0xbd88f2fc	-0.066869706
12	0x3f0e7e9e	0.5566195
13	0x3d9ab5bb	0.075541936
14	0x3f4e162e	0.80502594
15	0x3efbf67e	0.49211496
16	0x3f783724	0.9695914
17	0xbf6f798b	-0.93544835
18	0x3e8e0a4c	0.2774223
19	0xbf5deab0	-0.8668623
20	0x3e67638f	0.22596572
21	0xbf3851a3	-0.7199957
22	0x3f8dcb5b	1.1077684
23	0xbe356be8	-0.17716944
24	0xbf7f521e	-0.99734676
25	0xbded7006	-0.115936324
26	0x3e6aa0c8	0.22912896
27	0x3ea7c4a6	0.32767218
28	0xbe55e2b4	-0.20887262
29	0x3ec18a41	0.37800792
30	0xbe955ae9	-0.2917092
31	0xbb99f0f0	-0.0046979114
32	0xbcb71f9e	-0.022353943
33	0xbe045550	-0.12923169
34	0xbfb3f2b1	-1.4058439
35	0xbec74c4a	-0.3892539
36	0x3f7b8449	0.98248726
37	0xbf4432ea	-0.7664019
38	0xbef75f7e	-0.48315042
39	0xbde3d6f6	-0.11124985
40	0xbdf13d79	-0.11779303
41	0xbdfe69e5	-0.124225415
42	0xbee81d0a	-0.45334655
43	0xbdca9fc1	-0.09893752
44	0xbda3896d	-0.07985196
45	0x3e8bc1a4	0.27296174
46	0xbf27766f	-0.6541509
47	0xbf015659	-0.5052238
48	0xbbdb106d	-0.0066853077
49	0x3e809b0b	0.25118288
50	0xbedcd746	-0.4313299
51	0xbf49a1a1	-0.7876225
52	0xbe83ccc0	-0.2574215
53	0x3f2ddab4	0.6791184
54	0xbbc66029	-0.0060539437
55	0x3d988b11	0.074484
56	0xbc2e2c18	-0.01063063
57	0xbdcae4d7	-0.09906929
58	0xbc83f260	-0.016106784
59	0xbef65a42	-0.48115736
60	0xbe8a7412	-0.2704168
61	0x3dbbc1d1	0.09167827
62	0x3e9e8f4c	0.30968702
63	0xbf46933e	-0.77568424
64	0xbe019153	-0.12653093
65	0x3f1ae779	0.6050945
66	0xbe9242c2	-0.28566557
67	0xbf470ae5	-0.77751
68	0x3de7134f	0.1128298
69	0x3dc7b6b2	0.09751643
70	0xbe9e8861	-0.30963424
71	0x3ec4bc6d	0.38425007
72	0x3ee91715	0.45525423
73	0xbd094ed9	-0.03352246
74	0xbe212ad4	-0.15738994
75	0xbdd6c8f5	-0.10487548
76	0x3e2cf887	0.1689168
77	0xbdb98617	-0.09058779
78	0xbe77df1d	-0.24206205
79	0xbeb9f147	-0.36316893
80	0x3ee025ed	0.43778935
81	0xbedecac7	-0.43514082
82	0xbf433e1e	-0.7626666
83	0xbeaacb5f	-0.33358285
84	0x3e70f232	0.2352989
85	0x3daac158	0.08337659
86	0xbe04787f	-0.1293659
87	0xbe2cbcd9	-0.16868915
88	0x3e2cc5cd	0.1687233
89	0xbe8c1d64	-0.27366173
90	0x3a4302ce	0.00074390776
91	0xbd64d987	-0.055871513
92	0xc00610de	-2.0947795
93	0xbf12f41c	-0.5740373
94	0xbee4b212	-0.44667107
95	0xbea607fe	-0.32427973
96	0xbe8d2a3d	-0.27571288
97	0xbf87ee62	-1.0619624
98	0xbf880392	-1.062609
99	0x3e38b100	0.1803627
100	0xbec0be80	-0.3764534
101	0xbc6094ab	-0.01370732
102	0x3f3517b1	0.70739275
103	0xbe2d7efb	-0.1694297
104	0x3e9eebb9	0.31039217
105	0xbbc8f2a2	-0.0061324397
106	0x3e5363eb	0.20643584
107	0x3e88e02c	0.2673353
108	0x3f6bebab	0.92156476
109	0xbf68847c	-0.90827155
110	0xbc8adc5e	-0.016950782
111	0x3e0696e2	0.13143495
112	0xbeb178c8	-0.3466246
113	0xbe8a8864	-0.27057183
114	0xbc925dff	-0.017867086
115	0xbe7babaa	-0.24577203
116	0x3d7a4e7d	0.06111001
117	0x3d82bbf9	0.06383509
118	0xbc698f88	-0.014255412
119	0xbf3915ff	-0.7229919
120	0x3d5c50ee	0.053788118
121	0xbe85b52d	-0.2611479
122	0x3ddfce89	0.10928065
123	0xbd041ddc	-0.03225504
124	0xbce085ca	-0.027407546
125	0x3f216053	0.63037604
126	0xbd2c6899	-0.04209194
127	0xbd9af864	-0.07566908
128	0x3e6986a4	0.22805268
129	0x3d81418d	0.06311331
130	0xbe7e8acc	-0.24857634
131	0xbdc143c4	-0.094367534
132	0x3d6ee92e	0.058327846
133	0x3e6676f0	0.22506309
134	0x3e2c061a	0.16799203
135	0x3ea66d34	0.3250519
136	0xbec3e55c	-0.38260925
137	0xbeddec57	-0.43344375
138	0xbec2c7df	-0.38043115
139	0x3dae855e	0.085215315
140	0x3edc4dfa	0.4302824
141	0xbf8f3127	-1.1186875
142	0x3f3ddd9f	0.7416629
143	0x3ef374c4	0.47550023
144	0x3da5e434	0.08100167
145	0x3f4a50af	0.79029363
146	0x3d31416d	0.043275286
147	0xbefe6859	-0.49688986
148	0xbec399bc	-0.38203228
149	0x3cbd33c0	0.023095965
150	0x3e175baf	0.14781068
151	0xbe4797a5	-0.19491442
152	0x3df9f825	0.12205533
153	0x3e5234d3	0.20527963
154	0xbe85634a	-0.26052314
155	0x3dfbe2ee	0.12299143
156	0x3e26e090	0.16296601
157	0xbf0600df	-0.5234508
158	0xbd217637	-0.03941938
159	0x3db0d2ba	0.08633943
160	0x3ef581c1	0.47950557
161	0xbc35527f	-0.011067032
162	0xbe94ff96	-0.29101247
163	0x3ed0b073	0.4075962
164	0xbf684405	-0.9072879
165	0xbdf4b9e6	-0.1194952
166	0xbf3aa2aa	-0.72904456
167	0xbd164e9a	-0.036696054
168	0xbe9ee517	-0.31034157
169	0xbd723c24	-0.059139386
170	0xbd3a1025	-0.045425553
171	0x3ea2c47e	0.31790537
172	0xbf7a87a4	-0.9786322
173	0x3f220ca7	0.63300556
174	0x3ef8f89f	0.48627183
175	0x3dd69370	0.1047734
176	0xbe90dcca	-0.2829345
177	0x3d886904	0.06660655
178	0x3ed9f52f	0.42569873
179	0xbda1d1e9	-0.07901365
180	0x3dee6c50	0.11641753
181	0xba037d5b	-0.0005015933
182	0xbe873950	-0.26410913
183	0x3ee22cc5	0.4417478
184	0x3e41528e	0.18879148
185	0x3e4091de	0.18805644
186	0xbe756637	-0.23964773
187	0xbe41ddf9	-0.18932332
188	0xbee1d76a	-0.4410966
189	0x3e4fc30e	0.20289251
190	0xbe242852	-0.16031006
191	0x3c8e48cf	0.017368702
192	0x3ef0967f	0.4698982
193	0xbe13818a	-0.14404884
194	0xbec7fab0	-0.39058447
195	0xbe60a8cb	-0.2193939
196	0xbf8be8e4	-1.0930448
197	0xbf32a7cd	-0.69787294
198	0xbd06f7c8	-0.032951146
199	0x3f00063c	0.5000951
200	0xbed5e12d	-0.41773358
201	0xbfa9a6cf	-1.3254031
202	0x3f0ac208	0.5420232
203	0x3e84633d	0.25856963
204	0x3ec836f1	0.39104417
205	0xbdabd941	-0.08391047
206	0xbe5465e1	-0.20741989
207	0x3d27711d	0.040879358
208	0x3e119a61	0.14219047
209	0xbe357779	-0.17721356
210	0xbe6ceff9	-0.23138417
211	0xbf268e1a	-0.6506058
212	0x3ed24d6b	0.4107469
213	0x3cd1a31d	0.025590474
214	0x3da06f93	0.07833781
215	0x3ee49618	0.44645762
216	0x3e461179	0.19342603
217	0xbe04fb17	-0.12986408
218	0x3dfa8641	0.12232638
219	0xbee629ac	-0.44953668
220	0x3f0115bb	0.50423783
221	0x3f4a2b55	0.7897237
222	0xbed61c17	-0.41818306
223	0xbec9b0ae	-0.39392608
224	0x3f2806e5	0.6563552
225	0xbe7e6a19	-0.2484516
226	0xbfbc9615	-1.4733301
227	0x3e574ecc	0.21026152
228	0xbf5e9a20	-0.86953926
229	0xbeb48bed	-0.35263005
230	0xbf30e9d1	-0.69106776
231	0xbea030f1	-0.3128734
232	0xbeb560e7	-0.35425493
233	0xbcfc045e	-0.030763801
234	0xbe5e5bca	-0.21714702
235	0x3e24acb6	0.16081509
236	0xbe123abb	-0.14280216
237	0xbd84c75f	-0.064833395
238	0xbeb0f47c	-0.34561527
239	0xbf3eda52	-0.7455188
240	0x3f8038c4	1.0017323
241	0xbf113441	-0.5672036
242	0x3d658974	0.05603929
243	0x3cbd33b8	0.02309595
244	0x3e9d7960	0.30756664
245	0x3eba530c	0.36391485
246	0x3ed7427e	0.42042917
247	0xbe37170a	-0.17879882
248	0xbf366c7d	-0.7125929
249	0x3f03a5fc	0.5142515
250	0x3dbbc896	0.09169118
251	0xbd3796dd	-0.04482161
252	0x3e2456d3	0.16048746
253	0x3ec1375c	0.37737548
254	0xbe90bd15	-0.28269258
255	0xbf41151c	-0.75422835

network.0.bias f4 [256]
0	0xbe4f86fd	-0.20266338
1	0xbee2badd	-0.4428319
2	0xbe6c5bdf	-0.23081921
3	0xbec4cc12	-0.38436943
4	0x3da48652	0.08033432
5	0xbe476244	-0.19471079
6	0xbea13f7d	-0.3149375
7	0xbeb3d7dc	-0.35125625
8	0xbeb54269	-0.3540223
9	0xbefec90a	-0.49762756
10	0xbeac7d30	-0.3368926
11	0xbeb97877	-0.3622472
12	0xbec9d204	-0.39418042
13	0xbf04918e	-0.517846
14	0xbe8c353f	-0.27384374
15	0xbe910bda	-0.28329355
16	0xbe6f0e7c	-0.23345369
17	0xbe953579	-0.2914236
18	0xbea78b8d	-0.32723656
19	0xbd9c11fc	-0.07620618
20	0xbf5b2574	-0.85604024
21	0xbece315f	-0.40272042
22	0xbe7ed623	-0.24886374
23	0xbf2785bf	-0.65438455
24	0xbece9141	-0.40345195
25	0xbeec58c6	-0.4616148
26	0xbeb6990e	-0.35663646
27	0xbe8cdd70	-0.27512693
28	0xbe88171e	-0.26580137
29	0xbf0b6d67	-0.5446381
30	0xbdd4775e	-0.1037433
31	0xbe8cb8ab	-0.2748464
32	0xbecd31c6	-0.40077037
33	0xbe5e564d	-0.21712609
34	0xbed1e132	-0.40992123
35	0xbeb55887	-0.35419104
36	0xbee30f9e	-0.44347852
37	0xbeb985c5	-0.3623487
38	0xbe162707	-0.14663325
39	0xbedb346e	-0.42813438
40	0xbea4c1e3	-0.32179174
41	0xbf02a713	-0.51036185
42	0xbed4168a	-0.41423446
43	0xbea1fdac	-0.3163885
44	0xbc9d331e	-0.019189414
45	0xbdb621c0	-0.08893156
46	0xbdd55270	-0.10416114
47	0xbee562fe	-0.44802088
48	0xbea81f51	-0.32836393
49	0xbedcdeed	-0.4313883
50	0xbf1a3e73	-0.6025154
51	0xbe681dd0	-0.22667623
52	0xbf5ea319	-0.8696762
53	0xbec242b8	-0.37941527
54	0xbeaba2a9	-0.33522537
55	0xbf0ed59d	-0.557947
56	0xbe46b453	-0.19404726
57	0xbe6e1db2	-0.23253515
58	0xbe90a16b	-0.28248152
59	0xbd7fb19e	-0.06242525
60	0xbf0cac62	-0.54950535
61	0xbed2a31e	-0.41140074
62	0xbeccfa7e	-0.4003486
63	0xbed08de0	-0.40733242
64	0xbe8903c7	-0.26760694
65	0xbe3bfd6f	-0.18358396
66	0xbe9ae999	-0.30256346
67	0xbdb01d51	-0.08599342
68	0xbece8702	-0.40337378
69	0xbe09c2c3	-0.13453202
70	0xbe75fe63	-0.24022822
71	0xbe6bb904	-0.23019797
72	0xbf1ecb4a	-0.62028944
73	0xbf6d35e1	-0.9266034
74	0xbe9368d3	-0.28790912
75	0xbdd2561a	-0.10270329
76	0x3cc94c30	0.024572462
77	0xbeaf4df2	-0.34239155
78	0xbee4b3b6	-0.4466836
79	0xbde46dc4	-0.11153749
80	0xbe5d744d	-0.21626396
81	0xbe604baf	-0.21903871
82	0xbec86b21	-0.39144233
83	0xbf4dbd3b	-0.8036687
84	0xbefabe1a	-0.4897316
85	0xbf007fdd	-0.50195104
86	0xbf38a029	-0.72119385
87	0xbe0faca8	-0.14030707
88	0xbe5215eb	-0.20516174
89	0xbea60881	-0.32428363
90	0xbc8afa60	-0.016965091
91	0xbec849cd	-0.39118806
92	0xbeeb3a8f	-0.45943114
93	0xbdb04a4d	-0.08607922
94	0xbe385ba4	-0.18003708
95	0xbe948a63	-0.2901183
96	0xbeb70e0a	-0.35752898
97	0xbe1851be	-0.14874932
98	0xbe84bc56	-0.2592494
99	0xbf4593df	-0.7717876
100	0xbe68031d	-0.22657438
101	0xbef2bc39	-0.47409227
102	0xbf407f69	-0.7519441
103	0xbe474f2d	-0.19463797
104	0x3c17b7e2	0.00926015
105	0xbed9247e	-0.42410654
106	0xbe9a6bd3	-0.30160388
107	0xbeb92bcb	-0.36166224
108	0xbe507e59	-0.20360698
109	0xbd821552	-0.06351723
110	0xbe8d92f2	-0.27651173
111	0xbedcc661	-0.431201
112	0xbe8da7ba	-0.27667028
113	0xbe782f6c	-0.2423684
114	0xbebe574e	-0.37175983
115	0xbd91b7d7	-0.07115143
116	0x3ee6980a	0.45037872
117	0xbeefcfc0	-0.46838188
118	0xbe4d8d4f	-0.20073436
119	0xbe46e317	-0.19422565
120	0xbe960607	-0.29301473
121	0xbec7116d	-0.38880482
122	0xbe9a0bd3	-0.30087146
123	0xbeff7219	-0.49891737
124	0xbf238d37	-0.6388735
125	0xbf681189	-0.90651757
126	0xbe254859	-0.1614088
127	0xbe35f49f	-0.17769097
128	0xbe13e679	-0.14443387
129	0xbebad61c	-0.36491477
130	0xbf10ca8e	-0.56559074
131	0xbecf9ec0	-0.40550804
132	0xbe99fce2	-0.30075747
133	0xbe2cb983	-0.16867642
134	0xbf01116d	-0.50417215
135	0xbce2d710	-0.02769044
136	0xbf3e846b	-0.74420804
137	0xbeac1d0d	-0.33615914
138	0xbe08f1ef	-0.1337354
139	0xbe7ea045	-0.24865825
140	0xbea73c0a	-0.32662994
141	0xbecbdee9	-0.39818504
142	0xbe27337d	-0.16328235
143	0xbe8db816	-0.2767951
144	0xbe29d60a	-0.16585556
145	0xbeb87105	-0.36023727
146	0xbe0b9408	-0.13630688
147	0xbf32938a	-0.69756377
148	0xbe57c439	-0.21070947
149	0xbec1f370	-0.3788104
150	0xbe8b101f	-0.27160737
151	0xbe90b44b	-0.28262553
152	0xbe56ed9b	-0.20989077
153	0xbeb6288f	-0.3557782
154	0xbec0ed53	-0.37681064
155	0xbea5141d	-0.32241908
156	0xbea6310d	-0.32459298
157	0xbe892332	-0.26784664
158	0xbe7ae787	-0.24502383
159	0xbe8c4fef	-0.27404734
160	0xbdf960ff	-0.12176704
161	0xbf07a3d4	-0.52984357
162	0xbf1ab233	-0.6042816
163	0xbe141304	-0.14460379
164	0xbed9a4bf	-0.42508504
165	0xbc39561c	-0.011312034
166	0xbeea0cbe	-0.45712847
167	0xbf10df26	-0.565905
168	0xbe97ad7e	-0.29624552
169	0xbef30ac0	-0.4746914
170	0xbdc2440a	-0.09485634
171	0xbe5436f9	-0.20724095
172	0xbf7673cc	-0.9627044
173	0xbeb6a042	-0.35669142
174	0xbee5f3cd	-0.44912568
175	0x3db37623	0.08762767
176	0xbec84fac	-0.39123285
177	0xbec68e83	-0.38780603
178	0xbe9b566b	-0.3033937
179	0x3e836c72	0.25668675
180	0xbebe1dae	-0.3713202
181	0xbe17a5ff	-0.14809416
182	0xbe398fb9	-0.18121232
183	0xbdf955b4	-0.1217455
184	0xbea3a6d4	-0.31963217
185	0xbe90ff55	-0.28319803
186	0xbe406e09	-0.18791975
187	0xbf0c5971	-0.54823977
188	0xbd9da349	-0.0769716
189	0xbe678a5a	-0.2261137
190	0xbe93346b	-0.2875093
191	0xbecda1d7	-0.40162537
192	0xbe729d29	-0.23692764
193	0xbe4086d2	-0.1880143
194	0xbecfe1d5	-0.40601984
195	0xbf65ab1e	-0.8971423
196	0xbe82fe59	-0.25584677
197	0xbea8d927	-0.32978174
198	0xbf06b94f	-0.5262651
199	0xbf1151da	-0.5676552
200	0xbe491765	-0.1963783
201	0xbe5b7707	-0.21432124
202	0xbe6c9239	-0.23102655
203	0xbf6b654e	-0.91951454
204	0xbf06ec25	-0.5270408
205	0xbe915415	-0.28384462
206	0xbea6c831	-0.3257461
207	0xbf27f0a5	-0.6560157
208	0xbeb84355	-0.3598887
209	0xbec9c270	-0.39406157
210	0xbebd32aa	-0.36952716
211	0xbecb48ec	-0.39704072
212	0xbeed563d	-0.46354857
213	0xbeae726a	-0.34071666
214	0xbf027f49	-0.5097547
215	0xbedffef1	-0.43749192
216	0xbef4639f	-0.47732255
217	0xbf0fc3ab	-0.5615794
218	0xbe495aa5	-0.19663484
219	0xbd2ced5e	-0.04221856
220	0xbe2bc1c9	-0.16773142
221	0xbeab9ba8	-0.33517194
222	0xbe8c10f9	-0.273567
223	0xbe98418e	-0.29737514
224	0xbd7ffda7	-0.06249776
225	0xbe503f3d	-0.20336623
226	0xbe90862e	-0.2822737
227	0xbe6f43e2	-0.23365739
228	0xbde54ee9	-0.111966915
229	0xbf38a83a	-0.72131693
230	0xbe03d72b	-0.12875049
231	0xbeac33a1	-0.3363314
232	0xbe1f21f3	-0.15540294
233	0xbe86c377	-0.26321003
234	0xbebb1c25	-0.3654491
235	0xbe836b98	-0.25668025
236	0xbe263336	-0.16230473
237	0xbf033eb7	-0.5126757
238	0xbe7f71cb	-0.24945752
239	0xbeb41277	-0.35170338
240	0xbee17bea	-0.4403985
241	0xbed77cd0	-0.42087412
242	0xbe2fcdc1	-0.17168333
243	0xbe361293	-0.17780523
244	0xbf0978f8	-0.5370021
245	0x3cb937e3	0.022609657
246	0xbf3ced51	-0.73799616
247	0xbe3fef94	-0.18743736
248	0xbef83210	-0.48475695
249	0xbf0704e0	-0.52741814
250	0xbeb5ea4e	-0.35530323
251	0xbe9de5ba	-0.3083933
252	0xbe842096	-0.2580611
253	0xbec13878	-0.37738395
254	0xbeb21f09	-0.34789303
255	0xbf1d85c7	-0.61532253

network.3.weight f4 [64, 256]
0	0x3de31c14	0.1108934
1	0xbda4e648	-0.08051735
2	0x3e1076a3	0.14107756
3	0x3e988e4f	0.29796073
4	0xbf19124e	-0.59793556
5	0x3e0f7848	0.14010727
6	0x3eb0ab0b	0.34505495
7	0x3e45fda3	0.19335036
8	0xbdbd2fc7	-0.092376284
9	0x3db1d821	0.086838014
10	0x3dd05d2d	0.10174022
11	0x3ecbab2c	0.3977903
12	0xbee51f1a	-0.4475029
13	0x3f52d3bb	0.82354325
14	0xbe22d760	-0.15902472
15	0xbe6ce700	-0.23134995
16	0xbf0c5c4b	-0.5482833
17	0xbf1df7ca	-0.6170622
18	0x3e8f6944	0.2801
19	0x3e65955d	0.22420259
20	0x3f134a2f	0.5753507
21	0x3e834192	0.25635964
22	0x3d811f77	0.063048296
23	0x3edf84fc	0.43656147
24	0x3e1927cf	0.14956592
25	0x3ca7f2ae	0.02050146
26	0xbed10942	-0.40827376
27	0xbe33a39d	-0.17542882
28	0xbe738536	-0.23781285
29	0x3db4e48e	0.08832656
30	0xbcfe4b9d	-0.031041915
31	0xbeb8cef5	-0.36095396
32	0x3dc2f78d	0.09519873
33	0x3e65c05d	0.22436662
34	0x3db73d43	0.089472316
35	0xbdb3b24b	-0.08774241
36	0x39efa684	0.00045709696
37	0xbe73f8aa	-0.23825327
38	0x3e873442	0.26407057
39	0xbe29bb2b	-0.16575305
40	0x3da7c828	0.08192474
41	0x3eb68608	0.35649133
42	0x3cd441a9	0.025910215
43	0x3d598c81	0.05311251
44	0x3e34ec33	0.17668228
45	0x3d0f0429	0.034916077
46	0x3e2adaa5	0.16684969
47	0x3d7fb25c	0.062425956
48	0xbe2253cb	-0.15852277
49	0xbd59b852	-0.053154297
50	0x3e14d855	0.14535649
51	0x3c2482f7	0.01004099
52	0x3f92e652	1.1476538
53	0xbe81228f	-0.2522168
54	0x3e81505b	0.2525662
55	0xbeb7203c	-0.3576678
56	0xbe78d1e1	-0.24298812
57	0xbd334cfb	-0.043774586
58	0xbe376c81	-0.17912485
59	0x3d5e68fa	0.054299332
60	0x3d539e50	0.05166465
61	0x3df4a7b8	0.11946052
62	0xbe428d31	-0.18999173
63	0xbe8ac69c	-0.27104652
64	0xbc563833	-0.013074922
65	0x3e7e9676	0.24862084
66	0xbe3b7782	-0.18307307
67	0xbdd271f1	-0.10275639
68	0x3e9ff329	0.31240204
69	0x3e07dd34	0.13267976
70	0xbd9fdc41	-0.07805682
71	0x3e248e50	0.16069913
72	0xbecac6e0	-0.39604855
73	0x3f0abe83	0.5419695
74	0xbe611396	-0.21980128
75	0x3e43e64c	0.1913082
76	0xbc3a966f	-0.011388405
77	0x3c7d0fcf	0.015445664
78	0x3dfb352d	0.12266002
79	0xbe8043a4	-0.25051606
80	0x3e17696d	0.1478631
81	0xbe79e83a	-0.24404994
82	0xbea69a37	-0.32539532
83	0x3dfb9177	0.122836046
84	0xbeec3ebf	-0.4614162
85	0x3d90f313	0.07077613
86	0xbda59552	-0.08085121
87	0xbd866434	-0.06562081
88	0x3de8cdb7	0.11367362
89	0xbe5a8bf1	-0.21342446
90	0x3eb5a462	0.35476977
91	0x3e8afcc0	0.27145958
92	0xbe4be4cb	-0.19911496
93	0x3e2b3428	0.16719115
94	0x3e95dd86	0.2927057
95	0x3e72c187	0.23706637
96	0x3d5c3c72	0.053768583
97	0x3e316692	0.17324284
98	0x3dbe2b64	0.0928562
99	0x3ec9499f	0.3931398
100	0x3d106289	0.03525022
101	0xbde48e09	-0.111599036
102	0x3f800675	1.000197
103	0x3e6e6f37	0.23284613
104	0x3e83c413	0.2573553
105	0xbdcd423d	-0.100223996
106	0xbda0ed0e	-0.078577146
107	0x3d9c1e6c	0.0762299
108	0x3ea19b17	0.31563637
109	0xbf09018f	-0.53518003
110	0x3e3d0250	0.18457913
111	0x3ea22d06	0.31674975
112	0xbe1cb54d	-0.15303536
113	0xbe9f3391	-0.3109403
114	0x3e431bcd	0.19053574
115	0x3c85588d	0.016277576
116	0xbf9d44db	-1.2286638
117	0xbef64f27	-0.48107263
118	0x3df37478	0.11887449
119	0x3d017cec	0.031613275
120	0xbe3d253a	-0.18471232
121	0xbeb2067d	-0.34770575
122	0xbdb0863c	-0.08619353
123	0x3e007b4e	0.12547037
124	0x3e411708	0.18856442
125	0x3f299ae4	0.6625197
126	0xbd78977e	-0.06069135
127	0xbd861e36	-0.06548731
128	0xbec6b8df	-0.3881292
129	0x3db26b22	0.0871184
130	0xbda9d5a0	-0.08292699
131	0xbabb56ac	-0.0014292798
132	0x3ec1c521	0.3784571
133	0x3e17f78d	0.14840527
134	0x3d90a764	0.07063177
135	0x3d1bcde6	0.038038157
136	0x3e35ee4c	0.17766684
137	0x3e295776	0.1653727
138	0xbe39ead2	-0.18155983
139	0xbe751e5a	-0.2393736
140	0xbe161ba9	-0.14658989
141	0xbe1c3be7	-0.15257226
142	0xbecf1176	-0.4044301
143	0xbef67101	-0.4813309
144	0x3c3e5a25	0.011618172
145	0x3e323318	0.17402303
146	0x3e01495a	0.12625638
147	0x3f877c9d	1.0584904
148	0x3daa07ac	0.083022445
149	0xbdc882f1	-0.097906
150	0xbd98c06f	-0.07458579
151	0x3ee62ddf	0.44956872
152	0x3df3a73b	0.11897131
153	0x3d9c1bf7	0.07622521
154	0x3ca4fe6e	0.020140853
155	0x3dc8583e	0.09782456
156	0xbe1b6a4a	-0.15177265
157	0xbd33c0ac	-0.043884918
158	0x3ec569da	0.3855732
159	0xbf0310a0	-0.5119724
160	0x3e53a0a8	0.20666754
161	0x3db5be44	0.08874181
162	0x3d955d5f	0.072932
163	0x3d49547e	0.049152844
164	0xbe732ef9	-0.23748387
165	0x3dee50d2	0.11636509
166	0x3d5b4a02	0.053537376
167	0x3e788090	0.24267793
168	0x3e5ea6ab	0.21743266
169	0xbe8dd42e	-0.27700943
170	0xbdb1b440	-0.08676958
171	0x3eeb73b5	0.45986715
172	0x3f8561e8	1.0420504
173	0xbe0a40e6	-0.1350132
174	0x3e6a49a5	0.22879656
175	0xbe95cf38	-0.29259658
176	0x3db46f27	0.08810263
177	0x3dee8beb	0.11647781
178	0x3dbed66d	0.09318242
179	0xbf798789	-0.97472435
180	0x3e76314f	0.24042247
181	0x3d85e13b	0.065371
182	0x3e847188	0.25867867
183	0x3e217677	0.15767847
184	0x3d33da48	0.04390934
185	0x3e853ea4	0.26024354
186	0x3eb187e1	0.3467398
187	0x3c63e3ac	0.013909262
188	0x3db35a37	0.087574415
189	0x3e01924a	0.12653461
190	0x3d76964e	0.060201935
191	0xbd7504af	-0.05981892
192	0x3d2dcfbc	0.04243444
193	0x3e93e778	0.28887534
194	0x3f1984dc	0.5996835
195	0x3f65d314	0.89775205
196	0x3e34a544	0.17641169
197	0x3eae7717	0.34075233
198	0x3ebd89f8	0.37019324
199	0x3e63e783	0.22256283
200	0x3d00516d	0.031327654
201	0x3dc55c8a	0.09636791
202	0x3e86c758	0.26323962
203	0x3fa51cf2	1.2899458
204	0xbdc23d02	-0.094842926
205	0x3caf55d8	0.021403238
206	0xbdb24fb0	-0.087066054
207	0x3de021e8	0.10943967
208	0x3e5b8af5	0.21439727
209	0xbe163262	-0.14667657
210	0x3e8f5b5c	0.2799939
211	0x3ea6f9a5	0.3261234
212	0xbe82d7bb	-0.25555214
213	0x3cd41dfe	0.025893208
214	0x3d64018c	0.055665538
215	0xbe82be31	-0.2553573
216	0x3e4e8470	0.20167708
217	0xbbd7fb72	-0.006591254
218	0xbd2ffc15	-0.042965014
219	0xbcb4b158	-0.02205722
220	0x3eaaa4a2	0.3332873
221	0x3ec6b228	0.38807797
222	0x3e34b0cf	0.17645572
223	0xbeacab2a	-0.33724338
224	0xbde5ffbf	-0.1123042
225	0xbd3f2bb9	-0.046672557
226	0x3c145059	0.0090523595
227	0x3dddb9ee	0.10826479
228	0xbd151a39	-0.03640196
229	0x3da049a6	0.07826547
230	0x3e07fa5e	0.13279101
231	0xbe6ea0f7	-0.2330359
232	0x3db1c42a	0.086799935
233	0x3ee710e5	0.45130077
234	0xbe432650	-0.19057584
235	0xbe6b3ab2	-0.22971609
236	0xbec6c113	-0.3881918
237	0x3e9b61c5	0.3034803
238	0xbe130b41	-0.14359762
239	0x3e03b35d	0.1286139
240	0xbf0a65f3	-0.5406181
241	0x3eea963c	0.45817745
242	0xbe15404c	-0.14575309
243	0x3e2bd851	0.16781737
244	0x3c7f9fb0	0.015602037
245	0xbe79bc3f	-0.24388216
246	0x3ef7c7d2	0.48394638
247	0x3e369af7	0.17832552
248	0xbea4b5f4	-0.3217007
249	0xbe87017f	-0.2636833
250	0x3e22efc8	0.15911782
251	0x3e9cd92b	0.30634436
252	0x3d8f7cf1	0.070062526
253	0x3f0fe08e	0.5620202
254	0xbea65371	-0.32485536
255	0xbd991540	-0.07474756

network.3.bias f4 [64]
0	0xbff11c8e	-1.8836839
1	0x3f3c2de5	0.7350753
2	0x3f636d6d	0.88838845
3	0xbf09e1e0	-0.5386028
4	0x3eb15ba1	0.3464022
5	0x3e8a31c0	0.2699108
6	0xbf8022cb	-1.0010618
7	0xbeef08f2	-0.46686512
8	0x3e610637	0.21975027
9	0xbf48f983	-0.78505725
10	0x3efc57ba	0.4928568
11	0x3f832f0e	1.0248735
12	0xbe077786	-0.13229188
13	0xbf393e0a	-0.7236029
14	0x3f3c2ddd	0.7350748
15	0x3e19d226	0.15021572
16	0xbe953235	-0.29139867
17	0xbf132183	-0.5747301
18	0xbf077e92	-0.52927506
19	0x3f2dd973	0.67909926
20	0x3d860d71	0.065455325
21	0x3f25d2a5	0.64774543
22	0xbc26695b	-0.010156955
23	0xbfa4c488	-1.2872477
24	0xbfd8a350	-1.6924839
25	0xbe582fd4	-0.21111995
26	0xbf29a0ac	-0.6626079
27	0xbeb66ad9	-0.35628393
28	0x3f1dda6c	0.6166141
29	0xbfb89337	-1.4419926
30	0x3f5c265d	0.8599604
31	0xbf81c29a	-1.0137513
32	0xbd199f99	-0.03750572
33	0xbd9e5bba	-0.07732339
34	0xbf116bdd	-0.5680521
35	0xbfb876e2	-1.441128
36	0xbf19d48b	-0.6008994
37	0xbebb229c	-0.36549842
38	0xbf20c11f	-0.6279468
39	0xbf3cd64f	-0.7376451
40	0x3e5c282a	0.21499696
41	0x3f5db257	0.8660025
42	0x3f470563	0.77742594
43	0x3ee0ca19	0.43904188
44	0xbfc63fdc	-1.5488238
45	0xbea4bde1	-0.32176116
46	0x3eac744a	0.33682472
47	0xbf860d61	-1.0472833
48	0xbe97610b	-0.29566225
49	0x3f046300	0.5171356
50	0x3ee42eb1	0.44566873
51	0xbfd9bb57	-1.7010297
52	0xbe424976	-0.18973336
53	0xbf996ca2	-1.1986277
54	0xbe56b460	-0.20967245
55	0xbf100768	-0.562613
56	0x3f267aa6	0.65030897
57	0xbf5d5d93	-0.8647091
58	0xbedabfb1	-0.42724374
59	0xbf11416d	-0.56740457
60	0x3e113ce4	0.14183384
61	0x3e3f3deb	0.18675964
62	0x3f550e1f	0.8322467
63	0xbf258c0d	-0.64666826

network.5.weight f4 [32, 64]
0	0x3dd8fe1f	0.10595345
1	0xbda1c9a9	-0.07899792
2	0x3dbd1963	0.09233358
3	0xbf42fabb	-0.76163834
4	0xbec0f191	-0.376843
5	0x3e277042	0.16351417
6	0xbe91e7bb	-0.2849711
7	0xbec7f8bd	-0.3905696
8	0xbf2f4bc1	-0.68474966
9	0x3f2f658a	0.6851431
10	0x3ee64fc4	0.4498273
11	0xbda95cb9	-0.082696386
12	0xbea20281	-0.31642535
13	0xbf0c8d00	-0.5490265
14	0xbdefab5d	-0.11702607
15	0xbeebbfe0	-0.46044827
16	0x3e6cdf21	0.23131992
17	0x3fc73f52	1.5566199
18	0xbd9b6556	-0.07587688
19	0xbe0034ba	-0.12520114
20	0xbe410714	-0.18850356
21	0xbece3eaa	-0.40282184
22	0xbe9ce7ce	-0.30645603
23	0xbda61e31	-0.08111227
24	0xbd276b15	-0.040873606
25	0x3f2d11bf	0.67605203
26	0xbe730a9a	-0.23734513
27	0xbeae84bc	-0.34085643
28	0x3e713e99	0.23559035
29	0x3e713ece	0.23559114
30	0xbe220b34	-0.15824586
31	0x3f0fb9f7	0.56143135
32	0x3e1037cf	0.1408379
33	0xbd15888d	-0.036507178
34	0x3dd7b9f5	0.10533515
35	0x3e67a1fd	0.22620387
36	0xbb2f89f8	-0.0026785117
37	0x3e3e0d9f	0.18559884
38	0x3ede20ce	0.43384403
39	0x3d93efd7	0.0722348
40	0xbeedcf1f	-0.46447083
41	0x3ed41f8c	0.41430318
42	0xbf23752e	-0.63850677
43	0x3e1c2e6d	0.15252085
44	0x3ef26afe	0.47347254
45	0xbe0cb2b1	-0.1374004
46	0x3da15420	0.07877374
47	0xbdb0a442	-0.0862508
48	0x3dae3c43	0.08507588
49	0x3e110151	0.14160658
50	0xbe128f9d	-0.14312597
51	0x3dbbe26a	0.091740444
52	0xbe552163	-0.20813517
53	0x3ef4b401	0.47793582
54	0x3edcd802	0.4313355
55	0xbcc364d9	-0.023851799
56	0xbf57d17f	-0.8430404
57	0xbd9120c0	-0.07086325
58	0x3e80a28f	0.25124022
59	0x3ca14408	0.01968576
60	0x3dd361b1	0.103213675
61	0xbeaf0a39	-0.34187487
62	0xbef5e272	-0.48024327
63	0xbdfe95f1	-0.12430943
64	0xbeac57b5	-0.33660665
65	0x3e5e45c7	0.21706305
66	0x3e126437	0.14296041
67	0x3ea06898	0.313298
68	0x3ef275b0	0.47355413
69	0x3e0ce14b	0.13757817
70	0xbe6b8d56	-0.23003134
71	0xbd28f261	-0.041246776
72	0x3e27ab81	0.16374017
73	0xbf442c6c	-0.7663028
74	0x3d3f70d2	0.046738453
75	0xbe8b4164	-0.27198327
76	0xbe69c5c8	-0.22829354
77	0x3ed2fe32	0.4120956
78	0x3dedd4a8	0.116128266
79	0x3e46b113	0.19403486
80	0x3d4f2725	0.05057444
81	0x3e57e2b2	0.21082571
82	0x3e357efb	0.1772422
83	0x3db2731d	0.08713362
84	0xbf106585	-0.56404907
85	0xbd73e0cb	-0.05954055
86	0x3eee21fa	0.46510297
87	0x3e286952	0.16446427
88	0x3e8d1698	0.275563
89	0xbf00af2d	-0.502673
90	0xba4d2e22	-0.0007827004
91	0xbe8c067b	-0.27348694
92	0xbec381a9	-0.3818486
93	0xbed89a10	-0.4230504
94	0xbec00ba0	-0.3750887
95	0xbe1c0507	-0.15236293
96	0xbf07b143	-0.53004855
97	0xbf4147a5	-0.75499946
98	0x3e8bb296	0.27284688
99	0xbee5d8c3	-0.4489194
100	0x3f55da60	0.8353634
101	0x3f503bc4	0.81341195
102	0xbd1aeea6	-0.03782525
103	0xbdde7f8b	-0.10864171
104	0xbdf9f8cd	-0.12205658
105	0xbcfa90ee	-0.030586686
106	0xbeb0ae2e	-0.3450789
107	0xbe8fd271	-0.28090242
108	0x3f5b972d	0.8577755
109	0x3f471d97	0.77779526
110	0x3c9ef25b	0.019402673
111	0x3d8dc278	0.069218576
112	0x3e7f2b0b	0.24918763
113	0x3f258d0b	0.6466834
114	0x3ea277cb	0.3173202
115	0x3e9839ac	0.297315
116	0xbed35e87	-0.41283056
117	0xbd0d248e	-0.03445869
118	0xbecbcc6f	-0.39804408
119	0xbd23c5b5	-0.03998347
120	0x3e49817c	0.196783
121	0xbece332d	-0.4027342
122	0x3d0e2a06	0.034708045
123	0xbe34f0c8	-0.17669976
124	0xbcb5640c	-0.022142433
125	0xbe741fb1	-0.23840214
126	0xbc2a8a75	-0.010408987
127	0x3c50a9fc	0.01273584
128	0xbef0627d	-0.4695014
129	0x3dddd96a	0.10832484
130	0x3e82ec45	0.25570884
131	0xbe60abfd	-0.21940608
132	0x3e411ce2	0.18858674
133	0x3e24e913	0.16104536
134	0xbe1ce756	-0.15322623
135	0x3e19e0be	0.15027139
136	0x3dc86a13	0.09785857
137	0x3e7e57ca	0.24838176
138	0xbc3acdfa	-0.011401648
139	0xbd85ad00	-0.06527138
140	0xbe822c64	-0.25424492
141	0x3e71a571	0.23598267
142	0xbd56e773	-0.05246682
143	0xbe163529	-0.14668716
144	0x3e51d8a5	0.204928
145	0xbef9a024	-0.4875499
146	0x3d49d656	0.049276672
147	0x3ec8cb15	0.3921744
148	0x3d2aae45	0.041670103
149	0x3e2bff63	0.16796641
150	0x3d7fbe2e	0.06243723
151	0xbf511ffe	-0.8168944
152	0x3e8d1aaa	0.27559406
153	0xbeb895d4	-0.3605181
154	0xbec7ab65	-0.3899795
155	0xbef8be2b	-0.48582587
156	0x3dc836aa	0.09776051
157	0x3e0995e0	0.13436079
158	0xbe285a3a	-0.16440669
159	0xbe946987	-0.2898676
160	0xbe90ea39	-0.28303698
161	0x3e84917f	0.25892255
162	0x3e09bb5b	0.13450377
163	0x3ee77b55	0.45211282
164	0x3d8619bb	0.065478764
165	0x3e8dd0c2	0.27698332
166	0x3f2cd19d	0.67507344
167	0xbdf2cc38	-0.11855358
168	0x3d026d86	0.03184273
169	0x3db17ae7	0.0866602
170	0x3c857b2b	0.016294083
171	0xbe424334	-0.18970948
172	0x3e15bdbf	0.14623164
173	0x3f20d9eb	0.62832516
174	0x3e2854a0	0.16438532
175	0xbe13251e	-0.14369628
176	0xbf24a69e	-0.6431674
177	0xbea80476	-0.32815903
178	0xbe68a936	-0.22720799
179	0x3ec3d6e4	0.38249886
180	0x3d9ad563	0.075602315
181	0xbe8255c0	-0.25456047
182	0x3e41689a	0.18887559
183	0xbdd9bb9c	-0.10631487
184	0xbf1178bd	-0.56824857
185	0xbe71dd7f	-0.2361965
186	0x3e530119	0.20605887
187	0xbe93cf28	-0.28868985
188	0xbd34ead2	-0.044169255
189	0x3e544ce9	0.20732464
190	0xbed37720	-0.41301823
191	0xbeb2268f	-0.34795043
192	0xbdf576d7	-0.119855575
193	0xbec00f80	-0.37511826
194	0x3eb3af75	0.350948
195	0xbe356605	-0.17714699
196	0x3c224ec8	0.009906478
197	0xbeb610f8	-0.3555982
198	0xbe60386f	-0.21896528
199	0x3f516af4	0.8180382
200	0xbe320e16	-0.17388186
201	0x3d0f7a6b	0.035028856
202	0x3ecf6789	0.4050868
203	0xbddb78cb	-0.10716399
204	0xbdbc4f51	-0.09194816
205	0x3f070546	0.5274242
206	0x3e4deb11	0.20109202
207	0xbecc8230	-0.39943075
208	0x3cd69e10	0.026198417
209	0xbad29430	-0.0016065892
210	0x3ee7afae	0.4525122
211	0x3ec6da91	0.38838628
212	0x3e4f815c	0.2026419
213	0x3edfe880	0.4373207
214	0xbe7378ea	-0.23776594
215	0xbe814ada	-0.2525242
216	0x3dede607	0.1161614
217	0xbf1a9a52	-0.60391724
218	0xbebee93f	-0.37287328
219	0x3e99b116	0.30017918
220	0x3dac7f06	0.08422665
221	0x3f78d162	0.9719449
222	0x3f0b6d3d	0.5446356
223	0x3d9ff7c6	0.07810931
224	0xbed50c01	-0.4161072
225	0x3e57f1ab	0.21088283
226	0xbe800d4e	-0.2501015
227	0x3eb25728	0.3483212
228	0xbe9c8495	-0.30569902
229	0xbe5e7c6b	-0.21727149
230	0x3e1dae57	0.15398537
231	0x3d2b9ea5	0.041899342
232	0xbdb2d3e6	-0.08731823
233	0x3ca0e88c	0.019642137
234	0x3e0d6094	0.13806373
235	0xbdb030dc	-0.08603069
236	0xbcb8f9c1	-0.02258003
237	0x3ee7f9eb	0.4530786
238	0xbd64f85e	-0.055900924
239	0xbd7933bc	-0.060840353
240	0x3e9ed3ac	0.31020868
241	0x3c86fcb3	0.016477918
242	0x3e47b5df	0.19502972
243	0xbeee19b4	-0.46503985
244	0x3e0195bd	0.12654777
245	0x3e22cbf9	0.15898122
246	0xbf085db1	-0.5326796
247	0x3e88361c	0.26603782
248	0x3eaf16f5	0.34197202
249	0x3d96acbd	0.07357166
250	0xbd965079	-0.07339568
251	0xbecfa421	-0.40554908
252	0xbe0d17e3	-0.13778643
253	0x3da90d87	0.08254533
254	0xbbbbf636	-0.0057361377
255	0x3c16b39a	0.009198094

network.5.bias f4 [32]
0	0x3ee7587b	0.45184693
1	0x3f793818	0.9735122
2	0x3f864883	1.0490879
3	0x3f3886fe	0.7208098
4	0x3ea84240	0.32863045
5	0xbd31279f	-0.043250676
6	0xbe6227ca	-0.22085491
7	0x3fcee54e	1.6163728
8	0x3e2ac814	0.16677886
9	0xbf6ec187	-0.9326405
10	0xbe02990b	-0.12753694
11	0xc01edbf1	-2.4821742
12	0x3f692e36	0.9108614
13	0xbe3e9728	-0.18612349
14	0x3c913cab	0.017729124
15	0x3de223e3	0.11042001
16	0xbe1395c3	-0.14412598
17	0x3f98ffa6	1.1953018
18	0xbf4c0aab	-0.7970378
19	0xbf9fd616	-1.2487209
20	0xbfa091f0	-1.2544537
21	0x3f8b47e4	1.0881314
22	0xc0079616	-2.1185355
23	0xbf1afa78	-0.60538435
24	0x3fb623ff	1.4229735
25	0x3e94546c	0.2897066
26	0x3f860efd	1.0473324
27	0xbdd2d78e	-0.1029502
28	0x3fb5ca57	1.4202374
29	0x3f943522	1.1578715
30	0x3fbf0100	1.492218
31	0x3fc0cb92	1.5062125

network.7.weight f4 [1, 32]
0	0x3d5b9b7d	0.053615082
1	0x3d3346b3	0.043768596
2	0xbd2a1f89	-0.04153398
3	0xbd92110c	-0.07132158
4	0x3d8b91ab	0.06814893
5	0x3e042a3a	0.12906733
6	0x3e0b7f48	0.13622773
7	0x3d4ece9e	0.050490014
8	0xbedf7972	-0.43647343
9	0xbd1e64c7	-0.038670328
10	0x3da743ca	0.081672266
11	0x3d90d4d1	0.070718415
12	0x3dafd828	0.085861504
13	0xbde6c107	-0.11267286
14	0x3ea0c84f	0.31402823
15	0x3d3b5328	0.0457336
16	0x3d89023e	0.06689881
17	0xbd258b9a	-0.040416338
18	0xbdb1a039	-0.08673138
19	0x3d34873e	0.04407429
20	0x3ec1de75	0.37865034
21	0x3d9f2604	0.07770923
22	0xbddc34c0	-0.10752249
23	0x3d694e88	0.05695966
24	0xbd9a7341	-0.07541514
25	0x3ce2c6be	0.027682658
26	0x3d98d489	0.07462413
27	0xbe0c61d3	-0.13709192
28	0xbdb51228	-0.08841354
29	0x3d9a0e80	0.07522297
30	0x3d74b00b	0.0597382
31	0xbd63f818	-0.055656523
